Cheyi Wu/Garch/GRU-Garch/IBM/gru_garch_model.pth (torch, 159448 bytes, 9 tensors)

gru.weight_ih_l0 f4 [192, 7]
0.11969898 0.11921796 -0.018532166 0.4832704 -0.017386107 0.21203236 -0.053575546 0.15687077
0.16958517 -0.04861742 0.07555361 0.118027315 0.14520533 0.11117645 0.073316 0.0093207
0.11663704 0.020899942 -0.17284821 0.046383604 -0.03570112 0.04500999 0.0037745805 0.13441466
-0.19503413 -0.035148624 0.213754 -0.01625697 0.12506527 0.2836453 0.4642123 0.044734247
0.53643227 0.113023944 0.10155066 0.0015105904 -0.027476557 0.020294342 0.056433216 -0.07205204
0.08756612 -0.11611387 0.06700333 0.12602882 0.12940577 -0.29097795 0.14791296 0.22011822
0.08450352 -0.16562323 -0.19545524 -0.09472724 -7.077468e-05 0.2490647 0.044649024 0.018783806
0.027964259 -0.0062058265 0.13002029 -0.1293016 -0.17445675 -0.02316167 0.07324385 -0.07727287
0.004881917 0.003883275 0.24667053 -0.40238762 0.044621587 -0.121598825 0.09561115 0.040038258
0.1632332 -0.1952087 -0.4882768 -0.14730722 -0.058365557 0.01797575 0.08357457 0.12761647
-0.18193315 0.13687165 0.22457315 0.0116264215 0.11072976 -0.056916118 0.09504543 -0.15971053
0.29204413 0.029525764 -0.006448207 -0.150512 -0.013865848 0.15079105 0.029887538 0.1857523
0.11632676 0.108508795 -0.30086634 -0.3440422 -0.30989972 0.22392273 0.031072812 -0.083050035
-0.2362216 -0.12858789 -0.15449785 -0.060985412 -0.093699455 0.03361852 0.31298697 -0.019208606
0.061263647 -0.111739494 -0.1188407 0.07722122 -0.015246724 -0.04860749 -0.10810323 -0.16472387
-0.08959127 -0.13129564 0.15545012 -0.08132502 -0.1684178 -0.18203488 -0.07898875 -0.13956882
0.05618261 0.03356336 0.14565359 0.12335704 -0.1533179 -0.11387058 -0.19688244 -0.120909564
-0.09072943 0.016656868 0.17230731 -0.20994991 0.020697152 -0.13676636 0.053661507 -0.10355168
-0.039972432 0.068375826 0.0051231673 0.10655177 0.13579877 -0.029466853 -0.009996368 -0.060444668
-0.15602708 -0.06106025 0.15023616 -0.02377485 0.06536947 -0.004475369 0.24224465 -0.20111074
0.11370111 0.09816956 0.07495143 -0.025637174 0.072295025 -0.043113783 0.0847272 0.19846086
0.1016382 -0.093050204 -0.10717331 -0.11891625 0.11098932 0.058914468 -0.11944951 -0.023012994
-0.0635565 0.10194385 -0.03197237 -0.18910238 0.0063802255 0.109743945 0.015371879 -0.0025445216
0.045925997 0.15383837 -0.056645893 -0.103142016 -0.0024388433 0.020806469 0.02158567 0.029034434
0.08283202 0.1369423 -0.007052331 0.06294632 -0.011343991 0.06720202 0.0636328 -0.21716772
-0.1479057 0.04463965 0.20740986 0.017830396 -0.05224964 -0.070180535 -0.24519031 -0.19180903
0.07040081 -0.04614852 0.10598668 0.051677834 -0.10107828 -0.136017 0.006248024 0.25488985
0.04836266 -0.040502045 0.06607603 -0.014269178 -0.08900358 0.13959959 0.013381457 -0.06690179
-0.22162755 0.0033404822 0.037780326 0.019565506 -0.1288579 -0.21304385 -0.18769899 0.1529184
0.14356078 0.21457595 0.0751713 0.1742016 0.0290478 0.015105586 -0.10815657 -0.089876875
0.09492413 -0.063665405 0.03659103 -0.023347043 0.010165505 -0.114495076 -0.11951018 0.04747087
-0.14818406 -0.09599909 -0.0930189 -0.17839998 -0.05913965 -0.070576556 -0.008419907 -0.06855951
00000000: bd24 f53d 8c28 f43d c5d0 97bc 386f f73e
00000010: 4f6d 8ebc 031f 593e 0872 5bbd bba2 203e
00000020: bca7 2d3e 0f23 47bd dabb 9a3d 4eb8 f13d
00000030: b5b0 143e 7bb0 e33d b326 963d d9b5 183c
00000040: 67df ee3d 5b36 ab3c 1fff 30be bcfc 3d3d
00000050: 563b 12bd 655c 383d f45e 773b ffa3 093e
00000060: 07b7 47be 01f8 0fbd 54e2 5a3e 562d 85bc
00000070: 1c11 003e f539 913e 3cad ed3e 423b 373d
00000080: a053 093f 1979 e73d cbf9 cf3d 01ff c53a
00000090: 8416 e1bc 5240 a63c 8426 673d 0590 93bd
000000a0: de55 b33d 1ccd edbd 0b39 893d b30d 013e
000000b0: f282 043e 10fb 94be 7f76 173e ac66 613e
000000c0: 2e10 ad3d 2399 29be 6b25 48be 5b00 c2bd
000000d0: de6c 94b8 d10a 7f3e e5e1 363d 7fe0 993c
000000e0: 4d15 e53c 3f5a cbbb 0a24 053e a367 04be
000000f0: caa4 32be 8bbd bdbc df00 963d 3d41 9ebd
00000100: 7df8 9f3b 8b7e 7e3b 3397 7c3e c005 cebe
00000110: 20c5 363d ce08 f9bd c7cf c33d 28ff 233d
00000120: 9b26 273e cae4 47be 6bff f9be b4d7 16be
00000130: b910 6fbd e141 933c 2529 ab3d e4ad 023e
00000140: af4c 3abe 1528 0c3e 81f6 653e bf7c 3e3c
00000150: 49c6 e23d e020 69bd 2ea7 c23d 288b 23be
00000160: cf86 953e 04e0 f13c 7b4b d3bb d11f 1abe
00000170: 952d 63bc f868 1a3e b6d6 f43c da35 3e3e
00000180: b93c ee3d dc39 de3d 270b 9abe 4d26 b0be
00000190: 2dab 9ebe 004c 653e 698c fe3c 2316 aabd
000001a0: 13e4 71be 8bac 03be af34 1ebe d7cb 79bd
000001b0: 80e5 bfbd 93b3 093d d43f a03e 5e5b 9dbc
000001c0: 97ef 7a3d add7 e4bd c162 f3bd 2926 9e3d
000001d0: 65cd 79bc a618 47bd 3a65 ddbd 60ad 28be
000001e0: a17b b7bd 5d72 06be 512e 1f3e bb8d a6bd
000001f0: b775 2cbe 5a67 3abe dbc4 a1bd 21eb 0ebe
00000200: bd1f 663d bc79 093d 3726 153e 9ea2 fc3d
00000210: 5eff 1cbe fb34 e9bd 8d9b 49be 6f9f f7bd
00000220: 5ad0 b9bd fc73 883c 5471 303e 1cfd 56be
00000230: 138d a93c 7b0c 0cbe 2bcc 5b3d e712 d4bd
00000240: 22ba 23bd a008 8c3d 3ee0 a73b d037 da3d
00000250: d50e 0b3e 7864 f1bc cec7 23bc d494 77bd
00000260: 90c5 1fbe 501a 7abd 82d7 193e 79c3 c2bc
00000270: 6ee0 853d 1ea6 92bb fb0e 783e f9ef 4dbe
00000280: 21dc e83d 1f0d c93d 2380 993d 0d05 d2bc
00000290: 6a0f 943d 1498 30bd 7485 ad3d 5339 4b3e
000002a0: b027 d03d 1b91 bebd ae7d dbbd 5d8a f3bd
000002b0: 5e4e e33d 4c50 713d f2a1 f4bd bf85 bcbc
000002c0: e929 82bd f0c7 d03d 76f5 02bd 0ea4 41be
000002d0: 3611 d13b 6fc1 e03d 55da 7b3c fdc1 26bb
000002e0: e61c 3c3d ce87 1d3e 8605 68bd 1f3c d3bd
000002f0: 00d5 1fbb 5472 aa3c 6ed4 b03c 9fd9 ed3c
00000300: d6a3 a93d 9a3a 0c3e 3e17 e7bb 00ea 803d
00000310: 26dc 39bc 36a1 893d ea51 823d 3761 5ebe
00000320: 9874 17be 11d8 363d 4063 543e 0d11 923c
00000330: b803 56bd d0ba 8fbd 2b13 7bbe 9669 44be
00000340: 4d2e 903d 3b06 3dbd 8b0f d93d 23ac 533d
00000350: 2102 cfbd 0a48 0bbe 39bc cc3b ec80 823e
00000360: ed17 463d 79e5 25bd df52 873d 45c9 69bc
00000370: 8247 b6bd 32f3 0e3e e63d 5b3c ce03 89bd
00000380: 55f2 62be feeb 5a3b 8bbf 1a3d d747 a03c
00000390: 53f3 03be 2b28 5abe 2a34 40be a496 1c3e
000003a0: 9901 133e ccb9 5b3e 69f3 993d e761 323e
000003b0: a7f5 ed3c 6b7d 773c 3181 ddbd 5e11 b8bd
000003c0: 9567 c23d 0263 82bd 7ae0 153d 4c42 bfbc
000003d0: 388d 263c 657c eabd c1c1 f4bd d170 423d
000003e0: 90bd 17be 2c9b c4bd b180 bebd 7cae 36be
000003f0: 6b3c 72bd 718a 90bd a6f3 09bc ee68 8cbd

gru.weight_hh_l0 f4 [192, 64]
0.03604319 -0.03473155 0.0068673184 -0.061009597 0.006082988 -0.05184207 -0.020424128 -0.14749515
-0.021893848 -0.14286791 0.1379476 -0.048816025 0.029271206 0.14006686 0.060136676 0.12410273
-0.10039497 0.09419753 -0.127884 -0.003032248 0.08575207 -0.09268101 -0.17383943 -0.12512255
0.14814188 0.09650899 -0.21238312 0.1638883 0.035053696 -0.14841332 -0.08980171 0.09015183
0.09738237 -0.08405481 0.1509102 -0.01266019 0.136543 -0.14796679 0.2174457 -0.07357982
0.14016834 -0.030390114 -0.32226375 -0.0641832 0.03449984 -0.065155745 0.014964493 -0.013678749
0.15663932 0.010279786 0.025798157 0.07669945 0.01531895 0.025920082 -0.049269967 -0.13876693
0.023963515 -0.3052603 -0.058299292 0.0765202 -0.07724 -0.09069301 0.054414425 -0.0033335558
-0.095030814 -0.03289198 0.09111309 -0.049661446 -0.016011607 -0.10070388 -0.0936529 -0.07421782
-0.0991999 0.13268223 0.022355087 0.081006736 0.08547321 0.03852483 0.0030469715 -0.15255775
0.04391707 -0.02295897 -0.0041772784 -0.08166106 -0.10768906 -0.02640345 0.071038075 0.03124917
0.1751631 0.091570504 -0.28101137 0.015958356 0.053188927 0.09509477 -0.14251593 0.07840669
-0.05713646 -0.014143275 -0.020472229 -0.14347981 -0.09369635 -0.058266632 0.12010982 0.06231992
-0.11889328 0.00053254055 -0.08511088 -0.15424877 0.108186334 0.11612569 -0.018210188 -0.08345503
0.012709872 0.039663944 0.046910718 -0.029315853 -0.08357953 0.05878418 0.104709394 -0.04888861
-0.0003321635 0.062430564 0.12538308 0.03129803 0.03407805 0.16688478 0.05376783 -0.005448591
0.11147485 0.11494109 -0.23593275 0.07842303 0.006982226 0.15601763 -0.052032713 0.10266384
0.018807257 0.07538711 -0.07204665 -0.1018081 -0.18594643 -0.10164715 -0.045739356 0.15688609
-0.050183132 0.05743531 -0.079709515 -0.2373843 -0.10479118 -0.14215992 -0.09121224 -0.03908557
-0.092867814 0.009449864 0.19317658 0.15432 0.07527125 0.0049531627 0.10619113 -0.052301034
0.054161016 -0.07458203 0.069097094 0.017844269 -0.0045803287 0.09190924 -0.16650715 0.23025905
0.0711969 0.14500579 0.06899476 0.075634696 0.06135535 0.029337084 0.046656944 -0.041601125
0.079182684 -0.12888671 0.043114003 0.10386122 0.042313464 0.061472096 0.004052273 -0.0117007485
0.03556195 -0.013243919 0.09670548 -0.058711044 -0.072835766 -0.07553114 0.051418904 -0.022937374
0.16736816 -0.035708886 -0.19532014 0.0455867 -0.1959885 0.20493798 -0.106773555 0.20085779
0.028166937 0.22431439 0.23991583 0.19672807 -0.3212407 -0.14920464 -0.262716 0.0349272
-0.10546967 -0.09508627 0.015900154 -0.18421565 -0.017465124 -0.12636063 0.05938727 0.2667243
0.24645305 0.06888341 -0.18136893 0.047049947 0.116790384 -0.025180168 -0.2198602 0.22715534
-0.04373488 0.284366 -0.0964664 -0.10577679 -0.067857996 0.1310795 -0.28384048 0.20777038
0.02008691 0.22056144 -0.04383367 0.014469618 0.08459255 0.1871184 -0.44482666 -0.014637758
-0.015426451 0.11132715 -0.19360575 0.068489 0.23041071 0.103730716 -0.00016055942 0.11313962
0.09486965 -0.1927645 -0.06443071 -0.12581745 0.023254152 -0.18070029 0.0007894339 0.17106006
00000000: 06a2 133d ab42 0ebd 3e07 e13b 33e5 79bd
00000010: cd53 c73b 5a58 54bd 8050 a7bc f808 17be
00000020: ba5a b3bc f74b 12be 2342 0d3e 50f3 47bd
00000030: 2bca ef3c b06d 0f3e e051 763d 9229 fe3d
00000040: e19b cdbd a2ea c03d 06f4 02be aeb8 46bb
00000050: c89e af3d 8bcf bdbd f702 32be 2020 00be
00000060: 81b2 173e 81a6 c53d f67a 59be 56d2 273e
00000070: 7794 0f3d a9f9 17be f5e9 b7bd 86a1 b83d
00000080: 6870 c73d ee24 acbd 3488 1a3e b06c 4fbc
00000090: eed1 0b3e 9b84 17be 16aa 5e3e 04b1 96bd
000000a0: 4a88 0f3e b0f4 f8bc c1ff a4be 7b72 83bd
000000b0: b44f 0d3d 6070 85bd a22d 753c d51c 60bc
000000c0: 0f66 203e 8c6c 283c a856 d33c 9a14 9d3d
000000d0: 55fc 7a3c 5a56 d43c 4ecf 49bd eb18 0ebe
000000e0: 224f c43c 144b 9cbe 3dcb 6ebd 9fb6 9c3d
000000f0: 0130 9ebd 42bd b9bd a9e1 5e3d c977 5abb
00000100: 849f c2bd beb9 06bd 8099 ba3d cd69 4bbd
00000110: c62a 83bc d63d cebd 17cd bfbd 83ff 97bd
00000120: 5129 cbbd dadd 073e 0422 b73c dce6 a53d
00000130: 940c af3d 36cc 1d3d b3af 473b 1938 1cbe
00000140: 63e2 333d 7314 bcbc 8de1 88bb ea3d a7bd
00000150: 158c dcbd 0c4c d8bc 697c 913d 42fe ff3c
00000160: f55d 333e 5189 bb3d b9e0 8fbe 19bb 823c
00000170: a2dc 593d 0cc1 c23d b2ef 11be b093 a03d
00000180: ec07 6abd 32b9 67bc 60b5 a7bc 5fec 12be
00000190: dfe3 bfbd fea8 6ebd 23fc f53d 2c43 7f3d
000001a0: 527e f3bd 319a 0b3a 9d4e aebd 64f3 1dbe
000001b0: cc90 dd3d 4ed3 ed3d 882d 95bc 79ea aabd
000001c0: 113d 503c a976 223d 7425 403d cd27 f0bc
000001d0: bf2b abbd aec7 703d e171 d63d 6c3f 48bd
000001e0: 3b26 aeb9 31b7 7f3d 6c64 003e 5d32 003d
000001f0: 6d95 0b3d d8e3 2a3e a83b 5c3d 188a b2bb
00000200: ed4c e43d 3c66 eb3d 5b98 71be 419c a03d
00000210: 28cb e43b 16c3 1f3e 4120 55bd 6b41 d23d
00000220: ad11 9a3c 8f64 9a3d 328d 93bd c480 d0bd
00000230: be68 3ebe 622c d0bd 3159 3bbd bfa6 203e
00000240: d48c 4dbd 4a41 6b3d be3e a3bd df14 73be
00000250: c29c d6bd 5f92 11be 7ccd babd 3118 20bd
00000260: 7b31 bebd 9ad3 1a3c 15d0 453e 1006 1e3e
00000270: d027 9a3d 244e a23b bc7a d93d 9c39 56bd
00000280: f1d7 5d3d 77be 98bd c782 8d3d 252e 923c
00000290: 9516 96bb e93a bc3d da80 2abe 07c9 6b3e
000002a0: aecf 913d 667c 143e 204d 8d3d 5de6 9a3d
000002b0: bf4f 7b3d 5354 f03c 5a1b 3f3d f165 2abd
000002c0: 882a a23d e1fa 03be 4f98 303d 31b5 d43d
000002d0: e250 2d3d 2aca 7b3d eec8 843b 7fb4 3fbc
000002e0: 68a9 113d 06fd 58bc 860d c63d fe7a 70bd
000002f0: eb2a 95bd 12b0 9abd a19c 523d 29e7 bbbc
00000300: 8f62 2b3e 7b43 12bd 0102 48be 1fb9 3a3d
00000310: 36b1 48be 43db 513e 18ac dabd aaad 4d3e
00000320: 59be e63c acb2 653e 7fac 753e 1573 493e
00000330: a979 a4be 1ac9 18be b682 86be d30f 0f3d
00000340: 7b00 d8bd 97bc c2bd 0a41 823c 07a3 3cbe
00000350: 0513 8fbc ae64 01be 1140 733d 1690 883e
00000360: 305e 7c3e bf12 8d3d c7b8 39be 72b7 403d
00000370: cc2f ef3d a446 cebc 0823 61be 699b 683e
00000380: 5823 33bd 6c98 913e 2d90 c5bd 80a1 d8bd
00000390: 22f9 8abd b439 063e 8a53 91be c2c1 543e
000003a0: 4e8d a43c dcda 613e ef8a 33bd fa11 6d3c
000003b0: dc3e ad3d f79b 3f3e 52c0 e3be 35d3 6fbc
000003c0: 3abf 7cbc 7dff e33d 9640 46be f643 8c3d
000003d0: c9f0 6b3e c570 d43d d75b 28b9 bfb5 e73d
000003e0: 054b c23d 0f64 45be 40f4 83bd 4ad6 00be
000003f0: 7e7f be3c 7f09 39be 03f2 4e3a 5e2a 2f3e

gru.bias_ih_l0 f4 [192]
-0.02939061 -0.15068565 0.08017602 -0.016480988 -0.08333935 0.22966535 0.08804893 0.016593019
-0.026461946 -0.039774224 -0.17510943 0.088922784 0.103100695 0.094556384 -0.072913595 -0.012981981
-0.09679635 0.02394065 -0.033992056 0.052426998 -0.053625163 -0.0715348 0.026025038 0.0745518
-0.15427515 -0.08310237 0.03511184 -0.09483904 0.020070888 -0.13501357 0.029962495 -0.13404904
0.082527295 0.058824047 -0.33899853 -0.0384164 -0.048393007 -0.12563106 -0.27165577 0.20112142
0.06804922 -0.07120761 0.020072559 -0.012317457 -0.07450397 0.078940175 0.09823094 0.2134884
0.0069397767 -0.0021949203 0.034129217 -0.08313316 -0.11944721 0.048630178 0.032005027 -0.040049296
0.05911853 0.20944683 -0.01642444 0.06415796 0.026179194 -0.04474863 0.0017807113 0.050700538
-0.10007705 -0.049765687 -0.096267655 0.027563542 -0.55064356 -0.24569815 -0.33678773 -0.056233067
-0.07377424 -0.13762048 -0.3014045 -0.38085356 -0.06684287 -0.7725131 -0.03427311 -0.23991399
-0.05427676 0.19140193 -0.06682419 -0.17116255 0.18863094 -0.32610202 -0.19417515 0.039711256
-0.2326681 0.07134647 0.08542229 -0.049293537 -0.08002241 -0.06814983 0.06542211 -0.041525047
0.023217058 -0.022602877 -0.017579108 -0.38202423 -0.08864606 0.06554959 -0.005684915 -0.28916287
0.27684775 0.058441017 -0.047892377 -0.3574971 -0.3268856 -0.009119417 -0.18608023 -0.18182057
0.060679875 0.072869405 -0.20647092 -0.6921918 -0.07120683 -0.05403234 0.071878985 -0.2894077
-0.14704189 -0.03862329 0.21074724 -0.13185261 0.068084486 -0.1648803 0.110475406 -0.06881253
-0.0013645858 0.020960256 0.008320072 -0.056072537 0.037971668 -0.042917516 -0.07923542 0.10575288
-0.031869095 -0.06741516 0.013600486 0.07374005 0.029441597 -0.01355917 -0.009619081 0.028819866
-0.12561943 0.014599669 0.021591557 0.020978415 0.0695012 0.047190692 0.04088126 -0.03274665
-0.03397699 0.047516152 -0.09599091 -0.014139103 0.071738176 0.06189097 0.0022655674 0.024993941
0.022727996 0.01565825 0.100547835 -0.058717642 0.09537224 0.014386374 0.12394993 -0.0059157596
0.06945663 -0.039497513 -0.08157352 0.067146786 0.033525486 0.12909 0.027762022 -0.0352259
-0.10403521 0.04744595 -0.05713074 -0.06779735 -0.060728177 -0.025855301 0.006463833 -0.089864485
0.11275734 0.08915721 0.035156596 -0.13294274 0.010332944 0.09004141 -0.03487318 0.08624004
00000000: 94c4 f0bc 574d 1abe 5333 a43d 2303 87bc
00000010: d2ad aabd 652d 6b3e ff52 b43d 15ee 873c
00000020: b9c6 d8bc 4cea 22bd e34f 33be 261d b63d
00000030: 7526 d33d c7a6 c13d b953 95bd 60b2 54bc
00000040: 2a3d c6bd 2f1f c43c 413b 0bbd b1bd 563d
00000050: 0fa6 5bbd d680 92bd 7632 d53c 9dae 983d
00000060: 4efa 1dbe 9331 aabd 6fd1 0f3d f83a c2bd
00000070: b46b a43c ff40 0abe e873 f53c 2744 09be
00000080: 1204 a93d 7cf1 703d 3791 adbe 845a 1dbd
00000090: bf37 46bd 6ea5 00be 7716 8bbe c6f2 4d3e
000000a0: 645d 8b3d 4cd5 91bd 356f a43c 29cf 49bc
000000b0: 8a95 98bd 63ab a13d 4e2d c93d b49c 5a3e
000000c0: 1167 e33b a7d8 0fbb 14cb 0b3d b841 aabd
000000d0: bda0 f4bd 7030 473d b417 033d bb0a 24bd
000000e0: 4626 723d 3b79 563e 8c8c 86bc 4065 833d
000000f0: c075 d63c 574a 37bd c266 e93a 5eab 4f3d
00000100: 32f5 ccbd 1bd7 4bbd fa27 c5bd f0cc e13c
00000110: faf6 0cbf 4c98 7bbe 716f acbe a554 66bd
00000120: f316 97bd 62ec 0cbe b151 9abe 3dff c2be
00000130: eae4 88bd 6bc3 45bf f661 0cbd 03ac 75be
00000140: 4f51 5ebd defe 433e 1fdb 88bd 3c45 2fbe
00000150: 7828 413e d8f6 a6be dad5 46be 45a8 223d
00000160: 8c40 6ebe 191e 923d e2f1 ae3d 05e8 49bd
00000170: cae2 a3bd 2392 8bbd 07fc 853d 2b16 2abd
00000180: b331 be3c ab29 b9bc 1002 90bc ae98 c3be
00000190: 118c b5bd dd3e 863d 8648 babb 280d 94be
000001a0: fdbe 8d3e d95f 6f3d cc2a 44bd dc09 b7be
000001b0: 8d5d a7be 9b69 15bc d18b 3ebe 2c2f 3abe
000001c0: 768b 783d 8e3c 953d 1d6d 53be 7b33 31bf
000001d0: e3d4 91bd 0451 5dbd 4a35 933d 3f2d 94be
000001e0: 2692 16be 7433 1ebd 20ce 573e 5f04 07be
000001f0: e16f 8b3d 62d6 28be ee40 e23d 95ed 8cbd
00000200: e7db b2ba d8b4 ab3c e950 083c 51ac 65bd
00000210: 2e88 1b3d 47ca 2fbd 2e46 a2bd f794 d83d
00000220: 2b89 02bd f610 8abd 93d4 5e3c 0605 973d
00000230: 812f f13c 4827 5ebc 5a99 1dbc a417 ec3c
00000240: 61a2 00be 7333 6f3c c7e0 b03c edda ab3c
00000250: a556 8e3d 074b 413d 1c73 273d 5a21 06bd
00000260: 752b 0bbd 4ca0 423d e296 c4bd b2a7 67bc
00000270: 77eb 923d 6381 7d3d ea79 143b 18c0 cc3c
00000280: 1030 ba3c bb45 803c 06ec cd3d e981 70bd
00000290: 8552 c33d d3b4 6b3c 76d9 fd3d fdd8 c1bb
000002a0: 473f 8e3d 25c8 21bd 0510 a7bd 4184 893d
000002b0: 0552 093d 2b30 043e 2e6d e33c 0949 10bd
000002c0: 6a10 d5bd af56 423d ec01 6abd 56d9 8abd
000002d0: 1cbe 78bd 7fce d3bc 90ce d33b df0a b8bd
000002e0: 52ed e63d 0e98 b63d 5d00 103d 2422 08be
000002f0: 824b 293c a167 b83d 2ed7 0ebd 9e9e b03d

gru.bias_hh_l0 f4 [192]
-0.019472294 -0.09253608 -0.06708343 -0.1533194 0.08796963 0.026779898 -0.031725995 0.03710027
-0.10947859 -0.22062787 -0.18243043 0.1795282 0.06971233 0.12780961 -0.017643008 0.11367827
-0.07172472 -0.03314536 -0.09297308 -0.013986823 0.030519675 -0.015155138 0.0764967 0.042990986
-0.028861288 -0.00020679265 -0.1032783 0.09543504 -0.054290384 -0.010254413 -0.120806724 -0.1573601
0.021400986 0.08131348 -0.28342247 0.021445075 -0.14562054 -0.017312255 -0.05423789 0.21449414
-0.06156706 0.060104016 0.13658722 0.000453368 -0.12786256 -0.13250756 0.05574733 0.14319369
0.01756995 0.088712335 -0.10722166 0.13275404 -0.0046867053 0.06327892 -0.091960266 -0.15350221
0.07065956 0.22685449 0.089389324 0.12904581 -0.043533366 -0.07455529 -0.21898316 -0.046960253
0.0578804 -0.14636593 -0.086455286 0.015592356 -0.3270032 -0.22952642 -0.3172448 -0.019343575
0.017665636 -0.24087657 -0.26621613 -0.34076136 -0.13398607 -0.83780813 -0.14121543 -0.12734257
-0.15021776 0.329643 0.02518033 -0.20286308 0.16656934 -0.28881708 -0.23430705 -0.11803962
-0.22569782 0.07089638 0.006308835 0.079594746 0.09120465 -0.19396195 0.024550596 -0.19031091
-0.04208088 0.055755213 -0.10084233 -0.38683483 -0.19331433 0.12558718 -0.1583081 -0.17571247
0.11185595 0.058975346 -0.014859327 -0.25861686 -0.3500438 -0.0885274 -0.062990636 -0.15598755
-0.09934302 0.0660799 -0.09849189 -0.5301629 0.13108715 -0.19813655 0.010420459 -0.21746339
-0.10506066 0.028815934 0.1839042 -0.07229301 0.10053358 -0.011154892 0.019875076 -0.007292968
0.042547647 -0.100369595 0.07973447 0.019427773 -0.08719863 0.13631068 0.096596 -0.087799385
0.03414281 -0.07915357 -0.026130151 0.025262926 -0.14274813 0.0008045719 -0.0043533556 -0.007904928
0.0017939032 0.113117 0.046647035 -0.010954875 0.070103556 -0.05688978 0.017418828 -0.05533985
-0.0004395079 -0.021225812 0.08892478 0.049531285 -0.04389025 -0.032125317 0.035280652 -0.053832557
-0.0021474028 0.037326522 -0.054971043 0.11347349 0.035517443 -0.0048228432 -0.07054597 0.051495153
0.04635816 0.07807274 -0.0107873315 0.024465092 0.0037077523 -0.08102678 -0.122411735 0.012881042
0.0861032 -0.13054504 0.053676352 -0.021986298 0.12752062 0.034466907 -0.002484693 0.052473634
0.061875742 -0.041272834 -0.015969967 -0.036148958 0.02142074 0.124564536 -0.10174061 0.10238118
00000000: 5c84 9fbc 8e83 bdbd 0a63 89bd c3ff 1cbe
00000010: 6c29 b43d 8461 db3c 1ef3 01bd 74f6 173d
00000020: 5036 e0bd 46ec 61be 0bcf 3abe 3ed6 373e
00000030: 57c5 8e3d 86e0 023e 1288 90bc 27d0 e83d
00000040: 69e4 92bd 6ec3 07bd ac68 bebd fd28 65bc
00000050: 6604 fa3c 424d 78bc 4daa 9c3d 5117 303d
00000060: 826e ecbc 7bd6 58b9 9383 d3bd 7273 c33d
00000070: 985f 5ebd 2002 28bc 8469 f7bd 0223 21be
00000080: 1f51 af3c af87 a63d c01c 91be 95ad af3c
00000090: 8d1d 15be 6ed2 8dbc 8d28 5ebd 5aa4 5b3e
000000a0: be2d 7cbd a12f 763d 85dd 0b3e 06b2 ed39
000000b0: 67ee 02be 10b0 07be 5057 643d 5ea1 123e
000000c0: dbee 8f3c d0ae b53d 0897 dbbd adf0 073e
000000d0: ef92 99bb 6198 813d aa55 bcbd af2f 1dbe
000000e0: f6b5 903d 8b4c 683e c011 b73d 9624 043e
000000f0: 0b50 32bd 72b0 98bd 1f3d 60be 6559 40bd
00000100: 0014 6d3d f3e0 15be 780f b1bd 1577 7f3c
00000110: f76c a7be f908 6bbe e96d a2be 6b76 9ebc
00000120: 86b7 903c 59a8 76be 7b4d 88be 4678 aebe
00000130: a533 09be 987a 56bf c79a 10be 1766 02be
00000140: afd2 19be f8c6 a83e fb46 ce3c 57bb 4fbe
00000150: 2791 2a3e d5df 93be 30ee 6fbe c2be f1bd
00000160: 541d 67be 1f32 913d 58ba ce3b 9202 a33d
00000170: 81c9 ba3d f69d 46be 551e c93c dde0 42be
00000180: 005d 2cbd 945f 643d 6c86 cebd 370f c6be
00000190: 31f4 45be ed99 003e 851b 22be f8ed 33be
000001a0: bb14 e53d 2290 713d 8974 73bc 6e69 84be
000001b0: f138 b3be da4d b5bd 3c01 81bd 33bb 1fbe
000001c0: 5a74 cbbd e654 873d 1eb6 c9bd c1b8 07bf
000001d0: b63b 063e 4fe4 4abe 93ba 2a3c b9ae 5ebe
000001e0: 0b2a d7bd 650f ec3c 6251 3c3e 5c0e 94bd
000001f0: 8de4 cd3d 02c3 36bc 0ed1 a23c daf9 eebb
00000200: 7146 2e3d 938e cdbd d34b a33d fe26 9f3c
00000210: 3295 b2bd 0795 0b3e 20d4 c53d 2ad0 b3bd
00000220: 55d9 0b3d 441b a2bd e60e d6bc 32f4 ce3c
00000230: 912c 12be e8e9 523a 98a6 8ebb ac83 01bc
00000240: 6721 eb3a e3a9 e73d f610 3f3d 137c 33bc
00000250: 7492 8f3d 4205 69bd eeb1 8e3c 0aac 62bd
00000260: c06d e6b9 c1e1 adbc 321e b63d 51e1 4a3d
00000270: 43c6 33bd d695 03bd 7282 103d 877f 5cbd
00000280: 71bb 0cbb b2e3 183d 5129 61bd ca64 e83d
00000290: bd7a 113d f108 9ebb 687a 90bd 95ec 523d
000002a0: 0ee2 3d3d 9ae4 9f3d 59bd 30bc 046b c83c
000002b0: c3fd 723b 5ef1 a5bd 01b3 fabd 020b 533c
000002c0: e056 b03d 99ad 05be bcdb 5b3d 9c1c b4bc
000002d0: c494 023e 2c2d 0d3d 3bd6 22bb 98ee 563d
000002e0: 6b71 7d3d b40d 29bd 73d3 82bc ee10 14bd
000002f0: 8c7a af3c b11b ff3d 625d d0bd 39ad d13d

gru.weight_ih_l1 f4 [192, 64]
0.10036464 -0.091951676 -0.067517094 0.055093445 -0.021025425 0.2167489 -0.020434115 0.109823905
-0.017580062 0.000805612 -0.14559618 -0.04094671 -0.1279084 0.052025553 -0.14193884 0.0019666126
0.079870835 -0.16607337 -0.11360547 -0.14183964 -0.17074436 0.0813221 -0.0039929817 0.059322968
0.19502354 -0.047893472 -0.11687571 -0.08840469 -0.062444337 0.08321687 0.011365809 -0.035985045
0.03089674 0.09855687 -0.13647453 0.021586858 -0.084567025 0.08016623 0.0367698 0.13615854
-0.15974 0.11762768 0.1723169 -0.13642299 0.035941944 -0.1149667 0.07776115 -0.018603116
0.11356827 -0.0054059923 -0.09076241 0.016525067 -0.049968235 -0.092315115 -0.07198392 0.1465869
-0.028535703 -0.034405164 0.08585204 -0.028933564 0.046202596 0.080713406 0.13016747 -0.17094691
0.1453032 0.017388722 -0.1529953 -0.024648547 -0.07674055 0.059796195 0.14303894 0.07524376
-0.05534709 -0.1718949 -0.23979256 -0.18336877 0.091704175 0.10642945 -0.25234184 0.11064411
0.13179076 -0.001066178 0.112476416 -0.015783574 0.0823053 0.034088336 0.074710555 0.100312985
-0.098253325 -0.039207872 0.19143355 -0.017477093 -0.008366405 -0.07658842 -0.08767473 -0.14905065
0.017757496 -0.14475796 -0.2348732 0.019340781 0.031452537 -0.058223024 -0.07800943 0.05355441
-0.10454256 0.23466651 0.022197023 -0.076207295 -0.14063096 0.032354694 -0.027056215 -0.1709058
-0.0106356405 -0.06169216 0.17386131 0.11124445 0.060471196 0.023533946 -0.08858661 0.028220259
-0.1033621 0.18211271 0.17007554 0.10027232 0.08525299 0.055116143 -0.0037264046 0.01440783
-0.09114776 -0.17411925 -0.00915632 -0.0934481 0.20708214 -0.10725127 -0.026825817 -0.059907995
0.17557658 0.2806567 -0.06638871 0.20955119 0.036928892 -0.13690598 -0.118277945 -0.13413447
0.10938019 0.032384448 0.051924527 -0.04666339 0.09720918 -0.02058264 0.07526084 -0.106194586
0.24203277 -0.053838655 0.08478739 -0.052587986 0.19176164 -0.0760924 -0.020303758 -0.011226082
-0.1270489 -0.0012569 0.15439954 -0.043502986 -0.10984338 0.018637663 -0.042567637 0.0993443
-0.08032219 0.13107269 0.042090435 -0.048183426 0.035891186 -0.013002636 0.04439393 0.30372813
0.16600846 0.07826348 -0.11940625 -0.10092872 0.03374678 -0.106643274 0.13267343 -0.0120879095
-0.035439037 -0.05803145 -0.031841714 0.14075409 0.08752867 -0.17194714 -0.014464918 0.1745778
0.11916601 -0.1477987 0.06853603 -0.18129614 -0.05997619 -0.096496336 -0.06717934 -0.13473837
0.06729431 -0.091005996 -0.0010377103 -0.019984894 0.023974264 -0.23160289 -0.07145543 0.19110073
-0.064405106 -0.12842067 0.12956773 -0.041693266 -0.081903964 -0.039296474 -0.11441998 -0.10113769
0.14385521 0.0405044 0.05779486 0.10903746 -0.09071918 0.04767725 0.11066689 0.103922
-0.014587994 0.08635587 0.031577967 0.013633523 0.068621285 0.117002144 0.004321198 -0.06527641
0.121084556 -0.09927292 -0.01813693 -0.048574403 -0.07208763 0.15402058 -0.07499931 0.068075016
-0.15175676 -0.17560163 0.06375992 -0.033982903 -0.10282086 -0.007194648 0.1394275 -0.0113902325
0.17150453 0.15859494 -0.02163968 -0.055795196 0.034079857 -0.0068405066 -0.033266462 0.18917984
00000000: fa8b cd3d 2951 bcbd 6746 8abd aaa9 613d
00000010: 833d acbc 6cf3 5d3e 7265 a7bc 5beb e03d
00000020: 1004 90bc b52f 533a 2a17 15be bdb7 27bd
00000030: 6bfa 02be bf18 553d 6a58 11be 49e2 003b
00000040: 5293 a33d 230f 2abe fca9 e8bd 693e 11be
00000050: 9cd7 2ebe 338c a63d 8fd7 82bb a4fc 723d
00000060: 40b4 473e f22b 44bd 885c efbd 850d b5bd
00000070: a2c5 7fbd 9b6d aa3d a837 3a3c 0e65 13bd
00000080: 291b fd3c 2fd8 c93d fbbf 0bbe ecd6 b03c
00000090: 7a31 adbd 312e a43d ee9b 163d 256d 0b3e
000000a0: e292 23be c8e6 f03d d773 303e 78b2 0bbe
000000b0: dc37 133d a973 ebbd 3d41 9f3d 9065 98bc
000000c0: 7b96 e83d c024 b1bb a4e1 b9bd 945f 873c
000000d0: 7eab 4cbd b50f bdbd 4e6c 93bd e01a 163e
000000e0: b5c3 e9bc 6eec 0cbd 32d3 af3d 1506 edbc
000000f0: ef3e 3d3d 124d a53d 9f4a 053e b50c 2fbe
00000100: 5dca 143e cb72 8e3c cdaa 1cbe c0eb c9bc
00000110: 262a 9dbd dbec 743d cd78 123e 6719 9a3d
00000120: a1b3 62bd 3705 30be 2e8c 75be 06c5 3bbe
00000130: 66cf bb3d aff7 d93d f332 81be 6199 e23d
00000140: 28f4 063e ffbe 8bba 095a e63d 8e4c 81bc
00000150: ae8f a83d 36a0 0b3d d901 993d e570 cd3d
00000160: 0a39 c9bd 6f98 20bd 2807 443e 1f2c 8fbc
00000170: 3f13 09bc 64da 9cbd cf8e b3bd bca0 18be
00000180: 2b78 913c 6e3b 14be 9a82 70be 8f70 9e3c
00000190: 60d4 003d 447b 6ebd 68c3 9fbd de5b 5b3d
000001a0: 691a d6bd 6b4c 703e 88d6 b53c 9212 9cbd
000001b0: 9001 10be 5b86 043d ffa4 ddbc ee01 2fbe
000001c0: 1c41 2ebc ebb0 7cbd b308 323e 21d4 e33d
000001d0: a5b0 773d 43ca c03c e66c b5bd 2c2e e73c
000001e0: 82af d3bd c17b 3a3e 4828 2e3e 935b cd3d
000001f0: 1f99 ae3d 77c1 613d b236 74bb d20e 6c3c
00000200: adab babd 514c 32be 6404 16bc b861 bfbd
00000210: 570d 543e 8ea6 dbbd d1c1 dbbc 1662 75bd
00000220: 59ca 333e 3cb2 8f3e cef6 87bd 9694 563e
00000230: c042 173d 1531 0cbe b53b f2bd 8c5a 09be
00000240: b902 e03d 8ea5 043d d0ae 543d 1c22 3fbd
00000250: 9b15 c73d ed9c a8bc 5b22 9a3d 8c7c d9bd
00000260: 70d7 773e ec85 5cbd 03a5 ad3d 8066 57bd
00000270: 2a5d 443e 55d6 9bbd 1154 a6bc 9aed 37bc
00000280: 1b19 02be 91be a4ba ea1a 1e3e 3030 32bd
00000290: 91f5 e0bd 03ae 983c 675b 2ebd 0675 cb3d
000002a0: f67f a4bd eb37 063e 0567 2c3d fc5b 45bd
000002b0: a302 133d 0209 55bc 69d6 353d 4182 9b3e
000002c0: 1ffe 293e 9a48 a03d 448b f4bd b7b3 cebd
000002d0: 103a 0a3d ca67 dabd 8bdb 073e 5e0c 46bc
000002e0: 8628 11bd 63b2 6dbd 756c 02bd d721 103e
000002f0: 3b42 b33d e912 30be 43fe 6cbc 86c4 323e
00000300: 4f0d f43d 8b58 17be 9e5c 8c3d b2a5 39be
00000310: 98a9 75bd df9f c5bd 5295 89bd dbf8 09be
00000320: 99d1 893d 5a61 babd c803 88ba 5cb7 a3bc
00000330: ad65 c43c 4f29 6dbe 3957 92bd e9af 433e
00000340: d3e6 83bd b580 03be 67ad 043e 8fc6 2abd
00000350: 44bd a7bd 57f5 20bd 0655 eabd 4721 cfbd
00000360: c84e 133e f1e7 253d 4eba 6c3d 084f df3d
00000370: faca b9bd 3849 433d 53a5 e23d 0fd5 d43d
00000380: 7b02 6fbc 59db b03d e657 013d 245f 5f3c
00000390: 5189 8c3d d29e ef3d d698 8d3b a3af 85bd
000003a0: 2efb f73d 9a4f cbbd e693 94bc f4f5 46bd
000003b0: aea2 93bd 92b7 1d3e 3d99 99bd ea6a 8b3d
000003c0: 2066 1bbe ead0 33be 9094 823d a831 0bbd
000003d0: be93 d2bd 15c1 ebbb 15c6 0e3e 199e 3abc
000003e0: e29e 2f3e b666 223e b345 b1bc 8189 64bd
000003f0: 5297 0b3d 5426 e0bb 6a42 08bd 5cb8 413e

gru.weight_hh_l1 f4 [192, 64]
-0.0017076832 -0.0011581542 0.12678376 -0.033548698 0.095828325 -0.0389346 0.087970205 0.030480051
0.12389258 0.13128066 0.10713284 0.019604178 -0.030168159 0.052757543 0.07979306 -0.15050499
0.028633961 0.08952193 0.08609638 -0.016455319 -0.15821514 0.06163629 -0.05242209 0.08566815
-0.04501675 0.08163749 -0.1709876 -0.0058748764 -0.043819856 0.022629242 -0.045605842 0.041819338
0.14268842 -0.047331017 -0.09871374 0.17582972 0.015186003 0.029085964 -0.092717074 0.077814385
-0.16071028 0.17250964 -0.018668193 -0.12947527 -0.16952 0.20297241 0.13744535 -0.16559114
0.16173251 -0.025644796 -0.056211364 0.09753961 -0.17349434 -0.11504785 0.03976127 -0.024992466
0.06729554 -0.00938307 0.12856787 -0.021396797 -0.037446152 -0.004824038 0.030519692 0.17622422
-0.20470327 -0.20510091 0.07550305 -0.19918762 -0.08966006 0.043139376 0.048864942 0.027474368
-0.12429889 -0.087451816 -0.19136631 -0.12703285 0.09186953 -0.038602762 -0.0014413862 -0.155228
0.12153877 -0.07392197 0.1426888 0.044464845 -0.01690354 -0.0357651 0.09335537 -0.13179663
0.20793778 0.109512754 -0.042987883 0.0411841 -0.13241398 -0.21064426 -0.07998524 0.010790213
0.09000563 0.18443292 -0.034456123 -0.042054676 -0.11297366 0.077961005 -0.18513562 -0.09218325
-0.031886257 0.15345871 0.07757061 -0.025745733 0.1194197 0.04412341 -0.19658169 0.035142194
-0.023071209 0.12526697 0.006324651 0.0946528 0.13592443 -0.06801792 -0.0751313 0.00022120461
0.18647322 0.11274466 -0.08836483 -0.010092022 0.061827186 -0.039745856 -0.061848328 -0.023210341
-0.07751825 0.107199915 -0.103651434 -0.026186978 -0.08808614 0.17180406 0.064792365 -0.14396879
-0.09216921 -0.094056495 0.007647177 0.01854621 -0.018732667 0.070598744 0.0251633 -0.07697809
-0.036003307 -0.049680497 0.12313818 -0.057638377 0.0039493237 -0.14612418 -0.07523915 -0.11182131
-0.04953564 0.07318898 -0.07003829 -0.25676003 0.062378716 -0.020588325 0.13183427 0.0009321666
-0.15380123 0.112921335 -0.19380885 -0.086135834 0.10953317 0.18164071 0.046011746 0.012320187
0.07983158 -0.18238847 0.012356916 0.07172655 0.117504045 0.24280904 0.005141862 -0.1084045
-0.17519267 -0.042539287 0.042815205 -0.013525066 0.074357465 0.20896454 0.04697086 0.18459152
0.13621035 0.06964252 0.0030410686 0.05715967 -0.040349707 0.14284022 0.08036196 -0.1179971
0.11427891 0.06573938 -0.013282929 0.21008971 -0.109051846 0.09265502 0.047654353 0.08230066
0.10452141 -0.063225545 -0.011732524 0.0848147 -0.08434028 -0.074121386 -0.1481731 -0.041117694
-0.13257548 -0.12088282 -0.023428489 0.0706724 -0.04466442 0.21297528 0.027942786 0.052779067
-0.07217215 -0.09855134 -0.077753805 0.057787504 -0.1531107 -0.07020547 0.027752718 0.021367742
0.09798958 0.021544976 -0.08079535 -0.07957234 0.03496018 0.083818 -0.075956024 -0.10481667
-0.03488348 0.06122114 0.03587967 0.011396234 0.10882068 0.029319443 0.06865062 -0.056335077
-0.09863518 -0.08071787 0.1955768 -0.02441083 -0.018451724 0.033838183 -0.061163224 -0.012222675
-0.17049786 0.15927018 0.24373095 0.026461817 0.016746452 0.03792102 0.011889256 0.06189539
00000000: 57d4 dfba 35cd 97ba 9ad3 013e 5c6a 09bd
00000010: a441 c43d e379 1fbd b929 b43d 4db1 f93c
00000020: 65bb fd3d 706e 063e 7668 db3d f198 a03c
00000030: 3723 f7bc 4b18 583d 8b6a a33d fb1d 1abe
00000040: c591 ea3c 4657 b73d 4d53 b03d 4ecd 86bc
00000050: 2603 22be 5676 7c3d 8cb8 56bd c872 af3d
00000060: 7c63 38bd 8e31 a73d 6017 2fbe 0982 c0bb
00000070: 737c 33bd f660 b93c 31cd 3abd c14a 2b3d
00000080: ea1c 123e 2bde 41bd 6e2a cabd b50c 343e
00000090: b7ce 783c b045 ee3c 73e2 bdbd 265d 9f3d
000000a0: 3c91 24be 5ea6 303e 0aee 98bc 2a95 04be
000000b0: a796 2dbe 00d8 4f3e 79be 0c3e b990 29be
000000c0: 359d 253e 0915 d2bc e33d 66bd d9c2 c73d
000000d0: 80a8 31be 359e ebbd b7dc 223d 00bd ccbc
000000e0: 3ed2 893d 73bb 19bc 4ca7 033e 5648 afbc
000000f0: 2361 19bd f712 9ebb 6f04 fa3c 1f74 343e
00000100: bc9d 51be f905 52be 58a1 9a3d d7f7 4bbe
00000110: b29f b7bd eab2 303d 9b26 483d ed11 e13c
00000120: 6b90 febd f019 b3bd 88f5 43be e614 02be
00000130: 1826 bc3d ee1d 1ebd e5ec bcba 17f4 1ebe
00000140: 52e9 f83d 6764 97bd 031d 123e c520 363d
00000150: 4b79 8abc 6d7e 12bd 1a31 bf3d b2f5 06be
00000160: a4ed 543e 3948 e03d 1014 30bd a9b0 283d
00000170: 8897 07be 21b3 57be 4dcf a3bd 6fc9 303c
00000180: df54 b83d fcdb 3c3e dd21 0dbd 8641 2cbd
00000190: bc5e e7bd 05aa 9f3d 3194 3dbe 92ca bcbd
000001a0: 2a9b 02bd 4824 1d3e 57dd 9e3d b7e8 d2bc
000001b0: 5192 f43d c0ba 343d b64c 49be 43f1 0f3d
000001c0: d5ff bcbc fc45 003e 053f cf3b 54d9 c13d
000001d0: c62f 0b3e fb4c 8bbd 70de 99bd 29f3 6739
000001e0: d6f2 3e3e ace6 e63d 9ff8 b4bd 0259 25bc
000001f0: 813e 7d3d 8dcc 22bd ac54 7dbd 9d23 bebc
00000200: e3c1 9ebd a18b db3d 3447 d4bd 1386 d6bc
00000210: 8266 b4bd 67ed 2f3e dcb1 843d 8e6c 13be
00000220: 36c3 bcbd b1a0 c0bd 2c95 fa3b 39ee 973c
00000230: 4075 99bc 1396 903d 4423 ce3c b0a6 9dbd
00000240: 3478 13bd c77d 4bbd df2f fc3d 3816 6cbd
00000250: 5469 813b 94a1 15be fc16 9abd 9202 e5bd
00000260: e2e5 4abd 1be4 953d 3c70 8fbd 0d76 83be
00000270: d380 7f3d d9a8 a8bc 90ff 063e a45c 743a
00000280: 127e 1dbe 4d43 e73d d475 46be fc67 b0bd
00000290: ed52 e03d 0600 3a3e d076 3c3d 9cda 493c
000002a0: bd7e a33d 0bc4 3abe aa74 4a3c 5fe5 923d
000002b0: f6a5 f03d efa2 783e 117d a83b 2e03 debd
000002c0: b565 33be ad3d 2ebd ff5e 2f3d 3d98 5dbc
000002d0: ba48 983d cdfa 553e 8464 403d 8f05 3d3e
000002e0: ba7a 0b3e bda0 8e3d aa4c 473b 4220 6a3d
000002f0: bc45 25bd b544 123e d094 a43d 77a8 f1bd
00000300: 100b ea3d 5ea2 863d a4a0 59bc c221 573e
00000310: 9356 dfbd eac1 bd3d 3631 433d 408d a83d
00000320: 520f d63d 657c 81bd c639 40bc 54b3 ad3d
00000330: 99ba acbd f4cc 97bd b0ba 17be 076b 28bd
00000340: dec1 07be 6991 f7bd 1aed bfbc b1bc 903d
00000350: 0af2 36bd 3116 5a3e 45e8 e43c dd2e 583d
00000360: fece 93bd 49d5 c9bd 633d 9fbd 97b2 6c3d
00000370: 0dc9 1cbe e3c7 8fbd ab59 e33c 670b af3c
00000380: c3ae c83d 177f b03c 0878 a5bd d3f6 a2bd
00000390: 6832 0f3d c6a8 ab3d d58e 9bbd 1faa d6bd
000003a0: fbe1 0ebd 05c3 7a3d 90f6 123d 45b7 3a3c
000003b0: 60dd de3d 542f f03c b298 8c3d 9cbf 66bd
000003c0: 3e01 cabd 694f a5bd 4945 483e 39f9 c7bc
000003d0: 1228 97bc e899 0a3d 4a86 7abd 9d41 48bc
000003e0: fe96 2ebe b917 233e 9b94 793e 74c6 d83c
000003f0: db2f 893c 1253 1b3d 27cb 423c 0586 7d3d

gru.bias_ih_l1 f4 [192]
-0.12654254 -0.057415877 0.038161892 0.09828318 0.24520946 -0.07440051 0.35466185 0.0894433
-0.04444614 -0.042658 0.042157687 -0.19613287 0.0051243724 0.1284449 -0.10709251 0.066625714
-0.16601788 -0.027858773 -0.12126608 0.095765695 -0.1063087 -0.10279482 -0.092344776 -0.035280786
0.043356273 0.04111076 -0.05722263 0.10874208 -0.0028569498 -0.12233704 0.052875347 0.009405515
0.108492084 -0.13936622 -0.027245086 0.021592561 0.04024969 0.10432477 -0.07435298 0.050877415
-0.018444242 -0.0007260815 -0.085665904 0.02786117 0.09882376 0.044027984 -0.12903434 0.0069259135
-0.112200715 0.17697194 0.019654753 0.082277745 -0.054908447 0.13104784 0.03943707 0.070488505
0.025415692 -0.041702617 0.19814023 -0.097125076 0.09919274 0.07892208 0.110727265 0.019337725
-0.14413448 -0.06791334 -0.35966077 -0.309001 -0.4538174 -0.0876078 -0.5199594 -0.14380948
-0.37224752 -0.1934924 -0.11233223 -0.22563387 -0.21618524 -0.13132606 -0.07966791 -0.26018447
-0.04680165 -0.2937116 -0.19287443 -0.42460296 -0.22886454 -0.24009326 0.043474827 0.023180509
-0.39992967 -0.14605309 0.060983818 -0.252459 -0.4363176 -0.13639516 -0.20950677 -0.11793318
0.11960825 0.04431506 -0.13558069 -0.0743791 -0.17223841 0.51536506 -0.4973614 -0.14236575
-0.2791684 -0.14248015 -0.10706288 -0.19875908 0.081115365 0.21757808 -0.2301355 -0.053494643
0.12144557 -0.4144686 0.024098493 -0.23011193 -0.17072046 0.035653163 -0.23873955 0.31481808
-0.32625696 -0.0800359 -0.021135116 -0.18249774 -0.28901243 -0.15717475 -0.23679395 -0.05275838
0.07380337 -0.107505254 -0.04875114 0.089257754 0.0816291 -0.011672556 0.02212381 -0.006861943
0.10844187 -0.05631276 -0.07451062 0.011229622 -0.036406167 0.09911892 -0.02774281 0.056623302
-0.0969439 -0.047464263 -0.056280266 -0.00035098672 0.116941065 0.04714755 -0.10017328 -0.098357886
0.022881994 0.0744022 0.077797085 -0.054530274 -0.04559763 0.08916978 0.08178959 0.013610536
-0.06330783 0.122414105 0.09000373 -0.0495393 -0.031145167 -0.055584267 0.09390342 0.00034140595
-0.0037539538 0.06357065 -0.053026013 -0.12610315 0.048573837 -0.10480311 0.03544529 0.078814186
-0.034742836 -0.046541456 0.1103829 -0.027513737 0.10937042 0.062304325 0.10237377 0.05012891
0.010488085 0.09334037 -0.072027065 0.008651759 -0.1420237 -0.10770936 -0.01924433 -0.060278405
00000000: 5e94 01be e92c 6bbd a54f 1c3d b148 c93d
00000010: 3018 7b3e 4b5f 98bd 3d96 b53e 0d2e b73d
00000020: 280d 36bd 28ba 2ebd 8aad 2c3d 0ed7 48be
00000030: 5aea a73b 0f87 033e 5153 dbbd 1073 883d
00000040: 9700 2abe 1538 e4bc 5a5a f8bd ce20 c43d
00000050: 60b8 d9bd 1786 d2bd 421f bdbd 9682 10bd
00000060: 5996 313d c263 283d 4762 6abd 2bb4 de3d
00000070: aa3b 3bbb d88b fabd d293 583d 9719 1a3c
00000080: 1931 de3d 05b6 0ebe 1631 dfbc e2e2 b03c
00000090: dcdc 243d 3aa8 d53d 6046 98bd d664 503d
000000a0: 6118 97bc 8156 3eba 9b71 afbd 1c3d e43c
000000b0: 1d64 ca3d b056 343d 9421 04be c6f2 e23b
000000c0: 7dc9 e5bd 2238 353e 0103 a13c 3c81 a83d
000000d0: aee7 60bd 6831 063e c488 213d 475c 903d
000000e0: 9234 d03c 5dd0 2abd 46e5 4a3e 83e9 c6bd
000000f0: 9025 cb3d e6a1 a13d fac4 e23d 266a 9e3c
00000100: fd97 13be 2616 8bbd 7525 b8be 6135 9ebe
00000110: c15a e8be b86b b3bd 0f1c 05bf cb42 13be
00000120: 3a97 bebe df22 46be 710e e6bd 910c 67be
00000130: aa5f 5dbe 577a 06be ee28 a3bd e636 85be
00000140: 16b3 3fbd 5e61 96be e080 45be 8f65 d9be
00000150: 775b 6abe 02db 75be a912 323d 0de5 bd3c
00000160: 95c3 ccbe f18e 15be 2bca 793d 4e42 81be
00000170: 0565 dfbe 2cab 0bbe f188 56be f386 f1bd
00000180: 2cf5 f43d b583 353d aad5 0abe 1254 98bd
00000190: 445f 30be f7ee 033f 27a6 febe 54c8 11be
000001a0: 29ef 8ebe 51e6 11be c943 dbbd 8087 4bbe
000001b0: d01f a63d cacc 5e3e a4a8 6bbe 331d 5bbd
000001c0: 74b8 f83d 3a35 d4be 346a c53c 76a2 6bbe
000001d0: 58d1 2ebe 0d09 123d 2478 74be d62f a13e
000001e0: 270b a7be dde9 a3bd 8d23 adbc b0e0 3abe
000001f0: 70f9 93be 6bf2 20be 1d7a 72be 2c19 58bd
00000200: 3926 973d b72b dcbd 46af 47bd c5cc b63d
00000210: 282d a73d 403e 3fbc fe3c b53c 26da e0bb
00000220: c516 de3d 35a8 66bd 0699 98bd 73fc 373c
00000230: a21e 15bd dcfe ca3d e444 e3bc d6ed 673d
00000240: 868a c6bd e369 42bd 2386 66bd a404 b8b9
00000250: cc7e ef3d ca1d 413d a627 cdbd dc6f c9bd
00000260: 0573 bb3c 2e60 983d 1454 9f3d 235b 5fbd
00000270: 95c4 3abd a59e b63d 4d81 a73d bafe 5e3c
00000280: 89a7 81bd 3fb4 fa3d e053 b83d b9e9 4abd
00000290: 2624 ffbc 54ac 63bd 7050 c03d bbfe b239
000002a0: e504 76bb 5431 823d ce31 59bd 2f21 01be
000002b0: 5cf5 463d 03a3 d6bd 152f 113d 5569 a13d
000002c0: 814e 0ebd 41a2 3ebd 6e10 e23d 7d64 e1bc
000002d0: 99fd df3d d232 7f3d 57a9 d13d f953 4d3d
000002e0: 38d6 2b3c 3c29 bf3d ed82 93bd 1bc0 0d3c
000002f0: a96e 11be ba96 dcbd 49a6 9dbc 7de6 76bd

gru.bias_hh_l1 f4 [192]
-0.13345121 -0.14239989 -0.058429737 0.09934482 0.40958762 0.0787303 0.24809228 0.036344938
-0.043517366 -0.08332079 0.12557524 -0.12937298 0.10788176 0.08091755 -0.15914449 -0.08676029
-0.14439093 -0.092842765 0.08779396 -0.019327575 -0.12109053 -0.18765181 0.0060663433 0.11112648
-0.02840785 -0.0110314535 -0.039312504 0.07133042 0.096178 -0.10701625 0.075653456 0.013395823
0.26241207 0.027658142 0.016675355 -0.06515055 -0.00301945 -0.021331128 0.07962542 0.017356277
-0.004947297 -0.07799166 -0.1172575 0.12869823 0.06795173 0.03196681 -0.09055066 -0.015765691
0.07660971 0.018968113 -0.0512138 0.09618653 -0.048297007 0.07341105 -0.0360101 0.07326164
0.09445768 0.047183044 0.17405827 -0.04932333 0.058395706 -0.079771765 0.15759706 0.07680394
-0.13015506 -0.20781924 -0.18942331 -0.1527759 -0.57215697 -0.062679835 -0.41132346 -0.0064143366
-0.33286837 -0.2360998 -0.23002753 -0.12747343 -0.21768442 -0.17767425 0.015097242 -0.084780924
0.02951754 -0.30485088 -0.1502084 -0.40568313 -0.23076461 -0.32965162 -0.11136985 -0.1363143
-0.41400757 -0.23401184 0.049698558 -0.14030303 -0.27363998 -0.19848509 -0.15769799 -0.17967854
0.032619733 -0.03055154 -0.055101603 -0.010630814 -0.02177871 0.47285014 -0.45853186 -0.14822513
-0.33409223 -0.32294688 -0.112621 -0.22533362 0.027722806 0.22198948 -0.17542358 -0.074993126
-0.014014037 -0.52434987 -0.19140844 -0.14874731 -0.17541383 0.025509212 -0.11977132 0.28800324
-0.3308289 -0.09739761 -0.054872055 -0.042290393 -0.30941868 -0.040473625 -0.15125261 0.054471254
-0.08644465 -0.010186205 -0.041409533 0.008025783 -0.14743164 -0.04698829 -0.1072429 0.067575306
-0.14663476 -0.094746485 0.09794028 0.03176749 -0.006019849 -0.11794167 -0.013331867 0.057401676
-0.055825695 -0.018935181 -0.09210032 -0.03927142 -0.030159919 0.0453854 -0.07254669 -0.084260896
0.028694244 -0.079286836 0.055249278 -0.0537158 -0.08866788 -0.044293616 0.04915278 -0.07731641
0.023990477 -0.06454928 -0.04575158 -0.09491959 0.06548328 -0.10975179 -0.104889646 -0.110164694
0.06971806 -0.020465933 -0.009892932 0.16260703 0.04593062 -0.04787934 0.08012358 -0.0068343612
0.091929875 -0.070297636 0.023979986 -0.058899347 -0.051108826 -0.029598163 -0.10535509 -0.065236025
0.0067088353 0.1106412 0.062144466 0.08140756 0.065120816 0.07229282 0.005741091 0.043523826
00000000: 6fa7 08be 47d1 11be 0554 6fbd 4c75 cb3d
00000010: 78b5 d13e 5a3d a13d e70b 7e3e 6ede 143d
00000020: 443f 32bd 17a4 aabd cc96 003e 5a7a 04be
00000030: 1df1 dc3d 1ab8 a53d c6f6 22be 61af b1bd
00000040: 37db 13be 5924 bebd 52cd b33d dd54 9ebc
00000050: 50fe f7bd cc27 40be 2dc8 c63b 4896 e33d
00000060: 94b7 e8bc 45bd 34bc 2606 21bd af15 923d
00000070: f9f8 c43d 562b dbbd 33f0 9a3d 277a 5b3c
00000080: e05a 863e 5493 e23c c19a 883c a76d 85bd
00000090: f7e1 45bb 9ebe aebc a712 a33d c02e 8e3c
000000a0: ef1c a2bb 17ba 9fbd b324 f0bd 78c9 033e
000000b0: 472a 8b3d a1ef 023d a072 b9bd 0d27 81bc
000000c0: 8de5 9c3d 0463 9b3c 90c5 51bd 72fd c43d
000000d0: 15d3 45bd 8858 963d 547f 13bd 330a 963d
000000e0: 0773 c13d 0243 413d 553c 323e 4307 4abd
000000f0: 5630 6f3d 615f a3bd 2061 213e 624b 9d3d
00000100: 5e47 05be 91ce 54be 2ff8 41be 4971 1cbe
00000110: e178 12bf 495e 80bd fd98 d2be 5b2f d2bb
00000120: b96d aabe 25c4 71be 568c 6bbe 6588 02be
00000130: aae8 5ebe 3df0 35be 6c5a 773c 9fa1 adbd
00000140: c5ce f13c 6a15 9cbe 3bd0 19be b3b5 cfbe
00000150: 8f4d 6cbe 19c8 a8be e015 e4bd fa95 0bbe
00000160: cdf8 d3be cda0 6fbe b790 4b3d 99ab 0fbe
00000170: 8a1a 8cbe ad3f 4bbe 957b 21be a7fd 37be
00000180: 459c 053d 3947 fabc 38b2 61bd de2c 2ebc
00000190: 4469 b2bc 6a19 f23e b0c4 eabe 54c8 17be
000001a0: 230e abbe 4b59 a5be d7a5 e6bd dbbd 66be
000001b0: f01a e33c 3651 633e 3da2 33be ff95 99bd
000001c0: 229b 65bc cb3b 06bf 9300 44be 3751 18be
000001d0: af9f 33be b2f8 d03c aa4a f5bd 2975 933e
000001e0: 6862 a9be 6678 c7bd 85c1 60bd b138 2dbd
000001f0: 206c 9ebe acc7 25bd f7e1 1abe 401d 5f3d
00000200: e509 b1bd 0ae4 26bc 0b9d 29bd 937e 033c
00000210: 52f8 16be cb76 40bd 2aa2 dbbd ec64 8a3d
00000220: 6c27 16be 720a c2bd ea94 c83d a11e 023d
00000230: 2742 c5bb 678b f1bd e76d 5abc 051e 6b3d
00000240: 7ca9 64bd f41d 9bbc 189f bcbd 12db 20bd
00000250: ef11 f7bc 0be6 393d 5c93 94bd fa90 acbd
00000260: 3110 eb3c 2361 a2bd 114d 623d 1905 5cbd
00000270: 8197 b5bd 396d 35bd 6d54 493d 1158 9ebd
00000280: ad87 c43c 6a32 84bd 0266 3bbd 3465 c2bd
00000290: 191c 863d 8cc5 e0bd 62d0 d6bd 079e e1bd
000002a0: 58c8 8e3d 2ca8 a7bc f715 22bc 7582 263e
000002b0: bf21 3c3d 201d 44bd d517 a43d c7f2 dfbb
000002c0: bb45 bc3d 35f8 8fbd ad71 c43c 7140 71bd
000002d0: 7d57 51bd d977 f2bc 69c4 d7bd 779a 85bd
000002e0: cad5 db3b da97 e23d 328b 7e3d 02b9 a63d
000002f0: 105e 853d 420e 943d c31f bc3b 0a46 323d

fc.weight f4 [1, 65]
0.13014099 0.115848035 -0.051268976 0.08712015 0.1045675 0.10410253 -0.11376691 -0.015433107
0.037584633 0.050871022 0.052240264 0.092405856 -0.081601635 -0.042413678 -0.15283976 0.095565066
-0.14104652 0.06601929 -0.12533206 0.053767733 -0.1015477 0.10367943 -0.143782 0.056243803
-0.06761576 -0.13465662 -0.050492454 -0.08684849 0.06951326 0.119735606 0.048780385 -0.02374464
0.002694395 -0.099051245 -0.10031021 0.13929904 0.11493806 0.06458637 0.073473915 0.10520801
-0.08192923 -0.04805759 -0.1027717 0.031118771 -0.024925834 0.0019341013 0.13362017 -0.10811424
0.045275502 -0.09074433 0.15467994 -0.0058962125 -0.05611968 0.023240622 0.05663444 -0.046031427
-0.07940109 -0.064426325 -0.0142300455 -0.10967711 -0.067078255 0.040081482 -0.06584023 0.107824005
-0.05840701
00000000: ae43 053e bc41 ed3d 6bff 51bd 0d6c b23d
00000010: 7c27 d63d b533 d53d a0fe e8bd 24db 7cbc
00000020: 58f2 193d 225e 503d e3f9 553d 483f bd3d
00000030: c21e a7bd f7b9 2dbd 0782 1cbe 9eb7 c33d
00000040: 806e 10be 1f35 873d 0c57 00be 8e3b 5c3d
00000050: 3ef8 cfbd e255 d43d 973b 13be e75f 663d
00000060: 227a 8abd 6de3 09be 2dd1 4ebd 9fdd b1bd
00000070: f85c 8e3d f137 f53d f1cd 473d 1f84 c2bc
00000080: 7294 303b 61db cabd 706f cdbd 68a4 0e3e
00000090: a564 eb3d dc45 843d 7e79 963d 4c77 d73d
000000a0: 83ca a7bd 09d8 44bd f879 d2bd cbec fe3c
000000b0: 4331 ccbc ac81 fd3a bad3 083e 006b ddbd
000000c0: ce72 393d 2ad8 b9bd 6b64 1e3e 0435 c1bb
000000d0: c0dd 65bd 1e63 be3c 84f9 673d 738b 3cbd
000000e0: 0a9d a2bd f3f1 83bd 2325 69bc 659e e0bd
000000f0: 5360 89bd 7b2c 243d 3ed7 86bd d5d2 dc3d
00000100: 303c 6fbd
