Cheyi Wu/FinalProject/LSTM/IBM/stock_lstm_model.pth (torch, 23975 bytes, 9 tensors)

lstm.weight_ih_l0 f4 [80, 7]
000000 c1 7a ca 3d d5 77 19 3d da b0 98 bd 2c 1e 0c 3e
       0.09886695 0.037467796 -0.07455607 0.13683385
000010 c9 34 80 3c d2 9f 6d 3e 45 44 a3 bd f4 26 ad 3e
       0.01565017 0.23205498 -0.07972006 0.3381878
000020 a2 a6 21 3e 87 55 3b 3e fc 74 b5 3e 79 2d 9e be
       0.15786222 0.18294345 0.35440814 -0.30894068
000030 f1 34 6a bd 7b 47 49 3e c2 67 8e 3e 05 50 81 3e
       -0.057179395 0.19656174 0.27813536 0.25256363
000040 ab 5f 7b 3d 99 24 3a 3e 95 01 54 3e a0 a4 3c 3e
       0.061370533 0.18178023 0.20703728 0.18422174
000050 e1 34 00 be f9 3c d3 3d 80 72 f8 3e 27 87 42 3e
       -0.12520172 0.10314364 0.48524857 0.18996869
000060 2b 68 d4 3e e2 eb ad bc 0a a6 32 3e 6e ea 44 be
       0.41485724 -0.021230642 0.17446151 -0.19230053
000070 4f 26 91 bc 73 f4 fe 3d c4 8e 0e 3e 5b 7a 85 3e
       -0.017718462 0.12448969 0.13921648 0.26069912
000080 f0 68 94 bd 1e 6e 8b 3e 0b 87 2d 3e 24 0b 1b 3e
       -0.07246578 0.2723245 0.16946046 0.15140969
000090 7e 77 84 3e 22 a6 88 3e 68 a2 06 3d 6a 17 60 3e
       0.25872415 0.2668925 0.032869726 0.21883932
0000a0 32 78 02 bc b6 2f 67 3b 01 1e e8 3e 42 d8 17 3f
       -0.007963227 0.003527624 0.4533539 0.5931436
0000b0 cd 89 ca 3e c2 02 d0 3e 3c c0 ea bd 0d 63 93 3e
       0.3955826 0.40627104 -0.11462447 0.28786507
0000c0 7e c6 ad 3e 49 5a 1b 3e b4 81 c2 3e 96 91 e2 3d
       0.339405 0.1517116 0.3798958 0.110629246
0000d0 95 2f e6 3e 12 50 ee bd dd b0 72 3e 37 84 9b 3e
       0.44958177 -0.11636366 0.2370028 0.3037431
0000e0 b8 8b 01 3e 0e e6 ab 3b da dd 06 3e 11 a9 57 3e
       0.12650955 0.0052459305 0.13170567 0.21060587
0000f0 89 68 9e 3a 2c 5f 19 3e 27 e8 8b be ec 5c ca 3e
       0.0012085597 0.14977711 -0.27325556 0.3952402
000100 83 d7 85 3d de 75 82 3e b0 9b 33 3d c2 b8 46 3e
       0.06535246 0.2548055 0.043849647 0.19406417
000110 22 11 b3 bc a7 df 0c be 4a 01 6d 3e d5 22 7a 3e
       -0.021858755 -0.13757192 0.23145023 0.2442735
000120 b6 95 97 3e fd 35 ad 3e 23 8a 88 3e 04 af 80 3e
       0.29606408 0.33830252 0.2666789 0.25133526
000130 4c b9 27 3e 12 49 cf 3d 53 c8 78 bd 3b 3c ac bd
       0.16379279 0.10121359 -0.06073792 -0.084099256
000140 c1 54 73 3e d4 5c 4b bd 6a 51 12 3e e4 73 b1 3d
       0.237628 -0.049649075 0.1428887 0.086646825
000150 df aa 15 be bd c8 c6 bd 1c 46 87 bb a1 66 e2 3d
       -0.14615963 -0.097062565 -0.0041282307 0.11054731
000160 22 49 c7 bd a2 87 38 bd 93 37 e7 bd 93 a6 53 3e
       -0.09730746 -0.045051225 -0.11289897 0.20669012
000170 af 7e 85 3d 16 00 9c 3e da f7 96 3e 2a f3 1a bd
       0.065183036 0.30468816 0.2948597 -0.037829556
000180 b3 92 92 bd 42 59 94 be 29 0e 04 3e d3 58 aa 3e
       -0.07156887 -0.28974348 0.12896027 0.33270893
000190 6b 89 15 3e c3 b1 88 3e ae 99 8f be 51 f4 26 be
       0.14603202 0.2669812 -0.28046936 -0.16304137
0001a0 36 ae 0a be d4 22 5c 3e 17 bb 76 3e a1 3b 6e 3e
       -0.13543019 0.21497661 0.24094807 0.23264934
0001b0 53 8f 8a 3d db 9e 85 3e 4a 13 1b bc 5f ba 98 be
       0.06765618 0.2609776 -0.009465048 -0.2982969
0001c0 80 3e df bd 7d d5 e6 3d 22 85 93 3e 68 89 4d 3e
       -0.10900593 0.112711884 0.2881251 0.20071948
0001d0 1d b4 93 3d a9 7a f4 bd 8e 51 63 3e df 5f 99 3e
       0.07212088 -0.11937458 0.2219908 0.29955956
0001e0 0e 87 a9 3e 3c e2 aa 3e 5a 34 17 3f 2b 1b fc bd
       0.3311085 0.33375728 0.5906426 -0.123098694
0001f0 f1 fb 59 3e c9 1d 0b 3f 33 6c aa 3e 4c 47 64 3e
       0.21287514 0.54342324 0.33285674 0.22292823
000200 4b 24 d2 3e e3 aa a4 3d d7 81 4e 3e 76 96 8e bd
       0.41043314 0.080404066 0.20166717 -0.06962292
000210 c0 25 7a 3e c8 15 ba 3e f5 c2 b1 3e a0 42 b3 3d
       0.24428463 0.36344743 0.34719053 0.08752942
000220 20 e2 15 3e 1f 60 5c bc 49 47 7d 3e b1 a7 d3 3d
       0.14637041 -0.013450651 0.24734224 0.10334719
000230 72 15 03 3e 0e 03 b7 3e 7b 2f 0d 3e 21 9f 97 3e
       0.1280115 0.35744518 0.13787644 0.29613593
000240 a3 11 c4 bc 44 43 0a 3d ed 60 9f 3b b6 b2 a0 3e
       -0.023934191 0.033755556 0.0048638494 0.31386346
000250 ca ac 9e 3e b2 7e 0e 3e 5b e9 a4 3e 61 07 4a be
       0.30991203 0.13915518 0.32209286 -0.19729377
000260 22 53 7b be 45 d5 c7 3d f7 a5 06 3e 2b 1e af 3e
       -0.24543431 0.09757475 0.13149248 0.34202704
000270 88 8e df 3e 50 4a 1b 3e e1 9b b3 3d a8 ec 30 be
       0.4366343 0.15165067 0.08769966 -0.17277777
000280 bb a4 fc 3d ce 16 e1 3d 47 12 8c 3e 98 f0 f4 3e
       0.12336107 0.10990678 0.27357695 0.47839808
000290 46 70 f8 3e 38 6c cf bd 08 b7 32 3d d0 d8 84 bd
       0.48523158 -0.10128063 0.043631583 -0.06486666
0002a0 e5 b5 2f 3d ed c6 9d 3d 4c c0 47 3e 36 46 24 3e
       0.042898078 0.07703958 0.19506949 0.16042408
0002b0 41 24 24 3d 28 b0 85 3e cf 4a a6 3e 97 08 a0 bb
       0.040073637 0.2611096 0.3247895 -0.0048838365
0002c0 45 e9 f8 b9 69 3b 44 3e 35 b7 c7 bd 53 13 97 3d
       -0.00047476045 0.19163288 -0.09751741 0.07376733
0002d0 28 22 31 3e 54 73 3f bd 5e 8f 25 3f ba 81 a5 3e
       0.17298186 -0.046740845 0.64671886 0.32325536
0002e0 ad b3 29 3f 6d 29 24 3f 86 34 ae bd 20 ab 28 be
       0.6628979 0.6412571 -0.08506112 -0.16471529
0002f0 3d 3e 28 3f 2b c8 5d 3e 80 27 05 3e 16 b8 ce 3e
       0.6571997 0.2165839 0.1300335 0.4037482
000300 7d 0e ac 3e 31 49 1f be cc 6a f2 3d ad fb f8 3e
       0.33604804 -0.15555264 0.11836776 0.48629513
000310 ee 41 6c 3e e0 b9 01 3d 6a 15 24 bb 3f 90 8c 3e
       0.23072025 0.031671405 -0.0025037178 0.274538
000320 af ce 27 be e2 75 5f bd f0 43 ff 3c 7b d0 b4 3e
       -0.16387437 -0.05455578 0.031160325 0.35315308
000330 c6 48 33 3e 8e 67 cc 3e cb 7e c7 3d 14 46 37 3c
       0.1750823 0.39922756 0.09740981 0.0111861415
000340 16 57 9a 3d c6 09 0b be 25 58 f1 3e 62 78 10 3e
       0.075361416 -0.13577947 0.4713756 0.14108422
000350 28 e9 22 3e f8 07 cb 3e 2d 2f 11 3e d8 e0 15 3e
       0.15909255 0.39654517 0.14178152 0.14636552
000360 c3 4a 7e 3e 84 e4 2a 3e 86 97 8c 3e a3 e2 05 3e
       0.24833207 0.16688734 0.27459353 0.13074736
000370 7d 04 05 3e 62 fd 32 3d 55 d1 e6 bd 6b 0e 99 3d
       0.12989993 0.043698676 -0.11270396 0.07473453
000380 93 e0 1d 3e d4 1e 91 3e 5b b4 64 3e 07 08 d8 3d
       0.154177 0.28343832 0.22334425 0.10548406
000390 56 c7 08 3d ed 90 28 3e f0 a2 37 bd 94 7d 7b 3e
       0.033393227 0.16461535 -0.044833124 0.24559623
0003a0 75 76 d7 3c 0a 34 3f 3e b4 62 40 bd 1f e6 78 3d
       0.026301602 0.18672195 -0.04696913 0.060766336
0003b0 be 0f 69 bd 0d 85 8c be d2 28 9c 3e 4d 17 0a 3f
       -0.05689978 -0.2744526 0.30499893 0.53941804
0003c0 5c 7f 24 3e ab c3 e0 3e 81 da ab be 3e e0 9b bd
       0.16064209 0.43899283 -0.33565143 -0.0761113
0003d0 cc 73 c7 3e 10 08 cf 3e b1 a4 8c 3d 8a bc 60 3e
       0.38955534 0.4043584 0.0686735 0.21946922
0003e0 b1 3b b9 3d fc 53 08 3e c4 77 13 3c 7d c2 e6 bd
       0.09044588 0.13313287 0.009000722 -0.112675644
0003f0 61 10 dd bc 66 00 92 3d 51 c5 4c 3b b9 71 ad 3d
       -0.02698535 0.07128982 0.003124554 0.084689565

lstm.weight_hh_l0 f4 [80, 20]
000000 fd 05 35 bd 62 d5 cb 3d f1 4f 85 3e dc 97 78 3e
       -0.044195164 0.09952809 0.26037553 0.2427668
000010 a1 3d 10 be 7f a4 55 3e 36 ff 5a 3e 18 b7 6d 3e
       -0.1408601 0.20863532 0.21386418 0.23214376
000020 07 bd 87 bd d6 4a 87 3d 69 ad 92 bd a8 71 82 be
       -0.06627851 0.06606071 -0.071619816 -0.25477338
000030 4b c4 6f bd 1b d8 e5 bd c8 f1 12 be 94 9f 15 3e
       -0.05853681 -0.112228595 -0.14350045 0.14611655
000040 1e 6c 90 3d 08 0a af bd 24 70 bc bd e4 e5 ee 3d
       0.07051872 -0.08546835 -0.092010766 0.11664942
000050 09 ab ce 3d 8e 28 92 be 57 63 3a bd e3 a1 00 3c
       0.10091216 -0.28546566 -0.045504894 0.007851097
000060 07 5b 40 be 47 21 3e 3e dc c3 c4 bd 7a e0 77 bd
       -0.18784724 0.18567382 -0.0960767 -0.060516812
000070 c2 e4 0b be a2 78 d5 3c 81 7f fe bc 9a a8 08 3d
       -0.13661483 0.026058499 -0.031066658 0.033363916
000080 81 cb 39 3e f9 67 4d 3c bc 85 40 3e b0 be a7 3d
       0.18144037 0.012536996 0.18801016 0.08190668
000090 cf 2f 59 3e bb 40 9f 3d ca b8 6c be 31 c7 6f be
       0.21209644 0.07776018 -0.23117366 -0.23415829
0000a0 0a 4e 2d 3e 6c ec 0f bc e2 ec 4f 3e 65 5a 1e be
       0.16924301 -0.008784395 0.20305207 -0.1546417
0000b0 37 3b 1d ba cf 64 93 3d 73 8b 3d 3d 11 2f 05 be
       -0.00059978984 0.07196962 0.046275567 -0.13006236
0000c0 4c e6 ef 3d cb 47 71 bd 6c d6 c7 3d 5f 57 5b be
       0.117138475 -0.058906358 0.097576946 -0.21420048
0000d0 ec 6c 19 3e 94 02 f7 bd 0b 34 1e 3d 9a 4b e7 bc
       0.14982957 -0.120610386 0.03862385 -0.028234292
0000e0 7f 59 fc ba 63 11 93 3d 11 9e 29 3e fb c8 0a be
       -0.0019252746 0.07181051 0.16564204 -0.1355323
0000f0 15 c6 19 be af bc 38 3e 4f 46 24 bc cb 49 6c 3d
       -0.15016969 0.18040727 -0.0100265285 0.057687562
000100 80 3b bf 3d da ed 22 be 68 ae 8c 3d fb 6d 28 3d
       0.093375206 -0.15911046 0.06869203 0.04112051
000110 be ae 3f 3e af 2b 1d 3e 05 31 a5 bd 57 1b 8c bc
       0.18719003 0.15348695 -0.0806599 -0.01710288
000120 91 49 9c 3c 74 a9 de bd f9 de bd 3c 3b 1e 6e 3e
       0.019078048 -0.10872164 0.02317761 0.2325372
000130 7a e9 4b bd 88 45 e7 bb 03 d8 cd bd bb 09 34 3a
       -0.049783207 -0.0070578493 -0.100509666 0.0006867905
000140 dc 26 5b be c1 fa 4d 3d 7f 83 5c 3e 2c 06 c9 bd
       -0.21401542 0.050287966 0.21534537 -0.0981563
000150 f3 b3 9e be d8 9d ea 3d 1e 8b 90 3e 9e f4 9a bd
       -0.30996665 0.114558876 0.28231138 -0.07566188
000160 db 7f 04 be a6 ec 94 bd 2e 14 d0 3d 69 18 2d bd
       -0.12939398 -0.072716996 0.10160099 -0.042259607
000170 cd b1 6d bd da 8f 19 3c 01 1c dd 3c ef 35 dd ba
       -0.058030892 0.009372676 0.026990892 -0.0016877035
000180 37 ed 1f be 0d e9 eb 3d 4e f8 94 3d d6 73 04 3b
       -0.15617834 0.1151906 0.07273923 0.0020210645
000190 77 f3 23 3e 20 b7 08 3e 57 1c 2e 3e c2 4e dd 3d
       0.16010843 0.13351107 0.17002998 0.108060375
0001a0 b9 ab 9b 3c e9 7d 23 3e 5b 1a a8 3d 73 a9 08 be
       0.019002782 0.15966 0.08208152 -0.1334589
0001b0 11 c6 84 bd b1 1d b5 3d 27 83 3f bb 8b 5d 83 be
       -0.06483091 0.08843554 -0.002922246 -0.25657305
0001c0 19 89 36 bd ea 46 72 3c 13 ae 4d be 56 c2 89 3d
       -0.04456434 0.014787415 -0.20085935 0.0672652
0001d0 3c bd 8b bc 31 43 9b bb af 35 49 3e 8d 10 83 3e
       -0.017058007 -0.0047382344 0.19649385 0.25598565
0001e0 0b 82 bc 3d 19 c4 0a be 1f 67 6c bd 04 79 a2 3d
       0.09204491 -0.13551368 -0.05771553 0.07933238
0001f0 8e 12 0d be 07 89 bb bd 4e cb 1a 3e d2 c1 e0 3c
       -0.1377661 -0.09156995 0.15116617 0.02743617
000200 68 3a 6c 3d 4d cb 21 be e0 59 26 be a7 52 16 bd
       0.057672888 -0.1580021 -0.16245222 -0.036699917
000210 4f 44 89 bd e1 85 25 be de ef 00 be 45 17 2c bd
       -0.06702482 -0.16164352 -0.12591502 -0.04201438
000220 7a 3d 7a bd 6f c1 4f bc d8 e6 38 be 23 ad 20 3e
       -0.061093785 -0.0126803955 -0.1805681 0.15691046
000230 de 74 8d bd 6e 1d 0d be d0 a5 00 3d 03 01 83 3e
       -0.06907056 -0.13780758 0.03140813 0.2558671
000240 fa 9c 50 bd d5 8d 65 bd f2 e9 4d 3e 94 3f 51 3c
       -0.050930955 -0.056043465 0.20108774 0.012771506
000250 54 61 0c 3e fa 11 b1 bd 03 0e 6d be b8 71 12 3e
       0.13709003 -0.08646007 -0.23149876 0.14301193
000260 10 f4 dd bd e8 c4 5f be 5b e0 57 bd b9 c0 3e 3e
       -0.10837567 -0.21852458 -0.052704196 0.18628205
000270 4e 9f 8a be c4 d5 e6 bd 1a d8 50 be bb 8a 07 be
       -0.27074665 -0.11271241 -0.20394936 -0.13236515
000280 52 23 cc 3d 1a ad a9 3d 11 40 8a 3e 60 dd c7 3d
       0.09967674 0.0828497 0.27002004 0.09759021
000290 f4 32 a3 bb 43 71 1d be ff fc 0c be 8f cd 41 bd
       -0.0049804393 -0.15375237 -0.13768385 -0.047315177
0002a0 70 e4 e3 3d 89 39 ca bd 04 2e 01 3d d0 53 2d be
       0.11127555 -0.09874255 0.031538025 -0.16926503
0002b0 98 37 1a 3e c4 be df bd d6 15 20 3e 15 0c 4a 3d
       0.1506027 -0.109250575 0.1563333 0.04932793
0002c0 c4 cf b9 3d 1b 22 0b bc 91 1d 00 3e 49 b0 bf bd
       0.09072831 -0.008492018 0.12511279 -0.093597956
0002d0 40 7c 71 3d 5c e2 fd 3d 6e 36 f9 3d 2a 14 8d 3d
       0.058956385 0.1239669 0.12168585 0.068886116
0002e0 fd 48 a6 3d 4f 36 88 bc 76 17 af 3d 5b 18 30 3e
       0.0811939 -0.016627459 0.08549397 0.17196791
0002f0 57 28 86 be 06 44 f3 bc 27 79 38 be 36 68 51 3c
       -0.26202652 -0.029695522 -0.18014966 0.0127811935
000300 f8 e2 0b be f5 1b c9 3d 9b c4 0c bd 03 d3 9a bc
       -0.136608 0.098197855 -0.034367185 -0.018899446
000310 52 37 75 be 1d 1e 26 3e 80 06 69 bd 7c 32 05 bd
       -0.23946884 0.16222425 -0.056890965 -0.03251885
000320 f8 0c 8a be fa ba a8 be 0c 6c 1f 3e d5 4c 34 3e
       -0.2696302 -0.32955152 0.1556856 0.17607434
000330 09 73 8d bc c7 67 c3 3c 3d 5f 97 3d 0f 6d a0 bd
       -0.017266767 0.023853196 0.07391212 -0.07833301
000340 27 d8 05 bd e2 b1 8e be c7 01 ce bd 98 32 53 bd
       -0.032676842 -0.2787009 -0.10058933 -0.05156192
000350 0b 5c 29 3e f8 58 97 be 55 b8 fa bd bb 30 90 3d
       0.16539018 -0.29560065 -0.1224219 0.070405446
000360 f5 c9 d4 3b 28 76 a6 bd b6 b2 52 bd e8 6a 69 3e
       0.0064938017 -0.08128005 -0.051439963 0.22794688
000370 7a 91 1e 3d eb b8 7f be 9f 8f 51 3e 48 47 50 3d
       0.038712956 -0.24972884 0.20464943 0.05084923
000380 4d 6d 64 be d3 25 a9 3b bb 45 06 be 9c 86 c7 3d
       -0.2230732 0.0051619797 -0.13112538 0.097424716
000390 33 93 59 be a8 cc 9c be 8e ff 69 be 0e d8 00 be
       -0.21247558 -0.3062489 -0.22851393 -0.12582418
0003a0 b4 16 62 bd 99 21 6a 3d e5 ca 0f be b3 fe 8b 3e
       -0.055197433 0.057160947 -0.14042242 0.27342758
0003b0 d9 a1 a1 be ad c1 00 3e eb 3f 83 3e 03 8d 16 3e
       -0.31568792 0.12573881 0.25634703 0.14702229
0003c0 8a f5 7e be fa 72 fe 3d 92 79 0a 3e b2 2e 87 3e
       -0.24898353 0.12424274 0.13522938 0.26402813
0003d0 90 68 0d be c1 ca 02 3e 53 ec 07 3e 20 e1 10 3e
       -0.13809419 0.12772657 0.13273744 0.14148378
0003e0 e8 80 67 be 1d 63 b5 3d ed b6 79 be a4 f0 28 be
       -0.22607768 0.08856795 -0.24386187 -0.16498047
0003f0 44 75 6e 3e cb 69 9f bd 61 dd 82 be d1 ed b4 bd
       0.23286921 -0.0778385 -0.25559524 -0.088344224

lstm.bias_ih_l0 f4 [80]
000000 99 77 89 bd e7 07 38 be a4 32 57 3e 6f 16 65 3e
       -0.067122646 -0.17971765 0.21015412 0.22371839
000010 8f fe 83 3e eb ad 1a be c0 4e c7 3d 01 1b 22 be
       0.2578015 -0.15105407 0.09731817 -0.15830614
000020 18 d7 e2 3d a7 56 05 be 54 57 82 3e 3f 5d 07 be
       0.11076182 -0.13021336 0.2545725 -0.13219164
000030 d7 fd 72 3c 5a 5a aa bd 28 7d 25 3e c0 40 78 3d
       0.014831028 -0.083180144 0.16161025 0.060608625
000040 ad b2 1b 3e 28 5d dc 3d e2 7f 1b 3c a9 29 80 3e
       0.15204878 0.10759956 0.009490939 0.25031784
000050 12 e2 80 3d 0f 49 25 3e bc 57 5a 3e 8c fc 12 bb
       0.062931195 0.16141151 0.2132253 -0.0022428362
000060 22 e2 5b 3e 69 48 f9 3d b5 3a 7a bd e7 1a 5d be
       0.21472982 0.12172014 -0.061091144 -0.21592294
000070 68 a0 8c 3c ec 41 47 be 02 b6 e4 3d 23 8e e2 bd
       0.017166331 -0.19458741 0.11167528 -0.11062267
000080 a6 cf 5b 3e 13 60 72 3e 03 3b af bc ab e2 14 3e
       0.2146593 0.23669462 -0.021390444 0.14539592
000090 f9 a7 76 3d 1a 93 6a 3d 6a 2e 39 be 18 75 38 3e
       0.060218785 0.057269193 -0.18084112 0.18013418
0000a0 e8 c2 a0 be bc 42 4d be 73 38 55 3e a9 a8 11 3e
       -0.31398702 -0.20044988 0.20822315 0.14224495
0000b0 f4 46 26 be 81 7e 2b 3d 8f b1 5d 39 11 4f 1a be
       -0.16238004 0.04186869 0.00021142348 -0.15069224
0000c0 46 d5 4c 3d 4f 61 b2 bd 67 7e 72 bd 97 85 0d be
       0.05000808 -0.087099664 -0.059202578 -0.13820492
0000d0 19 fa 25 3e 5e 9f 95 3d 2a 9d 4d be 9c 70 a7 3d
       0.16208686 0.073057875 -0.20079485 0.081757754
0000e0 fd ca e2 3d d5 53 13 bd 07 34 13 be aa 1c a7 3e
       0.11073873 -0.03596862 -0.14375316 0.32639056
0000f0 71 ba 6b 3c 2b 65 44 3e b7 1a 71 3e 32 9d 19 bd
       0.014387713 0.19179218 0.23545347 -0.03750343
000100 31 19 95 3e da 64 ab bd 6a 09 05 3e f1 78 a6 bd
       0.29120782 -0.08368845 0.12991872 -0.081285365
000110 ce b9 48 3e 55 97 76 3e 66 12 84 3e 87 ea da 3d
       0.19602129 0.24081166 0.25795287 0.10689264
000120 48 f9 b9 bd 7d b2 14 be a0 c3 61 bd ee 1c 8d 3e
       -0.0908075 -0.14521213 -0.055118203 0.27561134
000130 3e c0 6e 3c 60 94 ee 3c 04 b9 5a 3e 74 3e 6e 3e
       0.014572201 0.029123485 0.2135964 0.23266011

lstm.bias_hh_l0 f4 [80]
000000 7c 53 70 bd 02 55 0c 3e 53 46 4d 3e 2b 97 59 ba
       -0.058673367 0.13704303 0.20046358 -0.0008300419
000010 cc 76 61 3e 5a 42 44 3e 8a 89 5a 3d 54 3d b0 bd
       0.22017974 0.19165936 0.053353824 -0.086054474
000020 df 2f 41 3d 7e e0 c6 bd 7a 98 cb 3c 71 5c 4d 3e
       0.047164794 -0.09710787 0.02485298 0.20054795
000030 81 5c 51 3d f3 cc 7d 3d c3 48 fe 3d 7a 1f 8d 3e
       0.05111361 0.061963033 0.12416222 0.27563077
000040 ff ca d5 3c cb c4 ae bd f3 8f 29 be ba 2e 0b 3e
       0.026097773 -0.08533629 -0.16558819 0.13592044
000050 ff 7e 10 3e 41 d7 44 be 69 61 e9 3d bc fb 59 3e
       0.14110945 -0.19222738 0.11395533 0.21287435
000060 76 53 1d 3e af af 45 3e 39 b5 9f 3d 10 32 8e bb
       0.15363869 0.19305299 0.07798237 -0.004339464
000070 73 52 4c 3e f7 77 84 bd 28 49 3e 3c 93 eb 1b bd
       0.19953327 -0.06468194 0.0116141215 -0.038066458
000080 c9 ff 10 be 48 b8 83 3e d1 a6 74 bd b5 73 9d 3e
       -0.14160074 0.25726533 -0.0597294 0.3075234
000090 80 db 9b 3e b3 2a 81 3d 0e 60 30 bd a2 d4 1a be
       0.30440903 0.06306972 -0.043060355 -0.15120175
0000a0 4d e4 d9 bc 98 8d 7a be ad 55 c1 bd ae 3a 90 3e
       -0.02659812 -0.24468076 -0.094401695 0.2816977
0000b0 76 28 49 3d 8f d5 47 3e da 1f 2b 3e a1 ca 67 3e
       0.049110852 0.1951506 0.16711369 0.2263589
0000c0 20 c0 83 be e0 7c 82 bd c5 2a f2 bd 83 b9 63 be
       -0.25732517 -0.06371474 -0.11824564 -0.22238736
0000d0 62 29 49 3e 28 bf 75 be 8c fa 49 be 57 57 b7 bc
       0.19644693 -0.23998702 -0.19724482 -0.022380514
0000e0 e7 fe 88 3c b9 1b 4a be 42 52 99 bd 3a 94 a4 3e
       0.01672311 -0.19737138 -0.074863926 0.32144338
0000f0 98 55 51 3e 52 9c 9c 3c d1 4f 14 3e ad 19 99 3e
       0.20442808 0.019117508 0.14483573 0.29902402
000100 3a 15 19 3e 68 e2 f3 bd 9d ad bb 3d c0 2a 55 bc
       0.14949504 -0.11908418 0.091639735 -0.013010681
000110 c3 60 d4 3d f6 9a 5d bd 9c 52 f7 3d 7b ed e2 bd
       0.10370018 -0.05410286 0.12076303 -0.11080452
000120 b7 d2 87 3d a9 f5 ad 3d 53 4e 8d 3e 90 14 6d 3d
       0.066319875 0.084941216 0.2759882 0.057880938
000130 67 70 87 3e b6 92 97 3d a0 f2 40 3e e5 92 b8 3d
       0.26452944 0.0740103 0.18842554 0.09012393

fc1.weight f4 [32, 20]
000000 e9 a3 a6 be 0e 80 5d be ff 36 71 3e d8 57 9b 3e
       -0.3254693 -0.2163088 0.23556136 0.30340457
000010 98 ee 68 be 27 85 c5 3e 87 24 3b 3e 76 b3 c1 3e
       -0.22747266 0.3857815 0.18275653 0.3783223
000020 ab dc 09 be d2 0f b1 be a1 ab d5 be df ae 49 bb
       -0.13463084 -0.34582382 -0.41732505 -0.0030774397
000030 50 81 5e 3e 0c 5d 11 be 2c b5 cb bd f4 72 82 3e
       0.21729016 -0.14195651 -0.09946665 0.25478327
000040 a0 4e 48 be 49 bb 61 bd 9a be 14 3c 59 8f 4f 3d
       -0.19561243 -0.05511025 0.009078646 0.050673816
000050 a7 8f ba be 39 de c0 bd 7c 64 c0 3e be 65 1c 3c
       -0.36437723 -0.094173856 0.37576663 0.009545742
000060 8f 23 70 bc 48 fc dc 3c b0 bf e8 3e 27 41 c4 3e
       -0.014656915 0.026975766 0.45458746 0.38330957
000070 86 bc ab be aa f1 ef bd 1f 0f 99 be fe fc 0b be
       -0.3354227 -0.11716016 -0.2989435 -0.13670728
000080 5b f6 33 3e 95 79 b1 be a8 ea 8c be 8e c1 30 3e
       0.17574446 -0.34663072 -0.2752278 0.17261335
000090 0f 65 cc 3c 80 bd 02 be 0d 5e 5b 3e 43 79 dc 3e
       0.024950532 -0.12767601 0.21422596 0.43061265
0000a0 df ee 9b be f7 a6 d9 bd a1 29 15 3e b3 9f 18 3e
       -0.30455682 -0.10627549 0.14566661 0.1490467
0000b0 b4 cf a0 be 49 c9 0b 3e 2e 75 66 3e d7 cb 2b 3e
       -0.31408465 0.13651003 0.22505638 0.16776977
0000c0 b3 3d aa be 2e a4 c5 be 2e 65 cc bc 5a 32 33 be
       -0.33250198 -0.38601822 -0.02495059 -0.17499676
0000d0 35 0a 9e 3e 56 cf e1 be f4 4e b3 be a2 cb d4 3e
       0.30867162 -0.44103497 -0.35021174 0.4156161
0000e0 d2 b2 ac be 1f 78 85 be 54 29 ac 3e 8e 11 a8 3d
       -0.3373018 -0.26068208 0.3362528 0.08206473
0000f0 0c 74 22 be 8b 61 25 be c4 25 3f 3e 16 6b f1 3d
       -0.15864581 -0.16150491 0.1866675 0.11788003
000100 ff a4 f0 bd 8e 9e 9c 3e 5d d6 02 3e df 1a 37 3e
       -0.117502205 0.30589718 0.12777086 0.17881344
000110 9c d3 34 be b7 84 b1 be 20 38 a8 be 0d aa 9f be
       -0.17658848 -0.34671566 -0.3285532 -0.31184426
000120 7f c6 31 3e 9f c1 39 bd 37 1c a2 be a1 11 3b 3e
       0.17360877 -0.045350667 -0.3166215 0.18268444
000130 be 06 df bd f2 7f 6c be 17 85 f6 3d 2e 6e ad 3e
       -0.10889958 -0.23095682 0.120371036 0.33873123
000140 87 88 85 be 09 8d 99 be fb 20 29 3e 6d e3 af 3e
       -0.26080725 -0.29990414 0.16516487 0.343532
000150 66 0f a8 bd 68 d0 d4 3c 7d 85 c7 3e 48 58 98 3e
       -0.08206062 0.025978282 0.3896903 0.29754853
000160 68 15 42 bd 6c 56 81 bd d6 02 9e be ba 5b b9 be
       -0.047383696 -0.06315312 -0.3086154 -0.36202794
000170 57 b5 2c 3e 56 fd c9 be 9e 16 ee bd 1d 5d 7b 3d
       0.1686605 -0.39451092 -0.11625408 0.061368097
000180 11 e0 ae be e4 4f c1 bd 3c 3f be 3d 42 a8 b5 3e
       -0.34155324 -0.09439066 0.09289405 0.35479933
000190 47 10 43 be 75 94 d2 be ca 25 48 3e a5 29 2a 3e
       -0.19049178 -0.4112889 0.19545665 0.16617449
0001a0 b9 33 af be bb d3 cc 3e 40 49 e8 3e 28 4d de 3d
       -0.3421915 0.40005288 0.45368385 0.1085456
0001b0 ac 18 c0 be f0 5f 71 be 93 1f e5 bd 8a 62 13 be
       -0.37518823 -0.23571754 -0.11187663 -0.14393058
0001c0 4d b5 f3 3d 19 1c 09 be 90 c7 08 be fe e2 e7 3e
       0.11899815 -0.13389625 -0.13357377 0.4529037
0001d0 ab 0a 76 be 19 d8 dd be 70 db ad 3e eb fd 4c 3e
       -0.24027507 -0.43328932 0.3395648 0.20018737
0001e0 83 ea de be b4 fd 21 3c 96 e0 a2 3e 75 ad 9a 3e
       -0.43538293 0.009887148 0.3181197 0.30210462
0001f0 73 d2 6a be 5b 8a e0 3e 26 69 c4 3e 18 ee 20 3e
       -0.22931843 0.43855557 0.38361472 0.15715826
000200 c8 9f 79 be 12 0e bf be 9e 71 e2 be 33 cc 83 be
       -0.24377358 -0.37315422 -0.44227308 -0.2574173
000210 a7 57 56 3e 22 43 09 bd 73 f5 82 be 6c af ca 3d
       0.20931874 -0.03351129 -0.25577888 0.0989674
000220 d0 1e 9a be f0 57 c3 be 4c f2 69 3e 27 7b 13 3e
       -0.30101633 -0.38153028 0.22846335 0.14402448
000230 8b 18 ff bd f8 47 8f be c8 6c 97 3e 61 5c b4 3e
       -0.12455853 -0.27984595 0.2957518 0.3522673
000240 77 80 d6 be 0e 6f 29 3e 75 6c a1 3e 80 ae 92 3d
       -0.41894886 0.1654627 0.3152806 0.071621895
000250 cc ac b5 be 52 3c 88 be 0b 2c c6 be bc c1 4b be
       -0.35483396 -0.2660852 -0.38705477 -0.19898123
000260 99 2c 24 3d 61 37 9c be 75 ec 37 be 40 0e 5d 3e
       0.040081594 -0.30511 -0.17961295 0.21587467
000270 f2 06 54 be 4b b8 64 be 72 de 95 3e 1b 73 70 3d
       -0.20705774 -0.22335927 0.29271275 0.058703523
000280 5f 13 d6 3c 55 98 0b 2c 3d ad d8 bc 91 fa d8 bc
       0.026132284 1.983765e-12 -0.026449794 -0.026486667
000290 f6 89 d6 3c 9d a3 d8 bc 69 f3 d5 bc d3 e9 d7 bc
       0.026188832 -0.026445204 -0.026117044 -0.026356613
0002a0 8f ed d8 3c 2f 30 d6 3c 79 2f d8 3c d5 c9 d8 3c
       0.026480464 0.026146023 0.026389824 0.026463429
0002b0 5b 9c d6 bc 6b b0 d6 3c fe 4c d7 3c c7 f0 d6 bc
       -0.026197603 0.02620717 0.02628183 -0.026237858
0002c0 e0 44 d9 3c 25 d0 d6 3c 97 3e d8 bc fb 87 d7 bc
       0.0265221 0.026222298 -0.026397033 -0.026309958
0002d0 3e 3d 1a bd 53 2d ad be 90 a5 41 3e fd ad 90 3d
       -0.03765606 -0.33823642 0.18910813 0.07064436
0002e0 7e 27 a7 be 39 5a d2 3e b6 ca 61 3d 7e 05 15 3d
       -0.32647318 0.4108446 0.05512496 0.03638219
0002f0 c5 9c 36 be 44 2b 11 be 83 92 7a be 28 08 d5 bd
       -0.1783324 -0.14176661 -0.24469952 -0.10401946
000300 15 63 e0 3e 1b 70 8c be 5a ea b6 be 6f 0e 8c 3c
       0.43825594 -0.2742928 -0.3572567 0.017096726
000310 70 46 6a be 52 f4 2e be d2 2f a1 3e 6c 5c 0a 3e
       -0.22878432 -0.17085388 0.31481797 0.13511819
000320 f1 bb 2a be 47 7f 96 bd 66 87 31 3e f9 bf b9 3e
       -0.16673256 -0.07348495 0.17336807 0.36279276
000330 e2 1b cc be f6 53 4f 3e 06 75 5d 3e 1f 0d b4 3e
       -0.39865023 0.20246872 0.21626672 0.3516626
000340 2e 38 7d be 40 c1 88 be 03 5d 54 be a6 5a a8 be
       -0.24728462 -0.26709938 -0.20738606 -0.3288166
000350 99 5e b1 3e 62 a6 b8 be 4d e4 17 be 77 44 9f 3e
       0.34642485 -0.3606444 -0.14833184 0.31106922
000360 ec a3 0b be 46 09 f2 bd 64 95 a2 3e f4 d2 5d 3e
       -0.1363675 -0.11818175 0.317546 0.21662503
000370 cc ba 26 be 9b 61 04 be f9 18 a3 3e b8 02 22 3e
       -0.16282195 -0.12927859 0.3185499 0.1582135
000380 be c9 38 bd e0 f5 67 3e c7 4f 2c 3e 8d be a5 3e
       -0.04511427 0.22652388 0.16827308 0.3237194
000390 7a 96 9e be 10 5f 25 be b4 b3 62 be 1a 3c 79 be
       -0.3097418 -0.16149545 -0.22138864 -0.24339333
0003a0 25 5a 79 3e a4 dd 26 be 60 d4 28 be 80 92 6b 3c
       0.24350794 -0.16295487 -0.16487265 0.01437819
0003b0 42 77 40 bc 1c af a1 be c6 58 94 3e 25 79 8f 3d
       -0.011747183 -0.3157891 0.2897398 0.07005528
0003c0 25 75 ac 3d 56 f4 f8 bd 4d b3 c3 3d e0 36 54 be
       0.08420781 -0.121559784 0.09555683 -0.20724058
0003d0 3c fa e0 bd 9a 4a e0 3d c7 88 d4 bd 01 32 b3 bd
       -0.109852284 0.10951729 -0.10377651 -0.08749772
0003e0 1a 14 1d 3e ab 36 75 bc ff 32 3c 3e 9f 90 00 3e
       0.153397 -0.014966647 0.18378828 0.12555169
0003f0 49 87 32 3e 80 60 26 be a4 6f 22 3e 79 c1 65 be
       0.1743442 -0.1624775 0.158629 -0.22437085

fc1.bias f4 [32]
000000 3c c2 38 3e 72 5f dc 3e 4e dd 98 3e 34 2a c1 3d
       0.18042845 0.4304157 0.29856342 0.09431878
000010 0c 17 cc 3e 28 0e b1 3e c6 85 8f 3e 61 e4 68 3e
       0.39861333 0.34581113 0.2803175 0.2274337
000020 93 c5 d9 bc b9 cd cf 3e d7 14 2e 3e ea d3 b1 3c
       -0.026583469 0.4058664 0.17000137 0.021707494
000030 8b 2a 01 bd d2 1d 99 3e ea 60 c0 bb 48 91 bc 3e
       -0.031534713 0.29905564 -0.005870928 0.3682959
000040 93 10 82 bc 9a 8a 64 38 ec dc ed bc 7b 51 a9 3e
       -0.015877044 5.448852e-05 -0.029036008 0.33069977
000050 6c 9f 81 3e 74 74 7f bc 3a 06 b8 3e c3 a9 41 3e
       0.25316942 -0.015591729 0.3594225 0.18912415
000060 42 18 12 bd dc 13 1a 3b 47 14 81 bd 03 79 22 bd
       -0.035667665 0.0023510372 -0.06302696 -0.039666187
000070 73 93 b9 3e 2f 4f dd 3e e8 d2 98 3e b5 b0 c7 3e
       0.36245307 0.43224475 0.2984841 0.39002004

fc2.weight f4 [64, 32]
000000 c0 84 00 bd 18 db d7 ba 82 a1 22 ba 12 f7 e8 3a
       -0.0313766 -0.0016468493 -0.0006203876 0.0017773828
000010 d7 05 3b 3d 37 6a 3d ba 04 4b 4b ba d9 3e 52 3b
       0.045659866 -0.0007225605 -0.00077550136 0.0032080917
000020 c9 72 05 00 ad 9e 24 3a 0b 33 d1 b9 40 4e 0a bc
       5.00355e-40 0.0006279748 -0.00039901616 -0.008441508
000030 2f 8b 05 80 58 f8 e4 b8 d9 5e 05 00 b1 4f bf b9
       -5.09107e-40 -0.00010918145 4.93202e-40 -0.00036489734
000040 07 69 14 37 f3 f3 35 bb 22 7a 05 80 7d a4 0b 3b
       8.845941e-06 -0.0027763813 -5.0299e-40 0.002130776
000050 10 88 5c 3d f1 8b 57 bc 82 5f 42 ba 8f df 95 bc
       0.053840697 -0.013155923 -0.00074147445 -0.018295078
000060 83 5d 05 80 b9 13 42 bc bf 76 05 80 75 65 05 00
       -4.92723e-40 -0.011845523 -5.01776e-40 4.95573e-40
000070 9a 22 7c 3a fe de 96 bc fe ad 99 bb 3a 35 49 bc
       0.0009618193 -0.018416878 -0.004689931 -0.012280757
000080 26 7d ce 3d ad d1 a9 3e 3c 00 ac 3e 2a e0 94 3e
       0.10082464 0.33167782 0.3359393 0.29077274
000090 69 29 8a 3e 2e 16 85 3e 49 7d 17 3e b2 e4 78 3e
       0.26984718 0.25993484 0.14793886 0.2430599
0000a0 11 e4 d7 3c 7e be be 3c 7f c8 5a 3e 2c 58 61 3e
       0.026353868 0.023284193 0.21365546 0.22006291
0000b0 87 be c8 3d f0 84 24 3e 0a b4 3d bd a6 a9 4a 3e
       0.09801965 0.16066337 -0.046314277 0.19791278
0000c0 b0 2c 78 bb a1 30 1a b9 54 07 e4 b2 b0 60 48 3c
       -0.0037868433 -0.000147047 -2.6546026e-08 0.012230083
0000d0 67 95 b8 3c 3b 4b 87 bc 16 bc 18 3d 60 71 5e 3e
       0.022532178 -0.016515365 0.037288748 0.21722937
0000e0 dc c1 08 bd 31 ee 4f b9 fd 59 05 80 63 5f 0a 3d
       -0.033388004 -0.00019829792 -4.91459e-40 0.033782374
0000f0 c0 99 b3 3e 63 e5 70 3e 45 16 8d 3e a7 0d 3d 3d
       0.3507824 0.23525004 0.27556053 0.046155598
000100 b2 fb 63 3e e8 bc 6c 3e a1 e0 be 3e 47 61 36 3e
       0.22263983 0.23118937 0.37280753 0.17810546
000110 75 79 c7 3e ef d2 af 3e 67 3f ae 3e ab 51 ac 3e
       0.38959852 0.34340617 0.34032747 0.33656058
000120 60 1b d9 3c fc 2f c5 3e c2 4f b6 3e 77 09 19 3e
       0.026502311 0.38513172 0.35607725 0.14945017
000130 94 6a 47 bc 1d 80 63 3e 80 8b 3d bd 00 94 af 3e
       -0.012171406 0.2221684 -0.046275616 0.34292603
000140 8b 8e ae bb c2 88 0f 39 44 30 64 b5 7b b0 c3 3e
       -0.005327051 0.00013688489 -8.5006855e-07 0.3822058
000150 41 cd 9f 3e 8c 92 92 bc d6 56 ae 3e c1 85 b6 3e
       0.31211284 -0.017892145 0.34050626 0.3564892
000160 fa 64 08 bd ac cd 11 38 f5 51 92 ba 5c 72 0a 3d
       -0.033299424 3.476224e-05 -0.0011163341 0.033800468
000170 bd c9 95 3e 15 40 d0 3d 65 99 82 3e a0 50 25 3e
       0.29255477 0.10168473 0.25507656 0.16144037
000180 d8 1c 3b 3d ce 4f 25 be 06 5b a7 3d 22 ab 05 80
       0.045681804 -0.16143724 0.08171658 -5.20568e-40
000190 59 27 62 bd 1a db c7 bc e9 32 fc 3d a6 3a ae bd
       -0.055213306 -0.024396468 0.12314398 -0.0850728
0001a0 8f 67 05 00 f0 8c 40 3c a8 cb fa 3d 95 99 05 80
       4.96327e-40 0.011752352 0.122458756 -5.14272e-40
0001b0 2d fb e6 bb 6a 76 a2 3c 7a c8 05 80 02 c6 01 3e
       -0.0070489855 0.019831855 -5.31095e-40 0.1267319
0001c0 ba 98 05 00 87 8a 05 80 76 58 05 00 c9 98 d1 bd
       5.13965e-40 -5.08872e-40 4.90911e-40 -0.102342196
0001d0 0d 12 ab 3d a7 cb 06 00 fe 70 17 3d 6d ff 90 3d
       0.08353052 6.2407e-40 0.036972992 0.070799686
0001e0 7f bd 05 80 11 5f 05 80 b5 17 c4 3b b4 7e 05 00
       -5.27156e-40 -4.93281e-40 0.0059842714 5.0463e-40
0001f0 0c a9 23 be 86 1f 2d bc 5a 5d 05 be 45 71 46 be
       -0.15982455 -0.010566598 -0.13023892 -0.19379146
000200 8b 92 b0 3d 92 a7 b2 3e 1c 89 3c 3e a1 d1 37 3d
       0.08621701 0.3489347 0.18411678 0.044877652
000210 ee 81 54 3e e8 7f 9f 3e 8e 52 1d 3e 5d 60 66 3e
       0.20752689 0.31152272 0.15363523 0.22497697
000220 b9 d8 d8 3c 64 2f 61 3d 22 32 46 3e d9 a0 30 3e
       0.026470529 0.054976836 0.19355062 0.17248859
000230 78 42 36 3d be 6e 9c 3e 7c 95 3d bd 20 71 be 3e
       0.044496983 0.3055324 -0.046285138 0.37195683
000240 51 4a e9 bb 11 a9 80 38 f8 21 d9 b4 af e2 8a 3e
       -0.007119455 6.135007e-05 -4.0444115e-07 0.2712607
000250 3c 42 e7 3d d4 4c 86 bc ad 24 c7 3e 1f b3 16 3e
       0.1129193 -0.016394056 0.3889517 0.14716767
000260 96 58 00 bd e6 0c cb b7 58 a7 e4 37 a4 6f 0a 3d
       -0.031334482 -2.4205492e-05 2.7257644e-05 0.033797875
000270 c0 41 ab 3e 93 8c 1d 3e 35 54 c5 3e d6 c3 d0 3d
       0.334486 0.15385656 0.38540807 0.10193603
000280 c5 06 9e 3e a9 f0 21 3e 44 fa 31 3e 23 d6 94 3d
       0.3086454 0.15814461 0.17380625 0.07267406
000290 0a 1e 35 3e 4a a1 24 3e 9b 3d 52 3e a0 ad 84 3e
       0.1768724 0.16077152 0.20531313 0.25913715
0002a0 78 54 d8 3c e0 06 56 3e 33 0d 98 3e 86 d7 32 3e
       0.026407465 0.2090106 0.2969757 0.17465028
0002b0 0f b3 0b 3d 8d 99 53 3e f6 a6 3d bd ca 80 a3 3d
       0.03410631 0.20664044 -0.046301804 0.07983549
0002c0 10 e2 87 bb d3 e1 61 b8 3c 7c ac b3 af 07 80 3e
       -0.004146822 -5.3854495e-05 -8.031972e-08 0.25005862
0002d0 f8 84 af 3e c1 34 93 bc 9d 2d aa 3e ac 49 a8 3d
       0.34281135 -0.017969491 0.33237925 0.08217177
0002e0 9b 8e 00 bd f2 b9 38 ba cc 7a 05 00 02 64 0a 3d
       -0.031386 -0.0007046751 5.03229e-40 0.03378678
0002f0 39 10 b7 3e 17 6b f1 3d 5f bc b5 3e 79 fa a4 3e
       0.35754564 0.11788004 0.35495278 0.32222345
000300 06 96 07 bc 75 37 a7 bc 1c 88 08 bc 10 28 21 bc
       -0.0082755145 -0.020412186 -0.008333232 -0.009836212
000310 ff ce 05 3b 21 26 f9 bb 08 36 21 bc 04 a8 15 39
       0.0020417569 -0.0076034223 -0.009839542 0.00014272338
000320 5d 7e 05 80 61 97 09 bc fb 0d 70 bc 1a 89 cc bb
       -5.04508e-40 -0.008397908 -0.014651771 -0.0062419297
000330 71 5d 05 00 8e 2e 6b 3d 8f 5d 05 00 77 32 c6 bd
       4.92698e-40 0.057417445 4.9274e-40 -0.09677594
000340 a6 ef 05 00 33 8b 05 00 ee 7a 05 80 0d 00 1a 3c
       5.45147e-40 5.09113e-40 -5.03276e-40 0.009399426
000350 6d 9b 0d bc ea 6d 05 00 24 07 d2 bb 61 12 ab 3d
       -0.008643013 4.98607e-40 -0.0064095426 0.08353115
000360 05 98 05 80 eb d5 05 80 2c 21 06 00 3a 6f 05 80
       -5.13712e-40 -5.35917e-40 5.62913e-40 -4.99078e-40
000370 4a 63 8c bd b8 52 05 bc 30 ae 97 3a 7b 8f 27 bd
       -0.068548754 -0.0081373975 0.0011572298 -0.040908318
000380 21 07 ad bc 15 8b ab bc 9d f3 a0 bc 49 ca ac bc
       -0.021121563 -0.020940343 -0.019647414 -0.02109255
000390 43 55 a6 bc a1 a5 ab bc 2e 13 aa bc fa 44 a9 bc
       -0.020304328 -0.020953001 -0.020761099 -0.020662773
0003a0 5f 6d 05 80 74 03 ad bc f7 82 ab bc 01 d9 ad bc
       -4.98412e-40 -0.02111981 -0.020936472 -0.02122164
0003b0 60 6f 05 80 22 2e aa bc 5a 5a 05 00 55 7c aa bc
       -4.99131e-40 -0.020773951 4.9159e-40 -0.02081124
0003c0 ce 60 05 00 51 b5 05 80 2a 59 05 00 90 fa ab bc
       4.93904e-40 -5.24222e-40 4.91164e-40 -0.020993501
0003d0 17 7d ac bc 25 c1 05 00 90 31 aa bc ed 13 ac bc
       -0.021055741 5.28465e-40 -0.020775586 -0.021005595
0003e0 62 57 05 00 22 5a 05 00 4f cb 06 80 94 5d 05 00
       4.90525e-40 4.91511e-40 -6.23946e-40 4.92747e-40
0003f0 2d 78 ac bc 65 dc ab bc f1 a9 ab bc c3 a5 ab bc
       -0.021053398 -0.020979116 -0.020955058 -0.020953065

fc2.bias f4 [64]
000000 4f b6 dc bc ef b6 81 3e ce 3b 4f 3e 33 3f 96 bb
       -0.0269424 0.2533488 0.20237657 -0.0045851707
000010 f6 39 b2 3e 17 4c 0c 3e b1 02 14 bd b8 e5 a9 bc
       0.34809846 0.13700901 -0.03613538 -0.020739421
000020 cf 33 82 3e a7 5a 92 3d bd f1 84 bd 38 39 18 bb
       0.25430152 0.07146197 -0.064914204 -0.0023227464
000030 9f 96 b4 3a 1f 24 a3 3e cb b3 01 bc 69 22 97 bc
       0.0013777799 0.31863496 -0.007916401 -0.018449025
000040 81 cd b9 3c 32 6b 4e 3e c6 11 03 3e 61 37 ab 3e
       0.022681 0.2015808 0.12799749 0.33440688
000050 96 94 fb 3d 30 21 1c 3e 50 2c a1 3e 05 2a 90 3e
       0.122842 0.15247035 0.3147912 0.28157058
000060 ce 4a 66 3d 17 54 3f 3e a5 cb 6a 3e 15 4c b9 3e
       0.056223683 0.18684421 0.22929247 0.36190858
000070 af f6 a7 3e 7f 12 df bd fb 84 19 3d 2d 36 b1 3d
       0.32805392 -0.108922 0.037480336 0.08652911
000080 58 59 b6 ba c4 c5 07 3e 2e 45 d9 bd ca d9 db 3d
       -0.0013912125 0.13259035 -0.10608898 0.10734899
000090 ba 15 80 3d 60 ac 50 bd ff 11 87 3d 5a f9 d7 3d
       0.06254144 -0.05094564 0.06595229 0.10545607
0000a0 03 42 7d 3e d7 77 ba bc fb 79 11 3d 58 53 a2 3d
       0.24732213 -0.022762222 0.03551672 0.07926053
0000b0 b2 01 ee bd d2 c4 9b 3e 55 2e 98 3d 0c 58 84 bc
       -0.11621417 0.304236 0.07430712 -0.016155265
0000c0 ec 73 b9 3d c5 e4 9e 3e ef 45 7e 3e b1 34 8d 3e
       0.090553135 0.31033912 0.24831365 0.27579263
0000d0 30 9c a7 bc ba 31 b2 bd 2d a0 a1 3e 7e 72 9a 3e
       -0.020460218 -0.08700891 0.31567517 0.30165476
0000e0 05 32 93 3e b6 90 8e 3e d5 0c e1 bd bb 5a f4 bc
       0.287491 0.2784478 -0.10988776 -0.02982842
0000f0 ba 35 f8 bc 08 0f 96 3e 03 2e c1 bc 91 6f 6c 3e
       -0.030299056 0.29308343 -0.02358151 0.23089434

fc3.weight f4 [1, 64]
000000 e5 94 ac b8 a8 6a 52 3e 4b ff 86 3e 29 82 3d bd
       -8.229333e-05 0.20548499 0.26366648 -0.04626671
000010 a3 d8 7c 3e f5 55 62 3e 7b 33 d4 3a f4 22 b2 bc
       0.24692015 0.22103103 0.0016189659 -0.021745183
000020 da b7 79 3e 65 13 c4 3a 9d 7d a1 bd 87 14 02 36
       0.2438654 0.0014959393 -0.07885287 1.9383458e-06
000030 d9 f4 9e bc a3 01 63 3e a6 61 14 3d 6b bf b6 3c
       -0.019403862 0.22168593 0.036225937 0.022308072
000040 18 1c a3 3c 90 0b 9b 3e 2b b5 41 3e 66 a2 a0 3e
       0.019910857 0.3028226 0.18916766 0.313739
000050 39 0c ee bc 0c d2 74 3e 03 8b 83 3e 60 b0 a1 3e
       -0.029058563 0.23908252 0.25691995 0.31579876
000060 04 44 65 3e 4f 24 76 3e 09 6a 86 3e df 9b 84 3e
       0.22389227 0.24037288 0.26252773 0.2590017
000070 8f 8b a8 3e 44 d2 2e 3a c3 7d 85 bb c9 52 89 bd
       0.32918975 0.0006668905 -0.00407383 -0.06705243
000080 9b b2 03 3a 42 a9 3c 3e 67 9a 82 3b 74 37 65 3e
       0.00050238677 0.18423942 0.0039856913 0.22384435
000090 0d ab 35 3e 15 32 e5 bc 18 4c 49 3a 5f ac 8f 3e
       0.17741032 -0.027977983 0.00076788804 0.28061196
0000a0 7b 43 9a 3e 83 91 7e bc d0 7d 2f 3e bc 8b 4f 3b
       0.3012961 -0.015537622 0.17137837 0.0031668982
0000b0 46 1f c7 bb 30 de 55 3e 7e 1b 1f bd 26 45 ff 3b
       -0.006076726 0.20885539 -0.038844578 0.0077902256
0000c0 36 d8 26 3e 7e c2 89 3e dd b5 a4 3e a2 dd 5c 3e
       0.16293415 0.26906198 0.3217 0.21568921
0000d0 32 5a 6b 3c a4 5a 01 bc be 7f 94 3e 35 b3 a2 3e
       0.014364766 -0.007895146 0.2900371 0.3177735
0000e0 a9 42 a0 3e 72 16 8c 3e 25 87 b8 3a d9 ae fd bc
       0.31300858 0.27360874 0.0014078362 -0.030967163
0000f0 72 5c 24 bd f7 c0 58 3e b9 e2 82 3c a6 fc 85 3e
       -0.040127225 0.2116736 0.01597725 0.26169318
