Cheyi Wu/FinalProject/Garch/GRU-Garch/TSLA/gru_garch_model.pth (torch, 159448 bytes, 9 tensors)

gru.weight_ih_l0 f4 [192, 7]
00000000: 79d6 203e 2c76 253e 1705 323d 7a9c 90bd
00000010: 93e2 c1bd 0dd0 56bd c342 ef39 16b1 ce3d
00000020: 9b30 263e f374 e2bc 5e09 cd3d 5e7a 18bd
00000030: 1dcd 203d 0407 d43d d99c e93c 0bed 6abd
00000040: 42a5 853d ca1c 2ebd 0885 17be 5805 063e
00000050: 29ea a2bd b303 febc 79a4 aabd a988 273d
00000060: 5dac 9dbe 8c7e db3c 5eb9 343d 7081 0bbe
00000070: 3b17 373e e91e 09bd 48af 153e b2a5 aabe
00000080: a9ce 0a3e e8d7 683d de6c 0bbe 199c 963c
00000090: abbc 75bd 438c 033c f88d 143c 43c4 1b3e
000000a0: 9d18 a2bd 2096 1abe adb5 8e3d 341b d13d
000000b0: 9865 443d a971 3cbe efc0 653d a0b2 173d
000000c0: 055c 163c f1e7 b8bd 64e2 06be d0ac 98bd
000000d0: 2eb7 2ebe d81d ac3d 2fda 4f3c 9190 d63c
000000e0: aec2 263e f525 e23d 51e3 593e a1b4 9a3c
000000f0: 9eaf 083e c366 3ebc e2fa 083e ec85 51bd
00000100: 794c 4d3c c791 79bd 33ba e9bd 9fd1 9cbd
00000110: 06d7 9bbd e18c 0dbe 01e3 da3d 3abd 1d3c
00000120: 63a6 8b3d ca84 5bbd 7b18 7abd e8f1 82be
00000130: 8cbd 27be 3fc1 913c e336 29b8 5ccd 2a3d
00000140: e9e9 f7bd c51e e4bd a423 1abd d1c0 01be
00000150: 8ceb 063e 5dd8 d43b f333 ba3d 3421 05be
00000160: 887b 7ebd 8e60 79bd 797d 303d 4634 3e3e
00000170: 513b 923e ac6c 9b3e 43ef 1fbe 44b8 b1bd
00000180: 1a11 0e3e 25ff 233e 0154 e2bc babc 07be
00000190: b5a7 d7bd 27ce ae3d 624f 693d 462b 50be
000001a0: c9be 7fbd 20e0 89bd 215f cfbd 182c 97bd
000001b0: dbcc 93be d5b5 88bc 4c1e 453e fd75 2bbb
000001c0: 5ee3 aa3e 25ca ea3d 7179 373e 224e 9dbd
000001d0: b0a0 7d3d 1de4 53bd 6e77 973d 70f6 e9bc
000001e0: 17f6 543d 4d21 0e3c f296 30be 1505 8fbd
000001f0: daad 43bd dbee bebc 60bd ee3c 0207 0dbd
00000200: 780a 3b3e 9e9e 43be 4a1b 953d d4c3 063d
00000210: bed6 3cbd af53 143e dc2e cb3c 1f43 b33c
00000220: cdfd 46be b829 1abe 993d e2bd 1f68 0e3d
00000230: b46c ca3c ec59 0fbe 5b83 503d edaa 43be
00000240: f454 1abe df3f 7c3d 6b9e d13b 8076 a73d
00000250: f2e4 8e3d 1ef4 31be d9bf ae3d d39c 62bd
00000260: 5b48 1abe 686e 47be c9a1 473e 589c 9dbb
00000270: 50a3 383e dddc a63c 561a 19bd 6e9a cabd
00000280: 6afc 3e3e cee2 b9bb 486a f6bb fe4b 18be
00000290: 5955 03bd 8886 1c3e f6c7 d93b d917 8b3d
000002a0: 53ad 093d ed18 98bd 35ab 8fbd aaca 0bbe
000002b0: aa24 923c 8591 a5bd b5cf d2bd c674 40bd
000002c0: 0ec2 dcbd fdf0 d63c 1406 ee3d d919 edbd
000002d0: 5a9f a7bd 7771 063d e5ac 023e 5591 be3d
000002e0: 8882 5b3e 786e 133d 91ef 983d aee1 d83b
000002f0: e3af 053e 1299 f73c 1669 cdbc a60b 80bd
00000300: 2ca6 a83e 2e80 093e 5f6b 46be 47f2 94bd
00000310: 0bf8 843d 20ac 133d 9995 a03d 8622 9c3c
00000320: ec44 10be a6ca 8abe 1de4 0c3e 3f4c f03c
00000330: 150e f1bc 04be 12be 7836 bcbc 3f4d b1bd
00000340: fb86 483c e899 ffbc 487b 183e ba20 093e
00000350: a7c9 bcbc 1fb2 bcbd 88e0 e2bc 914a 1b3e
00000360: fc44 da3d 8ecd 4abd ba29 933c 683a b5bd
00000370: 3072 38be a2a5 933d 30f2 02be 0f87 b6bd
00000380: 58bb 25be b888 023d e45c 333d ad0d fabb
00000390: a70c 3abd c4a3 9dbe d1e8 31be 5382 ab3d
000003a0: 54ab 6e3d 8cf4 d13d 59c1 c0bc c24c 85bc
000003b0: fa18 44bd 5306 b2bd 85b4 b2bd 7fce cebd
000003c0: efe2 363d d361 bbbd 0713 e3bb 6e1f 07be
000003d0: 1fdd 1ebd dffb d7bd 9fee fabd ded8 a9bc
000003e0: d12c f53d 8a39 103e 1e13 d0bd 6154 38be
000003f0: 5141 ecbc 4e53 c2bd ecd0 b6bd ebbc 3ebe
0.15706815 0.1615836 0.043461885 -0.070610955 -0.09467044 -0.052444506 0.00045635374 0.1009237
0.16229479 -0.027643656 0.10011552 -0.037226073 0.03925811 0.103529006 0.028517174 -0.057354968
0.06525661 -0.042507924 -0.14796841 0.13087976 -0.07954819 -0.031007623 -0.08332152 0.040901814
-0.30795565 0.02679374 0.044122092 -0.13623595 0.17879955 -0.033476744 0.14617646 -0.3332954
0.13555397 0.05684653 -0.13615748 0.01838498 -0.05999438 0.0080290465 0.009067051 0.15211587
-0.07914851 -0.1509633 0.06968246 0.10210267 0.04794845 -0.18402733 0.0560922 0.037035584
0.009177213 -0.09028614 -0.13172299 -0.07454836 -0.17062065 0.0840413 0.012686296 0.026191982
0.16285202 0.11042396 0.2127812 0.018884959 0.13348243 -0.01162118 0.13376954 -0.05115311
0.0125304395 -0.06093004 -0.11412468 -0.076571696 -0.07609372 -0.13823272 0.10687829 0.009627635
0.06818845 -0.053593434 -0.061058503 -0.25575185 -0.163809 0.017792342 -4.0343857e-05 0.041699752
-0.12105162 -0.11138681 -0.037631646 -0.1267121 0.13175792 0.006495519 0.0909194 -0.13000947
-0.062129527 -0.060883097 0.04308841 0.18574628 0.2856088 0.30356348 -0.15618615 -0.08677724
0.13873711 0.16015299 -0.027627947 -0.13255587 -0.105300345 0.08535414 0.05696047 -0.20329008
-0.062437806 -0.067322016 -0.10125566 -0.07381457 -0.2886723 -0.016688267 0.19249839 -0.0026162856
0.33376592 0.11464337 0.1791742 -0.07680918 0.06192082 -0.051731218 0.07395826 -0.028559893
0.051992502 0.008674932 -0.17245081 -0.06983391 -0.04777322 -0.023307255 0.029143035 -0.03443051
0.18265712 -0.19103476 0.072805956 0.0329016 -0.04610323 0.14485048 0.024802618 0.021882592
-0.19432755 -0.15054977 -0.11046905 0.034767266 0.024710037 -0.13999146 0.05090652 -0.19108172
-0.1507147 0.06158435 0.0063970587 0.08176899 0.069772616 -0.1737828 0.08532686 -0.05532534
-0.15066664 -0.1947571 0.1949531 -0.0048098974 0.18031049 0.020368988 -0.03737863 -0.098927364
0.18650976 -0.005672789 -0.007519994 -0.14872739 -0.032063816 0.15285695 0.0066461517 0.06791658
0.03361256 -0.07426629 -0.07015077 -0.13651529 0.017839748 -0.08084396 -0.10293523 -0.046986364
-0.107792005 0.026237959 0.11622253 -0.11577196 -0.08184691 0.032823052 0.12761267 0.09305064
0.21436512 0.035994023 0.07467569 0.0066187 0.13055377 0.030224357 -0.025074523 -0.06252222
0.3293928 0.13427803 -0.19376896 -0.07272773 0.06492623 0.036052823 0.078410335 0.01905943
-0.14088792 -0.27107733 0.13758893 0.029333232 -0.02942566 -0.14330298 -0.022975191 -0.08657312
0.012239213 -0.031201318 0.14890778 0.1339139 -0.023045374 -0.092136614 -0.027694955 0.15165164
0.10657689 -0.04951244 0.017964233 -0.08849031 -0.18012309 0.07209326 -0.127877 -0.08912479
-0.16184747 0.031868666 0.04378976 -0.007631025 -0.045422222 -0.30789006 -0.17373969 0.08374467
0.05826886 0.10251722 -0.023529695 -0.016271953 -0.047875382 -0.086926125 -0.087258376 -0.1009798
0.044650014 -0.09149518 -0.0069297585 -0.13195583 -0.038785096 -0.105460875 -0.122525446 -0.020733293
0.11971439 0.1408445 -0.10159896 -0.18000938 -0.028839739 -0.09488545 -0.089265674 -0.18626754

gru.weight_hh_l0 f4 [192, 64]
00000000: c78f 363d 2723 7e3c 922f d3bd b562 263e
00000010: 6236 41be ba3e b53d cac1 843c 9eb9 363c
00000020: a655 353e 6cb2 333e a585 773d 084a dabc
00000030: 4f4e 22be ce0a 1c3d 16fe f63c 56a6 4d3d
00000040: a26b b4bd 7f50 6ebd 0d29 f1bd c5cb b93d
00000050: be5b 1dbd ad87 63be 6ecb 66bd 4441 46bc
00000060: 882f 9d3d deb8 1d3e dbc6 053d 12ca 483e
00000070: 0c37 1f3b dc41 a7bd deb8 8c3d 053b 7f3d
00000080: d457 153e a30b 4c3d 8e60 b83d c503 b73b
00000090: 513d dabd 2c92 38bd fc4d babd f07e c1bd
000000a0: 1110 d63d 1e06 d2bb e55e 97bc 38ef dbbd
000000b0: 6b1a b5bc e034 b6bd 7ecd 8dbb ef6e a63c
000000c0: 4895 8a3e 33b8 78be 121d db3d 41e8 2f3c
000000d0: fd13 843d 09a5 633a e2f6 85bd 05ac 02be
000000e0: aadc a0bd 58e6 58bd c755 12be 34eb fcbc
000000f0: b166 4abe fa2a 5dbe 8c39 833c 9018 b0bc
00000100: 83ea 2abd 460e 5abd 792f 3dbd d135 a03c
00000110: 46b6 f73c 1d14 81be e3c1 3fbd 7ff1 56bd
00000120: 7392 0e3d f118 043e 3ae9 3f3d c21f 853d
00000130: 8b73 833d 9c3f 813e 2d12 c83d c9ef 16be
00000140: 8ccf 903c c67a 86bc effa 29bd 4b3c 16be
00000150: f085 41bd ffe1 19be a0fa fa3d 1a3e 98bc
00000160: 608a 443c 53cb 253e a9ee fbbd cef7 ac3d
00000170: 9c0c 553c cdc7 113e a515 113d 9b5c 2f3d
00000180: 9ce9 18be a11f bd3a 570b d63b c78a 41be
00000190: 5aa5 63be 692e 83bd 9ceb 803d 3645 113e
000001a0: 457e e5bd 36dc 93bc b174 5c3d c13f a6be
000001b0: a719 573d a774 9f3d 4aa7 dabc 1a13 15bd
000001c0: beb6 403e 2d9c 193e 54d0 063d 79d6 95bd
000001d0: e89e e6bd 1cd2 913d c9a7 f6bc 6688 c3bd
000001e0: eb2c 66bd 4110 22be 5804 543d ad25 1a3e
000001f0: c16f 853b 3f47 91bc 004e 983d c2cb 453d
00000200: 62f9 9bbd 6f82 a53d cc2d 11be c5fb 413d
00000210: 2614 8abd b4a7 9c3d 4ae6 4e3d d3f0 d2b8
00000220: a99e b1bd 28f4 a03d 63f3 d6bd f061 dfbd
00000230: 7126 863d 2bf4 1ebc 9931 22bd 0756 173e
00000240: b8ca c63c 13be 9b3c c04b e3bc fbf2 ffbd
00000250: 5cf0 8c3c b650 2fbd 44ff 0bbe 5e4a 68bd
00000260: 49a6 14be 20ab 55bd dba7 9b3d da57 8c3d
00000270: 801c 163d 25bc a0bd c651 eb3c 74a0 e4bd
00000280: 7e32 003d 2731 4cbe 2477 00bc ac74 c43d
00000290: e6d0 803d 77f6 b8bc 9371 74bd 1181 333e
000002a0: f762 703c 4eb5 cc3d 12d4 b63c a867 b7bd
000002b0: 27d5 163d 2cc4 033d b2ec e23d 7624 34bd
000002c0: def9 303d c4ef 483e 5970 8e3d c593 2e3e
000002d0: 0ae2 9bbc bab3 9cbd 8026 b0bc 09d0 043e
000002e0: 6338 18bd fb60 94bd b333 923d 48b5 053e
000002f0: 4efc bdbc d941 19bc fdfd cf3b fb27 eabd
00000300: bc63 2f3e db4b 953d 6ab4 9bbd 98b2 b03d
00000310: ef52 fdbd 71d1 9b3e 6e82 6f3d 6b3d 7e3e
00000320: c80b 53bd 61b4 d7bb 22b2 103b 5f3f a53c
00000330: 051e 3abe f297 89be f241 15be 9873 083e
00000340: f332 913d 54de 74bd 17f7 223e 0f3e 163e
00000350: b4b0 67bd 8a91 39bd e0e5 49bd 7354 ae3d
00000360: 2719 a73c 44c8 933d 1a7d 2d3e b818 6dbd
00000370: af23 9d3e 7736 d7bc ba44 17be 205e 603d
00000380: 6df0 c33d 0134 3f3d f7be 8abd 0186 343d
00000390: f477 12bd b1b4 89bc 7c3b 0bbe 2a69 e23c
000003a0: 9d3f 6bbd 24ef 823d 7a63 15bd dc61 e93d
000003b0: b9ad efbc 930c 9c3d 2d60 0fbe ab3a 7cbd
000003c0: a18d 9e3c 732e d8bd 0c39 283d ce92 e53d
000003d0: bf67 b33d fae4 fb3d 9f19 0dbd c2eb 063e
000003e0: 9275 293d 29b3 1fbe 0222 dd3d c3f9 60be
000003f0: c7f7 62bd 8d8d a2bc ce11 edbd 789b 323d
0.04457071 0.015511311 -0.10311808 0.16248591 -0.18868402 0.08849855 0.016205687 0.011152653
0.17708454 0.17548531 0.060430188 -0.026646629 -0.15850185 0.03809624 0.030150454 0.05020746
-0.08809592 -0.058182236 -0.11775408 0.09072069 -0.03841757 -0.22219725 -0.05634635 -0.0121005215
0.076750815 0.15402552 0.032660346 0.19608334 0.0024294285 -0.081668586 0.06871198 0.062312145
0.14584285 0.049815785 0.09002791 0.005585166 -0.106562264 -0.045061275 -0.090969056 -0.094480395
0.10452283 -0.0064094206 -0.018477866 -0.10738987 -0.022107324 -0.08896804 -0.004327475 0.02031657
0.27067018 -0.24289016 0.10698904 0.010736526 0.06449125 0.0008683955 -0.0654123 -0.12760933
-0.07854588 -0.052954048 -0.14290534 -0.030873872 -0.19765736 -0.21598426 0.016018651 -0.021496087
-0.041727554 -0.05323627 -0.04618785 0.019556912 0.030238282 -0.25210658 -0.046815764 -0.052476402
0.034807634 0.1290014 0.04685328 0.06500198 0.064185224 0.25243843 0.09769092 -0.14739908
0.017677091 -0.016415965 -0.041499075 -0.14671437 -0.047246873 -0.15027617 0.12254834 -0.0185843
0.011995882 0.16190843 -0.1230138 0.084457025 0.013003495 0.14236374 0.035421032 0.042812925
-0.14932865 0.0014428982 0.0065321135 -0.18900596 -0.22231045 -0.064053364 0.06294939 0.14186558
-0.112057246 -0.01804934 0.053822223 -0.32470515 0.0525147 0.077859215 -0.026691098 -0.03639517
0.1881971 0.15000983 0.03291352 -0.07316298 -0.11260778 0.07120153 -0.030109303 -0.095475
-0.05619518 -0.15826513 0.051761955 0.15053435 0.00407216 -0.017734168 0.07436752 0.04829002
-0.07615925 0.08081519 -0.14177626 0.047359247 -0.06742124 0.07649174 0.05051259 -0.00010058437
-0.0867284 0.07859069 -0.10495641 -0.10907352 0.06550301 -0.009701769 -0.03959808 0.1477891
0.024266586 0.019011533 -0.027746081 -0.12497517 0.017204456 -0.04280158 -0.13671595 -0.056711547
-0.14516558 -0.05216515 0.07600375 0.06852694 0.036648273 -0.07848386 0.028725516 -0.111634165
0.031298153 -0.19940625 -0.007840905 0.09592566 0.06289844 -0.022578461 -0.059678625 0.17529704
0.014672033 0.099955186 0.02231792 -0.08955318 0.03682437 0.032169506 0.11080302 -0.043980084
0.043207042 0.19622713 0.06955022 0.17048557 -0.019028682 -0.076514676 -0.021502733 0.12969984
-0.03716315 -0.0724506 0.07138767 0.13057435 -0.023191597 -0.009354078 0.0063474164 -0.11433407
0.1712789 0.07289859 -0.076027706 0.08627814 -0.12369334 0.3043323 0.058473997 0.24828117
-0.051524907 -0.006582782 0.0022078832 0.02017182 -0.18175514 -0.26873738 -0.14575937 0.13325346
0.07089796 -0.05978234 0.1591457 0.14672111 -0.056565 -0.045304812 -0.04929149 0.08512201
0.020397736 0.07215932 0.16942254 -0.0578849 0.30691287 -0.026271088 -0.14772311 0.054777265
0.09567342 0.046680454 -0.06774705 0.04407311 -0.035758927 -0.016809793 -0.1359691 0.027638037
-0.057433713 0.06393269 -0.03647182 0.11395618 -0.029257642 0.07619586 -0.14001532 -0.061579388
0.019354643 -0.105557345 0.04107003 0.112096414 0.08760022 0.12299533 -0.034448262 0.13175872
0.04137189 -0.15595688 0.10797502 -0.21970277 -0.05541208 -0.019842887 -0.115756616 0.043605298

gru.bias_ih_l0 f4 [192]
00000000: 8123 50be f0d5 28be 45fd 313d ee1c 993c
00000010: 3fce bdbd cb4d 8f3e 2cd6 623d fe36 46bd
00000020: 6855 893d c7ac 7c3d 42ed debb ad32 8e3c
00000030: a632 b43d 494d 2bbe f680 30bb 4feb c43c
00000040: 29e3 46be 80a7 0e3e da9d 16bc 8e03 a8bb
00000050: 69bf 44be 246e b53c 97af cebd 739e bb3d
00000060: 2b34 43be 6d55 87bd a26d e93c ce94 0cbd
00000070: 4d05 5d3d f561 56bd a5b9 dbbc 8110 d5bd
00000080: 9c6d 1e3e e0e1 c5bd e04e 35be b9b3 043d
00000090: 8cef 6ebd af99 1abe 6f28 a5be 6736 0c3e
000000a0: 8e93 ab3d df1f e5bd f127 75bd 8313 443e
000000b0: 812b 83bd 7f8e df3d 5398 f0bd 71e3 f23d
000000c0: 6ab4 74bc 9b61 24bc d845 053d a04c 90be
000000d0: 1232 78be d4c6 9ebd caf7 b93d 15fb 6c3d
000000e0: 2135 3b3d a675 173e 5f57 dabd ed24 293d
000000f0: 1819 2b3d 3c7f 883b b72f 813d e53a 673d
00000100: 595d 803d da62 c0bd 3e8b a1bd f8dc a53d
00000110: 114b 38bf ab51 f63d e27f d2be bdc2 5fbd
00000120: d930 dcbd 1092 15be 42fb 17be 1649 5ebe
00000130: 488b 923c 4d18 cbbe 7a7f 64bd de8f 7cbe
00000140: 6ea3 74be cdec 4abd 880e ee3c 8e60 833d
00000150: 861e 26be 24ea 43be d5f7 febd 0d58 5abd
00000160: 7399 b2be 09a2 9c3d ace7 9e3d 641b 62bc
00000170: 6035 f5be 41c9 3abd b7ba 673e 4dbd abbb
00000180: 7d95 923b 4c03 86bd 4027 c7be 1937 64be
00000190: 8f32 42be 5968 e0bd 2237 78bd adf6 623d
000001a0: 29de 6e3e ff29 153e af05 26be a35c 17bd
000001b0: 9df8 88be 9527 d4bd 0439 5c3d a0e2 acbe
000001c0: 7d64 793d 7ea2 16be 61ad 19be e92c 17bf
000001d0: 593f d9bd 5e3e 683d a056 57bd a4d1 1ebf
000001e0: e9bf f3be 09a3 cabe 95de f9bb 4691 fdbc
000001f0: 0186 1e3d 252b dfbc 9ee3 6dbe b477 f2bc
00000200: ab9a 1bba 5baf 093d ec34 82bc c913 97bb
00000210: ad34 cebb b2a6 12bc 02d6 45bd 2f02 073e
00000220: 117d a2bd a94c c1bd ec10 eebc 4a43 0abc
00000230: 6865 d83d 1f51 a8bc 7fbf f7bc d62b 7a3d
00000240: aaee a9bd 5c2b 503a f5d9 1e3d 1c16 1e3d
00000250: 1f5c dc3d c8b6 f03d 646f 663a 94aa 133c
00000260: 7605 b6bd d75e 6abc 97ba 61bd b190 abbd
00000270: e8fe 653d 3c45 4c3b 9470 25bd 0048 20bc
00000280: 94ea 4e3d 4ce3 b5bc f913 443d 6860 acb9
00000290: f0f7 143e 8beb 3ebd afd1 e13d a531 18bc
000002a0: 58c1 bb3c e6b5 25bd 90de 94bd 1cdb a83d
000002b0: a60e 233b c574 a53d b8ce 633d d89b c0bd
000002c0: ba5f 00be 3abe 673d 1ab3 dcbc c7dc 2abc
000002d0: 2a49 d3bd 6753 8dbc 7e60 6b3b dff5 28bd
000002e0: 40ca 953d 0c86 873d d2cd 5a3d 644f f2bd
000002f0: 40e5 2a3d be57 033e 58f5 6ebd f6e4 733c
-0.20326044 -0.1648786 0.043454427 0.018690553 -0.09267854 0.2798904 0.05538003 -0.04839229
0.06705743 0.06168821 -0.0068031857 0.017358148 0.08798723 -0.167287 -0.0026932335 0.024037985
-0.19422592 0.13931084 -0.009192908 -0.005127377 -0.19213642 0.022147246 -0.10092085 0.09161081
-0.19062869 -0.066080905 0.02849466 -0.0343216 0.053960133 -0.052339513 -0.02682192 -0.104035385
0.154715 -0.09662223 -0.1770587 0.03239796 -0.05833392 -0.15097688 -0.3225741 0.13692628
0.08377753 -0.111877196 -0.059852544 0.19148068 -0.06404782 0.10915851 -0.117478035 0.11859787
-0.014935592 -0.010033037 0.03253731 -0.2818346 -0.2423785 -0.07752767 0.09080465 0.057856638
0.045704965 0.14790973 -0.10661196 0.04129498 0.04177198 0.004165558 0.06307929 0.05645265
0.06267805 -0.093938544 -0.078878865 0.08098787 -0.7198954 0.12027296 -0.41113192 -0.054629076
-0.107515045 -0.146065 -0.14841941 -0.21707568 0.01788868 -0.39666978 -0.055785634 -0.24664256
-0.23890468 -0.049542237 0.029059663 0.06414901 -0.16222581 -0.19132286 -0.12449614 -0.053306628
-0.34882697 0.07648093 0.07759032 -0.013800476 -0.47892284 -0.045602087 0.2262982 -0.0052410723
0.004473387 -0.065435976 -0.38897133 -0.22286643 -0.18964599 -0.10957403 -0.060599454 0.05541103
0.23326935 0.14566801 -0.16213106 -0.03695358 -0.26752177 -0.10359112 0.05376531 -0.3376665
0.06088685 -0.14710423 -0.15007545 -0.590529 -0.10607786 0.056700103 -0.052572846 -0.62038636
-0.47607353 -0.3957751 -0.007625411 -0.03095306 0.038702015 -0.027242253 -0.2323136 -0.029598095
-0.0005935828 0.033614498 -0.015894376 -0.004610513 -0.0062929005 -0.008950876 -0.048299797 0.13184427
-0.07934011 -0.0943845 -0.029060803 -0.0084388945 0.10566217 -0.020546494 -0.03024268 0.06107696
-0.08297475 0.00079410314 0.03878208 0.038595304 0.10759758 0.11753613 0.0008790402 0.009012837
-0.0888776 -0.014304838 -0.055109587 -0.08377207 0.0561513 0.0031169197 -0.040390566 -0.009782791
0.05051668 -0.02220311 0.04787061 -0.00032878225 0.14547706 -0.04661135 0.11026322 -0.00928918
0.022919342 -0.040456675 -0.07269013 0.08244917 0.0024880557 0.08078913 0.055617064 -0.09404725
-0.12536517 0.0565779 -0.026940871 -0.010428614 -0.10316689 -0.017251683 0.0035915668 -0.041250106
0.07313967 0.06617364 0.05341894 -0.11831549 0.041722536 0.1282644 -0.058339447 0.0148861315

gru.bias_hh_l0 f4 [192]
00000000: 82fb 45be a194 dabd 7b97 d4bd 1ef7 f1bd
00000010: 4e09 a13d edb4 9d3d 74e1 83bd 276f e4bc
00000020: fabc 82bc 220d f4bd a769 67bc d51b dd3d
00000030: 42a3 5f3d 3340 09be 365b 573d 9450 1a3e
00000040: c136 2dbe 9965 a83d e69e 8bbd 3f84 92bd
00000050: a62a ddbd aad2 a03d b2a3 4ebd 5ff6 753d
00000060: 7a8f 85bd bdbe 893c 0711 e1bd c6b1 1f3e
00000070: 2e20 a7bc bd50 943d 81da 35be 0c67 02be
00000080: 27ab bf3d fcd2 97bd 27cc f8bd 8df2 bc3d
00000090: df4b 1fbe 4dba 2ebd 3c5c d7bd fee7 193e
000000a0: 87c1 3bbd 8035 9f3c 4e16 683d 4a27 513e
000000b0: d572 f0bd f57c d1bd d5cc 23be 37da 453d
000000c0: e314 8dbb 75a1 a53d a1d9 debd 5c0f 87bd
000000d0: 61ae 02be 9dc6 80bd 7ed3 07bd 42b8 63bd
000000e0: 187b 6a3d f948 293e aa4b 51ba 5676 d93d
000000f0: 2ce3 e4bc 590c d2bc fd77 21be e1c9 28bd
00000100: 32ee 613e 9c1c 43be c472 8dbd 9d58 8d3d
00000110: fb14 febe 26b8 0b3e 4d7e c8be 0f53 91bc
00000120: 19b0 83bc 194e 7fbe b2e5 e7bd 3d3b 35be
00000130: dabe 49bd 8686 ecbe 51a2 26be 6449 09be
00000140: e170 abbe f6a7 b53d 4ef0 f73d 84e8 043d
00000150: e3b5 3cbe 18bc 1dbe 5294 28be 781f 58be
00000160: db07 afbe 13b6 9b3d 66ae c7ba 3ab3 eb3d
00000170: 528a 9dbe fd86 2fbe 6de0 3d3e 51b9 1dbe
00000180: c022 79bd ddb6 533c a7c8 f1be 1a24 69be
00000190: 6bb0 96be f4e6 4abd de56 5abe 30ea 2c3e
000001a0: 3bd5 8b3d 14b6 153e 4332 04be 48a6 7d3d
000001b0: 01d4 94be 2464 3bbe 4c19 353e 9ba8 9fbe
000001c0: ff07 cbbd 4c96 1dbe 2f6d 2cbd f663 dbbe
000001d0: c80c c53d 6001 b3bd fe88 e9bd b866 0cbf
000001e0: 5641 debe 9f1b a8be 712e 0dbd c258 ea3c
000001f0: 81b7 913d d684 013e f454 a5be 47c0 023d
00000200: cb2a 893d 8184 bbbd 9f61 703d 557a b03d
00000210: f44b 6abd ddc8 333e f765 e93d 073c 8bbd
00000220: f878 93bc f5ed ccbd cbc2 29bd b6e9 e7bc
00000230: ea24 a1bd 7364 0bbd d41f afbc 0c7a 4a3c
00000240: 25ab ca3d 1340 803d 52f6 873d c96c 4f3d
00000250: 0a6a ca3d d47b 1c3c 4a8a 32bc 67ca 2fbd
00000260: 75f0 1dbd 24f7 67bd fae1 243e 769b 22bb
00000270: b20d e5bc 9999 adbd 1dd1 123b 6e39 97bd
00000280: 8409 e23b d9a7 7d3c bf4c a9bd 0941 303e
00000290: b987 6f3d efa2 28bd b912 7fbd 26b0 513d
000002a0: 1871 253c cf5d 943d 6a7e 613a 4fb6 da3c
000002b0: 0783 c4bb 0072 f4bd 5e59 edbd aa8a 17bd
000002c0: 6c6a 933d 228e 06be 7444 ec3d 10f5 e33c
000002d0: 1f10 9a3d 6c79 183d 0050 a1bc 8868 cf3d
000002e0: 350b 023d 824b 93bd 5bb0 a73c 5650 58bc
000002f0: b692 473d a143 133e aed6 dfbd 144f 503d
-0.19334224 -0.1067288 -0.10380455 -0.11814712 0.07863103 0.077005245 -0.06439486 -0.027885033
-0.015959252 -0.119165674 -0.014124311 0.10796324 0.054599054 -0.13403396 0.05257722 0.150698
-0.16915418 0.08222503 -0.06817417 -0.0715413 -0.1079915 0.07852681 -0.05044908 0.06004941
-0.065215066 0.016814584 -0.10989576 0.15595159 -0.020401087 0.07241962 -0.17759134 -0.12734622
0.093588166 -0.07413289 -0.12148314 0.092259504 -0.15556286 -0.04265814 -0.10515639 0.15029904
-0.04583886 0.01943469 0.056661896 0.20425144 -0.117406525 -0.10228912 -0.15996106 0.04830381
-0.0043054684 0.08087436 -0.10881353 -0.065947264 -0.12761833 -0.062878825 -0.03316068 -0.055595644
0.057246298 0.16531743 -0.0007983992 0.10618274 -0.027940355 -0.025640653 -0.15768428 -0.04120815
0.2206352 -0.19053882 -0.069066554 0.06901667 -0.49625382 0.13644466 -0.3915886 -0.0177398
-0.01607518 -0.24932136 -0.11323108 -0.17698379 -0.049254276 -0.46196383 -0.16272856 -0.13406903
-0.33484557 0.08869927 0.12106381 0.032448307 -0.1842876 -0.15403783 -0.1646283 -0.21105754
-0.3418568 0.07603087 -0.001523447 0.11508794 -0.30769593 -0.17141338 0.18542643 -0.15402724
-0.060824156 0.012922016 -0.47223398 -0.22767678 -0.2943147 -0.04953666 -0.213222 0.1688621
0.0682778 0.14620239 -0.12909798 0.061926156 -0.29067996 -0.1829992 0.17685431 -0.31183323
-0.099136345 -0.15389365 -0.042096313 -0.42849702 0.096215785 -0.08740497 -0.11403082 -0.54844236
-0.43409222 -0.32833573 -0.034468118 0.028606776 0.07115079 0.12648329 -0.32291377 0.03192165
0.06697615 -0.091561325 0.05868685 0.08617083 -0.05720134 0.17557092 0.113964014 -0.06798559
-0.018002018 -0.10006324 -0.041445535 -0.028309684 -0.07868369 -0.034031343 -0.021377482 0.0123582
0.098959245 0.06262221 0.06638779 0.050640855 0.098835066 0.009551007 -0.0108972285 -0.042917635
-0.038559396 -0.056632176 0.16101828 -0.00248119 -0.027960632 -0.08476562 0.0022402473 -0.07384001
0.006898107 0.0154819125 -0.08266591 0.17212309 0.058479045 -0.04117101 -0.062273715 0.05119338
0.010097764 0.07244455 0.0008601906 0.02669826 -0.005997065 -0.11935806 -0.11589311 -0.036997475
0.07198033 -0.13140157 0.11536494 0.027826816 0.07522606 0.037225172 -0.019691467 0.1012736
0.03174897 -0.07192136 0.020469835 -0.013202747 0.0487239 0.14381267 -0.10929619 0.050856665

gru.weight_ih_l1 f4 [192, 64]
00000000: 2668 4fbc 03eb d1bd dccf 02be 57ed d43d
00000010: c272 b7bd 968a 573e 98d4 2ebd bfa1 903d
00000020: 4225 8d3d 052a 03bd 3a2b 59be 7d29 0bbd
00000030: 4442 94bd ce33 a03d 69cf 45bd 5304 e5bb
00000040: ec11 093e dedc 39be e8e7 debd c368 173e
00000050: 4db7 19bd 2c53 093e aaca 87bd f3a1 94ba
00000060: 8981 b13d 4701 3fbd d11d ffbd 9f51 a6bd
00000070: e13c 59bd 0ac7 753d 2847 c73d dc93 c3bd
00000080: b321 4c3d 50e8 4a3d 1190 b7bd e353 533d
00000090: 0416 e4bc 3f9e 7e3a a91a 403e e729 f23d
000000a0: 9f64 21be 5f90 cd3d 9b46 2e3e 78d3 913d
000000b0: 6e8c 503c c54d 1dbe c12a cf3d 2b4a 0ebc
000000c0: 5a06 983d e439 903d 3031 b5bd dc2d cfbc
000000d0: c3f0 07be fd1a cdbd 5b3c 05be b20b 7d3d
000000e0: 35ff 813d 5a70 32be 4c4e 1e3e 2269 703b
000000f0: 1e28 6a3d db8c e63d f8af b63d 29cf 0bbe
00000100: a4ea e63c 6a75 75bd a91d 07be 48ef 4d3c
00000110: dd58 d8bc d852 3f3b b6cf 5a3d 4b66 573d
00000120: 728d b13d e0db 89bd a991 e9bd d9ab c5bd
00000130: dbb0 af3d 50ea 1f3e 7944 a2bd 6694 ff3c
00000140: 4534 033d 3e9a 77bc d21b 293d e359 cc3c
00000150: b123 f53d 758b 87bd d205 b13d 2fee a43b
00000160: a73e 03be dbf0 153d c96b 993d 19f5 a83d
00000170: 0fac 783c 423a e93c 8dc9 533d 1755 b3bd
00000180: 0c52 92bc 106b 6dbd 6a34 c9bd 1783 17bd
00000190: 48fd 8fbd f389 5abd 97ba a2bd 6ec8 933d
000001a0: a981 5fbd 7ace e93d 8d57 46bd 448f 63bb
000001b0: af69 87bd f8f0 203d 7dba a7bc 8a5d 1dbd
000001c0: edcf 2b3d a56a cfb9 ad0c 923d 0250 193a
000001d0: 2812 1d3d b7e1 3dbd cb89 dbbc e859 cebd
000001e0: 88ba 7abc ba1f 35bd 093a 723d 411f de3d
000001f0: 1a8a a9bc 0eec 3fbd 7daf 853d 7953 d23d
00000200: 958e 51bc 09ce d8bd dd23 14be b0bf a53d
00000210: 5363 0b3e 81d5 b5bc de0c 073d 6fc9 e73d
00000220: e6e6 193e 5b64 053e a593 05be 3838 8b3d
00000230: 8c55 80bc 8a24 babc c653 2fbe e020 5dbd
00000240: 0820 1c3e cb3b 033c f186 c83d 1c35 90bc
00000250: 37dc 7f3d 6976 913d 966b a63d db72 5cbd
00000260: ea15 ed3d 49f8 5dbd 5e4d 673c 4902 10be
00000270: 1b6b 87bc 417e a8bd a664 8abd ddbd 20bd
00000280: 1ed7 8bbc 92eb cc3c ebc0 b33d 2801 123d
00000290: 1e2e 8cbd 9e6d d6bc 5729 74bd a067 283d
000002a0: ca0b bfbd 5043 d83d f52a 4a3d 4f0e 9abd
000002b0: 7384 75bd 04dd a6bd 0128 a33d 18f2 1e3e
000002c0: c0a4 c83d 4ef4 05bc 7ce5 debd 79c4 b53b
000002d0: 46a4 1f3a 63f2 1238 cd9e 953d 1252 383d
000002e0: 0405 eabc 9248 07be 4211 0c3d 9970 8c3d
000002f0: 5b01 963b ed20 07be b1a6 86bd a4eb 873d
00000300: 571f ef3d f875 8ebd 16e5 02be 2626 183c
00000310: 88f5 f6bd 5aa3 8dbc 80ed 8d3d 5993 77bc
00000320: ca33 37bd c902 36be 0221 b1bd 8704 a3bd
00000330: 4b0d a13d 0bd4 053d 31aa 38be 5480 153e
00000340: cd1a 853b 3185 b0bd b1ce 243e 2d1e 813d
00000350: 445d dd3c 65e7 1e3e f172 1abd dc89 3e3d
00000360: d9ac 733d c990 c23b 9607 b33d 0153 cbbb
00000370: d800 25be 9e53 93bd dd1b c8bd 16ba 993d
00000380: 0bf7 ab3c 5219 7b3d 2fde a6bd 9f3b 463e
00000390: d0bb 353e 0a20 a23c 0a67 023c 3377 7f3c
000003a0: a652 893d 3a43 8bbd 001a 27bd a4f4 7ebd
000003b0: da51 27be a38b d13c 256f 9bbd 9810 24bd
000003c0: b2be 62be dd18 31be 0a76 1c3e 40b5 a63d
000003d0: e4ab 91bd 8be9 a8bc 87d7 b23d d3f4 153e
000003e0: 11a2 923d 6db6 343e 514e 843d f07b ccbd
000003f0: d5ad 6d3d de16 983d bc02 5cbe acb8 853d
-0.012659108 -0.10249903 -0.12774605 0.103968315 -0.08957435 0.2104896 -0.042683214 0.070621006
0.06891872 -0.032022495 -0.21207896 -0.033975113 -0.07239202 0.07822381 -0.048293505 -0.006989041
0.13385743 -0.1815066 -0.10884076 0.14786057 -0.037528325 0.13410634 -0.06630452 -0.0011339769
0.08667285 -0.046632078 -0.12456859 -0.08121037 -0.053036574 0.06000427 0.09730369 -0.09549686
0.049836826 0.049537957 -0.08963025 0.051593672 -0.02784253 0.00097129116 0.1876017 0.118243985
-0.1576104 0.10037302 0.17019121 0.071204126 0.012728794 -0.15361698 0.101155765 -0.008684675
0.074230865 0.07042292 -0.088472724 -0.025290422 -0.13275437 -0.10014913 -0.13011305 0.06177873
0.06347505 -0.17425671 0.15459555 0.0036683758 0.057167165 0.11257335 0.08920282 -0.13653244
0.028188057 -0.059926428 -0.13194908 0.012569256 -0.02640956 0.0029193666 0.053420745 0.05258779
0.08669557 -0.06731391 -0.114047356 -0.09651918 0.085786544 0.15616727 -0.079232164 0.031198692
0.03203227 -0.015112458 0.041286297 0.024945205 0.11969698 -0.06618396 0.08643688 0.0050332765
-0.12816869 0.03660665 0.074912615 0.08249874 0.015177741 0.028470162 0.051705886 -0.08756464
-0.017861389 -0.05796343 -0.0982445 -0.03699025 -0.070307314 -0.053354215 -0.079457454 0.07215963
-0.054567013 0.114163354 -0.04842334 -0.0034722844 -0.066119544 0.039292306 -0.020474667 -0.038419284
0.04194634 -0.00039561573 0.07131324 0.0005848409 0.038347393 -0.046357837 -0.026799103 -0.10075742
-0.015303262 -0.04421971 0.059137378 0.10845805 -0.020695735 -0.04685598 0.06527612 0.102698274
-0.012790342 -0.10586173 -0.14466806 0.08093202 0.13612108 -0.022196533 0.032971255 0.11317717
0.15029487 0.13026564 -0.13044603 0.06797832 -0.015665792 -0.022722501 -0.17121801 -0.05398643
0.15246594 0.008009861 0.09791363 -0.01760345 0.062465873 0.07102663 0.08125989 -0.053820472
0.115764454 -0.05419186 0.014117567 -0.14063372 -0.016530564 -0.08227206 -0.067574784 -0.039243568
-0.01707035 0.025014672 0.087770306 0.035645634 -0.06844734 -0.026175316 -0.059609737 0.04111445
-0.093284205 0.10559714 0.049357373 -0.075222604 -0.059940767 -0.08147624 0.079666145 0.15522039
0.097970486 -0.008175923 -0.108836144 0.005547103 0.00060898473 3.5034853e-05 0.073056795 0.045000143
-0.028566845 -0.13211277 0.034196146 0.06857414 0.0045777983 -0.13196154 -0.065747626 0.06636742
0.116758995 -0.069560945 -0.12782702 0.009286439 -0.1205855 -0.017289806 0.06930065 -0.015110814
-0.044727124 -0.177745 -0.08648874 -0.07959848 0.078638636 0.032672923 -0.18033673 0.14599735
0.004062033 -0.08619154 0.16094472 0.06304584 0.027022012 0.15517958 -0.037707273 0.04651819
0.059491012 0.00593767 0.08741681 -0.006204963 -0.16113603 -0.07193683 -0.097709395 0.07506196
0.020991823 0.061303444 -0.08147847 0.19358681 0.17747426 0.019790668 0.007959137 0.015592384
0.06705217 -0.06799932 -0.04079628 -0.062245026 -0.16339818 0.02557928 -0.075895585 -0.040054888
-0.22143057 -0.17294641 0.15279403 0.081400394 -0.07112864 -0.020619174 0.08732515 0.14644174
0.07159818 0.17647715 0.0646025 -0.09984577 0.058027107 0.074262366 -0.21485418 0.06529364

gru.weight_hh_l1 f4 [192, 64]
00000000: 8371 43bd 0a9e dfbd 4581 fc3d ddf2 e7bd
00000010: 545e 8a3d d059 6fbd 1ac0 d73d b01b 843b
00000020: 1ae6 173e b882 a93d d3da 4f3d f1a3 d2bb
00000030: 55c2 81bd 5615 f73c 0229 e23d a981 13be
00000040: 8c7b 903d 1101 2c3d fbde 053e 541d ecbd
00000050: f078 d1bd 711e 2fbb 1da2 4ebc a63c 24bd
00000060: 47a2 303c ff7b 003e b564 9dbd b4a1 70bd
00000070: b9b0 19bd 45c2 46bd b6a0 99bd 1049 fa3d
00000080: b052 fb3d dcf6 173d 8d92 62bd 07b4 cd3d
00000090: 3a5a 88bd d0cb cfbd 424d ebbd 6205 31bd
000000a0: 8a8a d8bd b7be c93d 2d09 2a3d 39b6 68bd
000000b0: 1327 17be 7207 403e 4880 9c3d 8291 5fbd
000000c0: 73bf 923d 80b1 993b 189c 88bd 30d8 bd3d
000000d0: 9fa5 ddbd 993d 13be 42d0 71bc c452 4abc
000000e0: 80e5 c93d fea5 e43d 3883 df3d ec03 023d
000000f0: 3f9e 443d 1622 c0bd d972 c33d 21e5 c93d
00000100: 1e68 29be 337a 25be d4ff 0a3d 862b dcbd
00000110: 00bf cabd b910 ee3d 91f4 8b3b 2824 113e
00000120: b3e2 40bd 1cef 0c3d 813b 46bd 231e 92bd
00000130: cb2a 863c d159 7bbc e0d6 1fbd 3fe1 3bbd
00000140: 9f3e b63d 1df1 623b 7971 d13d 5143 d7bd
00000150: 2877 abbd a3df 26ba 056c 933d 8362 c8bd
00000160: d8b5 063e 3371 1d3c e0e0 a3bd 04c8 b2bd
00000170: 3868 59bd 1d25 0cbe c772 a0bc 5656 69bd
00000180: f98d 58bd 53b0 283e df67 03bd 6e78 aa3b
00000190: 4328 eabd d44f 6d3d bb93 f0bd 4f02 d5bd
000001a0: 4d6c 3fbd 6dd3 f6bc 79ff a33d 56d6 e53c
000001b0: 1946 cd3d 224b 1e3c d646 08be 329c c23b
000001c0: df8d 663d d0f6 2b3d 6864 af3d c541 d13d
000001d0: 198b b73d 7cad ecbc 4ddc 11bd 63f6 a9bd
000001e0: c0a9 553d 6a9c 843d f3bf b3bd 97e6 37bd
000001f0: 61ed 94bd 4039 9ebc 3838 133c 5d13 363d
00000200: ae56 17be 864c 883d df7c 323d 2773 b23a
00000210: d9cf 7c3d 77bc b73d 5dba 54bc 5f82 47bc
00000220: d6db 37bd 6d8d c2bd c33b 07be e27b efbd
00000230: c02f f43d 5228 343e f85e 053e dcb5 dabd
00000240: 3fa3 6b3d 798d 7ebd a73a 4f3e 840e 44be
00000250: 2dbb e63c 5917 5abe c38d c33c 75c8 d6bd
00000260: 908a b9bd 18e3 193e 3174 96bc e29f fe3c
00000270: ba67 a63d 7756 c4bd 603f 0bbd c34e 47bd
00000280: a16b 0f3e be6b 473e 0d7c 3b3b 3d63 d7bd
00000290: 175a 3d3d 7156 103e 280a 9abc e5af 40bd
000002a0: cdac a93d a6ba 743d 108f dc3d 44f1 c4bd
000002b0: 7b68 243d 34a4 293e 8c79 0cbe 8dea 3bbd
000002c0: cc64 37be 83c3 523d 6fd4 babc 9cb9 153d
000002d0: e4ec 133e 4709 8ebc 953c b6bc f703 f6bd
000002e0: 19d4 0b3e 7da3 fa3d ed2a 973d fbe9 f33d
000002f0: 8081 abbd 85f8 923d 24f2 e23c eb89 28be
00000300: c1ef 1b3d c2dd b83d c587 733d 43cc f23d
00000310: acb0 e83d 70b9 8e3d 2950 bf3d 2fb7 c53d
00000320: a037 193e 9acd 08bc 3370 dfbd 99b8 383d
00000330: 4ff1 ffbd dac3 b13b b758 dabd 7c35 e9bd
00000340: efeb 3bbd e6ef b9bd cc37 843d 2f98 1a3d
00000350: 1ad0 0abd dd1b ec3d 9676 873d 947c 8c3d
00000360: da5e d5bd 45d5 a8bd 4fff 2dbd f218 823c
00000370: aaf7 81bd beaa bfbd a917 cd3c 230a 1a3d
00000380: 1649 8e3d 3dd5 743c 2945 02bd e521 1cbd
00000390: 0366 23bc 9bea 6f3c f9a3 c2bd 500c 09be
000003a0: 7056 92bd d815 9abc 5c2a 733d 9ba1 413d
000003b0: 971e a23d 5a76 ebbd feee d13c 5930 94bd
000003c0: 1793 ecbc e26f c9bd 5ee6 f03d 4fdc a6bd
000003d0: 631a 54bd 099d 6c3d 1272 84bd a9aa 8c3d
000003e0: 7f04 fcbd 0021 ee3d d661 063e e763 913d
000003f0: 5440 b13d 22c2 a03d 2e1e 98bc a4cf f03c
-0.047715675 -0.109188154 0.12329344 -0.11325619 0.06756273 -0.05843526 0.10534687 0.004031621
0.1483387 0.08276886 0.050745796 -0.0064282347 -0.06335894 0.030161541 0.11042978 -0.1440493
0.07054815 0.041993205 0.13073342 -0.115290314 -0.10228145 -0.0026721025 -0.012611893 -0.0400969
0.010780877 0.12547301 -0.07685224 -0.058747962 -0.03752205 -0.048525114 -0.07501356 0.12220967
0.12271631 0.037100658 -0.055315543 0.10044103 -0.06657834 -0.10146296 -0.11489345 -0.043218024
-0.10573299 0.09850829 0.041512657 -0.056814406 -0.14761 0.1875284 0.07641655 -0.054582126
0.07165422 0.004690349 -0.066703975 0.0926975 -0.10822605 -0.14378966 -0.014759125 -0.012348834
0.09858227 0.11164473 0.109137 0.03174202 0.048002478 -0.093815014 0.0954339 0.09858156
-0.16543624 -0.16159897 0.033935383 -0.10750489 -0.098997116 0.11624283 0.004271098 0.14173949
-0.047091197 0.03440772 -0.04839659 -0.071346544 0.016377827 -0.015341238 -0.03902328 -0.04586911
0.08898663 0.0034628578 0.10226721 -0.105108865 -0.083723366 -0.0006365722 0.071983375 -0.097844146
0.13155305 0.009609508 -0.08001876 -0.08729556 -0.053077906 -0.13686033 -0.01958598 -0.056967102
-0.05286977 0.16473512 -0.03208148 0.0052023446 -0.114334606 0.05793746 -0.11746927 -0.10400831
-0.046734143 -0.030130113 0.08007712 0.028056305 0.10023136 0.009661468 -0.13308272 0.00593903
0.056287643 0.041983426 0.08564073 0.10217623 0.08962078 -0.028891318 -0.035610486 -0.08298948
0.05216384 0.06475146 -0.08776846 -0.044897642 -0.07271839 -0.019314408 0.008985572 0.04445206
-0.1477916 0.06655221 0.043576118 0.001361464 0.061721656 0.08971494 -0.012983886 -0.012177079
-0.044887386 -0.09499631 -0.13206391 -0.11693551 0.1192317 0.17593506 0.13024509 -0.10679218
0.05752873 -0.062146638 0.20237218 -0.19146162 0.028165424 -0.21297969 0.023871308 -0.10487453
-0.09059632 0.15028036 -0.018365951 0.031082097 0.08125253 -0.09586804 -0.033995986 -0.048659097
0.14005901 0.19474694 0.0028607876 -0.10516975 0.046228494 0.14095475 -0.018803671 -0.047042746
0.08284912 0.059748314 0.107694745 -0.0961633 0.040138703 0.16566545 -0.13718241 -0.045877982
-0.17909545 0.051455986 -0.022806374 0.036553964 0.14445835 -0.017338408 -0.022245685 -0.12012475
0.13655128 0.12238214 0.07381234 0.119098626 -0.083743095 0.071763076 0.027703352 -0.16458862
0.038070444 0.09026672 0.05945565 0.11855366 0.113618225 0.06968963 0.09341461 0.0965408
0.14962626 -0.0083498005 -0.10910072 0.04509792 -0.12497198 0.0054249587 -0.10661452 -0.113871545
-0.0458793 -0.0907896 0.06455955 0.03774279 -0.033889867 0.11528752 0.06614415 0.06859699
-0.10418482 -0.08243803 -0.04247981 0.015881035 -0.06346066 -0.09358738 0.025035696 0.037607323
0.06947534 0.014943418 -0.031804238 -0.03811826 -0.009973052 0.014643337 -0.095039316 -0.13383603
-0.07145393 -0.018809244 0.05936657 0.04727326 0.07915991 -0.11497183 0.025626656 -0.07235784
-0.028878732 -0.09835793 0.11762689 -0.08147489 -0.051782977 0.057766948 -0.0646707 0.06868488
-0.12305545 0.11627388 0.13123259 0.07099133 0.08654848 0.07849528 -0.018569078 0.029395886

gru.bias_ih_l1 f4 [192]
00000000: 4262 c7bd 4e00 01be 6cba 57bd bec4 953d
00000010: 8882 3bbe fa9a a7bd 68cc 4c3d ca72 243c
00000020: 36c3 ca3b 3572 0ebd eff3 543b bf24 49be
00000030: 6964 1abe a1b3 943d a6ab 36be b0b7 04bc
00000040: 98be 9dbe 2180 82bd aa2d 26be 4ab1 0fbd
00000050: 3fce 72be 00d8 34be 655a 2dbe f398 bebb
00000060: 74dc 94bd eb1b 6abc 4f05 a1bd 8981 013e
00000070: ebea cebd 5d56 f7bd 5210 17bd 15e9 86bd
00000080: 036a 93bc 8dbc 27be d8a2 75bb d64d 793d
00000090: 1e20 45bd 7c66 aa3d 5d0e 17be 7522 ed39
000000a0: 7be8 80bd 161a bcbd 99b7 13be 244f b6bd
000000b0: 3530 d53d 5f59 d8bd 1cf1 3abe 1610 983c
000000c0: b0e6 3dbe 7961 af3d 2fb2 e83d 90ae edbc
000000d0: 0535 c3bd f35b b53d 3fa2 27be fee4 3e3d
000000e0: bbd3 c83b 0978 e9bd 746b 413e aa6a 69be
000000f0: d78d b33d 4e68 8b3d ba05 aa3d bb04 0abc
00000100: 04a3 a9be 7929 cbbd 643c acbe 1df1 23be
00000110: 5bb8 02be 7f44 2fbe 9dbb b0be ca22 4ebe
00000120: 8080 8dbe fc68 51be 38b4 a1bd f156 86be
00000130: 0d5e 3cbe 5c5b 1a3c 2eb3 51be 1cae 7ebe
00000140: c1fd 80be f933 febe eb2d 7bbe 4a28 bcbe
00000150: ff14 8ebe 3611 82be c724 55be e5ca 4fbe
00000160: 7074 47bd 2684 4ebd 2dbd 59bc 2d4c 8fbe
00000170: 4840 cfbe 2eed aabe d77c 1bbe 6ba2 07be
00000180: 98e8 643d 8dce abbd a11d 84be bfc8 68be
00000190: 5103 9ebe b197 4f3a d6da acbe c6e8 debd
000001a0: f000 66be 5eec a5be 7e19 1ebe 839a 3ebe
000001b0: 5c04 1a3e 19b8 10be 2bbb 91be 4ac2 e9bd
000001c0: aff1 0c3e 2f15 e5bd fb15 debd f5e4 143d
000001d0: ec1f a8be 79cb c23c 2d8c 9fbe 6876 8abb
000001e0: 5491 5bbe 57f4 1dbe f9d4 82bd 3a7a abbe
000001f0: 5ed8 71be 8e2b edbd f493 1bbe 4da9 70bd
00000200: 3e98 d23d 59b8 b0bd 39ff c0bd 6cca 033e
00000210: 9a96 8b3d 22ae 2d3c 3768 bb3c 2784 09bd
00000220: 72a9 ea3d 6972 21bd ce72 6abd cccf 2b3d
00000230: 3735 98bb 0f60 933d f515 42bd 77d8 c53d
00000240: 7705 f5bd c886 16bd 385a c7bd c571 683d
00000250: 291c c23d ab0a aa3d a054 f4bd 4a91 b9bd
00000260: b714 1a3a e635 393d 575a 8e3d 9d32 4bbd
00000270: 1161 1abd 2dce f13d e374 ec3d 72f0 353b
00000280: 6470 d5bd e3e9 9f3d 9695 0a3d 8ba6 30bd
00000290: d701 37bc b385 e33a 3dd2 f53d 2b03 dd3c
000002a0: ea9c f93c 94b4 633d 8a40 afbd 152b c3bd
000002b0: d780 023d e4bd 45bd d36f 6d3d afd7 5f3d
000002c0: 6fa0 8a3b 0827 83bd b473 fe3d 62f8 5dbb
000002d0: e830 7a3d ced7 943d 9396 0e3e 9896 8e3d
000002e0: 903c 91bb 4779 9a3d f916 cebd ea5c 6ebc
000002f0: 8b29 89bd 40bf 91bd 9a20 0c3d 3550 67bd
-0.09735538 -0.12597772 -0.05266802 0.07312916 -0.18311512 -0.08183856 0.049999624 0.0100371335
0.0061878217 -0.034776885 0.0032494029 -0.19642924 -0.15077366 0.07260824 -0.17838916 -0.008100435
-0.30809474 -0.06372095 -0.16228357 -0.035081185 -0.23711489 -0.17660522 -0.16929014 -0.005816573
-0.072686106 -0.014288883 -0.07862341 0.1264707 -0.10103401 -0.12077019 -0.0368808 -0.065874256
-0.017994886 -0.1638052 -0.0037481096 0.060865246 -0.048126332 0.083203286 -0.14751573 0.00045229835
-0.06294342 -0.09184663 -0.14425506 -0.089018136 0.104095854 -0.10563921 -0.18256038 0.018562358
-0.18545032 0.08563513 0.11362111 -0.029013902 -0.09531597 0.088554285 -0.16370486 0.046605103
0.006128756 -0.11399848 0.18888646 -0.22794595 0.08767288 0.06807004 0.083018735 -0.008423979
-0.33132184 -0.0992002 -0.33639824 -0.16009946 -0.12765639 -0.17115973 -0.34518138 -0.20130458
-0.276371 -0.20450205 -0.07895702 -0.26238206 -0.18395253 0.009421196 -0.20478508 -0.24871105
-0.251936 -0.49649027 -0.24529235 -0.36749488 -0.27750394 -0.25403756 -0.2081481 -0.20292242
-0.048695028 -0.050418995 -0.013289732 -0.27987805 -0.4047873 -0.3338408 -0.15184341 -0.13245551
0.05588588 -0.08389006 -0.25803855 -0.22732829 -0.30861905 0.0007919027 -0.3376071 -0.10884242
-0.22461295 -0.32406896 -0.15439412 -0.18613629 0.15040725 -0.14132728 -0.2846311 -0.11414011
0.1376407 -0.11185681 -0.10844036 0.036351163 -0.32836854 0.023778664 -0.31161633 -0.004225541
-0.21442157 -0.1542524 -0.063882776 -0.3349169 -0.23617694 -0.11580573 -0.15193158 -0.058755208
0.10282944 -0.086289115 -0.0942368 0.12870187 0.06815834 0.0106005985 0.022876842 -0.033573296
0.114581004 -0.03941575 -0.057238393 0.041946217 -0.0046450156 0.07196056 -0.04738422 0.09660428
-0.11963933 -0.03674963 -0.09734005 0.056749124 0.094780274 0.08302816 -0.119302034 -0.09060915
0.00058777205 0.045217417 0.06950825 -0.049608815 -0.037690226 0.11806903 0.11545732 0.0027761725
-0.104218274 0.07808282 0.033834063 -0.043127578 -0.011169872 0.0017358571 0.120029904 0.02697905
0.03047033 0.055592135 -0.08557232 -0.095297016 0.031861152 -0.048276797 0.057967972 0.05464905
0.004230551 -0.06403929 0.12424412 -0.0033869972 0.061081797 0.07267724 0.13924627 0.06962317
-0.0044322684 0.07542663 -0.100629754 -0.01454852 -0.06697377 -0.07116556 0.03421078 -0.056472976

gru.bias_hh_l1 f4 [192]
00000000: 8288 d5bd 4706 58be 7bd7 18be 64f1 973d
00000010: 3c7e 99bc 9501 923d 75b4 67bd be60 30bd
00000020: 9232 e93b f07f 9abd 9f7e b13d 03c8 04be
00000030: 2cad 44bd b575 cd3c ddf8 6bbe fd5c 25be
00000040: e1ab 92be 42cb 03be a798 3f3d 38c7 19be
00000050: a1f8 80be 4ede 85be e828 91bd faf6 0f3e
00000060: eaea 13be 020d 88bd 6bae 78bd 8264 b63d
00000070: 1408 03bb f1f5 d7bd 9b0e 67bc 097a 7dbd
00000080: bb2f 0b3e 09f9 523b c28b 243d b7fd d3bc
00000090: 712d bbbd a5e2 2dbd 99c7 d33b db72 07bd
000000a0: 7c88 4abd ab2b 2dbe 3c11 34be caa3 413c
000000b0: 6ff6 953d c20c f1bd e188 13be 7b4f 87bb
000000c0: 793a 5c3b f135 94bd 121d 2f3d 8a7b 77bc
000000d0: cbaa b5bd 6746 fd3c 48e4 74be dd40 4a3d
000000e0: 23f3 993d 27b9 cdbc 62c2 283e af77 38be
000000f0: e900 403d c398 b9bd 6f01 053e 40e0 483d
00000100: bc7a a2be e7d7 74be 1f26 2abe 6ed6 7dbb
00000110: 6fe6 7bbe c5bd 15be 6638 72be 24e3 82bd
00000120: edad 72be 300a 7dbe 555f 49be aa29 28be
00000130: fde6 3dbe b340 17bd 6752 e1bd 9e22 96bd
00000140: 22d5 33be 0df4 01bf 257d 4fbe 7778 b2be
00000150: 0c0e 8fbe d6eb afbe 3bda b9be bf8e b9be
00000160: cb8e 80bd 20b3 0dbe 8651 c9bc e6be 2bbe
00000170: adeb 77be 63b7 cabe cade ccbd 47dc 46be
00000180: 62cb febc 1991 22be 2ad2 35be 6581 27be
00000190: 5ff4 21be e6e6 2abd 68f9 98be c9e8 eabd
000001a0: 8f1f 8fbe 3b29 01bf 85ca 23be c7d0 59be
000001b0: 6aaf c63d 9833 0cbe 1970 6bbe dae4 0abe
000001c0: a8f4 0e3b fe0e 63be 5adc a5be e214 f13d
000001d0: 1b87 aabe f563 5f3c eb44 45be fe47 febc
000001e0: df3f 60be afbb 2fbe cbec c7bd e061 47be
000001f0: e85e 83be b0cc 6a3a 18f7 87bd 398d 463d
00000200: a0c9 21bd a277 b1bb e8d9 a9bd 25ad d13d
00000210: 5f4f 8bbd 4b46 80bc 805a 99bd f6b7 d63c
00000220: 35a7 e5bd 1952 88bd 7832 0a3e 1891 a43d
00000230: ad9d 1f3c 1bfd 23be 0cb8 72bd c4d4 ed3d
00000240: 7088 bcbd d4ae 9a3c 221e 0ebe 97e3 3a3d
00000250: 02ad 6cbd 1ca3 9e3d ab3d dfbd db29 61bd
00000260: 76db 9fbc a263 f0bd fbf9 b23c 3433 6bbd
00000270: f4e5 e5bc ad6b a8bb 36a5 b53d ce55 b6bd
00000280: 937e 90bc 3ff6 bcbd 695d 04be 6ebb 9ebd
00000290: 61c7 b23d ae55 03bd 71bf 96bd 6428 87bd
000002a0: f05c dd3d 2969 a1bc d52b 5ebd 53f6 133e
000002b0: 6818 de3c c11f 353d 7e33 003e fcf6 62bd
000002c0: f30a f53d 4cc9 87bd cb11 7c3d 7477 38bd
000002d0: 706e a4bd 4ede 633c 3775 70bd d412 303b
000002e0: 7ac7 07bd 5ed9 953d 858f 8a3c 880a 263d
000002f0: 451b 683d 1ae6 fd3d 4c3c 873d 6177 813d
-0.104264274 -0.21096145 -0.1492595 0.074190885 -0.018736951 0.07129208 -0.05656858 -0.04306101
0.007116624 -0.075439334 0.08666729 -0.12966923 -0.048016712 0.025080541 -0.23044153 -0.16148753
-0.28646758 -0.12870505 0.04677644 -0.15017402 -0.2518969 -0.26146168 -0.070878804 0.14059058
-0.14445081 -0.06643106 -0.060713213 0.08905889 -0.0019993829 -0.105449565 -0.014102603 -0.06188396
0.13592426 0.0032191894 0.040172346 -0.025877817 -0.09139527 -0.042452473 0.006463003 -0.03306852
-0.049446568 -0.1691119 -0.175847 0.0118188355 0.07322394 -0.117700115 -0.14407684 -0.004129348
0.0033604188 -0.07236851 0.042752333 -0.015105138 -0.08870467 0.03091736 -0.23915207 0.049378265
0.07517078 -0.025112702 0.16480401 -0.18014406 0.046875868 -0.0906234 0.12988828 0.049041986
-0.31734264 -0.23910485 -0.16616105 -0.0038732546 -0.24599622 -0.14623173 -0.23654327 -0.0639098
-0.2369916 -0.24710917 -0.19665273 -0.16422144 -0.18545146 -0.036926936 -0.11002045 -0.073308215
-0.17561772 -0.50763017 -0.20262583 -0.34857532 -0.27940404 -0.34359616 -0.3629931 -0.3624172
-0.062772356 -0.13837862 -0.024575006 -0.1677204 -0.24210997 -0.39593038 -0.10003431 -0.19419967
-0.03110284 -0.15875663 -0.17755952 -0.16357954 -0.15815876 -0.04172411 -0.29877782 -0.114701815
-0.27953765 -0.5045354 -0.15995224 -0.21271048 0.09701426 -0.13691556 -0.2299198 -0.13563862
0.0021813307 -0.22173688 -0.32394677 0.11771561 -0.33306202 0.013634671 -0.19264571 -0.031040188
-0.21899365 -0.1716144 -0.097619615 -0.1947093 -0.25658345 0.00089568924 -0.06638926 0.048474524
-0.039498925 -0.0054158727 -0.082935154 0.10238103 -0.06802248 -0.015658518 -0.07487965 0.026210766
-0.11213533 -0.06656284 0.13495815 0.08035487 0.009742183 -0.16014521 -0.059257552 0.116128474
-0.09205711 0.018882193 -0.13878682 0.045627203 -0.05778218 0.077459544 -0.10900434 -0.054971557
-0.019513827 -0.117377535 0.021847716 -0.057421878 -0.028063752 -0.005139789 0.08869402 -0.08903085
-0.01763848 -0.09226655 -0.12926258 -0.07750593 0.08729435 -0.032064132 -0.07360733 -0.06599501
0.10808742 -0.019703465 -0.05424102 0.14449434 0.027111247 0.044219736 0.12519643 -0.055411324
0.11964979 -0.06630191 0.061540406 -0.045035794 -0.08028877 0.013907982 -0.058705535 0.0026866691
-0.03314922 0.0731685 0.016914139 0.040537387 0.05666663 0.12397404 0.066032976 0.06321598

fc.weight f4 [1, 65]
00000000: 9acb 063e c577 083e d3ee 8cbd de55 ef3d
00000010: ef88 5e3d 81cd ee3d 8875 88bd f4d2 04bd
00000020: 605c c13c 434d 943d e562 833d 58f2 e53d
00000030: a3f5 8dbd d5d3 66bd 5156 1bbe 7c2d fb3d
00000040: cbcb 1dbe e98d 783d 4e9d 0cbe f7ef 833d
00000050: fff5 ddbd 9313 ef3d e97f 13be 9c95 ce3d
00000060: c620 81bd c81b 18be 62cf 86bd 6112 9fbd
00000070: 1818 a23d 15f7 113e 8dbe 943d a72e 56bb
00000080: e1a9 d3bc 9805 f6bd 49eb a9bd 1d3d 1a3e
00000090: 2680 063e 5c67 043d 5ad2 a73d e15f 053e
000000a0: ae93 b4bd 57e8 10bd fde1 f0bd f18d 393d
000000b0: 8c41 68bb 5287 30bc 5c8a 133e 5d1f efbd
000000c0: a3c1 993d fed8 77bd 3f69 2e3e 15ee 6d3b
000000d0: c1cd 66bd 7408 273d 5d81 a33d 6857 aabb
000000e0: e288 85bd 8358 bbbd 1f29 27bd fb22 06be
000000f0: ced3 abbd c71b 2f3d a07b 33bd 8bb0 e43d
00000100: 08b4 4fbd
0.13163605 0.13326938 -0.068814896 0.116863 0.05432981 0.116602905 -0.06663042 -0.032427743
0.023603618 0.07241299 0.06415347 0.11227864 -0.06931617 -0.056354363 -0.15169646 0.12264535
-0.15409772 0.06068221 -0.13731882 0.06442254 -0.10837936 0.11673655 -0.14404263 0.100871295
-0.06305079 -0.14854348 -0.06582524 -0.077671774 0.07914752 0.1425441 0.07262907 -0.0032681616
-0.02583784 -0.12012786 -0.0829683 0.15062375 0.13134822 0.032325134 0.08194418 0.13024856
-0.0881723 -0.035377827 -0.11761854 0.04530138 -0.003543946 -0.01077445 0.14408249 -0.11675904
0.075076364 -0.060509674 0.17032336 0.0036305238 -0.056348566 0.040779546 0.079836585 -0.005198408
-0.06520249 -0.09147742 -0.0408107 -0.13099281 -0.08390008 0.0427511 -0.04381907 0.111664854
-0.0507088
