Cheyi Wu/FinalProject/LSTM/TSLA/stock_lstm_model.pth (torch, 23975 bytes, 9 tensors)

lstm.weight_ih_l0 f4 [80, 7]
0	0x3e8f997f	0.28046796
1	0x3f0db69f	0.5535678
2	0x3f13f23c	0.57791495
3	0x3f0dfad8	0.5546088
4	0x3e614a40	0.2200098
5	0x3e3e1fca	0.18566814
6	0x3e2cb0cc	0.16864318
7	0x3ee43615	0.4457251
8	0x3ec0c9c7	0.37653944
9	0x3ece4b6e	0.40291923
10	0x3e6356f4	0.22201139
11	0xbdad5ef4	-0.084653765
12	0x3e882893	0.26593456
13	0x3e08a26a	0.13343206
14	0x3eb3ad55	0.3509318
15	0x3ed1b6ac	0.4095968
16	0x3ec57459	0.3856533
17	0x3eec37bd	0.46136275
18	0x3d72e3ed	0.0592994
19	0xbe1ba615	-0.15200074
20	0xbc85fb1b	-0.016355088
21	0x3f0b5a00	0.54434204
22	0x3ec11ceb	0.37717375
23	0x3ebed279	0.37269953
24	0x3ea1a9d6	0.31574887
25	0x3ea9b331	0.33144525
26	0x3ea163e1	0.31521514
27	0x3e57fcad	0.21092482
28	0xbcc9ea46	-0.024647843
29	0x3c91ce76	0.017798644
30	0x3e807feb	0.25097594
31	0x3e718942	0.23587516
32	0x3ea37506	0.3192522
33	0xbdcaadd6	-0.09896438
34	0x3bafdb8c	0.005366748
35	0x3e44be60	0.19213247
36	0x3e1e648f	0.15468048
37	0x3e228428	0.15870726
38	0x3eb79bdf	0.35861108
39	0x3dac083d	0.08400009
40	0xbd2ddc75	-0.042446572
41	0x3e7853db	0.24250738
42	0x3df388f1	0.11891354
43	0x3eb542dc	0.35402572
44	0x3e9a5e18	0.30149913
45	0x3e3a4c6c	0.18193215
46	0xbcef0466	-0.029176902
47	0xbe8a9616	-0.2706763
48	0xbe9d16ad	-0.30681363
49	0x3ebce27d	0.36891547
50	0x3f0e7146	0.5564159
51	0x3e942a16	0.2893836
52	0x3ef95b05	0.48702255
53	0x3eed93e7	0.46401903
54	0x3eb26e04	0.3484956
55	0x3e955c9c	0.29172218
56	0x3e9a043c	0.30081356
57	0x3e9164d9	0.28397253
58	0xbdb39327	-0.087683015
59	0xbdd8e45a	-0.105904296
60	0x3ea965dc	0.33085525
61	0x3ea02999	0.31281736
62	0xbdb54b5f	-0.088522665
63	0x3ed53b4b	0.416468
64	0x3f1fc6c7	0.62412685
65	0x3f28f7ab	0.6600291
66	0x3f279381	0.6545945
67	0xbb4cfe1b	-0.0031279388
68	0xbedf834b	-0.43654856
69	0xbe486aa0	-0.19571924
70	0x3f1d65a2	0.61483204
71	0x3f230944	0.63686013
72	0x3f07f0cd	0.5310181
73	0x3ee89f31	0.45433953
74	0x3e35ad5b	0.17741911
75	0x3eb70ee2	0.35753542
76	0xbd861018	-0.065460384
77	0x3df4f658	0.11961049
78	0x3da25e5f	0.07928156
79	0x3e5308cf	0.20608829
80	0x3b1abbe9	0.0023610538
81	0xbe17d597	-0.14827572
82	0xbb887de8	-0.0041654
83	0x3d5888ed	0.052864958
84	0x3e452f3e	0.19256303
85	0x3e341b8b	0.17588632
86	0x3dc68abe	0.09694432
87	0xbd235607	-0.039876964
88	0xbe6c732c	-0.2309081
89	0x3e2f9310	0.17145944
90	0xbd74df59	-0.059783313
91	0x3e171f95	0.14758141
92	0xbd81be67	-0.063351445
93	0x3e8674ca	0.26260978
94	0x3cc80f05	0.024421224
95	0x3db2544c	0.087074846
96	0x3e94ee03	0.2908784
97	0x3db56c12	0.088585034
98	0x3db4daa2	0.088307634
99	0x3e92c62d	0.2866682
100	0x3ee45450	0.44595575
101	0x3e225fe5	0.15856893
102	0x3eab3636	0.33439797
103	0x3ea094c8	0.3136351
104	0xbd7639f5	-0.060113866
105	0x3ee52162	0.44752032
106	0x3efd742b	0.49502692
107	0x3e4c02d2	0.19922951
108	0x3ee5f661	0.44914535
109	0x3e70152d	0.23445578
110	0xbdfd1346	-0.12357192
111	0x3e8b642b	0.2722486
112	0x3ebd6feb	0.3699945
113	0x3eac3ed3	0.3364168
114	0x3e9a7641	0.30168346
115	0x3ec7f47a	0.39053708
116	0x3d63d915	0.055626947
117	0xbe759e5d	-0.23986192
118	0xbde52e7a	-0.11190505
119	0x3ec11b80	0.37716293
120	0x3e61bca7	0.22044621
121	0x3f0caf1e	0.5495471
122	0x3f09d6d9	0.53843457
123	0x3ea9e7f2	0.33184773
124	0x3cc2c55d	0.02377575
125	0x3dcda02a	0.100403145
126	0x3ecb8570	0.39750242
127	0x3f430de3	0.76193064
128	0x3f07732d	0.5291012
129	0x3f1b5251	0.6067248
130	0x3e74f556	0.23921713
131	0xbe16a0f4	-0.14709836
132	0x3c1d9176	0.0096172
133	0x3f071a74	0.5277474
134	0x3ec2898a	0.3799556
135	0x3eb88ec7	0.3604643
136	0x3ed7fff3	0.4218746
137	0x3e1cb018	0.1530155
138	0x3e661cbe	0.22471902
139	0xbe1a037b	-0.1504039
140	0x3eb4bfd3	0.353026
141	0x3f293a52	0.66104615
142	0x3f3818bf	0.7191276
143	0x3f308329	0.68950135
144	0x3ce3a057	0.027786417
145	0x3eed3fba	0.46337682
146	0xbd0fc478	-0.035099477
147	0x3ebdaf45	0.37047783
148	0x3ec69ed3	0.38793048
149	0x3e6f1f38	0.23351753
150	0x3e673097	0.2257713
151	0xbc2471a2	-0.010036858
152	0x3e19dbf8	0.15025318
153	0x3de50c30	0.11183965
154	0x3ea0d6cf	0.31413886
155	0x3f16f362	0.5896512
156	0x3f321406	0.69561803
157	0x3f2f405a	0.6845757
158	0x3e32cebb	0.17461674
159	0xbe2ae653	-0.16689424
160	0x3d7c5458	0.061603874
161	0x3e9c6a8b	0.30550036
162	0x3f16698a	0.5875479
163	0x3ec63d0b	0.38718447
164	0x3e8c947b	0.27457032
165	0x3e2d6d5d	0.1693625
166	0x3ed188a9	0.40924576
167	0x3c5b36b2	0.01337974
168	0x3c90cc04	0.017675407
169	0x3e28a375	0.16468604
170	0xbdde6b70	-0.10860336
171	0x3e6d6f77	0.23187052
172	0xbd0d72fa	-0.03453348
173	0xbcbf94b7	-0.023386342
174	0xbd4f8693	-0.05066545
175	0x3ee8dbd1	0.45480207
176	0x3f0767b2	0.528926
177	0x3f14ace3	0.58076304
178	0x3f0584d4	0.52155805
179	0xbd4ca4d3	-0.049961876
180	0xbd64574d	-0.05574732
181	0xbdcfa2eb	-0.10138496
182	0x3f0b3343	0.54375094
183	0x3e9f45ab	0.3110784
184	0x3ed1f15d	0.41004458
185	0x3edc18ca	0.42987663
186	0x3d2b6256	0.041841827
187	0xbe61e7e2	-0.22061113
188	0xbe53b109	-0.20673002
189	0x3e03bea1	0.12865688
190	0x3e0ebf35	0.13940127
191	0x3ebd6e5d	0.36998263
192	0x3ed29bb1	0.41134408
193	0xbd06935d	-0.03285538
194	0x3eda1d41	0.42600444
195	0x3ded619b	0.115908824
196	0x3e49cbe4	0.19706684
197	0x3e997a5b	0.29976162
198	0x3dbb44dd	0.09143994
199	0x3c54db84	0.01299179
200	0x3e078adb	0.13236563
201	0x3df53440	0.119728565
202	0xbd6805cf	-0.056646165
203	0x3f00f5a8	0.5037484
204	0x3e80fd3c	0.25193202
205	0x3ec24136	0.37940377
206	0x3f11b432	0.5691558
207	0x3d5cdb43	0.05392004
208	0xbe9332b6	-0.28749627
209	0xbe0b0897	-0.13577496
210	0x3f1fa9c3	0.6236841
211	0x3f0363d2	0.5132419
212	0x3f013db7	0.50484794
213	0x3ead4ccb	0.3384765
214	0x3e846e58	0.25865436
215	0x3eb7a328	0.35866666
216	0x3e96cf97	0.29455253
217	0x3e9d5a89	0.30733135
218	0x3e3e372a	0.18575731
219	0x3e126c71	0.1429918
220	0x3ea45fe2	0.32104403
221	0xbdd862c8	-0.10565716
222	0xbe2fda1d	-0.17173047
223	0xbe92a878	-0.28644156
224	0x3e1e4e1c	0.15459484
225	0xbd4ee5da	-0.050512172
226	0x3cd22d7c	0.025656454
227	0x3e3a7aef	0.18210958
228	0x3dd5439a	0.104132846
229	0x3e1adae5	0.15122564
230	0xbdd04b70	-0.101706386
231	0xbd052692	-0.032507487
232	0x3bc7022a	0.006073256
233	0xbd96dbdd	-0.07366154
234	0x3cd1a7e0	0.025592744
235	0x3da7672c	0.08173975
236	0x3e82afce	0.25524753
237	0x3e96a5c4	0.29423344
238	0x3ec82d73	0.39097175
239	0x3ef2800f	0.47363326
240	0x3ed7e635	0.42167822
241	0x3e39fb41	0.18162252
242	0x3ea1d6dd	0.3160924
243	0x3f208938	0.6270938
244	0x3d767616	0.06017121
245	0x3e1aa126	0.15100536
246	0x3dec4814	0.11537185
247	0x3f0cbf1f	0.5497913
248	0x3f0c062c	0.5469692
249	0xbe659127	-0.22418652
250	0xbd8a7184	-0.06759933
251	0xbc8dcb47	-0.017308844
252	0x3f090852	0.5352832
253	0x3f174285	0.59085876
254	0x3ef995a3	0.48746976
255	0x3f014750	0.5049944

lstm.weight_hh_l0 f4 [80, 20]
0	0x3bdaa96d	0.006673029
1	0x3e1526e4	0.14565617
2	0xbe148e5d	-0.14507432
3	0x3e254e93	0.16143255
4	0xbddea252	-0.10870804
5	0x3dd565c6	0.10419802
6	0xbd3de672	-0.046362348
7	0x3e0e2b74	0.13883764
8	0xbdd01ace	-0.101613626
9	0xbde94795	-0.11390606
10	0x3e1d90b1	0.15387227
11	0xbd45b6e9	-0.04827014
12	0xbe16a0f8	-0.14709842
13	0x3e22d8be	0.15902993
14	0x3ea0a0e8	0.31372762
15	0x3dd7973b	0.10526892
16	0xbc80ed00	-0.01573801
17	0xbe0becfd	-0.13664623
18	0x3de1db6e	0.11028181
19	0x3d9d30f4	0.07675353
20	0xbd8ee3fe	-0.0697708
21	0x3e0aa472	0.13539293
22	0xbe30a5b0	-0.17250705
23	0x3dd57da4	0.10424355
24	0x3dedf3ea	0.116187885
25	0xbe690c85	-0.22758682
26	0x3e4c9b59	0.19981135
27	0x3d64aedf	0.055830833
28	0x3c28c746	0.010301417
29	0x3e359d88	0.17735875
30	0xbe939a3c	-0.2882861
31	0x3c19d16a	0.009388307
32	0x3da4009c	0.08007929
33	0x3e6262fe	0.22108075
34	0xbe759801	-0.23983766
35	0xbd24d85d	-0.040245403
36	0x3d8fa470	0.07013786
37	0x3e6268d7	0.22110306
38	0xbdc14b3b	-0.09438177
39	0x3d60715f	0.05479562
40	0x3ea1b018	0.3157966
41	0xbe843563	-0.2582198
42	0x3e14e5c7	0.14540778
43	0xbdf3906c	-0.11892781
44	0x3e88ce18	0.26719737
45	0xbe0d936d	-0.1382577
46	0xbe153e16	-0.14574465
47	0xbedbb84f	-0.42914054
48	0xbe0b489b	-0.13601916
49	0xbe9231ab	-0.2855352
50	0xbe4984be	-0.19679543
51	0xbe96192f	-0.2931609
52	0xbd49fa29	-0.049310837
53	0x3bff5c85	0.0077930116
54	0xbda9041c	-0.08252737
55	0xbe67f8ad	-0.22653456
56	0xbbfe24c5	-0.007755848
57	0xbe8605cb	-0.26176295
58	0x3b9372ad	0.0044997544
59	0x3d024462	0.031803496
60	0x3e9b7eff	0.30370328
61	0x3e1b8813	0.15188627
62	0x3c5b0a10	0.013369098
63	0x3e892da1	0.26792625
64	0x3e2802f0	0.1640737
65	0xbc96acf7	-0.018393023
66	0x3c6e7331	0.014553831
67	0xbd112f27	-0.03544536
68	0xb957b415	-0.00020571084
69	0xbe512798	-0.2042526
70	0xbe733512	-0.23750713
71	0x3e2efeba	0.17089358
72	0xbe1492e2	-0.14509156
73	0xbd42528c	-0.047442004
74	0xbcf99146	-0.03046478
75	0x3da5751c	0.080789775
76	0x3e38f4e2	0.18062165
77	0x3d97ed76	0.07418339
78	0x3e1b3dcb	0.15160291
79	0x3d909c5b	0.070610724
80	0x3e618461	0.22023155
81	0xbe5fd6ac	-0.21859235
82	0xbc1801a5	-0.009277736
83	0x3ea30b35	0.31844488
84	0x3e18acdc	0.1490969
85	0xbd8e4444	-0.069466144
86	0x3d5bbe58	0.053648323
87	0x3dc5d449	0.09659631
88	0x3ddbe469	0.10736925
89	0xbe7665c4	-0.24062258
90	0xbe705dd8	-0.23473299
91	0x3d599a6d	0.053125788
92	0x3d04f638	0.032461375
93	0x3e2d9118	0.1694988
94	0x3e31c9f4	0.17362195
95	0xbd94dc63	-0.07268598
96	0xbdd5a21d	-0.10431311
97	0x3db35a94	0.08757511
98	0x3b8f8db0	0.004380904
99	0x3dbfb73d	0.09361122
100	0x3b71359c	0.0036805635
101	0xbe184655	-0.1487058
102	0x3b819189	0.0039541167
103	0x3cbbd903	0.022930628
104	0x3e5f91ea	0.21833006
105	0xbe101554	-0.14070636
106	0x3d94212f	0.07232892
107	0xbd95a47c	-0.073067635
108	0x3d7cd4b4	0.061726287
109	0xbe75b2bd	-0.23993964
110	0xbe0c215b	-0.13684599
111	0x3da98b57	0.0827853
112	0x3d1c740f	0.03819662
113	0xbda80a82	-0.08205129
114	0x3be5a038	0.007007625
115	0x3d162fa6	0.036666535
116	0xbc86abb7	-0.016439302
117	0xbd668713	-0.05628116
118	0x3cba69be	0.0227555
119	0xbe273771	-0.16329743
120	0x3e2ff699	0.17183913
121	0x3e3a364e	0.18184778
122	0xbe127d62	-0.14305642
123	0xbe0b8eea	-0.13628736
124	0x3cb0512a	0.021523077
125	0x3e2d463a	0.1692132
126	0xbdb95eb4	-0.09051266
127	0xbeecf0b0	-0.4627738
128	0x3c9d5354	0.019204773
129	0xbe1f024a	-0.15528217
130	0xbe5c92e9	-0.21540417
131	0xbea9415d	-0.3305768
132	0x3d9e6b70	0.07735336
133	0xbd7259b1	-0.059167568
134	0xbef996f8	-0.48747993
135	0xbe5c12c3	-0.21491532
136	0x3e540e6d	0.20708628
137	0xbe358f5f	-0.17730473
138	0xbe5de604	-0.21669775
139	0x3d14592d	0.036217857
140	0x3e017294	0.12641364
141	0x3c360eef	0.011111959
142	0x3dd3c80b	0.103408895
143	0x3e22ffc3	0.15917878
144	0x3d4568fc	0.048195824
145	0xbdc00bdc	-0.09377262
146	0xbe6909f2	-0.227577
147	0xbce5f426	-0.02807052
148	0xbe8c378f	-0.27386138
149	0xbdb0e689	-0.08637721
150	0xbcecc428	-0.028902128
151	0x3e179416	0.14802584
152	0xbe0f3ae2	-0.13987306
153	0x3d865862	0.065598264
154	0xbe4ad245	-0.19806774
155	0xbe74ae3b	-0.23894589
156	0x3e037a2a	0.1283957
157	0xbd914c2d	-0.070946075
158	0x3dbe6255	0.09296099
159	0x3d327a65	0.043573756
160	0xbdc559d8	-0.09636277
161	0x3c37a5c1	0.011208952
162	0x3d9e754e	0.07737218
163	0xbde2b543	-0.11069729
164	0xbdcb7b11	-0.099355824
165	0x3bf56fb0	0.007490121
166	0xbd745d04	-0.05965902
167	0x3debfb98	0.11522597
168	0xbd1390a4	-0.036026612
169	0xbe370379	-0.17872418
170	0xbe9e7bb1	-0.30953744
171	0xbdb2193e	-0.08696221
172	0x3e1cdec4	0.15319353
173	0x3e4306df	0.1904559
174	0x3e2f2b47	0.17106353
175	0xbda186f7	-0.078870706
176	0x3e8b2ef5	0.27184263
177	0xb9070f8a	-0.00012880392
178	0x3ddd3456	0.10800998
179	0xbcb57d85	-0.022154579
180	0xbd9f3258	-0.07773274
181	0xbe36c647	-0.17849074
182	0xbe0abce5	-0.1354862
183	0xbe03d047	-0.1287242
184	0xbc7f7c57	-0.01559361
185	0xbe02e197	-0.12781368
186	0x3db2d9b9	0.087329336
187	0x3db155ff	0.086589806
188	0xbd033377	-0.032031503
189	0x3e55072e	0.2080352
190	0x3e4a8848	0.1977855
191	0xbdb562c9	-0.088567324
192	0xbe23faa1	-0.16013576
193	0x3e490db4	0.19634134
194	0xbe897728	-0.26848722
195	0x3e435aa7	0.1907755
196	0x3c6dd0d9	0.014515125
197	0x3c40440e	0.0117349755
198	0x3b9351cf	0.0044958363
199	0x3d4ff1da	0.050767757
200	0x3d80b38b	0.06284245
201	0x3e128886	0.14309892
202	0xbe15e0c8	-0.14636528
203	0x3e3b477f	0.18288992
204	0x3daeb5c4	0.08530763
205	0x3db170e2	0.08664109
206	0xbe0a98cd	-0.13534851
207	0xbe4b189f	-0.19833611
208	0x3df3cccd	0.11904297
209	0xbd2c56d4	-0.042074993
210	0xbde9e496	-0.114205524
211	0x3dc97887	0.09837442
212	0x3e3b5ed9	0.182979
213	0x3e8aa86d	0.27081624
214	0x3a9e2f0c	0.0012068464
215	0xbdcbd5d4	-0.09952894
216	0x3dc73803	0.0972748
217	0x3dae644b	0.08515223
218	0xbdc7d110	-0.097566724
219	0xbe42074a	-0.18948093
220	0xbe09a8c7	-0.1344329
221	0xbcd7accc	-0.026327513
222	0xbde34ea4	-0.11098984
223	0x3e53c51d	0.20680661
224	0x3d321d2f	0.043484863
225	0x3da0398d	0.07823477
226	0x3db5c870	0.08876121
227	0xbe830312	-0.2558828
228	0x3d7d8ce4	0.061901942
229	0x3daecc9b	0.08535119
230	0xbb78b69d	-0.0037950643
231	0xbe4dd4b7	-0.20100676
232	0xbd9ee157	-0.07757824
233	0xbe07aacc	-0.13248748
234	0xbe809af0	-0.25118208
235	0xbe21c157	-0.1579641
236	0x3d8fbab4	0.07018033
237	0xbe0a1ace	-0.13486788
238	0xbddedf08	-0.108823836
239	0xbd261784	-0.04054977
240	0xbcd11c48	-0.02552618
241	0x3df981db	0.12182971
242	0x3dba5911	0.09099019
243	0xbd038bd0	-0.032115757
244	0x3ec9a71c	0.39385307
245	0xbe13cbbb	-0.14433186
246	0x3da77ca7	0.081780724
247	0xbe24ab76	-0.16081032
248	0xbe56fa2e	-0.20993873
249	0xbe1b728b	-0.15180413
250	0xbe10442e	-0.14088508
251	0x3d647c19	0.05578241
252	0x3e085c93	0.13316564
253	0x3e8302bb	0.2558802
254	0xbe891a17	-0.26777717
255	0xbd7c24c9	-0.06155852

lstm.bias_ih_l0 f4 [80]
0	0x3d16b4dd	0.03679358
1	0xbdd28dd7	-0.1028096
2	0x3cb61cda	0.022230554
3	0x3da70515	0.08155266
4	0x3e450185	0.19238861
5	0x3e22210a	0.15832916
6	0xbe69d302	-0.228344
7	0x3dbb2cf9	0.09139437
8	0x3e833696	0.25627583
9	0xbdb5cab6	-0.08876555
10	0x3dd41df3	0.10357275
11	0x3dbbe2dd	0.0917413
12	0xbe3ce9f5	-0.18448623
13	0x3eb2b9b8	0.34907317
14	0x3de9261a	0.113842204
15	0xbe017c22	-0.12645009
16	0xbe1b202d	-0.15148993
17	0x3e02f44a	0.12788501
18	0x3d890916	0.06691186
19	0xbe421f99	-0.18957366
20	0xbe77a7ed	-0.24185152
21	0xbd6ca730	-0.05777663
22	0x3de40284	0.11133292
23	0xbdcfb3ea	-0.10141738
24	0xbcd38ec2	-0.025824908
25	0xbe5ce249	-0.21570696
26	0xbcc1dd9f	-0.023665247
27	0xbe0fafc9	-0.140319
28	0xbbc7a3ea	-0.006092538
29	0x39e9076f	0.00044446762
30	0x3e130924	0.14358956
31	0xbe3eb43f	-0.18623446
32	0x3d756bbc	0.059917197
33	0x3dc1c728	0.09461814
34	0xbd8835c1	-0.06650878
35	0xbd6596dd	-0.056052078
36	0xbe92371d	-0.28557673
37	0xbd8bca94	-0.06825748
38	0xbdbcc35d	-0.0921695
39	0xbdf794dd	-0.1208894
40	0x3bae3142	0.0053159306
41	0xbe36d842	-0.17855933
42	0xbd4593ab	-0.04823653
43	0xbda08a28	-0.07838851
44	0xbd9cd1d0	-0.07657206
45	0x3e24cf05	0.16094597
46	0x3d1c1843	0.038109075
47	0x3e2cb436	0.1686562
48	0xbd8b452f	-0.06800305
49	0xbe24f95a	-0.16110745
50	0xbdff5107	-0.124666266
51	0xbe0e94be	-0.13923928
52	0x3b261240	0.0025340468
53	0xbc88783c	-0.016658895
54	0x3e17ea24	0.14835411
55	0x3dec3830	0.115341544
56	0x3dfb43b8	0.12268776
57	0xbd360141	-0.04443479
58	0xbe4c2ce7	-0.19939004
59	0xbdfd320f	-0.123630635
60	0x3e5ca688	0.21547902
61	0xbd7bc7fd	-0.06147002
62	0xbd038f02	-0.032118805
63	0x3e8fe070	0.2810092
64	0xba5a1b0e	-0.00083200715
65	0xbe5107db	-0.20413153
66	0xbe8b8131	-0.27247003
67	0x3ebbc9f2	0.3667751
68	0xbe387147	-0.18011962
69	0xbdad54f1	-0.08463467
70	0x3e96bb44	0.29439747
71	0xbd774fb6	-0.060378753
72	0xbe20ab49	-0.1569034
73	0x3e0660ec	0.1312291
74	0xbde16cb6	-0.11007063
75	0x3c025e3b	0.007957037
76	0xbc75b85f	-0.014997571
77	0xbe5de95a	-0.21671048
78	0x3d1f4303	0.038882267
79	0xbdf8f6a9	-0.12156422

lstm.bias_hh_l0 f4 [80]
0	0xbd022397	-0.031772222
1	0x3e1ec373	0.15504245
2	0xbd3f5547	-0.046712186
3	0x3e08acd1	0.13347174
4	0x3e8824a5	0.26590458
5	0xbe4211bf	-0.18952082
6	0xbdd93b25	-0.10606984
7	0xbd7f82e6	-0.062380694
8	0x3e37ac1a	0.17936745
9	0xbda0affc	-0.07846066
10	0x3e1374b3	0.14399986
11	0xbcd6e167	-0.026230527
12	0x3d98a587	0.07453447
13	0x3e215c72	0.15757921
14	0xbc91c84b	-0.017795702
15	0x3e226eda	0.15862599
16	0xbcdadb47	-0.026715888
17	0x3e0dfb97	0.13865505
18	0xbdf33f8d	-0.11877356
19	0x3db16d8f	0.08663475
20	0x3dd71cfe	0.10503577
21	0x3cdedde6	0.027205419
22	0x3c050415	0.008118649
23	0xbe5874fd	-0.21138377
24	0x3e267357	0.16254936
25	0x3dcf3c16	0.10118882
26	0x3bb975d2	0.005659797
27	0xbdd08b6a	-0.10182841
28	0x3d8467fa	0.064651445
29	0x3ccd9c7e	0.025099035
30	0xbe1a414c	-0.15063971
31	0xbe13018d	-0.1435606
32	0xbd4ecb60	-0.050486922
33	0x3e9f42d4	0.31105673
34	0xbd7adcba	-0.061245658
35	0xbe749388	-0.23884404
36	0xbdfcbd98	-0.1234085
37	0xbe5f71ee	-0.21820804
38	0xbe0ac541	-0.13551809
39	0xbc359366	-0.011082506
40	0x3de706ed	0.11280618
41	0xbdd25016	-0.102691814
42	0xbd741d81	-0.05959845
43	0x3e1f84d4	0.15578014
44	0x3dc5d85a	0.096604064
45	0x3e5e1309	0.21686949
46	0x3da365b9	0.079783864
47	0xbca1f9f2	-0.019772504
48	0xbd3842d8	-0.044985622
49	0x3d8ac1ae	0.06775223
50	0xbd8c9add	-0.06865475
51	0xbc29fa8a	-0.010374675
52	0xbddd4c7c	-0.10805604
53	0xbea18968	-0.31550145
54	0x3db247fb	0.087051354
55	0xbe264dd3	-0.16240625
56	0x3e362b29	0.17789902
57	0xbd026d66	-0.03184261
58	0x3e4d6a72	0.20060137
59	0xbe317a6c	-0.17331856
60	0x3e6fa693	0.23403387
61	0xbdadfe67	-0.08495789
62	0xbd522d5d	-0.051312793
63	0x3c0e8192	0.008697884
64	0x3e9825ea	0.29716426
65	0xbd8ca4be	-0.068673596
66	0xbe4dccc0	-0.20097637
67	0x3e1da8a9	0.1539637
68	0xbe821ff2	-0.25414997
69	0xbd3f0f03	-0.046645176
70	0xbdc5a4c4	-0.09650567
71	0xbdafaaf0	-0.085775256
72	0xbdd3d522	-0.10343386
73	0x3d6c8038	0.057739466
74	0x3e126e02	0.14299777
75	0xbc5b3ab3	-0.013380694
76	0xbe73e0a0	-0.23816156
77	0x3e0d9df4	0.13829786
78	0x3d497759	0.049186084
79	0x3de02e26	0.10946302

fc1.weight f4 [32, 20]
0	0x3ec8e9c1	0.3924084
1	0xbebd30c9	-0.36951283
2	0x3eb280e2	0.34863955
3	0x3ed6fb61	0.41988662
4	0x3e8b93b7	0.27261135
5	0x3ebe1544	0.371256
6	0xbeb39048	-0.35071015
7	0xbed11f3e	-0.40844148
8	0xbeb387be	-0.350645
9	0xbeba1647	-0.3634512
10	0xbe87b57b	-0.26505646
11	0xbebd779a	-0.3700531
12	0xbeb36ac2	-0.35042387
13	0xbea34ba2	-0.3189364
14	0xbe521bef	-0.20518468
15	0xbecd286b	-0.400699
16	0x3ebcef91	0.36901525
17	0xbed6671d	-0.41875544
18	0xbeb502d0	-0.35353708
19	0xbeb6fa94	-0.3573805
20	0x3f06bf29	0.5263544
21	0xbec1f9c2	-0.37885863
22	0x3ebd8504	0.37015545
23	0x3f0d6cd5	0.5524419
24	0x3ec7218d	0.38892785
25	0x3f33c7d0	0.70226765
26	0xbe9343ad	-0.2876257
27	0xbf1f9469	-0.6233583
28	0xbf12e083	-0.5737383
29	0xbf31ebad	-0.6950024
30	0xbed928f7	-0.42414066
31	0xbf168755	-0.5880025
32	0xbecafe58	-0.39647174
33	0xbefec8bd	-0.49762526
34	0xbf2929a9	-0.66079193
35	0xbf393419	-0.7234512
36	0x3eda4199	0.42628172
37	0xbee445b8	-0.4458444
38	0xbec23000	-0.37927246
39	0xbf13ad5b	-0.57686394
40	0x3eeed66b	0.46647963
41	0xbea9af5a	-0.33141595
42	0x3ed5641b	0.41677937
43	0x3f1d2c7c	0.61396
44	0x3eefa4aa	0.46805316
45	0x3ec9c2f0	0.39406538
46	0xbe8e80d1	-0.27832654
47	0xbf410984	-0.75405145
48	0xbec789cc	-0.38972318
49	0xbf13d4f9	-0.57746845
50	0xbeb4161c	-0.35173118
51	0xbf057189	-0.52126366
52	0xbeb0eae3	-0.34554204
53	0xbeaa4927	-0.33258936
54	0xbed9298c	-0.4241451
55	0xbf122edc	-0.5710275
56	0x3ec90c91	0.392674
57	0xbef82854	-0.48468268
58	0xbf075aab	-0.52872723
59	0xbf20feef	-0.62889
60	0xbda2b205	-0.07944111
61	0x3c9298b3	0.017895078
62	0xbc62d18e	-0.013843907
63	0xbc1c88c8	-0.009554096
64	0x3a15a0fb	0.0005707887
65	0xbc8d57c4	-0.017253764
66	0x3c76f162	0.015072199
67	0x3d92fb03	0.07176783
68	0x3c66aa00	0.014078617
69	0x3c80c9ea	0.01572128
70	0xbc0ad754	-0.00847419
71	0x3cd51c37	0.02601443
72	0x3c79b888	0.01524175
73	0x3c61ab82	0.013773801
74	0xbc19081c	-0.009340312
75	0x3c7e6640	0.015527308
76	0xbc8027fd	-0.015644068
77	0x3c954617	0.018221898
78	0x3c781cbe	0.015143571
79	0x3c95e0aa	0.018295605
80	0xbb1ead28	-0.0024212096
81	0x3c941cbe	0.018080112
82	0xbc8cbe1c	-0.017180495
83	0xbc2cc541	-0.010545076
84	0x3ce96d24	0.028494425
85	0xbc8a7f0c	-0.016906284
86	0x3c89cff0	0.016822785
87	0xbb694a97	-0.0035597438
88	0x3c3f37ed	0.011671049
89	0x3c922319	0.017839001
90	0x3b33cbbe	0.0027434672
91	0xbcac5dec	-0.02104088
92	0x3c8ff27f	0.017571686
93	0x3c8a947d	0.016916508
94	0x3c453c20	0.012038261
95	0x3c89b39a	0.016809274
96	0xbc6a742d	-0.014309925
97	0x3c8b0c81	0.016973736
98	0x3c92fd0e	0.017942932
99	0x3c75209d	0.014961389
100	0x3ee5b559	0.4486492
101	0xbedc1ecd	-0.4299225
102	0x3eb86ce1	0.36020568
103	0x3ef42a07	0.47688314
104	0x3f076738	0.52891874
105	0x3ecde121	0.40210822
106	0xbeb69601	-0.3566132
107	0xbf08e219	-0.5347
108	0xbebd549c	-0.36978614
109	0xbeb11298	-0.34584498
110	0xbed3f0f9	-0.41394785
111	0xbec383f4	-0.3818661
112	0xbeb24a4b	-0.34822306
113	0xbea3d229	-0.31996277
114	0xbed51077	-0.41614124
115	0xbece149a	-0.40250093
116	0x3ec6a9c9	0.3880141
117	0xbed4cbad	-0.41561642
118	0xbeaaf129	-0.33387116
119	0xbec7b123	-0.39002332
120	0x3f3a9564	0.728842
121	0xbeef589b	-0.46747288
122	0x3f190891	0.59778696
123	0x3f2f25ff	0.6841735
124	0x3f1f9363	0.6233427
125	0x3eb2d3ff	0.34927365
126	0xbf1b7275	-0.6072152
127	0xbece0a8a	-0.40242416
128	0xbeeb07c7	-0.4590437
129	0xbf30fbf1	-0.6913443
130	0xbf29dfcd	-0.6635712
131	0xbeaa2a50	-0.33235407
132	0xbf0d0192	-0.5508052
133	0xbed8138e	-0.4220242
134	0xbed1bcc0	-0.40964317
135	0xbeee92b2	-0.46596295
136	0x3f10bdf4	0.56539845
137	0xbf206f20	-0.62669563
138	0xbf35aee6	-0.7097
139	0xbeed9d0b	-0.46408877
140	0xbd76c25a	-0.06024394
141	0x3d05dc8e	0.03268104
142	0xbd0a1743	-0.03371359
143	0xbe36e95f	-0.17862462
144	0x3e0c3ced	0.13695116
145	0xbe4bb422	-0.19892934
146	0xbdc40811	-0.09571851
147	0x3e3d5d8a	0.18492714
148	0xbd538866	-0.05164375
149	0xbcc487a5	-0.023990462
150	0x3d8ad014	0.06777969
151	0x3cd7e15c	0.026352577
152	0x3c964c90	0.018347055
153	0xbd37d522	-0.044880994
154	0x3e17dc15	0.14830048
155	0xbc240e22	-0.010013135
156	0xbe0a05fb	-0.13478844
157	0x3b46985d	0.0030303218
158	0xbd8b326b	-0.06796726
159	0x3d59c5a1	0.05316699
160	0x3f118f3e	0.56859195
161	0xbf2eeb1b	-0.6832749
162	0x3efe173a	0.49627095
163	0x3f1835e1	0.5945721
164	0x3ee4f82a	0.44720584
165	0x3ed7737c	0.42080295
166	0xbf1802b8	-0.5937915
167	0xbf01b2c5	-0.50663406
168	0xbf1ea40f	-0.61969084
169	0xbeafcf42	-0.34337813
170	0xbf2618fb	-0.6488187
171	0xbefc9834	-0.49334872
172	0xbf22901d	-0.6350115
173	0xbef34c22	-0.47519022
174	0xbf1362e1	-0.5757275
175	0xbf2c9392	-0.67412674
176	0x3f377671	0.716651
177	0xbee49231	-0.44642785
178	0xbf1193b6	-0.56866014
179	0xbf30f06c	-0.69116855
180	0x3ece681e	0.4031381
181	0xbeaafe97	-0.33397362
182	0x3f07d18d	0.53054124
183	0x3ef69e05	0.48167434
184	0x3f10f2d5	0.5662053
185	0x3f15df43	0.58543795
186	0xbf0333c9	-0.5125089
187	0xbf205ce8	-0.62641764
188	0xbf047323	-0.51738185
189	0xbf1d4fe1	-0.6145001
190	0xbf43b478	-0.7644725
191	0xbf14bad1	-0.5809756
192	0xbf2ef796	-0.68346536
193	0xbf0f5d32	-0.5600158
194	0xbec00842	-0.375063
195	0xbf30f966	-0.6913055
196	0x3f0101b2	0.5039321
197	0xbf172918	-0.5904708
198	0xbec127d2	-0.37725693
199	0xbf39c07e	-0.72559345
200	0x3f32de13	0.6987011
201	0xbecf6a8c	-0.40510976
202	0x3ead773b	0.33880028
203	0x3f3e0094	0.7421963
204	0x3f20e00f	0.62841886
205	0x3ebf3c2f	0.37350604
206	0xbe9b22ba	-0.30299932
207	0xbf3f0ce1	-0.74629027
208	0xbf0b4b21	-0.5441151
209	0xbeddc9d0	-0.43318033
210	0xbf404315	-0.7510236
211	0xbea5e27c	-0.32399356
212	0xbe9ee495	-0.3103377
213	0xbe981800	-0.2970581
214	0xbf31164e	-0.6917466
215	0xbf07208d	-0.52784044
216	0x3e9ef924	0.31049454
217	0xbec19ffd	-0.37817374
218	0xbf2b445f	-0.669012
219	0xbf3b5f51	-0.73192316
220	0xbc92ac75	-0.0179045
221	0x3c92aa35	0.017903427
222	0xbc92ac20	-0.017904341
223	0xbc92aba2	-0.017904107
224	0xbc1abe42	-0.009444775
225	0xbca00165	-0.019531915
226	0x3c23b67a	0.009992236
227	0x3c92ab33	0.0179039
228	0x3c92acaa	0.017904598
229	0x3c9ca4bc	0.01912152
230	0x3ca37dbf	0.019957421
231	0x3cd3c7ef	0.025852172
232	0x3c92ab97	0.017904086
233	0x3c92a948	0.017902985
234	0x3c8a8e25	0.016913483
235	0x3c92ab64	0.017903991
236	0xbc50cc06	-0.0127439555
237	0x3c92ac1d	0.017904336
238	0x3c92acca	0.017904658
239	0x3ce1ca0f	0.02756217
240	0x3f32a349	0.69780403
241	0xbecbfe12	-0.39842278
242	0x3f06ce0a	0.5265814
243	0x3f351f7e	0.7075118
244	0x3e7afedd	0.24511285
245	0x3f1fe250	0.624547
246	0xbf338c99	-0.7013641
247	0xbf1dfd7c	-0.6171491
248	0xbf37a74a	-0.7173964
249	0xbea8d423	-0.32974347
250	0xbed84827	-0.42242548
251	0xbf39fbab	-0.7264964
252	0xbf32d76c	-0.6985996
253	0xbf024877	-0.5089182
254	0xbefc67c6	-0.49297923
255	0xbeb8a662	-0.3606444

fc1.bias f4 [32]
0	0x3e955099	0.29163054
1	0x3f27f1ae	0.6560315
2	0x3f1b6ffc	0.6071775
3	0xbc43e261	-0.011955828
4	0xbc9978cf	-0.018734364
5	0x3e8df9bf	0.27729604
6	0x3f22bbdc	0.635679
7	0xbd3c18f6	-0.045922242
8	0x3ee18641	0.4404774
9	0x3eca70a6	0.3953907
10	0x3f2a69ea	0.6656786
11	0xbc92ad26	-0.01790483
12	0x3f09a0de	0.5376109
13	0xbca9e114	-0.020737208
14	0x3f0c5c67	0.54828495
15	0xbce34024	-0.027740546
16	0x3f16f050	0.5896044
17	0xbbf416e4	-0.007449018
18	0x3e944fee	0.28967232
19	0xbe248cda	-0.16069356
20	0xbdd2e9fb	-0.102985345
21	0x3edd87d9	0.43267706
22	0xbd28984f	-0.041160878
23	0x3ee1ea66	0.44124144
24	0xbc23d396	-0.0099991765
25	0x3f2a73cc	0.6658294
26	0x3eb39f0c	0.3508228
27	0xbde4fd0f	-0.111810796
28	0x3ece644c	0.40310895
29	0x3f07dffe	0.5307616
30	0x3cd9738e	0.026544359
31	0x3f30f451	0.691228

fc2.weight f4 [64, 32]
0	0x3ebe3e39	0.37156847
1	0x3f266839	0.6500278
2	0x3f14a02d	0.5805691
3	0x3c52b5f2	0.012860762
4	0x3d09ea6d	0.03367083
5	0x3ecbf594	0.398358
6	0x3f282169	0.6567598
7	0xbc9ec26d	-0.019379819
8	0x3f0fa74f	0.5611467
9	0x3f2ac9fd	0.6671446
10	0x3f1cc763	0.6124174
11	0xbad147de	-0.0015966853
12	0x3edb49b2	0.42829663
13	0x3ca9cfd7	0.020728989
14	0x3f2f1879	0.6839672
15	0x0005669a	4.95984e-40
16	0x3f124b69	0.57146317
17	0xbc4959c6	-0.01228947
18	0x3ef8ee68	0.4861939
19	0x3c279b48	0.010229893
20	0xbdbc58e5	-0.09196643
21	0x3ef3eeb1	0.47643045
22	0x3d1c223f	0.038118597
23	0x3f1b8b58	0.60759497
24	0xbc38578a	-0.01125134
25	0x3eb58df9	0.3545988
26	0x3efb5beb	0.49093565
27	0xbd5db3a7	-0.054126408
28	0x3f2a0a21	0.66421705
29	0x3f173b25	0.5907462
30	0xbdbef5f1	-0.09324253
31	0x3f2891af	0.65847296
32	0x00055d9b	4.92757e-40
33	0x3d4bdd35	0.049771506
34	0xbe33f1e7	-0.17572747
35	0x80059b05	-5.14788e-40
36	0x80056432	-4.95121e-40
37	0x0005875e	5.07738e-40
38	0xbe547116	-0.20746264
39	0x80055b75	-4.91986e-40
40	0x3d55ccfd	0.052197445
41	0xbe0c300e	-0.13690206
42	0xbdee143f	-0.116249554
43	0x0005629c	4.94552e-40
44	0x3e08a6b8	0.13344848
45	0x0005c14b	5.28518e-40
46	0xbda5eba8	-0.081015885
47	0x0005622e	4.94398e-40
48	0xbdbc944d	-0.09207974
49	0x800571a5	-4.99945e-40
50	0x80055808	-4.90757e-40
51	0x000579ba	5.02845e-40
52	0x80056d58	-4.98403e-40
53	0xbe155c88	-0.14586079
54	0x80055795	-4.90596e-40
55	0xbd3dd8e2	-0.046349414
56	0x80062f2f	-5.67939e-40
57	0xbc1671c0	-0.009182394
58	0x80055f8c	-4.93453e-40
59	0x00055eb1	4.93146e-40
60	0x3d663216	0.05620011
61	0x3e077a5c	0.1323027
62	0x3e0f1f67	0.13976823
63	0x3dbdec3a	0.09273572
64	0x00056bc8	4.97842e-40
65	0xbc3a66d9	-0.01137706
66	0xbc3c9ef0	-0.011512503
67	0x00056d7f	4.98457e-40
68	0x000597b6	5.13601e-40
69	0x000558d6	4.91046e-40
70	0xbc3f3a5e	-0.011671631
71	0x80056ae1	-4.97518e-40
72	0x3d2291c3	0.03968979
73	0xbda00620	-0.07813668
74	0x3d4d1566	0.050069235
75	0x80066809	-5.88334e-40
76	0xbc46a31b	-0.012123848
77	0x80069459	-6.0423e-40
78	0xbd70ab0b	-0.05875687
79	0x00056ecb	4.98923e-40
80	0xbcb9b4d8	-0.02266924
81	0x8005613b	-4.94057e-40
82	0xbce24bbc	-0.027624004
83	0x000565e0	4.95723e-40
84	0x00055d9d	4.9276e-40
85	0xbc3c2bed	-0.011485082
86	0x00055e71	4.93057e-40
87	0xbc3c4bb3	-0.0114926575
88	0x0005db95	5.37949e-40
89	0xbc3cdf53	-0.011527854
90	0xbd9a881d	-0.07545493
91	0x80055e50	-4.9301e-40
92	0xbc3c8815	-0.011507054
93	0x3ce09188	0.027413145
94	0x00058219	5.05848e-40
95	0x3d2f1b96	0.042750917
96	0x0005a2ea	5.1762e-40
97	0xbb876b6c	-0.0041326787
98	0xbb90bd11	-0.0044170697
99	0x00056a59	4.97328e-40
100	0x8005674b	-4.96232e-40
101	0x80059a1c	-5.14462e-40
102	0xbb808a37	-0.0039227265
103	0x8005704c	-4.99462e-40
104	0xbb868729	-0.004105468
105	0xbb7d502a	-0.0038652518
106	0xbb8282e3	-0.003982888
107	0x800568be	-4.96752e-40
108	0xbb8ec049	-0.0043564183
109	0x0005d03f	5.33882e-40
110	0xbb982a84	-0.00464374
111	0x0005741b	5.00828e-40
112	0xbb82b0cd	-0.0039883615
113	0x8006072f	-5.5359e-40
114	0xbb80b8b2	-0.0039282674
115	0x800569a6	-4.97077e-40
116	0x800567cc	-4.96413e-40
117	0xbb850027	-0.004058856
118	0x80059274	-5.11715e-40
119	0xbb80149b	-0.0039087064
120	0x80059516	-5.1266e-40
121	0xbb88ade6	-0.004171121
122	0xbb806903	-0.0039187684
123	0x0005601c	4.93655e-40
124	0xbb939922	-0.004504339
125	0xbb8332d4	-0.004003862
126	0x80055f0e	-4.93277e-40
127	0xbb89ee9a	-0.0042093517
128	0x3ebeb92c	0.3725065
129	0x3ef1ab43	0.47200975
130	0x3eeceb43	0.4627324
131	0x3c6ad08d	0.014331949
132	0x3d06b167	0.032884028
133	0x3ecbeaa6	0.3982746
134	0x3f27745b	0.6541192
135	0xbb31409b	-0.0027046565
136	0x3efb8b34	0.4912964
137	0x3f146123	0.5796072
138	0x3efba160	0.49146557
139	0xbae93757	-0.0017792982
140	0x3eb69e67	0.35667726
141	0x3ca9da69	0.020734029
142	0x3ee90b1e	0.45516294
143	0x0000094e	3.338e-42
144	0x3ed66167	0.41871187
145	0xbc3d5ad1	-0.011557297
146	0x3ef9143c	0.4864825
147	0x3ca15bbd	0.019697065
148	0xbdba7192	-0.09103693
149	0x3ed84ea7	0.42247507
150	0x3d1db450	0.038502038
151	0x3f150159	0.5820518
152	0xbc3d67d5	-0.0115604
153	0x3f1e1468	0.6174989
154	0x3f194606	0.5987247
155	0x3d1f72bd	0.038927782
156	0x3f03e28c	0.5151756
157	0x3edf817d	0.4365348
158	0x3cdd943b	0.02704822
159	0x3f17a622	0.59237874
160	0x3ebf32eb	0.37343535
161	0x3ed448a3	0.41461667
162	0x3f1e9619	0.6194778
163	0x3c617a84	0.01376212
164	0x3d0a4994	0.033761576
165	0x3eccf73b	0.40032372
166	0x3ee7b99a	0.4525879
167	0xbd8eeac1	-0.069783695
168	0x3f055517	0.5208296
169	0x3f0c0eb4	0.54709935
170	0x3f00dd59	0.5033775
171	0xba7b1a5b	-0.00095788174
172	0x3f087176	0.5329813
173	0x3ca9e5ba	0.020739425
174	0x3f28b9e1	0.6590863
175	0x0005bb6e	5.26415e-40
176	0x3eececf4	0.4627453
177	0xbc5c0500	-0.0134289265
178	0x3ed1ddc8	0.40989518
179	0xbd76d359	-0.06026015
180	0xbbaee22a	-0.0053370195
181	0x3ef9d756	0.487971
182	0x3d1df4e9	0.038563643
183	0x3ef91212	0.486466
184	0xbc213fde	-0.009841887
185	0x3f0539df	0.5204143
186	0x3ec11bac	0.37716424
187	0xbc97c7ea	-0.018527944
188	0x3f351f11	0.7075053
189	0x3ed67773	0.41888008
190	0x3e58f224	0.2118612
191	0x3f2a4668	0.6651368
192	0x3ebe2bf7	0.37142918
193	0x3f2b669e	0.66953456
194	0x3f310488	0.6914754
195	0x3c6a138b	0.014286886
196	0x3d0a20d9	0.033722732
197	0x3ecbe190	0.39820528
198	0x3f09de8a	0.5385519
199	0x3ddbd847	0.10734611
200	0x3f1ea4fb	0.6197049
201	0x3f0757f7	0.528686
202	0x3f2de5ca	0.67928755
203	0xbad0d511	-0.0015932639
204	0x3f24f3d4	0.6443455
205	0x3ca9cd7f	0.020727871
206	0x3f05e422	0.5230123
207	0x00067ed3	5.96509e-40
208	0x3ec2b83e	0.3803119
209	0xbc54bdc1	-0.012984694
210	0x3f01156c	0.5042331
211	0x3c0fb79b	0.008771802
212	0x3921e3e9	0.0001543906
213	0x3eb2cae7	0.34920427
214	0x3d1d9c71	0.038479272
215	0x3f17b814	0.59265256
216	0xbc3bdc5e	-0.011466114
217	0x3f013564	0.5047209
218	0x3ec14a55	0.37752023
219	0x3dae3a87	0.08507257
220	0x3f2ee6f3	0.6832115
221	0x3f0d8b8f	0.55291075
222	0x3e0797e0	0.1324153
223	0x3f1b014c	0.60548854
224	0x00056e28	4.98694e-40
225	0x3c2878fd	0.010282752
226	0xbdc06576	-0.09394352
227	0x000560c5	4.93892e-40
228	0x80056ccd	-4.98208e-40
229	0x8005d2af	-5.34757e-40
230	0x3e0b1d2d	0.13585348
231	0x00068f5e	6.02443e-40
232	0xbe1f4084	-0.15551955
233	0xbdf2c541	-0.118540294
234	0x3cbc8468	0.023012355
235	0x000570b9	4.99615e-40
236	0x3e00d41e	0.12580916
237	0x00058a6c	5.08834e-40
238	0xbe2b0b4c	-0.16703528
239	0x00057bca	5.03585e-40
240	0xbdc6b347	-0.09702163
241	0x8005d90f	-5.37043e-40
242	0x00056389	4.94884e-40
243	0x000578f5	5.02569e-40
244	0x000565ba	4.9567e-40
245	0xbdcaf78c	-0.09910497
246	0x8005642d	-4.95114e-40
247	0xbcb48c05	-0.022039423
248	0x00056687	4.95957e-40
249	0x3d90bee5	0.0706766
250	0x00056481	4.95231e-40
251	0x0005e276	5.40416e-40
252	0x3ca6fdd9	0.020384716
253	0x3bdae64c	0.0066802856
254	0xbe2e0dab	-0.16997401
255	0x3e0489a5	0.12943132

fc2.bias f4 [64]
0	0x3eef2ccf	0.46713874
1	0x3d5e1cb4	0.054226592
2	0xbd19a864	-0.037514105
3	0xbb6b3349	-0.0035888723
4	0x3eeee42c	0.46658456
5	0x3f0286b3	0.50986785
6	0x3ed063b1	0.40701059
7	0xbd538ea8	-0.05164972
8	0xbc46ca9f	-0.01213327
9	0x3f062ba4	0.5241034
10	0x3f075c27	0.5287499
11	0xbc7967d0	-0.015222505
12	0xbd13ffb4	-0.03613253
13	0x3f095b4d	0.5365494
14	0xbcb20520	-0.02173096
15	0x3f0dc2d8	0.5537543
16	0xbe0ec4da	-0.1394228
17	0x3ccf0cbc	0.025274627
18	0x3d8d5979	0.06901831
19	0x3f0aa1fe	0.5415343
20	0xbc344d7f	-0.011004805
21	0x3df0f6ee	0.11765848
22	0x3e94a6e0	0.29033566
23	0xbe32aaa9	-0.17447914
24	0xbd0f2bcc	-0.034953877
25	0x3eefbaf5	0.46822324
26	0x3f13f61e	0.5779742
27	0x3efc4709	0.49272946
28	0x3d9654bf	0.07340383
29	0x3de8fb0f	0.113760106
30	0x3eeb2ace	0.45931095
31	0x3bbbe903	0.0057345643
32	0x3f0cc745	0.5499156
33	0x3e7a3c7e	0.24437138
34	0x3e726a71	0.23673417
35	0x3e7748fe	0.24148938
36	0xba8528eb	-0.0010159289
37	0x3b1d80a0	0.0024032965
38	0xbc87a71c	-0.016559176
39	0x3d9cf782	0.07664396
40	0x3cb18e88	0.02167441
41	0x3eef3314	0.46718657
42	0x3f15257c	0.5826032
43	0x3f042927	0.51625293
44	0xbd71cf2b	-0.05903546
45	0x3d1747fb	0.03693388
46	0xbd030b3a	-0.03199313
47	0x3e7e812e	0.24853966
48	0x3ec7b1f9	0.3900297
49	0x3d0d66a2	0.034521706
50	0xbd0f7075	-0.035019357
51	0x3f0557c8	0.5208707
52	0xbcb7b296	-0.022424024
53	0xbcc8f14c	-0.024529122
54	0x3f125d4b	0.57173604
55	0x3ef8cb44	0.4859258
56	0xbc8e9bbf	-0.01740825
57	0xbcd53f98	-0.0260313
58	0x3ef3d284	0.47621548
59	0x3ee548e7	0.44782183
60	0xbcfcf1ad	-0.030876959
61	0x3f027975	0.5096658
62	0xbdbfb8ea	-0.093614414
63	0x3f180f55	0.59398395

fc3.weight f4 [1, 64]
0	0x3f1d1e17	0.6137404
1	0xbd9e6eea	-0.07735999
2	0x3b821b88	0.003970567
3	0x3b85645d	0.004070802
4	0x3f2316c0	0.6370659
5	0x3f0b08ca	0.54310286
6	0x3f20cd00	0.62812805
7	0xbc8fdb46	-0.017560612
8	0x3c47a3e8	0.012185074
9	0x3f25166c	0.6448734
10	0x3f10239c	0.56304336
11	0xbd35a4d3	-0.04434664
12	0xbcb2010b	-0.021729013
13	0x3f1500a7	0.5820412
14	0x37fe373d	3.0304882e-05
15	0x3f03a862	0.51428807
16	0xbca64589	-0.020296829
17	0xbce99335	-0.028512577
18	0x3b89149a	0.004183364
19	0x3f0e2174	0.55519795
20	0xbd6ea5e9	-0.058263693
21	0xbcc1a69b	-0.023639014
22	0x3ec9a593	0.39384136
23	0xbd841df7	-0.06451028
24	0xbcb1271b	-0.021625092
25	0x3f27603e	0.6538123
26	0x3f15b09b	0.58472604
27	0x3f1c9820	0.61169624
28	0x3e2c766e	0.16842052
29	0xbd7c4ada	-0.06159482
30	0x3f0f4482	0.5596391
31	0xbd923bfe	-0.07140349
32	0x3f1a04a8	0.60163355
33	0x3ec43ca3	0.38327512
34	0x3ec0c79f	0.376523
35	0x3f1739ee	0.5907277
36	0x3c715f62	0.014732214
37	0xbb955287	-0.004556957
38	0x3c3789ca	0.011202285
39	0x3e53a955	0.20670064
40	0xbdcd4b63	-0.100241445
41	0x3f0d8201	0.55276495
42	0x3f103274	0.56326985
43	0x3f15d018	0.5852065
44	0xbdb97a18	-0.09056491
45	0xbd054d17	-0.03254422
46	0xbcdea535	-0.027178386
47	0x3f13c3fe	0.57720935
48	0x3f0a3213	0.5398266
49	0xbdd55239	-0.10416073
50	0xbd0f8da3	-0.035047185
51	0x3f1ca03c	0.61182
52	0x3bf752c7	0.0075477096
53	0x3c75f95b	0.015013064
54	0x3f0b6948	0.5445752
55	0x3f12dbf8	0.57366896
56	0xbb114fde	-0.0022172849
57	0x3c3b2a1b	0.011423613
58	0x3f050037	0.5195345
59	0x3f14c420	0.58111763
60	0x3cf4bea4	0.02987606
61	0x3f20c8b9	0.6280628
62	0xbdb074b4	-0.08616009
63	0x3f07c5a2	0.5303594
