Cheyi Wu/LSTM/MSFT/stock_lstm_model.pth (torch, 23975 bytes, 9 tensors)

lstm.weight_ih_l0 f4 [80, 7]
0.35701564 0.49220905 0.42409813 0.26982287 -0.06377155 0.066345304 0.27696598 0.4259977
0.27570188 0.5103637 0.28843924 -0.18557012 0.14870167 -0.03345378 0.48683503 0.44742903
0.39296007 0.37457296 -0.040932152 0.13864139 -0.23427905 0.27278233 0.10772543 0.19129124
0.1668646 -0.11439536 -0.16473038 0.19334225 0.13154253 0.31896332 0.38868055 0.4328163
-0.16177343 0.013362115 0.25492942 0.26392722 0.10950298 0.20153522 0.29120636 -0.23025082
-0.10297749 0.034382965 0.33192265 0.49128056 0.3677279 0.19064999 -0.09159494 0.31625384
-0.088332474 0.32348576 0.18309917 0.096161135 0.24783373 -0.20515583 0.047955777 0.028293096
0.54829544 0.32089815 0.6478743 0.53665364 -0.33802915 0.40780637 0.116181284 0.43287197
0.21969338 0.26886776 0.47962454 -0.14756274 0.12466631 0.15505245 0.07179758 0.49806628
0.12688893 0.29225546 0.03153243 0.15985209 0.20452343 0.08372868 0.11091114 0.26656234
0.09079761 -0.20417477 0.11765138 0.31352952 0.51764923 0.59992915 0.531259 0.5559692
-0.21211457 0.5670129 -0.13147086 0.42831928 0.3878443 0.25660127 0.43791187 0.086386316
0.331213 0.10273013 0.32067725 0.33017594 0.18536775 0.30158803 -0.10825527 0.44457853
0.106722474 0.20056796 0.16163267 0.1530399 0.5215536 0.15081796 0.16427064 -0.18569511
0.47374392 0.1433111 0.10501833 0.083964325 0.06377441 0.17639777 -0.17626373 0.34504205
0.29671898 0.3286905 0.4471695 -0.06595112 0.09688603 0.197022 0.14340758 0.081457295
0.3408633 0.2184214 0.13880588 -0.028881142 -0.21738197 0.20256516 0.13541313 0.28232625
0.41810074 0.051492203 0.25093195 0.11835173 0.3125921 0.56442875 0.19695935 0.3117599
0.012259087 0.46098086 -0.06639137 0.2543905 0.49762073 0.26537517 0.50104254 0.121081054
-0.06370833 0.005946687 0.5996552 0.2854481 0.6327067 0.38639003 -0.2262911 0.36045215
-0.096987255 0.023444453 0.090621 0.35884318 0.03171303 -0.1350555 0.26385733 -0.010482469
0.115660176 0.18956982 0.47812378 0.19112828 0.057150107 0.20578864 0.33767378 0.21996239
0.56864345 0.17881173 0.20838763 -0.07770992 0.32543504 -0.0735886 0.17095362 0.57375854
0.23397411 0.41434646 0.09972147 0.27248815 -0.00090598036 0.35964262 0.38238847 0.2189879
0.23254654 -0.19389586 -0.042391405 0.2837487 0.5215648 0.31544793 0.6218927 0.5257016
0.074387066 0.6065453 0.21585187 0.2972156 0.5350756 0.60415304 0.28711393 0.03838016
0.08514978 -0.021288328 0.3257421 0.5905739 0.25817043 0.41968244 -0.068825014 0.5804093
0.039586373 0.105449 0.049430728 0.41752374 0.041718725 -0.33498105 0.24290219 0.05257701
0.3011016 0.48072848 0.6271826 0.6724823 0.14686029 0.36819205 0.048450664 0.3053012
0.27869338 0.22409606 0.18219426 -0.042985972 0.48482433 0.1684579 0.5587764 0.55611604
0.34859964 0.38459778 -0.28374568 0.34962037 -0.16236539 0.35374758 0.4319423 0.25056425
0.58375776 -0.16218823 0.5069258 0.21644954 0.11537414 0.09970414 0.214825 0.23754416
00000000: c1ca b63e d302 fc3e 6423 d93e 3926 8a3e
00000010: a99a 82bd 0ce0 873d 7cce 8d3e 5f1c da3e
00000020: cc28 8d3e 32a7 023f 4fae 933e 1806 3ebe
00000030: 4045 183e d506 09bd 7142 f93e 6b15 e53e
00000040: 1032 c93e 07c8 bf3e 79a8 27bd 02f8 0d3e
00000050: d9e6 6fbe 20aa 8b3e 269f dc3d dae1 433e
00000060: 8ede 2a3e 1d48 eabd 15af 28be 83fb 453e
00000070: 16b3 063e 294f a33e 2301 c73e 199a dd3e
00000080: efa7 25be c6ec 5a3c 1c86 823e 7821 873e
00000090: 1943 e03d 405f 4e3e 0019 953e dfc6 6bbe
000000a0: dde5 d2bd 27d5 0c3d c4f1 a93e 2089 fb3e
000000b0: d546 bc3e c039 433e 2196 bbbd 06ec a13e
000000c0: a8e7 b4bd ed9f a53e 597e 3b3e 21f0 c43d
000000d0: 20c8 7d3e 5f14 52be 476d 443d ecc6 e73c
000000e0: 175d 0c3f c34c a43e 17db 253f 2262 093f
000000f0: 2812 adbe ffcb d03e 74f0 ed3d 65a1 dd3e
00000100: 4df7 603e 09a9 893e 5991 f53e b01a 17be
00000110: 0d51 ff3d 12c6 1e3e 9c0a 933d 8b02 ff3e
00000120: 2cef 013e 82a2 953e 2628 013d 44b0 233e
00000130: 976e 513e f179 ab3d 6125 e33d dc7a 883e
00000140: 19f4 b93d 3113 51be 35f3 f03d f186 a03e
00000150: a984 043f f594 193f 9700 083f ff53 0e3f
00000160: 9034 59be c227 113f 4ca0 06be aa4c db3e
00000170: 8793 c63e 3e61 833e fc35 e03e 4feb b03d
00000180: c094 a93e 2d64 d23d cf2f a43e d20c a93e
00000190: 0bd1 3d3e bf69 9a3e f0b4 ddbd cc9f e33e
000001a0: 5091 da3d b061 4d3e 0983 253e 7eb6 1c3e
000001b0: 8984 053f 0670 1a3e 9036 283e dc26 3ebe
000001c0: 908e f23e 25c0 123e da13 d73d 7df5 ab3d
000001d0: 289c 823d 9ea1 343e 7b7e 34be 5aa9 b03e
000001e0: 8deb 973e 1f4a a83e 67f3 e43e 6111 87bd
000001f0: 2f6c c63d 23c0 493e 70d9 123e 15d3 a63d
00000200: a285 ae3e dca9 5f3e 2123 0e3e 2598 ecbc
00000210: 6199 5ebe 3e6d 4f3e bda9 0a3e 118d 903e
00000220: 4d11 d63e 7de9 523d 277a 803e 6462 f23d
00000230: 120c a03e 677e 103f b6af 493e fe9e 9f3e
00000240: 56da 483c af05 ec3e 33f8 87bd 793f 823e
00000250: 25c8 fe3e 41df 873e 5344 003f 58f9 f73d
00000260: 8379 82bd 6ddc c23b 0183 193f 4126 923e
00000270: 11f9 213f ead4 c53e dbb8 67be 2f8d b83e
00000280: 41a1 c6bd 950e c03c 8197 b93d 4bba b73e
00000290: 86e5 013d fd4b 0abe 4f18 873e a9be 2bbc
000002a0: 3edf ec3d 971e 423e a4cc f43e 22b7 433e
000002b0: 3b16 6a3d 42ba 523e 94e3 ac3e d23d 613e
000002c0: 9e92 113f 6c1a 373e 9163 553e 6126 9fbd
000002d0: 6c9f a63e 9fb5 96bd 770e 2f3e d7e1 123f
000002e0: e996 6f3e 3825 d43e c53a cc3d 9183 8b3e
000002f0: 507f 6dba 1423 b83e 6cc8 c33e 5d3e 603e
00000300: ae20 6e3e a38c 46be 9ca2 2dbd 8247 913e
00000310: 4585 053f 6482 a13e 5c34 1f3f 6194 063f
00000320: 3f58 983d 8e46 1b3f 4608 5d3e a52c 983e
00000330: b7fa 083f c6a9 1a3f 9900 933e 8434 1d3d
00000340: 0263 ae3d dc64 aebc abc7 a63e da2f 173f
00000350: ea2e 843e 9ee0 d63e 21f4 8cbd b495 143f
00000360: 5225 223d a5f5 d73d e077 4a3d acc5 d53e
00000370: 41e1 2a3d a382 abbe 5abb 783e fe5a 573d
00000380: fd29 9a3e 0b22 f63e 0a8f 203f cd27 2c3f
00000390: 8b62 163e ab83 bc3e 3474 463d 7050 9c3e
000003a0: e6b0 8e3e 7079 653e 2291 3a3e 0f12 30bd
000003b0: e53a f83e 3a80 2c3e f80b 0f3f 9f5d 0e3f
000003c0: a77b b23e 00ea c43e 1d47 91be 7101 b33e
000003d0: 1d43 26be 671e b53e 8b27 dd3e f549 803e
000003e0: 2671 153f ac14 26be e4c5 013f f3a4 5d3e
000003f0: 4749 ec3d af31 cc3d 16fb 5b3e c73e 733e

lstm.weight_hh_l0 f4 [80, 20]
-0.15118915 -0.21793483 -0.017802177 -0.10422502 0.06298082 0.07998941 -0.19382945 -0.07675718
-0.011760082 -0.12148351 -0.04190457 0.2412139 -0.1620295 0.023947118 0.10500428 0.21921869
0.06706833 0.08140544 0.16466959 -0.23595911 0.0020140926 -0.0048178947 0.12603828 -0.07173769
-0.14753906 -0.08572957 0.21065621 0.051977497 -0.110421255 -0.068102926 0.089869864 0.037871465
-0.06785155 0.17040488 -0.0053893644 -0.027570536 0.17487063 -0.21904908 -0.12856351 0.12007369
0.17582588 -0.07192602 -0.013749854 0.018296158 -0.10233464 -0.16951482 -0.14753494 -0.1592004
-0.16379361 0.06343529 0.15152752 0.10208273 0.11813997 -0.03454654 0.20430595 -0.07660427
0.0141551485 -0.117623866 0.10217478 0.034524255 0.012298381 0.022302963 -0.017133946 0.06759607
-0.09547594 -0.15118778 -0.06430981 -0.28896013 -0.26429167 -0.017533677 0.12616509 -0.18840143
-0.09381948 0.39693132 0.0047689085 0.14715765 0.0625996 0.15571837 0.07376126 0.11530609
0.24097511 -0.10056716 0.2710633 -0.18560208 -0.052776046 -0.049911298 0.20745938 -0.18692698
-0.30223048 0.169603 -0.12669007 0.09412107 0.018009743 0.26351503 0.16563444 0.16776721
0.021993665 -0.10939271 -1.4518895e-05 -0.03811598 -0.09009604 -0.048016172 0.18604948 -0.20190988
-0.13572119 0.04419784 -0.17182449 0.1641292 -0.07805082 0.24954237 0.29939625 -0.12709376
-0.14732073 -0.1449879 0.2587528 0.07655527 0.09655941 -0.14515534 -0.006017025 -0.057547707
-0.26571348 -0.12326241 0.06395289 0.15679097 0.14650907 0.1869887 -0.08904702 -0.0036668684
-0.15754008 -0.15464778 -0.09238537 0.22774312 0.07807922 0.15563768 -0.12813476 0.0017316231
-0.16059302 0.10347271 -0.01752955 -0.16760316 -0.16643433 0.13707839 0.11338854 0.0677671
-0.112408854 0.20449494 -0.030428361 0.10091177 -0.26343533 -0.04259408 -0.019992795 -0.06578758
-0.022349164 -0.1537775 -0.05020966 -0.17221178 -0.1893689 -0.024202844 0.06257027 -0.054448172
-0.06120296 -0.29811028 0.1467647 -0.056952644 0.19590618 0.098690376 0.25369692 -0.06922124
-0.19082394 0.009802586 0.07485986 0.33639693 -0.12947974 -0.007026575 -0.27070215 -0.11512559
-0.088030115 0.07255373 -0.04055821 0.08627048 -0.18637544 -0.015239899 0.09551276 0.20884806
0.02818946 -0.029772738 0.16338414 -0.09481198 -0.34573406 0.1754114 -0.27653912 0.16749845
-0.36188823 0.30915096 0.0037036133 -0.14875773 -0.15005566 -0.06769539 -0.09822274 0.09460385
-0.13267694 -0.20921236 -0.108199865 -0.0028271184 0.114652716 0.09218373 0.19520186 -0.13128889
-0.17915182 0.10743156 0.1496318 -0.12869295 -0.1295952 0.19790749 0.06190116 0.070112735
0.17838491 0.16474876 -0.21702237 -0.16295515 -0.20555553 0.0044156723 0.003895646 0.14859255
-0.1802247 -0.046185005 -0.0064027924 0.13671723 -0.21360183 0.085524514 -0.0013408858 -0.009306201
-0.1824179 0.10169887 0.21034576 0.0617485 0.15029192 0.13376589 0.09476619 -0.121077314
-0.117840126 -0.2684159 0.0064358935 0.013441699 0.15246782 -0.042260885 -0.033188935 -0.14555918
-0.102357365 -0.05818534 0.12669174 0.2985667 -0.1876497 -0.19625609 -0.21942979 -0.19213401
00000000: 54d1 1abe 4f2a 5fbe dfd5 91bc ed73 d5bd
00000010: 17fc 803d 7dd1 a33d 3a7b 46be de32 9dbd
00000020: 5cad 40bc 59cc f8bd 20a4 2bbd c700 773e
00000030: 10eb 25be bf2c c43c 7c0c d73d dd7a 603e
00000040: 1f5b 893d e5b7 a63d 259f 283e 449f 71be
00000050: defe 033b 6edf 9dbb 2e10 013e 36eb 92bd
00000060: 7b14 17be fc92 afbd 43b6 573e 5be6 543d
00000070: 8a24 e2bd 8c79 8bbd b10d b83d 1c1f 1b3d
00000080: c1f5 8abd 9e7e 2e3e 4499 b0bb 9bdb e1bc
00000090: 4911 333e 674e 60be 27a6 03be 32e9 f53d
000000a0: b30b 343e f34d 93bd 1147 61bc d3e1 953c
000000b0: d394 d1bd 4b95 2dbe 6613 17be 6e05 23be
000000c0: 83b9 27be 5cea 813d 082a 1b3e c010 d13d
000000d0: 5ef3 f13d ac80 0dbd 9435 513e b3e2 9cbd
000000e0: ffea 673c c8e4 f0bd 0341 d13d 4e69 0d3d
000000f0: 267f 493c b4b4 b63c 7d5c 8cbc cf6f 8a3d
00000100: e488 c3bd f8d0 1abe ddb4 83bd 95f2 93be
00000110: 3d51 87be c9a2 8fbc 6c31 013e 4eec 40be
00000120: 6d24 c0bd 953a cb3e 8144 9c3b 7fb0 163e
00000130: 3834 803d a374 1f3e 2510 973d 9925 ec3d
00000140: 2ec2 763e 28f6 cdbd cfc8 8a3e 790e 3ebe
00000150: b22b 58bd ca6f 4cbd 3b70 543e c969 3fbe
00000160: f4bd 9abe 69ac 2d3e 0bbb 01be 8cc2 c03d
00000170: 2b89 933c 71eb 863e 139c 293e 2bcb 2b3e
00000180: 0f2c b43c 4909 e0bd 2e96 73b7 801f 1cbd
00000190: 4684 b8bd 9bac 44bd c183 3e3e 77c1 4ebe
000001a0: 7ffa 0abe cb08 353d c2f2 2fbe 7c11 283e
000001b0: 1cd9 9fbd 0988 7f3e 774a 993e de24 02be
000001c0: 3fdb 16be b577 14be 3f7b 843e 02c9 9c3d
000001d0: f1c0 c53d 9aa3 14be 772a c5bb 25b7 6bbd
000001e0: 990b 88be 0171 fcbd bcf9 823d d08d 203e
000001f0: 7906 163e f779 3f3e 495e b6bd d84f 70bb
00000200: 3052 21be fd5b 1ebe 8a34 bdbd 7e35 693e
00000210: 00e8 9f3d 7c5f 1f3e c235 03be a1f7 e23a
00000220: 7f72 24be 80e9 d33d 219a 8fbc 2aa0 2bbe
00000230: c36d 2abe 475e 0c3e 4038 e83d 7ac9 8a3d
00000240: 9d36 e6bd 1f67 513e e644 f9bc d4aa ce3d
00000250: ffe0 86be 2177 2ebd eec7 a3bc a4bb 86bd
00000260: 9815 b7bc d977 1dbe a5a8 4dbd 4958 30be
00000270: ece9 41be 0b45 c6bc d724 803d 0c05 5fbd
00000280: f4af 7abd e9a1 98be 7c49 163e 2d47 69bd
00000290: a19b 483e 2e1e ca3d 90e4 813e dec3 8dbd
000002a0: 5a67 43be 079b 203c 2050 993d 383c ac3e
000002b0: 5696 04be 2f3f e6bb 7999 8abe f7c6 ebbd
000002c0: 2249 b4bd 0d97 943d 5e20 26bd 94ae b03d
000002d0: 34d9 3ebe c5b0 79bc 329c c33d 44dc 553e
000002e0: 95ed e63c f5e5 f3bc 2c4e 273e c92c c2bd
000002f0: 0e04 b1be 0c9f 333e 8996 8dbe b784 2b3e
00000300: 6a49 b9be 0949 9e3e 52b8 723b f253 18be
00000310: 31a8 19be e1a3 8abd 0129 c9bd aabf c13d
00000320: 77dc 07be c43b 56be e497 ddbd 2d47 39bb
00000330: 0bcf ea3d d3ca bc3d ffe2 473e 9870 06be
00000340: 9373 37be 1405 dc3d 1439 193e 16c8 03be
00000350: 9bb4 04be 43a8 4a3e 128c 7d3d 4497 8f3d
00000360: 89aa 363e e6b3 283e 1d3b 5ebe b7dd 26be
00000370: 267d 52be 58b1 903b 184e 7f3b a528 183e
00000380: d38c 38be 7d2c 3dbd 84ce d1bb 9aff 0b3e
00000390: 70ba 5abe 7a27 af3d a9c0 afba 0979 18bc
000003a0: c2cb 3abe 7f47 d03d e164 573e ffeb 7c3d
000003b0: 20e6 193e edf9 083e c714 c23d 62f7 f7bd
000003c0: 2a56 f1bd cf6d 89be 30e4 d23b 923a 5c3c
000003d0: 8620 1c3e c019 2dbd 1ff1 07bd 770d 15be
000003e0: bda0 d1bd c053 6ebd 7bbb 013e bcdd 983e
000003f0: 3e27 40be 5bf7 48be 34b2 60be c7be 44be

lstm.bias_ih_l0 f4 [80]
0.19465338 0.054852363 -0.2499594 0.11723695 0.15134242 0.018034149 0.18322238 -0.12071902
-0.23551284 -0.14629644 0.1296031 -0.019099597 0.09427996 -0.14593613 0.06355726 -0.024312505
0.02440069 -0.07353638 0.14839587 -0.14181374 -0.011071173 0.07907055 -0.07005991 0.15183493
-0.032748356 -0.13023195 -0.13691844 -0.09144004 0.0143919755 -0.081329286 0.033666756 0.07563949
-0.19176574 -0.019209685 -0.23832949 -0.004779781 -0.12944193 -0.058215067 -0.030876672 -0.23481113
-0.069775194 0.008292529 0.15163952 0.23463812 -0.030527225 0.19213109 -0.04214645 0.3200981
0.049078386 0.12777403 0.17875434 0.014923753 0.1599327 -0.11398514 0.06879395 0.014619783
0.16968821 0.059895203 -0.22759168 -0.043938648 0.17592663 0.03747755 -0.23763746 0.16313891
-0.03537314 -0.03340305 -0.07248635 -0.14436954 0.016633961 0.19479993 0.21764223 -0.07364957
0.09634728 0.2817437 0.06798171 -0.13363281 -0.17625019 -0.15151033 0.08902038 -0.19011033
00000000: 3753 473e dfac 603d 5bf5 7fbe ed19 f03d
00000010: 82f9 1a3e 5abc 933c a69e 3b3e 893b f7bd
00000020: 472a 71be bcce 15be adb6 043e c276 9cbc
00000030: da15 c13d 4870 15be 4f2a 823d 052b c7bc
00000040: f5e3 c73c 3e9a 96bd 16f5 173e 9f37 11be
00000050: dd63 35bc beef a13d 927b 8fbd 9e7a 1b3e
00000060: 2423 06bd 865b 05be 5934 0cbe ea44 bbbd
00000070: 52cc 6b3c f88f a6bd 27e6 093d e0e8 9a3d
00000080: 3d5e 44be a15d 9dbc a50c 74be b69f 9cbb
00000090: 6d8c 04be ec72 6ebd 13f1 fcbc 5472 70be
000000a0: 4ce6 8ebd 63dd 073c 6447 1b3e fa44 703e
000000b0: 3b14 fabc 03be 443e c2a1 2cbd e6e3 a33e
000000c0: 6b06 493d 32d7 023e 610b 373e c282 743c
000000d0: 66c5 233e 0b71 e9bd d8e3 8c3d d087 6f3c
000000e0: bfc2 2d3e ac54 753d cb0d 69be 03f9 33bd
000000f0: 1c26 343e 0f82 193d 3c57 73be e30d 273e
00000100: 6de3 10bd a3d1 08bd b973 94bd 9cd5 13be
00000110: f243 883c a279 473e 9bdd 5e3e 96d5 96bd
00000120: b951 c53d b640 903e ff39 8b3d 0ad7 08be
00000130: ee7a 34be 8625 1bbe 5150 b63d 48ac 42be

lstm.bias_hh_l0 f4 [80]
-0.13058066 0.051428195 0.17295845 0.2260757 0.17201376 0.14451252 0.011775981 0.08227353
-0.023231123 0.21042429 0.1272137 0.042804513 -0.21418518 -0.24436674 -0.019400995 0.008995975
0.2757769 -0.24914968 -0.14272256 -0.08319637 0.10665627 -0.10762525 -0.13829081 0.0007059283
0.030288013 -0.013576475 -0.036290478 -0.18468778 -0.19459939 -0.11154164 -0.1481007 0.17241998
0.057495583 -0.11871768 0.023074953 -0.110920645 -0.081074625 -0.059273027 0.22026987 0.09013018
0.10436133 0.1998024 0.2758717 0.053643566 -0.18799655 0.10604403 -0.06646753 0.18806879
0.116395295 0.25971502 -0.18585074 -0.10294227 0.021983117 -0.20631376 -0.3020572 -0.00543294
0.27644873 0.1145438 -0.15043901 -0.17720218 0.080080345 0.0802993 -0.18246964 0.21633638
-0.044725 -0.21759605 -0.08117481 -0.005165995 0.10109982 -0.022141576 0.18086235 -0.0442392
-0.16078492 0.06156267 0.14771062 0.034235213 -0.036856014 0.25544778 0.16121335 0.014823223
00000000: f0b6 05be 5fa6 523d 051c 313e 6380 673e
00000010: 6024 303e 17fb 133e 0bf0 403c 067f a83d
00000020: 324f bebc 7779 573e 4f44 023e c953 2f3d
00000030: 5c53 5bbe 463b 7abe d6ee 9ebc db63 133c
00000040: a132 8d3e 1821 7fbe dd25 12be dc62 aabd
00000050: 9a6e da3d a16a dcbd 1b9c 0dbe 0c0e 393a
00000060: 911e f83c dd6f 5ebc 53a5 14bd cb1e 3dbe
00000070: 1045 47be f16f e4bd b6a7 17be dd8e 303e
00000080: 7d80 6b3d 4122 f3bd af07 bd3c 5d2a e3bd
00000090: 740a a6bd 46c8 72bd 6d8e 613e 2c96 b83d
000000a0: 65bb d53d 0099 4c3e 0e3f 8d3e 5bb9 5b3d
000000b0: 2b82 40be 9d2d d93d 2120 88bd 1b95 403e
000000c0: a860 ee3d 5ef9 843e a84f 3ebe 66d3 d2bd
000000d0: f015 b43c ea43 53be 3ea7 9abe ce06 b2bb
000000e0: b08a 8d3e f195 ea3d af0c 1abe 7d74 35be
000000f0: 2a01 a43d f673 a43d 52d9 3abe 4987 5d3e
00000100: 9031 37bd 80d1 5ebe fb3e a6bd 8247 a9bb
00000110: 6c0d cf3d 4062 b5bc fb33 393e 2a34 35bd
00000120: cda4 24be 2329 7c3d 7441 173e 393a 0c3d
00000130: 55f6 16bd 0dca 823e 1d15 253e 1bdd 723c

fc1.weight f4 [32, 20]
-0.30596632 0.4452015 0.48385173 0.17128427 -0.52791584 0.50159115 -0.35046872 0.47323924
-0.3876624 0.53657943 0.42079747 -0.28400794 -0.42554328 0.4059074 0.18404353 0.19345935
0.505013 0.512937 -0.49018216 -0.24265698 0.035628647 -0.03098774 -0.031307023 -0.028540313
0.029156253 -0.03332367 0.034788385 -0.029401623 -0.02534821 -0.03016315 -0.115712695 0.029009882
0.12257344 -0.015569742 -0.10833921 -0.13068427 -0.030704139 -0.12029404 0.031191101 0.03148257
0.009535952 0.013300698 0.15149945 -0.01153916 -0.09861558 -0.009982801 0.08412909 0.066563025
-0.12066406 -0.021192294 -0.008514869 0.004706126 0.009438179 0.016994672 -0.038149904 -0.076180086
-0.13997993 -0.0499497 -0.023277221 0.09009235 0.08965056 -0.009525341 -0.098261386 -0.020566134
-0.03591137 0.10482742 0.117538355 0.099619865 -0.013936743 -0.10755421 -0.009439943 -0.021211913
-0.007265353 0.11549649 -0.10626722 -0.008785771 0.04054616 0.117349476 0.03820183 0.00581594
-0.23646834 0.35831124 0.49733835 0.14791292 -0.44740397 0.2365264 -0.097856626 0.40786877
-0.23490408 0.121950425 0.5284282 -0.46751788 -0.16747802 0.44467068 0.3456566 0.53184
0.32764158 0.48485422 -0.43524447 -0.53127295 0.10507952 -0.032850716 -0.035464443 -0.030867549
0.03298127 -0.034646936 0.04086161 -0.032040995 -0.022541286 -0.033691287 0.023246147 0.030990582
-0.012517127 0.020471826 0.023213722 0.027796136 -0.03292561 -0.0009872612 0.032187287 0.03469731
-0.17956263 0.1338748 0.56579787 0.33819836 -0.4553235 0.27866757 -0.21361478 0.46724647
-0.4261638 0.40356302 0.18993053 -0.15667994 -0.24547482 0.12768705 0.3916408 0.24198213
0.42882863 0.3452254 -0.3022718 -0.14194469 0.029623691 -0.02606565 -0.029509168 -0.02839717
0.025392234 -0.0060737417 0.02456891 -0.029914945 -0.060654823 -0.03286626 -0.02823263 0.02827314
0.021865832 0.0074374964 0.06342604 0.018464034 -0.019946164 -0.013952144 0.01468863 0.025818054
-0.0058633387 0.0023421668 0.0035470119 0.0008629062 -0.0007353683 -0.0060560624 -0.0005097923 7.415744e-05
-0.010534603 0.00242136 0.011650754 -0.017297238 -0.0064478745 0.0052465964 0.0050725187 0.004454515
0.0023726553 0.0031114342 -0.002689662 0.0021790373 0.03521064 -0.030943656 -0.034330424 -0.032143407
0.033381056 -0.0343758 0.031435926 -0.033782605 -0.032011792 -0.030434119 -0.038363412 0.033393573
-0.0293221 0.032982063 0.03234543 -0.03205617 -0.03393763 0.032475527 0.031442624 0.03399723
0.04012084 0.1296343 -7.4524696e-06 -0.16936396 -0.06218367 -0.044816405 0.044436272 0.10642745
-0.14492492 0.050311908 0.081729986 -0.04544631 -0.020450445 0.06818334 -0.1435555 -0.042727765
0.019987052 -0.15518233 0.14686461 -0.13205738 -0.4675595 0.5230424 0.31823045 0.40699878
-0.4209291 0.24389417 -0.53498065 0.53716224 -0.30843064 0.3767799 0.18167385 -0.49268052
-0.5780114 0.5045802 0.40173948 0.18913476 0.48564154 0.51243615 -0.22922692 -0.26483476
-0.14920571 0.41624838 0.22142838 0.41406685 -0.4592466 0.20414375 -0.46124724 0.4009233
-0.28958932 0.35095906 0.120566115 -0.25594395 -0.527505 0.44136563 0.25488675 0.4882948
00000000: 9ea7 9cbe 73f1 e33e 6abb f73e 2565 2f3e
00000010: 7e25 07bf 4768 003f a370 b3be 6a4c f23e
00000020: b07b c6be 455d 093f c472 d73e 7d69 91be
00000030: cfe0 d9be 18d3 cf3e e875 3c3e 351a 463e
00000040: 8848 013f d74f 033f 28f9 fabe 127b 78be
00000050: 58ef 113d 00da fdbc cb3b 00bd 60cd e9bc
00000060: 18d9 ee3c 677e 08bd 447e 0e3d acdb f0bc
00000070: 0da7 cfbc b618 f7bc c7fa ecbd 22a6 ed3c
00000080: c907 fb3d 3b18 7fbc f3e0 ddbd 19d2 05be
00000090: 3f87 fbbc b95c f6bd 7b84 ff3c def3 003d
000000a0: ae3c 1c3c 2ceb 593c ac22 1b3e bf0e 3dbc
000000b0: f7f6 c9bd e78e 23bc df4b ac3d 3252 883d
000000c0: b81e f7bd 769b adbc f381 0bbc d935 9a3b
000000d0: 98a2 1a3c 6938 8b3c 1343 1cbd 4e04 9cbd
000000e0: e656 0fbe 0e98 4cbd dfaf bebc 5782 b83d
000000f0: b69a b73d 2d10 1cbc 443d c9bd 4f7a a8bc
00000100: cd17 13bd c2af d63d f3b7 f03d 8005 cc3d
00000110: f056 64bc 6245 dcbd fea9 1abc 9bc4 adbc
00000120: 3312 eebb 6c89 ec3d a1a2 d9bd 32f2 0fbc
00000130: bb13 263d ec54 f03d 8679 1c3d a493 be3b
00000140: c224 72be 9274 b73e 22a3 fe3e 7c76 173e
00000150: 2212 e5be fa33 723e 0e69 c8bd 2dd4 d03e
00000160: b28a 70be 25c1 f93d 1247 073f 815e efbe
00000170: 5c7f 2bbe e0ab e33e e7f9 b03e ab26 083f
00000180: a3c0 a73e d03e f83e 5dd8 debe 8101 08bf
00000190: ee33 d73d 798e 06bd 2a43 11bd f1dd fcbc
000001a0: 5e17 073d f2e9 0dbd 815e 273d 6b3d 03bd
000001b0: 81a8 b8bc e0ff 09bd b46e be3c f6df fd3c
000001c0: a314 4dbc 88b4 a73c b42a be3c b9b4 e33c
000001d0: 01dd 06bd fd66 81ba d1d6 033d c41e 0e3d
000001e0: 44df 37be 7a16 093e 21d8 103f 5628 ad3e
000001f0: 2920 e9be 84ad 8e3e d5bd 5abe ee3a ef3e
00000200: 2432 dabe d09f ce3e 267d 423e b570 20be
00000210: c05d 7bbe 65c0 023e 2585 c83e 2aca 773e
00000220: 6d8f db3e 62c1 b03e 5fc3 9abe f359 11be
00000230: 62ad f23c a187 d5bc 36bd f1bc 2fa1 e8bc
00000240: 6003 d03c 3d06 c7bb bd44 c93c 3010 f5bc
00000250: 3171 78bd c59e 06bd 1e48 e7bc 129d e73c
00000260: f91f b33c 3eb6 f33b 83e5 813d e341 973c
00000270: 2366 a3bc 8997 64bc 94a8 703c 6280 d33c
00000280: 4021 c0bb 0a7f 193b fc74 683b a834 623a
00000290: bbc5 40ba ef71 c6bb 95a3 05ba f984 9b38
000002a0: 5499 2cbc aeaf 1e3b cee2 3e3c f0b2 8dbc
000002b0: b148 d3bb a4eb ab3b 5f37 a63b 2ef7 913b
000002c0: 8d7e 1b3b 34e9 4b3b 0a45 30bb 2ece 0e3b
000002d0: 0839 103d 8d7d fdbc 0f9e 0cbd cea8 03bd
000002e0: 93ba 083d a4cd 0cbd f5c2 003d a15f 0abd
000002f0: cc1e 03bd f950 f9bc f422 1dbd b3c7 083d
00000300: e734 f0bc 3318 073d a47c 043d 554d 03bd
00000310: 2f02 0bbd 0f05 053d fbc9 003d ae40 0b3d
00000320: c055 243d dbbe 043e 3a10 fab6 bf6d 2dbe
00000330: 4eb4 7ebd 6891 37bd cf02 363d a3f6 d93d
00000340: 3367 14be dc13 4e3d 0d62 a73d e925 3abd
00000350: b187 a7bc b5a3 8b3d 3700 13be 4f03 2fbd
00000360: e3bb a33c 1ee8 1ebe ad63 163e 0d3a 07be
00000370: f563 efbe 1be6 053f 1aef a23e 2562 d03e
00000380: 0584 d7be 65bf 793e 7ef4 08bf 7783 093f
00000390: 9fea 9dbe 4ce9 c03e b608 3a3e 9f40 fcbe
000003a0: 8ef8 13bf 2b2c 013f ccb0 cd3e 8bac 413e
000003b0: 02a6 f83e 042f 033f 76ba 6abe 6c98 87be
000003c0: 62c9 18be 821e d53e 1fbe 623e 9200 d43e
000003d0: 5f22 ebbe 0f0b 513e 9928 ecbe d245 cd3e
000003e0: 0d45 94be e8b0 b33e 5eeb f63d 160b 83be
000003f0: 910a 07bf adfa e13e 8480 823e c701 fa3e

fc1.bias f4 [32]
0.48378262 -0.025700446 -0.065886825 -0.08142979 0.40933865 -0.027932327 0.5261499 -0.024473686
-0.008539745 -0.029513406 -0.13080895 0.28413022 0.46036667 0.34124038 0.4596413 -0.03050024
0.32638234 0.011807961 0.43410915 0.39213789 0.044252314 0.1907135 0.4369046 -0.0028871186
-0.08567737 0.27901766 -0.04409489 0.52354634 -0.015561508 0.40599793 0.48894027 0.35124224
00000000: 5bb2 f73e be89 d2bc acef 86bd a9c4 a6bd
00000010: d694 d13e 56d2 e4bc c3b1 063f 0a7d c8bc
00000020: 49ea 0bbc 19c6 f1bc c8f2 05be 8479 913e
00000030: 2eb5 eb3e 0fb7 ae3e 1b56 eb3e a4db f9bc
00000040: 961b a73e 2e76 413c 8e43 de3e 4cc6 c83e
00000050: ea41 353d 664a 433e f6b1 df3e d035 3dbb
00000060: 9e77 afbd 67db 8e3e d89c 34bd 2207 063f
00000070: b2f5 7ebc f6de cf3e 6156 fa3e 06d6 b33e

fc2.weight f4 [64, 32]
-0.0065544983 4.97895e-40 0.04145809 -5.56617e-40 -0.026716745 -5.95632e-40 -0.17412938 4.92573e-40
5.06265e-40 -4.93776e-40 0.118206635 -0.034139957 -0.02784481 0.054656006 0.07286781 -5.02752e-40
-0.064394146 -4.97268e-40 0.0793462 -0.096979864 -4.90829e-40 0.05888407 -0.051626936 -4.93041e-40
5.95793e-40 0.12143779 -4.91403e-40 -0.100281574 -4.91298e-40 0.0341869 0.09881981 -0.0121093495
-0.21142974 -4.95914e-40 5.38659e-40 4.99134e-40 0.10802951 -5.33173e-40 -0.10930963 -6.20531e-40
-4.9236e-40 -4.9499e-40 -0.017933864 0.09365856 0.06359052 -0.055771977 0.03982841 4.9982e-40
-0.21670303 0.14031859 -0.1583981 -0.21261103 4.99857e-40 -0.1503511 -0.070401676 -5.62774e-40
5.4669e-40 -0.20685424 6.0037e-40 0.11367604 -4.91433e-40 -0.0064298636 0.10511879 0.12968683
0.040815603 5.00537e-40 -4.91564e-40 4.9682e-40 0.03303209 -4.91112e-40 0.041219916 -5.01788e-40
-5.28816e-40 -5.00889e-40 -6.23456e-40 -0.21142158 0.10885855 0.04502827 0.093448184 -4.92409e-40
0.07887772 0.080946475 -0.095511675 -0.061641477 -5.4785e-40 0.08669035 0.041378923 4.96829e-40
4.96196e-40 -0.010373659 -4.95737e-40 -0.027059946 4.94192e-40 -0.1141599 -0.066953756 -0.13794494
0.3332902 -0.01992336 -0.11403373 0.030770287 0.2191722 0.028460655 0.26940626 0.025652409
0.0029289068 -0.032155436 0.035489853 0.17482631 0.48360386 0.0562167 0.37031275 0.006562792
0.23897965 0.09536991 0.38637954 0.43450797 0.010237976 0.24539018 0.4724024 0.006078101
0.014222656 0.41478834 0.002135309 0.50155896 0.020592004 0.36077583 0.42010847 0.4982194
0.06520319 -4.98607e-40 -0.0020231802 5.93426e-40 -0.017355818 -4.96581e-40 -0.1944672 -5.0149e-40
4.92446e-40 5.0736e-40 -0.06035218 -0.03980256 -0.057723254 -0.054980613 0.018967766 5.05552e-40
-0.20718558 -0.11734681 0.10062038 0.13853282 -4.94035e-40 -0.12253645 0.12558798 5.20886e-40
-5.14997e-40 0.063020915 4.95517e-40 -0.12948492 -5.43264e-40 0.08769991 0.034455147 -0.106496446
0.260267 -0.019590287 -0.1079281 0.0019997985 0.29145047 0.028462602 0.2435926 0.025896441
0.0053589637 -0.032120746 0.038458716 0.3327586 0.33514234 0.22781745 0.25072062 0.005466128
0.44151083 -0.002347572 0.41603997 0.49603504 0.010173215 0.07930582 0.42924148 0.006094433
0.0028511453 0.30575204 -0.013085558 0.31624272 0.019270625 0.18589698 0.30520496 0.37734365
0.18487914 -0.019923046 0.07012476 -0.010575926 0.17133415 0.028447608 0.25716525 0.026047496
0.0026879257 -0.032110594 0.1599245 0.3681151 0.35067028 0.31035468 0.20421468 0.0050045797
0.4090892 0.098953135 0.15480968 0.3441499 0.010504197 0.09880799 0.19643903 0.0062268446
0.120669544 0.33478546 -0.013190397 0.43311897 0.020460825 0.22807173 0.4366618 0.21303229
-0.1383799 -5.26566e-40 -5.03286e-40 4.92903e-40 0.023276577 4.98775e-40 -0.12304643 4.9389e-40
4.96907e-40 4.96109e-40 4.96623e-40 -0.07194385 -0.117912345 0.054828167 -0.038739793 -5.00489e-40
-0.16853335 -0.013567577 0.14031264 0.05933929 4.92736e-40 -0.13951297 -0.06712737 4.97482e-40
-5.7104e-40 0.037185494 5.14831e-40 -0.17235959 -4.92727e-40 0.050007354 0.0229542 0.04419471
00000000: 1ec7 d6bb ee6b 0500 f5cf 293d 9f0f 0680
00000010: 13dd dabc 617c 0680 f94e 32be 185d 0500
00000020: 4383 0500 7260 0580 5216 f23d 57d6 0bbd
00000030: cd1a e4bc fade 5f3d b83b 953d 7879 0580
00000040: 14e1 83bd 2e6a 0580 4380 a23d 619d c6bd
00000050: 3b58 0580 6c30 713d c476 53bd 665e 0580
00000060: d47c 0600 60b4 f83d d559 0580 6d60 cdbd
00000070: 8a59 0580 9007 0c3d 0a62 ca3d 4b66 46bc
00000080: 0a81 58be 6866 0580 90dd 0500 626f 0500
00000090: 933e dd3d 45ce 0580 badd dfbd cac1 0680
000000a0: 805c 0580 d563 0580 0aea 92bc 0fd0 bf3d
000000b0: bf3b 823d 2871 64bd 1d23 233d 4b71 0500
000000c0: 66e7 5dbe adaf 0f3e 1d33 22be b5b6 59be
000000d0: 6671 0500 a4f5 19be c12e 90bd c920 0680
000000e0: f3f3 0500 99d1 53be 9689 0600 fcce e83d
000000f0: ea59 0580 9bb1 d2bb 8548 d73d a0cc 043e
00000100: 432e 273d 4b73 0500 485a 0580 ef68 0500
00000110: a84c 073d 0559 0580 37d6 283d c876 0580
00000120: 20c2 0580 4674 0580 f1c9 0680 e67e 58be
00000130: 3bf1 de3d 906f 383d c361 bf3d a35c 0580
00000140: a48a a13d 44c7 a53d a09b c3bd c67b 7cbd
00000150: 2ff7 0580 b68a b13d f27c 293d f568 0500
00000160: 3167 0500 48f6 29bc ea65 0580 d2ac ddbc
00000170: 9b61 0500 aacc e9bd 0d1f 89bd 7041 0dbe
00000180: 03a5 aa3e 5036 a3bc 848a e9bd f811 fc3c
00000190: ad6e 603e 5226 e93c 9eef 893e 0025 d23c
000001a0: e7f2 3f3b 6bb5 03bd cf5d 113d ab05 333e
000001b0: ed9a f73e 7b43 663d a299 bd3e b10c d73b
000001c0: 15b7 743e 4d51 c33d 8ad3 c53e d477 de3e
000001d0: 2fbd 273c 9047 7b3e bade f13e cf2a c73b
000001e0: 2506 693c 235f d43e 8af0 0b3b 2b66 003f
000001f0: 90b0 a83c 9cb7 b83e 7518 d73e 9d16 ff3e
00000200: 4089 853d ea6d 0580 5597 04bb 3b76 0600
00000210: ca2d 8ebc 4468 0580 6922 47be f375 0580
00000220: bd5c 0500 5086 0500 d933 77bd 0208 23bd
00000230: 386f 6cbd 5a33 61bd 4a62 9b3c 4681 0500
00000240: 7528 54be 8653 f0bd 0f12 ce3d 8cdb 0d3e
00000250: 2b61 0580 64f4 fabd 239a 003e 05ac 0500
00000260: 9a9b 0580 1c11 813d 4d65 0500 b297 04be
00000270: 66ea 0580 039c b33d d720 0d3d cf1a dabd
00000280: b741 853e cf7b a0bc 6809 ddbd 0d0f 033b
00000290: ff38 953e 672a e93c 5770 793e c624 d43c
000002a0: 3f9a af3b 0b91 03bd e386 1d3d 565f aa3e
000002b0: c797 ab3e fa48 693e 745e 803e 341d b33b
000002c0: b50d e23e b9d9 19bb 3103 d53e 4ef8 fd3e
000002d0: 8ead 263c 176b a23d 8ac5 db3e cfb3 c73b
000002e0: 48da 3a3b 888b 9c3e cf64 56bc 91ea a13e
000002f0: 6edd 9d3c c75b 3e3e d343 9c3e 3033 c13e
00000300: f550 3d3e a835 a3bc 929d 8f3d a646 2dbc
00000310: 3872 2f3e f50a e93c 2aab 833e 8f61 d53c
00000320: e927 303b 6686 03bd 40c3 233e 9579 bc3e
00000330: 0e8b b33e cfe6 9e3e a71d 513e 75fd a33b
00000340: 2474 d13e f1a7 ca3d 6e86 1e3e 6a34 b03e
00000350: cc19 2c3c d85b ca3d 5027 493e 8f0a cc3b
00000360: 9821 f73d 0069 ab3e 891c 58bc c5c1 dd3e
00000370: 769d a73c a38b 693e 2392 df3e 2325 5a3e
00000380: 76b3 0dbe dabb 0580 f57a 0580 035e 0500
00000390: 85ae be3c 626e 0500 c4ff fbbd c460 0500
000003a0: 2d69 0500 f366 0500 6268 0500 4c57 93bd
000003b0: 077c f1bd 8093 603d 9ead 1ebd 2973 0580
000003c0: 0294 2cbe 8b4a 5ebc 1eae 0f3e c10d 733d
000003d0: 8c5d 0500 7ddc 0ebe 137a 89bd c76a 0500
000003e0: d437 0680 d14f 183d 249b 0500 087f 30be
000003f0: 865d 0580 83d4 4c3d 720a bc3c 8305 353d

fc2.bias f4 [64]
-0.07936988 0.02568793 -0.12133649 0.44092825 -0.022609474 0.42718345 0.3801564 0.10110698
0.0802173 0.11709298 0.38800377 -0.021902796 0.22993602 -0.0050332863 0.15012407 -0.015568298
0.11429169 0.14970112 0.42590997 -0.13830903 0.38841373 0.040753167 -0.031548057 -0.01857086
0.21074098 0.16405536 -0.06559977 0.31300244 0.12851629 0.14064983 -0.035170905 0.19162185
0.37952375 0.38773638 -0.00435089 -0.025154412 -0.01757278 0.050933417 -0.02624764 -0.03149264
0.2447407 0.13968231 0.23201609 -0.07323131 -0.026229808 0.28683862 -0.024384016 0.32675678
0.087304845 0.43861693 -0.074341945 0.3858689 0.10651508 -0.14295986 0.30558783 -0.081695765
-0.009771684 -0.07280863 0.2682294 0.19179754 0.008585464 0.004668567 0.41243052 0.03071957
00000000: ad8c a2bd 7e6f d23c 447f f8bd 59c1 e13e
00000010: 8137 b9bc cab7 da3e dca3 c23e 2d11 cf3d
00000020: f848 a43d 72ce ef3d 6ea8 c63e 7e6d b3bc
00000030: 5974 6b3e 44ee a4bb 20ba 193e 2d12 7fbc
00000040: c311 ea3d 404b 193e df10 da3e e2a0 0dbe
00000050: 2ade c63e cbec 263d 8938 01bd eb21 98bc
00000060: 7ccc 573e 21fe 273e 2c59 86bd db41 a03e
00000070: c699 033e 8206 103e 5e0f 10bd 8538 443e
00000080: f050 c23e 6285 c63e e991 8ebb a010 cebc
00000090: caf4 8fbc 8f9f 503d 4a05 d7bc 6dfe 00bd
000000a0: 4e9d 7a3e e108 0f3e a095 6d3e 4cfa 95bd
000000b0: e5df d6bc 83dc 923e fdc0 c7bc aa4c a73e
000000c0: e2cc b23d 6692 e03e 9740 98bd 9c90 c53e
000000d0: 9424 da3d 1264 12be 0276 9c3e 1c50 a7bd
000000e0: 6a19 20bc b11c 95bd 5d55 893e 9366 443e
000000f0: 0caa 0c3c c7fa 983b 182a d33e 9ca7 fb3c

fc3.weight f4 [1, 64]
-0.015706591 -0.08474697 -0.06124339 0.398977 -0.053562693 0.3558323 0.33847857 -0.013792307
-0.092149824 -0.05194635 0.39662278 -0.024928946 0.30515712 -0.04389011 0.17343573 -0.028202664
-0.04523189 0.30415055 0.38363063 -0.031777535 0.37727752 -0.08033436 -0.021397728 -0.0033085414
0.30710074 0.3276425 0.019436767 0.44301403 0.3403993 0.26196793 0.041842464 0.25802726
0.43151003 0.35518962 -0.009597787 0.02729122 -0.0028593522 -0.029830704 -0.0047048316 -0.03409588
0.3666716 0.31122053 0.37751514 -0.049301073 -0.042931266 0.40669402 0.024078323 0.37984377
-0.03528177 0.4110654 -0.0126642715 0.31750745 0.122564286 -0.0100671295 0.41624713 -0.0072814957
-0.014936627 -0.103868 0.3375656 0.36897236 0.01007103 -0.00027749987 0.33405477 -0.041537173
00000000: 1cab 80bc d28f adbd 59da 7abd b746 cc3e
00000010: 8e64 5bbd a72f b63e 104d ad3e 21f9 61bc
00000020: 0cb9 bcbd b2c5 54bd 2412 cb3e ca37 ccbc
00000030: 8e3d 9c3e 1ec6 33bd 2399 313e 4609 e7bc
00000040: 1345 39bd 9fb9 9b3e 3c6b c43e 2929 02bd
00000050: 852a c13e 5786 a4bd 4a4a afbc 1dd4 58bb
00000060: 4f3c 9d3e c2c0 a73e db39 9f3c bcd2 e23e
00000070: d148 ae3e a920 863e 0163 2b3d 261c 843e
00000080: e2ee dc3e 6adb b53e 0940 1dbc d691 df3c
00000090: f863 3bbb 855f f4bc fd2a 9abb 1fa8 0bbd
000000a0: 61bc bb3e 4c58 9f3e aa49 c13e ecef 49bd
000000b0: b2d8 2fbd 333a d03e e73f c53c e27a c23e
000000c0: 9e83 10bd 2a77 d23e ce7d 4fbc 5690 a23e
000000d0: fc02 fb3d 9af0 24bc 581e d53e 9d99 eebb
000000e0: c1b8 74bc bfb8 d4bd 66d5 ac3e f2e9 bc3e
000000f0: f600 253c 677d 91b9 3a09 ab3e e222 2abd
