Cheyi Wu/FinalProject/LSTM/META/stock_lstm_model.pth (torch, 23975 bytes, 9 tensors)

lstm.weight_ih_l0 f4 [80, 7]
0.046564627 0.31739447 0.41274747 0.06307825 -0.06115503 0.3281718 -0.029858563 0.57124865
0.3933714 0.5977863 0.5167501 -0.14924836 -0.03507528 0.15579326 0.69775164 0.622959
0.28400344 0.34106752 -0.14250106 -0.024403298 0.13706073 0.3921143 0.31582358 0.45341673
0.28325468 0.052417472 -0.07467029 -0.13923386 0.36413515 0.48885044 0.29880235 0.06713957
0.35543522 -0.0021787267 -0.195888 0.48718864 0.750862 0.40295032 0.7027277 -0.3773152
-0.292767 -0.017021144 0.24515608 0.099051654 0.39515397 0.12075027 -0.12322181 0.24208157
0.18548064 0.5145273 0.3144051 0.12668313 0.25897783 0.20168059 0.13875845 0.22433472
0.2226525 0.3455601 0.32255948 0.35749498 -0.2670955 -0.23074532 -0.09104876 0.6177749
0.612295 0.5727951 0.6131207 -0.4507782 -0.30332673 -0.19398673 0.7566823 0.45272174
0.63437927 0.6206394 -0.20596816 0.049205698 -0.2040444 0.09310025 0.35358444 0.3199443
0.43593872 0.029078055 0.3948481 0.18629532 0.09066687 0.20182514 0.12039237 0.4119269
0.043286845 0.14580692 0.057312686 0.37861645 0.35205388 0.46360403 0.576134 -0.24249464
-0.04773172 -0.2267218 0.29502204 0.59378415 0.2024681 0.18959695 0.10030864 0.22783151
0.25021476 0.91794276 0.91599846 0.56020993 0.61253893 -0.39654413 -0.47184774 0.002802721
0.24273518 0.16037592 0.5306111 0.24684165 -0.00945994 0.21892478 0.072412536 0.30849457
0.56359226 0.30579978 0.33203077 0.024100922 -0.17587335 -0.020336717 0.5238229 0.2821703
0.4501716 0.33999473 -0.08963339 -0.114081785 0.14756724 0.36362958 0.6241989 0.5973583
0.40447807 -0.1920293 0.20098782 -0.041914232 0.35039532 0.2614645 0.29612672 0.25191566
0.14263834 0.2903939 0.33457145 0.50266755 0.8866204 0.7139225 0.69689745 -0.44664848
-0.4491429 0.09516336 0.66524327 0.54281723 0.48438203 0.44858047 -0.31497496 -0.3740598
-0.1880636 0.28129685 0.48004097 0.40138042 0.085238725 0.049236156 0.07907578 -0.14228378
0.38825908 0.48060074 0.08852383 0.25836292 -0.020621678 0.14860995 -0.07087117 0.81909025
0.70845175 0.61178476 0.78151053 -0.5267813 -0.25475755 0.27351403 0.49850634 0.37924582
0.505463 0.22821087 -0.07087908 0.13142036 0.24515444 0.1252372 0.21481769 0.37551975
0.26518157 -0.11521308 0.073795 0.2263359 0.52230513 0.24983278 0.462948 0.65077335
-0.3953828 -0.004791656 0.21849304 0.68141675 0.8106902 0.7498965 0.92802346 -0.521787
-0.32788026 -0.043522142 0.84537184 0.8329631 0.5954684 0.4513514 -0.35390833 -0.32039467
-0.18029395 0.4552462 0.18658738 0.20403247 0.4274477 -0.14980966 0.3716549 0.19543485
0.42884377 0.06501533 0.2503468 0.03706099 0.08548443 -0.123718016 0.16243622 0.6213863
0.502147 0.6769388 0.4551266 -0.08580959 -0.52337503 -0.043675113 0.17252758 0.17297609
0.23704764 0.4366738 -0.06739281 -0.2066442 0.16953054 0.6583264 0.88568324 0.627433
0.79796445 -0.33310965 -0.45444795 0.047961913 0.40923896 0.17936541 0.5073217 0.4086284
00000000: 8dba 3e3d 8781 a23e a353 d33e 2b2f 813d
00000010: b27d 7abd 2206 a83e f299 f4bc 5a3d 123f
00000020: fa67 c93e 8608 193f bc49 043f 90d4 18be
00000030: 19ab 0fbd 4588 1f3e da9f 323f 3e7a 1f3f
00000040: e668 913e 67a0 ae3e cceb 11be 6de9 c7bc
00000050: a659 0c3e 35c3 c83e a1b3 a13e 3d26 e83e
00000060: c206 913e b4b3 563d bdec 98bd 5293 0ebe
00000070: ec6f ba3e 9b4a fa3e 9ffc 983e 7980 893d
00000080: 9bfb b53e f8c8 0ebb dd96 48be ca70 f93e
00000090: 7e38 403f 814f ce3e f6e5 333f 752f c1be
000000a0: 8ee5 95be ed6f 8bbc 320a 7b3e 98db ca3d
000000b0: 9f51 ca3e eb4b f73d b75b fcbd 3be4 773e
000000c0: a3ee 3d3e 10b8 033f b5f9 a03e 39b9 013e
000000d0: be98 843e 5b85 4e3e b216 0e3e 00b8 653e
000000e0: 04ff 633e 41ed b03e 8426 a53e 9509 b73e
000000f0: bec0 88be 8048 6cbe c677 babd 7f26 1e3f
00000100: 5dbf 1c3f b3a2 123f 7af5 1c3f 66cc e6be
00000110: a44d 9bbe 75a4 46be eeb5 413f 25cb e73e
00000120: ae66 223f 39e2 1e3f 51e9 52be ea8b 493d
00000130: 04f1 50be 58ab be3d 0509 b53e bdcf a33e
00000140: 5c33 df3e 1a35 ee3c 8829 ca3e 33c4 3e3e
00000150: 8daf b93d 40ab 4e3e 4690 f63d 15e8 d23e
00000160: 8c4d 313d 694e 153e b5c0 6a3d 04da c13e
00000170: 6840 b43e 825d ed3e 857d 133f 8450 78be
00000180: 5682 43bd c229 68be 210d 973e 3d02 183f
00000190: cc53 4f3e b425 423e 9e6e cd3d aa4c 693e
000001a0: 261c 803e 4cfe 6a3f e07e 6a3f eb69 0f3f
000001b0: 5acf 1c3f d507 cbbe 0796 f1be dbad 373b
000001c0: 928f 783e 9639 243e 21d6 073f 0fc4 7c3e
000001d0: ddfd 1abc d12d 603e 064d 943d 00f3 9d3e
000001e0: 9547 103f ca91 9c3e f0ff a93e 4c6f c53c
000001f0: 2518 34be 3099 a6bc 4219 063f a078 903e
00000200: e47c e63e ca13 ae3e b691 b7bd b6a3 e9bd
00000210: de1b 173e a82d ba3e 80cb 1f3f 79ec 183f
00000220: c017 cf3e 54a3 44be c0cf 4d3e 42ae 2bbd
00000230: 0467 b33e adde 853e ec9d 973e 17fb 803e
00000240: c90f 123e 82ae 943e f34c ab3e d2ae 003f
00000250: 8ef9 623f a0c3 363f df67 323f 1caf e4be
00000260: 0ff6 e5be 02e5 c23d 624d 2a3f 12f6 0a3f
00000270: ec00 f83e 57ac e53e 6644 a1be c484 bfbe
00000280: bf93 40be 2406 903e eec7 f53e bc81 cd3e
00000290: a491 ae3d daab 493d 7cf2 a13d d7b2 11be
000002a0: e5c9 c63e 4d11 f63e fb4b b53d 2548 843e
000002b0: cbee a8bc 352d 183e e724 91bd e6af 513f
000002c0: 185d 353f ed9d 1c3f 1311 483f 24db 06bf
000002d0: 956f 82be 080a 8c3e 393c ff3e 822c c23e
000002e0: 0666 013f 1cb0 693e 0d29 91bd 0f93 063e
000002f0: c409 7b3e 2e3e 003e 2bf9 5b3e 2044 c03e
00000300: e1c5 873e d6f4 ebbd d521 973d 99c4 673e
00000310: cab5 053f 2ad4 7f3e 8507 ed3e 1599 263f
00000320: 9d6f cabe 5303 9dbb a4bc 5f3e 5471 2e3f
00000330: 6589 4f3f 38f9 3f3f f292 6d3f d593 05bf
00000340: ecdf a7be 4644 32bd 4a6a 583f 123d 553f
00000350: 9e70 183f 8817 e73e 7933 b5be c50a a4be
00000360: fa9e 38be 0816 e93e c310 3f3e e3ed 503e
00000370: 6dda da3e b467 19be 8d49 be3e 1320 483e
00000380: 6991 db3e c226 853d 752d 803e 44cd 173d
00000390: 7612 af3d df5f fdbd ae55 263e 2c13 1f3f
000003a0: b58c 003f dc4b 2d3f 5b06 e93e f0bc afbd
000003b0: e8fb 05bf ade4 32bd 12ab 303e a520 313e
000003c0: 9ebc 723e b593 df3e 3e05 8abd 8a9a 53be
000003d0: 6a99 2d3e 1488 283f 23bc 623f 739f 203f
000003e0: 6647 4c3f 598d aabe 67ad e8be b673 443d
000003f0: c587 d13e 91ab 373e d6df 013f be37 d13e

lstm.weight_hh_l0 f4 [80, 20]
0.0137660885 0.15716484 0.052553177 0.18515092 0.062548995 -0.068422556 0.05487816 0.08261675
0.095180914 0.13522713 0.08228029 -0.16124544 0.13724907 0.25101626 0.10337069 0.19291905
-0.21037173 0.044590898 0.20014551 -0.033157393 0.06381799 -0.070459135 0.007878934 -0.008155784
-0.07622907 0.11481133 0.18659353 0.1392786 0.16619456 -0.13098158 -0.051671546 -0.102736354
-0.16813025 0.15402098 0.18248393 0.02584136 0.08340757 -0.18773201 -0.20282198 0.18474689
0.22243284 0.08039202 0.16995078 0.11296514 -0.14768884 -0.076460786 0.1460929 -0.14547451
-0.11987109 0.006132438 0.23142976 -0.14781168 0.08326732 0.22403279 -0.07960731 0.09206783
-0.0030544288 0.19367304 0.116651095 -0.10838771 0.09366064 -0.09712057 0.024737867 0.100001566
0.2073844 -0.017663456 -0.035659175 -0.02619916 0.010039899 -0.07259852 0.045757446 -0.0029066026
-0.12319571 -0.13096471 -0.062438764 -0.0027066339 0.056491096 0.20751272 0.11821179 -0.1416966
-0.017633002 -0.07984968 -0.05026627 0.06431188 0.18327728 0.1458101 -0.0831711 -0.019959291
-0.18402044 0.09528053 0.011160422 0.10022251 0.08562263 -0.0983128 -0.105426975 0.18002054
-0.06654941 0.08602426 0.028789591 0.13725911 0.015465585 0.07935784 -0.2241922 -0.21084772
0.21418525 0.19232371 0.08495821 -0.008970188 0.26278242 -0.10081857 -0.1424891 -0.103191614
0.18319286 -0.103621356 0.23097076 -0.10100797 -0.016688239 0.06923886 0.073525295 -0.13841423
0.011841457 0.0453432 -0.2150044 0.06083331 0.017344162 0.254891 0.28884128 -0.1956644
-0.2381048 0.029529912 0.26253456 0.16672343 -0.1814223 0.11417686 -0.20023647 0.18541542
-0.1452287 -0.18563719 -0.2032939 0.0042972374 -0.21630073 -0.0032111483 0.13658695 0.036801748
0.15837382 0.18858048 -0.037560318 0.119561754 0.047217105 -0.1830201 -0.10524006 0.065596566
-0.0026218821 -0.25578594 -0.29957038 -0.057990566 0.28158313 0.34394884 -0.021523079 0.18358271
0.03284336 0.051845666 -0.115249544 -0.17420654 0.20542718 0.19466084 0.2130425 0.11942751
0.07995511 -0.13716507 -0.04318161 0.12133584 -0.09766689 0.0124956565 0.018576525 -0.031118523
-0.08925514 0.18828784 -0.06475694 0.2455638 -0.19372612 0.05637355 -0.034359287 -0.004061485
-0.04361059 0.12046253 0.08026456 0.14399646 0.09395558 0.178197 -0.19507231 0.00946111
-0.15244862 -0.15683535 0.014452747 -0.104568005 -0.21882896 0.12359808 -0.04692074 -0.12587878
0.11787013 -0.18521969 -0.11693589 0.077463806 -0.046550974 0.19227323 -0.176013 -0.056342233
0.17796393 -0.016873451 0.063904546 0.0049110954 0.1309326 0.1924751 0.1821216 0.10499897
-0.21939354 0.06707104 0.04639292 0.055299256 -0.12386353 0.044405304 0.11155481 -0.120363146
0.22945149 0.26747102 0.13809691 0.102534175 0.07907368 -0.1339908 -0.13398734 -0.046868756
0.07487752 -0.046086773 -0.21128866 0.078288384 -0.062015712 0.017814696 0.27558008 0.10444494
0.13056153 -0.12472155 0.0026117924 0.07504597 0.13150251 0.19486612 0.026003247 0.012525356
-0.037404265 -0.07860026 0.19971298 -0.074803315 -0.039192844 -0.005928709 0.13778894 -0.053821716
00000000: 298b 613c d2ef 203e 0042 573d 3498 3d3e
00000010: b019 803d 2021 8cbd ecc7 603d f832 a93d
00000020: 36ee c23d fb78 0a3e 9282 a83d 861d 25be
00000030: 058b 0c3e 3485 803e 03b4 d33d 928c 453e
00000040: b06b 57be f2a4 363d f2f2 4c3e 0cd0 07bd
00000050: 02b3 823d e14c 90bd a516 013c d69f 05bc
00000060: fd1d 9cbd 3422 eb3d 6012 3f3e 0d9f 0e3e
00000070: e82e 2a3e 0920 06be 8ba5 53bd 7067 d2bd
00000080: 562a 2cbe adb7 1d3e 11dd 3a3e 43b1 d33c
00000090: 97d1 aa3d d23c 40be 91b0 4fbe 4a2e 3d3e
000000a0: 6fc5 633e 92a4 a43d 9407 2e3e 445a e73d
000000b0: be3b 17be 7997 9cbd 6199 153e 45f7 14be
000000c0: f97e f5bd 9ef2 c83b ecfb 6c3e f25b 17be
000000d0: 0f88 aa3d da68 653e 2809 a3bd 0f8e bc3d
000000e0: d02c 48bb 3a52 463e c5e6 ee3d 60fa ddbd
000000f0: 26d1 bf3d 26e7 c6bd 11a7 ca3c 9fcd cc3d
00000100: 935c 543e f4b2 90bc 5b0f 12bd 9f9f d6bc
00000110: 637e 243c 88ae 94bd 296c 3b3d b37c 3ebb
00000120: 084e fcbd 9d1b 06be cabf 7fbd c861 31bb
00000130: 3563 673d 377e 543e 0619 f23d ea18 11be
00000140: 1673 90bc 3b88 a3bd 01e4 4dbd f2b5 833d
00000150: 0aad 3b3e 3e4f 153e 9c55 aabd ab81 a3bc
00000160: db6f 3cbe 7022 c33d 34da 363c 7641 cd3d
00000170: eb5a af3d 3958 c9bd 19ea d7bd 4e57 383e
00000180: 0f4b 88bd 7d2d b03d 26d8 eb3c a78d 0c3e
00000190: 5d63 7d3c 5d86 a23d a492 65be 77e8 57be
000001a0: 6153 5b3e 82f0 443e 92fe ad3d b2f7 12bc
000001b0: 6b8b 863e f779 cebd aae8 11be 2056 d3bd
000001c0: e996 3b3e 6f37 d4bd 9983 6c3e 44dd cebd
000001d0: c6b5 88bc 1acd 8d3d 6e94 963d 76bc 0dbe
000001e0: ac02 423c cbb9 393d 1d2a 5cbe 592c 793d
000001f0: 5815 8e3c 1381 823e 01e3 933e 405c 48be
00000200: bfd1 73be b7e8 f13c ee6a 863e 8cb9 2a3e
00000210: c4c6 39be 8fd5 e93d ca0a 4dbe 8add 3d3e
00000220: d5b6 14be ad17 3ebe 472c 50be d7cf 8c3b
00000230: f07d 5dbe 2172 52bb 73dd 0b3e 6ebd 163d
00000240: bf2c 223e 3e1b 413e d9d8 19bd cbdc f43d
00000250: b966 413d 9f69 3bbe 1a88 d7bd 7e57 863d
00000260: e2d3 2bbb 60f6 82be 4a61 99be 8487 6dbd
00000270: aa2b 903e 101a b03e 2b51 b0bc 1bfd 3b3e
00000280: c286 063d 1f5c 543d f407 ecbd 3363 32be
00000290: 815b 523e 2c55 473e d027 5a3e 6996 f43d
000002a0: 81bf a33d 0075 0cbe 33df 30bd ed7e f83d
000002b0: 9405 c8bd 95ba 4c3c cc2d 983c 46ec febc
000002c0: 66cb b6bd 87ce 403e 499f 84bd 1475 7b3e
000002d0: 2460 46be f4e7 663d 53bc 0cbd 3516 85bb
000002e0: 05a1 32bd 0fb5 f63d bf61 a43d cf73 133e
000002f0: c86b c03d 4679 363e 09c1 47be c602 1b3c
00000300: 7e1b 1cbe 7299 20be 37cb 6c3c c027 d6bd
00000310: b314 60be fd20 fd3d f62f 40bd 5ee6 00be
00000320: e565 f13d 3baa 3dbe 157c efbd 58a5 9e3d
00000330: 3cac 3ebd 46e3 443e c03c 34be 1dc7 66bd
00000340: 2d3c 363e 313a 8abc 63e0 823d 41ed a03b
00000350: 3213 063e 3118 453e 167e 3a3e b309 d73d
00000360: b3a8 60be 8b5c 893d 8106 3e3d 7981 623d
00000370: 2aac fdbd 56e2 353d d976 e43d f480 f6bd
00000380: 55f5 6a3e f6f1 883e 4769 0d3e 70fd d13d
00000390: 62f1 a13d e234 09be fa33 09be 74f9 3fbd
000003a0: 6359 993d 7cc5 3cbd 0e5c 58be a955 a03d
000003b0: 3004 7ebd 20f0 913c d518 8d3e 3be7 d53d
000003c0: ecb1 053e 036e ffbd 9b2a 2b3b b4b1 993d
000003d0: 98a8 063e fc8a 473e c304 d53c 2737 4d3c
000003e0: 3735 19bd 2cf9 a0bd 8f81 4c3e 7b32 99bd
000003f0: ad88 20bd 9e45 c2bb 8b18 0d3e 2974 5cbd

lstm.bias_ih_l0 f4 [80]
-0.07783902 0.100163944 -0.0105405925 -0.23432054 0.088280044 -0.17644171 -0.13782096 0.34684557
-0.03735407 -0.11735835 -0.26429757 -0.037211355 -0.1650482 -0.056638353 0.023780027 0.08471873
-0.15862826 0.041382656 -0.16936289 -0.07304936 -0.061106194 -0.022610402 0.114137955 -0.017260417
0.024516383 -0.14722206 0.08998994 -0.109995045 -0.22819923 -0.08136279 -0.19005364 0.23144007
0.15274078 0.13047273 -0.20937197 0.15594997 -0.11353879 0.054698713 0.1371041 -0.23551019
-0.37294215 -0.1412857 -0.0738063 0.10729902 0.10180604 0.036197152 -0.032883853 0.12945706
0.11745062 -0.1255328 -0.07906558 -0.079074554 -0.0032908653 -0.08198785 -0.24283604 0.13190797
0.106444255 -0.14042939 0.09543064 0.02673069 -0.005372767 -0.15594733 0.12379007 0.20219032
-0.22580485 -0.16463067 -0.1685967 -0.22633004 -0.0750591 -0.15619725 -0.05130345 -0.097943656
-0.02897671 0.08979272 0.1572118 -0.20343201 0.23963733 -0.20107864 -0.09995581 -0.09711688
00000000: 106a 9fbd c122 cd3d 73b2 2cbc b9f1 6fbe
00000010: 2bcc b43d 23ad 34be f020 0dbe be95 b13e
00000020: 9500 19bd 9359 f0bd 0352 87be ef6a 18bd
00000030: 6502 29be 9efd 67bd 55ce c23c 0381 ad3d
00000040: 726f 22be dc80 293d 776d 2dbe e79a 95bd
00000050: 7d4a 7abd 7339 b9bc 29c1 e93d b865 8dbc
00000060: 95d6 c83c 61c1 16be a54c b83d 1545 e1bd
00000070: 0fad 69be 89a1 a6bd 6c9d 42be a0fe 6c3e
00000080: 1468 1c3e a59a 053e 9b65 56be 59b1 1f3e
00000090: 0687 e8bd c20b 603d 0465 0c3e 9529 71be
000000a0: 46f2 bebe 33ad 10be c227 97bd 97bf db3d
000000b0: af7f d03d 7743 143d 38b1 06bd 6490 043e
000000c0: f389 f03d ac8b 00be 23ed a1bd d7f1 a1bd
000000d0: 8fab 57bb 3fe9 a7bd 03aa 78be e212 073e
000000e0: 72ff d93d b9cc 0fbe 2471 c33d 52fa da3c
000000f0: 090e b0bb a8b0 1fbe a685 fd3d fb0a 4f3e
00000100: 6339 67be f194 28be 9da4 2cbe 10c3 67be
00000110: 96b8 99bd 2cf2 1fbe 9123 52bd af96 c8bd
00000120: 9160 edbc 3fe5 b73d 21fc 203e 7b50 50be
00000130: 7d63 753e 8fe7 4dbe a2b5 ccbd 37e5 c6bd

lstm.bias_hh_l0 f4 [80]
0.05209433 -0.04633672 -0.17500713 0.14864929 0.13697742 0.02675118 -0.18710798 0.1704523
-0.0666883 -0.031009246 -0.25951976 -0.13584441 0.04665345 0.19585499 0.09750547 0.116324745
0.06378346 -0.0028825193 0.24003534 0.10314078 -0.011475235 0.023757506 0.16085942 -0.21269548
0.024937589 0.08354862 -0.2026425 -0.010059781 -0.1766389 -0.13361342 -0.0029027273 -0.03854461
-0.085930616 0.13962416 -0.011610997 -0.12537856 0.16959997 0.051142476 -0.050436065 -0.023346068
-0.11755696 0.021045582 0.1879203 0.22516166 0.22312444 0.006568559 -0.072876915 0.057388667
0.06322906 -0.1756141 0.0025066542 -0.2093359 0.2002619 0.21091087 -0.003885134 0.13252527
0.17345351 0.09326192 0.2880841 -0.13591918 -0.29564586 -0.042807 -0.07121717 -0.051130325
-0.22503616 -0.11681914 -0.097621776 0.14301613 0.1728526 -0.2009287 -0.1471807 0.034588464
-0.15697367 -0.14576885 0.17861325 -0.17211075 0.16846214 -0.10503465 0.13303709 -0.07400583
00000000: dd60 553d 93cb 3dbd 1235 33be 8537 183e
00000010: cf43 0c3e 4a25 db3c 3c99 3fbe 0c8b 2e3e
00000020: e093 88bd 1a07 febc c6df 84be cc1a 0bbe
00000030: b017 3f3d 368e 483e f3b0 c73d ab3b ee3d
00000040: e7a0 823d a6e8 3cbb d3cb 753e 793b d33d
00000050: a002 3cbc 1a9f c23c 55b8 243e d8cc 59be
00000060: ea49 cc3c 8a1b ab3d 8481 4fbe c8d1 24bc
00000070: d4e0 34be f5d1 08be af3b 3ebb f4e0 1dbd
00000080: 64fc afbd a3f9 0e3e 0d3c 3ebc 3d63 00be
00000090: 9dab 2d3e c67a 513d 0c96 4ebd 4140 bfbc
000000a0: b4c1 f0bd c967 ac3c 2e6e 403e c790 663e
000000b0: bc7a 643e 113d d73b 7e40 95bd 6110 6b3d
000000c0: 3d7e 813d 2fd4 33be ae46 243b 265c 56be
000000d0: 7511 4d3e 05f9 573e bb9d 7ebb b4b4 073e
000000e0: cc9d 313e 1b00 bf3d c27f 933e 662e 0bbe
000000f0: e55e 97be 6556 2fbd 4fda 91bd 086e 51bd
00000100: e16f 66be e03e efbd eded c7bd d272 123e
00000110: 4600 313e 41c0 4dbe 8ab6 16be a2ac 0d3d
00000120: b5bd 20be 6e44 15be 64e6 363e cd3d 30be
00000130: 5781 2c3e 681c d7bd e03a 083e 5e90 97bd

fc1.weight f4 [32, 20]
-0.5118093 -0.4409718 0.29636073 0.1541222 0.11078353 0.43766052 0.3543387 0.25869995
-0.15993364 -0.47801945 0.11900774 -0.2596642 0.10154925 -0.067213714 -0.12120542 0.1837547
0.44165838 0.4761262 0.2646609 0.40312907 -0.13183726 -0.24212337 0.2913878 0.4405697
0.18787064 0.2548272 0.32286954 0.47656357 -0.3481848 -0.47764483 0.42401257 -0.40990463
0.06881117 -0.25996757 -0.34249935 0.3766518 0.34081036 0.25652924 0.12225794 0.25008836
-0.1599566 -0.47246668 0.38857868 0.08167926 0.18143465 0.5296436 0.24820885 0.3732672
-0.33618984 -0.1947895 0.13296044 -0.34118462 0.3921931 -0.3921177 -0.33054265 0.2972194
0.3633648 0.29835686 0.25216419 0.4057128 -0.2962436 -0.24623069 0.21618623 0.3563977
0.4944723 0.35570723 0.4281923 0.3666939 -0.44951847 -0.31863663 0.3021057 -0.42098278
0.16572718 -0.3748008 -0.12118476 0.4647609 0.21456234 0.26909712 0.1260716 0.35983226
-0.20472771 -0.26982558 0.27770698 0.4274081 0.14144424 0.50017333 0.32762507 0.102981865
-0.2165368 -0.41438156 0.23299359 -0.48132563 0.20189226 -0.24102628 -0.38759738 0.39375547
0.13623606 0.35604462 0.44374162 0.07274142 -0.37416503 -0.2266552 0.33767825 0.06382116
0.1582401 0.16447546 0.3661813 0.15135093 -0.25765276 -0.32386357 0.24966758 -0.34604064
0.30244675 -0.20401575 -0.21700403 0.21883601 0.23539013 0.27450627 0.31649923 0.28416786
-0.3542788 -0.37508085 0.44053614 0.269431 0.18395163 0.27041423 0.37789777 0.19901556
-0.2662916 -0.2354108 0.28051814 -0.42426303 0.2098792 -0.38801262 -0.0748978 0.42041644
0.28938782 0.2540522 0.295406 0.33991134 0.037213657 0.038431965 -0.036856394 -0.03705425
-0.03646581 -0.042980365 -0.039630387 -0.03619872 0.039492887 0.039154407 -0.040158678 0.036510352
-0.037142597 0.037939623 0.035951875 -0.039678413 -0.038273502 -0.036478207 -0.03622049 -0.037095655
-0.153555 -0.26286206 0.47641554 0.20549941 0.1495137 0.365476 0.069030784 0.44320974
-0.44163448 -0.23081784 0.36267638 -0.49375144 0.4516902 -0.24966611 -0.44052657 0.23874857
0.31958336 0.38901868 0.10213682 0.0989174 0.014888258 0.02784759 -0.0027917512 -0.016859047
-0.016859652 -0.016560549 -0.015783912 -0.01898374 0.0013548989 0.016847454 -0.016844144 0.019111536
-0.016857143 0.016837696 0.017964592 -0.016832905 -0.01707249 -0.03183971 -0.017024012 -0.01686233
0.037796844 0.03826275 -0.03816213 -0.03964837 -0.041047554 -0.049007684 -0.040804535 -0.03857969
0.048095774 0.054718368 -0.040651828 0.037413705 -0.040802017 0.053060874 0.03805973 -0.044311624
-0.048731454 -0.03963341 -0.03797524 -0.04077666 -0.03252592 -0.052939918 -0.025076773 0.19537811
-0.28224403 -0.2958824 -0.08015172 -0.027786538 -0.20232646 0.11236227 0.10813194 0.124362715
-0.10684175 -0.17377798 0.2677429 -0.18046452 -0.015487236 0.10751687 -0.2568665 0.016956197
-0.45547134 -0.40072438 0.048347753 0.38113004 0.35282743 0.11683589 0.1542935 0.25649476
-0.2498318 -0.2275496 0.26117262 -0.29086274 0.2614133 -0.09980033 -0.39411414 0.2710156
00000000: ef05 03bf 0ec7 e1be 98bc 973e 36d2 1d3e
00000010: 7ae2 e23d 0a15 e03e e26b b53e 5274 843e
00000020: a5c5 23be f7be f4be 54ba f33d b5f2 84be
00000030: 0ef9 cf3d 58a7 89bd 8c3a f8bd 312a 3c3e
00000040: 0c21 e23e d0c6 f33e a281 873e ef66 ce3e
00000050: 5900 07be 30ef 77be c830 953e 5a92 e13e
00000060: 2961 403e b678 823e 284f a53e 2400 f43e
00000070: 4745 b2be dd8d f4be 2d18 d93e 05df d1be
00000080: dfec 8c3d 781a 85be 135c afbe 81d8 c03e
00000090: b27e ae3e cd57 833e 5f62 fa3d 950b 803e
000000a0: aacb 23be 27e7 f1be c9f3 c63e 7547 a73d
000000b0: 01ca 393e b996 073f 762a 7e3e e11c bf3e
000000c0: 1321 acbe e676 47be c826 083e c0af aebe
000000d0: 89cd c83e a7c3 c8be e33c a9be 242d 983e
000000e0: f30a ba3e 3bc2 983e aa1b 813e 97b9 cf3e
000000f0: 3ead 97be e623 7cbe ec5f 5d3e c279 b63e
00000100: 792b fd3e 421f b63e 053c db3e 4ebf bb3e
00000110: 4927 e6be 5724 a3be 99ad 9a3e 0e8b d7be
00000120: 63b4 293e e4e5 bfbe b72f f8bd 24f5 ed3e
00000130: 3bb6 5b3e 19c7 893e ea18 013e ef3b b83e
00000140: 24a4 51be 9426 8abe 9c2f 8e3e 3cd5 da3e
00000150: c2d6 103e 5c0b 003f 79be a73e 28e8 d23d
00000160: d3bb 5dbe d229 d4be df95 6e3e 5070 f6be
00000170: d8bc 4e3e 98cf 76be 2a73 c6be 519a c93e
00000180: 7781 0b3e 7b4b b63e 1a32 e33e 74f9 943d
00000190: 8f92 bfbe 4d18 68be 2ae4 ac3e abb4 823d
000001a0: b109 223e 416c 283e 1e7c bb3e bdfb 1a3e
000001b0: 10eb 83be 72d1 a5be dca8 7f3e 3d2c b1be
000001c0: 4dda 9a3e 81e9 50be 4e36 5ebe 8c16 603e
000001d0: 1c0a 713e 168c 8c3e 300c a23e 737e 913e
000001e0: 0864 b5be 990a c0be f48d e13e dcf2 893e
000001f0: d15d 3c3e bc73 8a3e d17b c13e bcca 4b3e
00000200: 5f57 88be 870f 71be 13a0 8f3e 0139 d9be
00000210: 93ea 563e 97a9 c6be 0564 99bd d340 d73e
00000220: a42a 943e 2113 823e 753f 973e dc08 ae3e
00000230: 596d 183d d66a 1d3d bbf6 16bd 32c6 17bd
00000240: 2c5d 15bd 2e0c 30bd 7953 22bd 1c45 14bd
00000250: 4bc3 213d 5f60 203d 6d7d 24bd e18b 153d
00000260: d622 18bd 9466 1b3d 4642 133d d585 22bd
00000270: adc4 1cbd 2c6a 15bd f05b 14bd 9df1 17bd
00000280: 863d 1dbe db95 86be bdec f33e 706e 523e
00000290: 1f1a 193e ac1f bb3e 0360 8d3d 63ec e23e
000002a0: ea1d e2be 835b 6cbe b8b0 b93e fdcc fcbe
000002b0: f043 e73e 79a8 7fbe b38c e1be 817a 743e
000002c0: 6ea0 a33e 752d c73e 1c2d d13d 3595 ca3d
000002d0: e1ed 733c a120 e43c d0f5 36bb fc1b 8abc
000002e0: 411d 8abc fda9 87bc 434d 81bc ca83 9bbc
000002f0: dd96 b13a ac03 8a3c bbfc 89bc cc8f 9c3c
00000300: fe17 8abc 35ef 893c 7b2a 933c 29e5 89bc
00000310: 9bdb 8bbc 5b6a 02bd f175 8bbc de22 8abc
00000320: ddd0 1a3d 67b9 1c3d e54f 1cbd 5466 22bd
00000330: 7b21 28bd 48bc 48bd a822 27bd bd05 1ebd
00000340: 1300 453d 5e20 603d 8882 26bd 1d3f 193d
00000350: 0420 27bd 5c56 593d 85e4 1b3d 1b80 35bd
00000360: a29a 47bd a456 22bd ed8b 1bbd 6d05 27bd
00000370: e639 05bd 87d7 58bd ce6d cdbc 3311 483e
00000380: 4a82 90be e67d 97be 9626 a4bd 98a0 e3bc
00000390: ab2e 4fbe 311e e63d 4774 dd3d e1b1 fe3d
000003a0: d9cf dabd dbf2 31be 9915 893e b1cb 38be
000003b0: 2dbe 7dbc ce31 dc3d 0284 83be b9e7 8a3c
000003c0: 8a33 e9be bf2b cdbe 4b08 463d 7a23 c33e
000003d0: cca5 b43e a847 ef3d 1eff 1d3e 4853 833e
000003e0: e8d3 7fbe c302 69be 6bb8 853e f6eb 94be
000003f0: f7d7 853e 1e64 ccbd 54c9 c9be 8fc2 8a3e

fc1.bias f4 [32]
0.47860307 0.42235944 0.4706529 0.25939223 0.36428112 0.06484443 0.38481948 -0.03440254
0.26083058 -0.017176231 -0.035280623 0.13962156 0.15367058 -0.012596012 0.35370135 0.17962617
0.090829276 -0.027017068 -0.038396448 0.121641144 0.083474 0.1476486 0.16266215 0.06354681
0.18576603 0.11419025 0.3074896 0.29262498 0.46663865 -0.04062628 0.4078765 0.36488825
00000000: 760b f53e 7f3f d83e 6bf9 f03e 0fcf 843e
00000010: 0e83 ba3e 28cd 843d 0f07 c53e aee9 0cbd
00000020: 968b 853e 2bb5 8cbc 6a82 10bd f4f8 0e3e
00000030: d25b 1d3e 815f 4ebc 5818 b53e ecef 373e
00000040: b304 ba3d e652 ddbc 9845 1dbd fe1e f93d
00000050: 6bf4 aa3d 3231 173e e890 263e d424 823d
00000060: 7339 3e3e 94dc e93d 476f 9d3e f1d2 953e
00000070: 43eb ee3e be67 26bd 30d5 d03e a2d2 ba3e

fc2.weight f4 [64, 32]
0.25861794 0.21849231 0.10424297 0.22238722 0.25376683 0.22073878 0.21995941 0.03372723
0.21840589 5.5894365e-05 0.038575113 0.012925521 0.2524054 0.07283464 0.21652395 0.22276329
4.99329e-40 0.033621125 0.04221275 0.10943955 0.17143476 0.23687045 0.27292225 0.2215196
0.21954635 0.2203663 0.21974252 0.24761507 0.21964267 0.035027012 0.26871595 0.32726967
-0.019785304 -0.019922633 -0.019913953 -0.018922633 -0.019620147 -0.019762397 -0.019723123 5.06293e-40
-0.020021826 5.09952e-40 5.00666e-40 4.93362e-40 -0.020277753 -4.9216e-40 -0.020331364 -0.018616214
-4.94137e-40 5.2312e-40 4.984e-40 -0.019187309 -4.98932e-40 -0.019988453 -0.020231977 -0.019094089
-0.019633465 -0.019460505 -0.019160232 -0.01936493 -0.019550864 4.97978e-40 -0.019910434 -0.018986925
0.16077758 -0.16429205 -0.08231045 -4.97429e-40 0.027947046 4.98051e-40 0.11163111 -5.00021e-40
-0.07232045 -4.92385e-40 -4.9915e-40 -0.0033059048 -4.98533e-40 4.91664e-40 0.064283475 -4.99615e-40
-0.0055910684 4.9143e-40 6.17695e-40 -4.9243e-40 4.97831e-40 4.9758e-40 -4.91725e-40 4.94644e-40
0.032404725 5.03267e-40 -0.16016003 0.03588249 -0.113670886 5.17612e-40 0.07712906 -0.0058268956
0.39434245 0.29243386 0.2439553 0.37888303 0.19243038 0.22951281 0.45010725 0.033969443
0.34875026 0.00055502524 0.0385128 -0.055747148 0.37297466 0.07327081 0.2884537 0.24173287
0.107323535 0.033605326 0.041567165 0.18568031 0.17178708 0.27585202 0.1331163 0.21933387
0.16714463 0.27636757 0.45256242 0.4336992 0.31505606 0.035038736 0.2869497 0.3673927
-0.03536605 -0.20108812 0.13234575 0.12933436 -0.019612515 4.93512e-40 0.05293323 5.69932e-40
-0.04860794 5.18262e-40 -4.94329e-40 0.07844623 -4.99228e-40 4.98436e-40 -0.10814 -0.035900056
0.13578306 5.00087e-40 4.9479e-40 4.93257e-40 -4.95066e-40 0.06495194 -5.35988e-40 5.06457e-40
-0.17018108 0.008758555 -0.20389299 -0.11490532 0.11555112 5.01575e-40 -0.04605129 -0.16163231
0.13995302 0.3799494 0.32353872 0.28249505 0.45574433 0.24568489 0.45957458 0.033973757
0.3789024 0.0004902328 0.03851131 0.17918928 0.13294378 0.0732654 0.38410807 0.36961356
0.13150014 0.03362849 0.041500293 0.39259973 0.17168602 0.16599506 0.20261243 0.38230821
0.18577516 0.39313665 0.22465023 0.16436388 0.26080167 0.03508541 0.46391797 0.3131339
0.14733101 0.460881 0.39451337 0.15169135 0.1801625 0.3135005 0.12606597 0.033755347
0.2491979 0.00040299556 0.038581327 0.014112807 0.2594312 0.07324748 0.14596063 0.22497724
0.12422057 0.033543155 0.041595817 0.13358498 0.17175363 0.28921404 0.34238297 0.25901496
0.19571552 0.35631436 0.16319902 0.425121 0.24094707 0.0350778 0.21754181 0.27379802
0.26616567 0.3820198 0.13732018 0.40285468 0.27663594 0.22926149 0.21600498 0.0338303
0.261784 0.0001768597 0.038616348 0.036752775 0.12996115 0.07351213 0.38666365 0.27615327
5.0417e-40 0.033627227 0.04227124 0.31884357 0.1715932 0.2851304 0.15443765 0.3029432
0.3739196 0.42387944 0.34764507 0.29966414 0.26095915 0.035058614 0.32528764 0.26238197
00000000: 9269 843e 73bc 5f3e 577d d53d 7ab9 633e
00000010: baed 813e 5909 623e 0a3d 613e 9025 0a3d
00000020: cba5 5f3e 1e70 6a38 f000 1e3d 90c5 533c
00000030: 483b 813e 542a 953d 74b8 5d3e 0f1c 643e
00000040: ed6f 0500 4eb6 093d 47e7 2c3d d821 e03d
00000050: 988c 2f3e 2b8e 723e 77bc 8b3e 09d6 623e
00000060: c2d0 603e b4a7 613e 2f04 613e ce8e 7d3e
00000070: 02ea 603e 7c78 0f3d 2395 893e e48f a73e
00000080: ca14 a2bc ca34 a3bc 9622 a3bc a303 9bbc
00000090: 6eba a0bc c0e4 a1bc 6392 a1bc 5783 0500
000000a0: d004 a4bc 8a8d 0500 a773 0500 4b5f 0500
000000b0: 881d a6bc f15b 0580 f68d a6bc 0881 98bc
000000c0: 7461 0580 3fb2 0500 566d 0500 b42e 9dbc
000000d0: d26e 0580 d3be a3bc 88bd a5bc 356b 9cbc
000000e0: 5cd6 a0bc a36b 9fbc ebf5 9cbc 34a3 9ebc
000000f0: 2229 a0bc 296c 0500 351b a3bc 788a 9bbc
00000100: e1a2 243e 2d3c 28be 6292 a8bd a16a 0580
00000110: 34f1 e43c 5d6c 0500 da9e e43d db71 0580
00000120: be1c 94bd 925c 0580 6d6f 0580 e1a7 58bb
00000130: b56d 0580 8f5a 0500 0ea7 833d b970 0580
00000140: 4835 b7bb e859 0500 e2b9 0600 b25c 0580
00000150: c06b 0500 0d6b 0500 bb5a 0580 de62 0500
00000160: d1ba 043d e77a 0500 fe00 24be 85f9 123d
00000170: 48cc e8bd e4a2 0500 d7f5 9d3d 8bef bebb
00000180: 41e7 c93e e4b9 953e 6bcf 793e f5fc c13e
00000190: 780c 453e 6805 6b3e 7574 e63e 8b23 0b3d
000001a0: 658f b23e 1d7f 113a 99bf 1d3d 1f57 64bd
000001b0: 89f6 be3e 020f 963d 34b0 933e d288 773e
000001c0: 71cc db3d bda5 093d 5542 2a3d fb22 3e3e
000001d0: f4e8 2f3e 7a3c 8d3e a44f 083e 0f99 603e
000001e0: f627 2b3e 0d80 8d3e 43b6 e73e d20d de3e
000001f0: 074f a13e c784 0f3d 12eb 923e e51a bc3e
00000200: fedb 10bd 0bea 4dbe a585 073e 3a70 043e
00000210: 6daa a0bc b65f 0500 84d0 583d bd34 0600
00000220: 1f19 47bd b4a4 0500 fd61 0580 6ba8 a03d
00000230: a56f 0580 706d 0500 8178 ddbd f00b 13bd
00000240: b70a 0b3e 0a72 0500 4663 0500 005f 0500
00000250: 0b64 0580 8605 853d 1ed6 0580 cc83 0500
00000260: f343 2ebe 0b80 0f3c 53c9 50be 7b53 ebbd
00000270: 11a6 ec3d 3076 0500 47a0 3cbd f182 25be
00000280: d84f 0f3e ba88 c23e dea6 a53e 31a3 903e
00000290: 5257 e93e d294 7b3e 5c4d eb3e 1128 0b3d
000002a0: 7fff c13e f782 003a 09be 1d3d 657d 373e
000002b0: 6a22 083e 2c0c 963d d0a9 c43e fd3d bd3e
000002c0: f9a7 063e 07be 093d 36fc 293d d502 c93e
000002d0: 76ce 2f3e 9cfa 293e a279 4f3e e7bd c33e
000002e0: d83b 3e3e 3549 c93e b60a 663e 014f 283e
000002f0: cc87 853e b8b5 0f3d a886 ed3e 1653 a03e
00000300: f1dd 163e 98f8 eb3e a8fd c93e fa54 1b3e
00000310: 857c 383e 2383 a03e 7017 013e 0c43 0a3d
00000320: bc2d 7f3e 2649 d339 7407 1e3d 6739 673c
00000330: 2bd4 843e c602 963d b476 153e 6f60 663e
00000340: 5b67 fe3d 8c64 093d 6060 2a3d 80ca 083e
00000350: 2fe0 2f3e dd13 943e d24c af3e 9c9d 843e
00000360: a669 483e d66e b63e a51d 273e 76a9 d93e
00000370: d4ba 763e bdad 0f3d 48c3 5e3e 412f 8c3e
00000380: de46 883e 1998 c33e a99d 0c3e f842 ce3e
00000390: 3aa3 8d3e 86c3 6a3e 6930 5d3e a491 0a3d
000003a0: 8d08 863e 6a73 3939 2d2c 1e3d 148a 163d
000003b0: 8914 053e 878d 963d c7f8 c53e f663 8d3e
000003c0: 6c7d 0500 b4bc 093d 9c24 2d3d 773f a33e
000003d0: 21b6 2f3e 9dfc 913e e724 1e3e 5f1b 9b3e
000003e0: 6472 bf3e ba06 d93e 89fe b13e 946d 993e
000003f0: 709c 853e 9f99 0f3d 1a8c a63e ee56 863e

fc2.bias f4 [64]
0.10586902 -0.02419068 -0.042664975 0.24412665 0.04566903 0.22924305 0.40733516 0.18020433
0.11590051 0.27989805 0.11674128 0.13136439 0.2521415 0.33582762 -0.024408896 -0.013155007
0.37475944 0.19197488 0.1829465 0.18702805 0.09396067 0.24514408 0.003643672 0.20155929
0.3584232 -4.9338e-40 0.10395063 -0.04243817 0.09554947 -0.00807353 0.10214215 -0.015262769
0.24533264 0.37533268 0.38476476 -0.016801795 -0.13693328 -0.03652899 -0.024482628 0.13677886
-0.03583703 0.3368426 -0.032556944 -0.13025273 -0.10978587 0.34399554 0.10087367 0.09003044
-0.033205193 0.38955694 0.16813119 0.27345124 0.044178747 -0.018605428 0.29750183 0.18493536
-0.077672146 0.0012499909 0.16524966 0.2655997 0.020976327 0.32120898 0.37695083 -6.358289e-06
00000000: dbd1 d83d 882b c6bc 78c1 2ebd 56fc 793e
00000010: 730f 3b3d b1be 6a3e 3c8e d03e 7c87 383e
00000020: 3f5d ed3d cc4e 8f3e 0d16 ef3d 6384 063e
00000030: b118 813e 99f1 ab3e 2af5 c7bc 1988 57bc
00000040: 78e0 bf3e 1095 443e 5456 3b3e 4884 3f3e
00000050: 746e c03d 0d07 7b3e acca 6e3b 8f65 4e3e
00000060: 3f83 b73e 585f 0580 11e4 d43d a6d3 2dbd
00000070: 71af c33d d746 04bc e72f d13d b110 7abc
00000080: 7b38 7b3e 9b2b c03e e3ff c43e eba3 89bc
00000090: 3d38 0cbe 6c9f 15bd cb8f c8bc c20f 0c3e
000000a0: d9c9 12bd a276 ac3e 6e5a 05bd f960 05be
000000b0: 6ad7 e0bd 2f20 b03e db96 ce3d e161 b83d
000000c0: 2b02 08bd 0274 c73e 952a 2c3e cd01 8c3e
000000d0: c6f4 343d 696a 98bc 2952 983e b25f 3d3e
000000e0: 9312 9fbd bcd6 a33a 3537 293e affc 873e
000000f0: 8cd6 ab3c 8175 a43e b3ff c03e 4959 d5b6

fc3.weight f4 [1, 64]
0.23265664 -0.016660966 -0.078055084 0.3447474 -0.044653706 0.3336365 0.31576574 0.27676663
0.18518606 0.35145748 0.25959086 0.25814608 0.40258205 0.3368895 -0.06907616 0.011611482
0.37552485 0.24590726 0.24960755 0.25657958 -0.026898919 0.29060355 -0.019158356 0.38548747
0.40981767 -0.011165051 0.25815082 -0.016154878 -0.004437178 0.006922947 0.23413923 -0.015897455
0.38260928 0.39792407 0.37608027 0.023111094 -0.013584055 -0.0271332 0.0222956 -0.03909561
0.042242445 0.34527907 0.035911575 -0.043595277 -0.07076415 0.3354095 0.23842962 -0.046325777
0.03858641 0.2972475 0.33588588 0.4042262 -0.036004256 0.020845847 0.29538214 0.3677368
-0.06134829 0.009623977 0.2007069 0.34500533 -0.056382854 0.3393426 0.40201476 -0.0101989405
00000000: 8b3d 6e3e 947c 88bc 58db 9fbd bb82 b03e
00000010: cee6 36bd 67d2 aa3e 0cac a13e 5bb4 8d3e
00000020: 6aa1 3d3e 3cf2 b33e 18e9 843e b92b 843e
00000030: 3c1f ce3e c87c ac3e cd77 8dbd 163e 3e3c
00000040: cb44 c03e 1dcf 7b3e 1f99 7f3e 665e 833e
00000050: 1f5b dcbc fdc9 943e fcf1 9cbc 9d5e c53e
00000060: 9fd3 d13e 9eed 36bc 582c 843e 3c57 84bc
00000070: bf65 91bb e3d9 e23b 32c2 6f3e 613b 82bc
00000080: 5de5 c33e b4bc cb3e 988d c03e 7a53 bd3c
00000090: a88f 5ebc 7246 debc 43a5 b63c b822 20bd
000000a0: 6a06 2d3d 6bc8 b03e 0418 133d f690 32bd
000000b0: cbec 90bd cbba ab3e e526 743e 19c0 3dbd
000000c0: c90c 1e3d d330 983e 3cf9 ab3e bdf6 ce3e
000000d0: 3379 13bd e9c4 aa3c 543c 973e ff47 bc3e
000000e0: 5848 7bbd e3ad 1d3c 1c86 4d3e 8aa4 b03e
000000f0: b5f1 66bd 50be ad3e e1d4 cd3e 7519 27bc
