Cheyi Wu/FinalProject/Garch/LSTM-Garch/META/lstm_garch_model.pth (torch, 229302 bytes, 13 tensors)

lstm.weight_ih_l0 f4 [256, 7]
000000 94 a9 dd 3d 04 69 03 3e b9 a5 d7 3b 36 df 9a 3d
       0.1082336 0.12833029 0.006581035 0.07562105
000010 10 4b 3c 3d 94 3d b0 3d 89 b3 6c bc c2 71 e7 3d
       0.045970023 0.08605495 -0.014447101 0.113009945
000020 2c ab 29 3e 9e 95 b0 bc b1 53 09 3e 64 2c 8d bd
       0.16569203 -0.021555718 0.13410832 -0.068932325
000030 f2 d1 83 3c f3 87 ba 3d b7 ea ac 3d 31 3a 9e 3c
       0.01609132 0.091079615 0.08443206 0.019314857
000040 84 92 04 3e 0a e3 39 bd 48 43 70 bd 0b f6 14 3c
       0.12946516 -0.045382537 -0.058657914 0.009091864
000050 cd 1e 4d bc 6d 9d b3 3c a7 5a 76 bb cd b2 fb 3d
       -0.0125195505 0.021925652 -0.0037590654 0.12289963
000060 f8 b2 fd bd c1 e5 8c bd 72 b1 eb bb 0e dc ab bc
       -0.12387651 -0.068797596 -0.007192784 -0.020978954
000070 8e 7a 16 bb 8d f2 df bd c5 2c d5 3d 31 b9 1c be
       -0.0022961232 -0.10934935 0.1040893 -0.1530502
000080 ba 49 e3 3d ad dc 83 3d ee 26 c3 bc 38 42 3c 3c
       0.110980466 0.06438575 -0.023822274 0.011490397
000090 b9 e0 20 bd b7 75 d5 3c a8 3e e8 3d c0 42 10 bc
       -0.039276812 0.026057107 0.11340076 -0.008804977
0000a0 b2 ff 5d 3d 9c 1b bb bd 3e f0 b1 3d a8 e9 1b 3e
       0.05419893 -0.091361254 0.08688401 0.15225852
0000b0 2e d0 e9 3d 0e 44 96 bc bf b1 8f 3c b6 62 7d 3c
       0.1141666 -0.018342998 0.01754081 0.015465429
0000c0 b1 54 e1 3d a0 95 af bc 06 3c 79 bd 44 95 44 3c
       0.11002482 -0.021433651 -0.06084826 0.011998478
0000d0 51 39 a6 bd 65 8d 70 3d 79 a5 dc 3d e0 c1 e4 3d
       -0.08116401 0.058728594 0.10773749 0.11169791
0000e0 a0 7f 19 3c 34 f0 8c bc 26 69 9e 3d 0c c4 fc 3c
       0.009368807 -0.017204382 0.07734899 0.030855201
0000f0 28 29 50 3c 45 71 90 bd 59 4f d7 3c a6 47 1e bc
       0.012705125 -0.070528544 0.026282953 -0.009660637
000100 74 d5 9c 3d 27 dc 85 3c 00 17 16 3d ee e7 ae bd
       0.076579005 0.016340328 0.03664303 -0.08540331
000110 78 57 fd bc 00 7a 83 bc 4a c6 b5 3d 2c 70 d7 3c
       -0.030925497 -0.016049385 0.08875711 0.026298605
000120 6e 7a c0 3d c3 8e 2e be 4a 18 fc bd 85 58 f1 bd
       0.093983516 -0.17046647 -0.1230932 -0.11784462
000130 86 66 ad bd 36 65 f5 3d 01 6e f5 3d 6f be 2e 3e
       -0.084668204 0.11982195 0.11983872 0.17064832
000140 6b df 42 3d 90 a0 f8 bd ff 30 27 3e f0 73 f9 3c
       0.04757635 -0.1214 0.16327284 0.030450791
000150 ce 0f 9b bc 30 f5 c6 bd f4 4e 88 bc 29 5e 12 3d
       -0.018928435 -0.097147346 -0.01663921 0.03573433
000160 03 ab 19 be 30 d7 83 bd 78 a5 4f bd e3 0e 94 bc
       -0.15006642 -0.06437528 -0.050694913 -0.018073505
000170 14 1f a9 3d c6 a9 b4 3d 48 f2 43 3c 28 cb a3 bd
       0.08257881 0.08821444 0.01195962 -0.07997733
000180 d3 45 26 3e 03 93 b2 bc 3e 0e af bd 1b 0d 23 be
       0.16237573 -0.021798616 -0.08547638 -0.15922968
000190 f7 4e f7 bd 86 82 9a 3c 2f c8 65 bb 9f 01 8c bd
       -0.12075608 0.018861067 -0.0035061946 -0.06836247
0001a0 a8 d0 7a bd b0 5b 57 bc 44 c3 94 bc 99 ce 47 3c
       -0.061234146 -0.013144419 -0.018159516 0.012195253
0001b0 a1 04 c4 bd 64 fb 08 be f5 0e fb 3d e8 cb d6 3d
       -0.095711954 -0.13377148 0.12258712 0.10488111
0001c0 9b ca ff 3d 5d 48 ce 3b 21 fa 10 3d e2 b7 3c 3c
       0.12489816 0.0062952475 0.03539479 0.01151845
0001d0 ad ac 7d bd 22 4d 8c bd 1c 8e 95 3d 9c c7 fc bb
       -0.061932255 -0.068506494 0.07302496 -0.007714225
0001e0 92 20 91 3d 56 68 ed 3c 14 3e 53 3d d2 ed ec bd
       0.070862904 0.028980415 0.051572874 -0.11568798
0001f0 c1 5f 8f 3c 8a f8 13 3c c6 4b 68 bc 58 17 64 bd
       0.017501714 0.009031424 -0.014178222 -0.055686325
000200 b1 19 0a 3e 15 07 98 3d 6d 45 a2 3d 3e 1b 9f 3d
       0.13486363 0.07423226 0.07923398 0.07768868
000210 5b 80 66 bd 62 ff 1b 3e 77 9b 6f 3d 32 4a 41 3d
       -0.056274753 0.1523414 0.058497872 0.0471899
000220 c6 f1 f0 3d 1c 3f db bd 46 53 b9 3d 65 65 9c 3d
       0.117648646 -0.107053965 0.09049086 0.07636527
000230 2a e0 97 3d 79 71 ea bc 09 d1 ec 3d 5a 97 de bd
       0.07415803 -0.028618561 0.11563308 -0.10868712
000240 8d 77 1f bc c4 bb 77 bd 8e 43 d9 3d 09 6c 74 3d
       -0.009733093 -0.0604818 0.10608588 0.059673343
000250 25 e7 c0 3d a3 90 bf bd 02 93 4b 3e 9f f3 88 bd
       0.09419087 -0.09353759 0.19880298 -0.06687092
000260 9c 71 43 bd 71 d8 94 bd d7 62 1e 3e a7 86 83 bc
       -0.04771577 -0.072678454 0.15467392 -0.016055418
000270 23 a2 06 3e 03 ec 09 3d 17 1b 06 3d e0 19 32 bd
       0.13147788 0.033672344 0.03274068 -0.043481708
000280 17 4d 41 3e 58 7d 88 3d f4 a5 86 3d c3 78 5e bd
       0.18877064 0.066645324 0.06574622 -0.054314386
000290 bc e3 08 3d 24 49 ec 3b bf 7a 1a bc c8 d0 24 3e
       0.03342031 0.0072108675 -0.009428679 0.16095269
0002a0 68 7c 38 3d a1 1f 03 bd 46 27 dc bc 53 d2 e7 bc
       0.045040518 -0.032012586 -0.026874196 -0.028298533
0002b0 45 ff b6 3d d6 41 dc 3b dd 9d b9 bc d0 d4 1e bc
       0.089354075 0.0067217154 -0.022658283 -0.009694293
0002c0 a5 d9 3c bd 78 6d aa 3d fb 92 c0 3d d7 1a e1 bd
       -0.046106 0.08321661 0.09403034 -0.109914474
0002d0 61 73 86 3d ef 8d d8 3d 6e d1 0a 3d 0f c7 95 bc
       0.065649755 0.10573947 0.033891134 -0.018283395
0002e0 e7 43 af 3d 04 2f 99 3c 13 1a 20 3d 1f 85 e0 3c
       0.08557873 0.018699177 0.039087366 0.027407227
0002f0 ac 2f 73 ba 9b 7b a6 3b cf 2b ca ba d7 01 6f bc
       -0.0009276818 0.005080653 -0.0015424433 -0.014587841
000300 74 33 37 3e 3f 6a 84 3d 17 78 e4 bc cf 1d 31 3c
       0.17890722 0.06465577 -0.027889295 0.01081033
000310 04 70 89 3d 52 81 8e 3d cb b9 d7 3d 82 7b b1 3c
       0.067108184 0.0695826 0.10533484 0.021665338
000320 37 45 05 be 04 1a 5e bc 90 f1 3a 3e ee 88 91 3d
       -0.13014685 -0.013556007 0.18256211 0.071061954
000330 2c 1f bb 3c f7 b8 23 bd 97 b5 bc bc 11 c6 a3 bd
       0.022842012 -0.039971318 -0.023035808 -0.079967625
000340 ee eb c1 bc 26 41 8f 3d 4a bc cf 3d 2e b8 b7 3d
       -0.02367207 0.06994848 0.10143335 0.08970676
000350 c6 ed 8d bd 63 59 84 bd 56 f2 46 3d 7a 20 3a 3e
       -0.06930117 -0.06462362 0.048570953 0.18176451
000360 af 1a 75 3d 01 6b a0 3b 33 60 b0 3d c5 24 05 bc
       0.0598399 0.0048955684 0.086120985 -0.008126442
000370 fc 5b d7 bd 4c 01 90 3d 90 e4 e9 3c 4b df 42 3c
       -0.105155915 0.07031497 0.02855137 0.0118940575
000380 85 66 d2 bd 8c fd d8 3d b2 6b f1 3d 77 58 50 3d
       -0.1027346 0.10595235 0.117881194 0.050865617
000390 a4 4b b0 bd cd 20 c3 bd b7 e9 4b bd 22 f5 58 bc
       -0.08608177 -0.09527741 -0.049783435 -0.013242038
0003a0 b2 46 4a bd 39 82 3f bc c5 6c 9e 3d 36 57 77 3d
       -0.049383827 -0.011688762 0.0773559 0.060385905
0003b0 b8 15 75 bd 47 d3 3d be c7 6c d8 bd 33 9b e3 bd
       -0.059835166 -0.18537627 -0.10567623 -0.11113586
0003c0 5a 68 f4 3c 39 8b bc bd c3 2e 3e bc b1 4e 2c 3d
       0.029834915 -0.09206242 -0.011607829 0.042067233
0003d0 d9 d7 06 bd 32 f7 00 bd db 79 32 bc 2e c8 d8 3d
       -0.032920692 -0.031485744 -0.01089331 0.10585056
0003e0 45 7a 5f 3d 4a 38 64 3c 28 14 0a bd c4 d0 3f bc
       0.054559965 0.013929436 -0.03371063 -0.011707488
0003f0 49 2c 08 bd 58 79 75 bd 91 17 20 bd 7d de d4 ba
       -0.03324536 -0.059930176 -0.039084975 -0.0016240623

lstm.weight_hh_l0 f4 [256, 64]
000000 24 89 6f bd 08 8c a5 3d 6a 70 51 bc 8d 8c 48 bd
       -0.058480397 0.080833495 -0.012783149 -0.048962165
000010 37 77 66 bd 45 17 86 bd 58 c8 59 3d 85 2a 46 bc
       -0.056266036 -0.06547407 0.05316958 -0.012095098
000020 1e 74 8d bd 2d db 5d bd 07 47 da 3d 21 9f f3 3a
       -0.06906913 -0.0541641 0.10658079 0.0018586853
000030 23 c0 4f 3c 11 cc e4 3c 44 36 30 3b af 7c a1 3c
       0.012680086 0.027929338 0.0026887814 0.019712774
000040 3e cf 0a 3d 54 66 31 bd cd 2e 58 3c 68 42 a3 bd
       0.033889048 -0.04331048 0.013194752 -0.0797165
000050 b6 d1 81 3c 95 d6 b4 3d 81 98 33 3c df a9 c9 3d
       0.015847068 0.08829991 0.010961653 0.098468535
000060 a2 54 c0 bc 02 65 75 bd ad 7d 26 bd 96 b0 7c 3d
       -0.023477856 -0.05991078 -0.040647198 0.061691843
000070 d0 dc 87 bd 2b b0 0e 3d 4a 2c 09 bb 7e 46 09 3d
       -0.066339135 0.034835976 -0.002093094 0.033514492
000080 cf f2 78 3d 91 3a 82 3d 87 78 cd bc 64 bf 94 bd
       0.060778435 0.06358827 -0.025081886 -0.07263067
000090 c6 18 8c 3c ec 16 27 3d bf 36 42 bd bd d7 8b bc
       0.017101657 0.040793344 -0.04741549 -0.017070645
0000a0 5c 04 13 bd ac 01 2d bd 10 95 09 3d 85 36 80 bc
       -0.03589283 -0.042237923 0.033589423 -0.015650997
0000b0 e6 96 8a 3b 84 7d bb 3c c0 7f 87 3d a5 e9 61 bd
       0.0042294143 0.022886999 0.06616163 -0.05515446
0000c0 3b 67 42 bd e4 92 c6 3d 88 1c 38 3d a7 fd 11 bc
       -0.04746173 0.09695986 0.044949085 -0.008910573
0000d0 25 65 9f bd cd 54 e1 3c 24 e7 f4 3d 21 93 25 3d
       -0.07782964 0.027506256 0.11958149 0.040423516
0000e0 f1 0a 58 3d 15 35 8d bd 69 da 88 3d 98 ea 78 bd
       0.05274481 -0.0689489 0.066822834 -0.0607706
0000f0 24 9a 24 bd 46 ba 7e 3d 8a 5d 96 3b ce 23 57 3d
       -0.040186062 0.062189363 0.0045887874 0.05252438
000100 56 e1 6b bd 54 c5 8c bd 9f 0c 98 bd 01 d1 4a 3d
       -0.057587944 -0.06873575 -0.07424282 0.049515728
000110 b5 43 9b 3c 61 46 59 bd ee 09 13 3d f5 68 51 3d
       0.018953184 -0.053045634 0.03589814 0.051125485
000120 4c c5 8b bd 22 60 80 3d c7 b7 7f 3c 58 a7 1e bc
       -0.06824741 0.06268336 0.015607781 -0.009683453
000130 32 f0 08 3d 8d f2 c4 3c 3f 61 18 3d 1e 6b 58 3d
       0.033432193 0.024041438 0.037202116 0.05283653
000140 01 b2 fc 3c 4d 5c 36 3c 55 64 56 bd bd 43 57 3c
       0.030846598 0.011130405 -0.052341778 0.013138709
000150 9e 99 ae 3b fe 36 90 3c cc 90 a8 3b 1b fe 74 bc
       0.005328371 0.017604347 0.0051442143 -0.014953162
000160 07 96 95 bd 7a fa fe bc 43 63 78 3d b3 ed 1a 3d
       -0.07304006 -0.031125296 0.06064154 0.037824344
000170 e5 29 f2 3c fa ef f8 bc e8 ed 53 3b b2 65 a2 bc
       0.029560992 -0.030387867 0.0032337848 -0.019823883
000180 c5 b9 6a 3d b9 c9 dd bc d7 73 b2 3c 6f f5 61 3d
       0.05730607 -0.027073728 0.021783752 0.055165704
000190 62 46 a0 bc d3 a3 1f bc 9f 3d c4 3c 9e 84 53 bd
       -0.019564811 -0.009743649 0.023955164 -0.051640145
0001a0 0e b0 ff 3c 5c c5 b2 bb cf e3 a2 3d 49 1f 16 bd
       0.03121188 -0.005455656 0.07953607 -0.03665093
0001b0 38 af c4 3b d4 31 83 bd 43 a9 e8 bc fc d4 54 3c
       0.006002333 -0.06405988 -0.028401023 0.012990233
0001c0 c2 02 38 3d 0a 16 e9 3c 1c 1b 3a bd 3c 46 5a ba
       0.044924505 0.028452892 -0.04543601 -0.0008326506
0001d0 c3 7b 7a bd ab 04 4c 3b 21 cb 89 3b 1d 64 06 bd
       -0.061153185 0.0031130712 0.004205123 -0.03281032
0001e0 72 b8 c5 3c e4 f2 8e bd 99 2a 37 3c 31 50 9c 3c
       0.024135802 -0.069799215 0.01117959 0.019081207
0001f0 89 b6 47 bd a5 c2 a1 bc d2 9b 5b 3d a2 0a 24 bd
       -0.048758063 -0.019746134 0.0536154 -0.040049203
000200 e6 1c 7f bd 5a 0a 86 bd 98 70 00 bd b0 1a 97 bc
       -0.06228342 -0.06544943 -0.031357378 -0.018445343
000210 fd 37 0c 3d 9d 48 39 bc d1 c0 d0 3c 11 31 23 bd
       0.034233082 -0.011308816 0.025482567 -0.039841715
000220 40 56 85 3d ff c9 ba 3d 58 ee 64 bd e6 f2 1a bd
       0.065105915 0.09120559 -0.055891365 -0.037829302
000230 4e ef a3 bc f9 5c 14 3d 62 76 8f bc 76 7c 2a bd
       -0.02001157 0.036221478 -0.017512504 -0.0416226
000240 05 a8 b2 3d cc 70 8d bd e5 7f 87 3d 41 bd 11 bb
       0.087234534 -0.0690628 0.06616191 -0.0022238048
000250 36 65 99 3c 4a 44 f0 bc d1 cf 90 3d 98 ed c7 3b
       0.018725019 -0.029329438 0.07070888 0.0061013214
000260 a8 f6 49 bc a7 da 48 3d 96 65 8b bd 8b 08 bf bd
       -0.012326874 0.049036648 -0.06806485 -0.09327801
000270 1b cd a8 3d 20 27 5c bd 95 73 8d bd 84 d5 bb 3b
       0.08242246 -0.05374825 -0.06906811 0.00573224
000280 39 71 82 bc 62 ef 55 3b c3 46 3e bc b6 31 32 3d
       -0.01592313 0.0032643904 -0.011613551 0.04350444
000290 9d 8f 24 bd f1 38 69 3b a9 e0 ec ba 0b 4c 86 3c
       -0.040176023 0.0035586918 -0.0018072325 0.016393682
0002a0 8a 0b 34 3c b4 bd 83 3c 1f 4b ed bc 86 a0 9f bc
       0.010989079 0.016081668 -0.028966485 -0.019485723
0002b0 c4 38 41 bd 66 ba 8d bd 5c bd 31 bd 8c 70 c2 3d
       -0.047173277 -0.06920318 -0.043393478 0.09494123
0002c0 ab f6 d4 bc 83 ba 19 3d 83 53 98 3d a3 16 09 bb
       -0.025996527 0.037531387 0.074378036 -0.0020918034
0002d0 3f f7 53 bd af 30 80 bd 6b be e6 3c 15 1c 13 3d
       -0.051749464 -0.06259286 0.02816697 0.035915453
0002e0 75 9c 60 bd 3b 2f 1e b9 8a c2 80 3d 3b a6 a6 3d
       -0.05483671 -0.00015085649 0.062871054 0.08137175
0002f0 f8 27 86 bd a6 f5 7a 3c 9f c4 3f 3d 40 c7 1f 3d
       -0.06550592 0.015317356 0.04681837 0.03900838
000300 69 5b 8e 3c 76 d9 2c bd d9 ab 87 bd d0 28 08 bd
       0.017377572 -0.042199574 -0.06624574 -0.033242047
000310 58 6e d2 bc 73 b4 82 3c db e8 9a bc c6 b6 53 3c
       -0.025687382 0.015955186 -0.018909862 0.012921995
000320 14 ba 2a 3d 23 34 23 bd c6 8e 46 bd 3a b7 24 bd
       0.041681364 -0.039844643 -0.048476003 -0.0402138
000330 e1 74 96 3a 4c 42 e3 3c 8a 66 ae 3c 7d 3c 92 bc
       0.0011478924 0.027741574 0.021289129 -0.017851109
000340 2e 42 13 bc d9 e6 31 bd 05 e5 d6 3c 0e d3 c0 bc
       -0.008987946 -0.043433044 0.026232252 -0.023538139
000350 82 25 14 3c 88 99 21 bd 00 fd 96 bc df 75 10 bc
       0.009042146 -0.03945306 -0.018431187 -0.008817165
000360 76 13 15 bc 90 b5 e2 bc df 79 02 3d a8 60 d4 bc
       -0.009098878 -0.027674466 0.031854507 -0.025924996
000370 fd 54 12 bd 34 6b 51 bd 6f 47 ec bb c7 9a 43 bd
       -0.035725582 -0.051127627 -0.007210664 -0.04775503
000380 a5 b7 98 3d ba 48 3b 3c a0 95 17 bc 52 c2 16 bb
       0.074569024 0.011430914 -0.009251982 -0.0023004008
000390 a2 53 05 3d 2a 6d 26 bc 6c 2d 73 bc af 25 2a bd
       0.03255046 -0.010157863 -0.014842372 -0.041539844
0003a0 f6 5c f5 3c c5 c1 8d bc 3a 06 8b bd 54 33 46 bd
       0.029951554 -0.01730431 -0.06788297 -0.048388794
0003b0 82 0b cb 3c f5 97 9b 3c 9d ae 6d 3d 8a 1c 8d 3d
       0.02478576 0.018993357 0.058027852 0.06890209
0003c0 f3 04 2d bd 1e 35 a7 3c 4c 88 8c bc df 21 60 bd
       -0.042241048 0.02041107 -0.017154835 -0.054719802
0003d0 1e 96 2d bc 6c 1b a3 bd 2d 61 63 3d 02 db 47 3d
       -0.010594873 -0.07964215 0.055512596 0.048792847
0003e0 ab 7f df bb d5 e1 88 bd 93 57 d2 3b 41 c6 db bc
       -0.006820639 -0.06683699 0.006419131 -0.026827933
0003f0 b7 df 3f bd ce 02 09 bc 19 82 6b 3c 41 ef a7 3d
       -0.04684421 -0.008362485 0.014374279 0.08199931

lstm.bias_ih_l0 f4 [256]
000000 e6 cc 7e 3d a0 1e 90 3c 5e 87 c0 3c 8a 68 ad 3d
       0.062207125 0.017592728 0.023502048 0.08467205
000010 f1 b8 a1 3d 22 e6 e7 3d ba d0 27 bd b3 b1 c4 bd
       0.07896603 0.11323191 -0.04097054 -0.09604206
000020 94 ed fa 3d ae 3b d7 3d 38 8b de 3d 34 6a e5 3d
       0.12252346 0.1050943 0.108663976 0.11201897
000030 b0 5a e5 3c 24 31 a3 3d 90 0d 91 bd 88 a5 e3 3d
       0.027997345 0.07968357 -0.07082665 0.11115557
000040 55 15 54 3e c8 af 0b 3c 54 63 68 bd da 61 25 3d
       0.20711263 0.008525796 -0.05673535 0.04037652
000050 1c b1 1b 3e 90 05 2f bd 3d 02 bb 3d eb cf bb bc
       0.1520428 -0.042729914 0.09131286 -0.022926291
000060 21 11 d9 3c ce 52 fd 3d 12 47 69 3d dd 4e 46 3d
       0.026497426 0.12369309 0.056952544 0.048415054
000070 5f 80 ab bd ab 6d 00 3e 20 95 87 bd 0e 33 a8 bd
       -0.08374094 0.12541835 -0.0662024 -0.08212863
000080 da 58 eb 3c 81 5a ce 3d fd 00 80 bb 46 66 bb 3c
       0.028728891 0.10075856 -0.003906368 0.022875916
000090 97 93 70 bd 9e a3 d4 3d 5b 7a e3 3c 97 3c de 3d
       -0.058734503 0.1038277 0.027768305 0.108514
0000a0 41 b2 1b 3e 64 69 48 bd 76 b5 03 3d b6 51 b9 3d
       0.15204717 -0.048928633 0.032155477 0.09048788
0000b0 4c c1 a3 bb 37 06 2a ba 40 17 b5 bd e8 ac b4 3d
       -0.004997408 -0.00064859114 -0.08842325 0.08822042
0000c0 b4 1b 8f bb 15 fe 53 bb ee 0e d3 bd 94 48 03 3e
       -0.004367316 -0.003234749 -0.10305582 0.12820655
0000d0 32 54 f3 bc 4a 20 e5 3d a6 44 07 3e 17 7b a0 bd
       -0.029703233 0.11187799 0.13209781 -0.078359775
0000e0 14 86 c7 3d c8 b8 00 3e 35 b0 d3 ba 34 ab fa 3d
       0.0974237 0.12570488 -0.0016150536 0.12239686
0000f0 81 cf 8c bd e0 8f 0a 3e cb 8c da 3d 73 60 53 bd
       -0.06875516 0.13531446 0.106713854 -0.051605653
000100 b4 b4 a2 bb c8 54 40 38 48 9b c0 3c b4 7c 68 bc
       -0.004965389 4.5855326e-05 0.023511544 -0.014189888
000110 d6 66 b6 bd b3 65 36 bd 9a c2 1c be 73 e0 86 3d
       -0.08906333 -0.04453058 -0.1530861 0.06585779
000120 33 e0 43 bd 74 06 27 bd ab 38 a3 bd 66 db 2a be
       -0.047821235 -0.04077764 -0.07969793 -0.16685256
000130 f5 01 ae bd 97 67 60 3c 93 da 74 3d 43 49 a4 bd
       -0.08496467 0.013696573 0.05977876 -0.08021786
000140 1c 74 0f bd c6 64 b5 bd 4e 38 a7 bd 5d ae 25 3d
       -0.03502284 -0.08857112 -0.08165036 0.04044949
000150 c2 37 88 bd 34 48 0a 3d 6b 40 21 be 99 cf 97 bc
       -0.0665126 0.033760265 -0.1574723 -0.018531607
000160 6f b3 a4 bd 24 62 06 3d e5 57 15 3c eb 65 53 bd
       -0.08042037 0.032808438 0.009115194 -0.05161087
000170 f9 cb 4e 3b b5 69 01 be 57 90 84 bd 63 21 89 3c
       0.0031554683 -0.1263798 -0.06472843 0.016739553
000180 b2 02 f7 bd 82 a9 0f 3d 60 0f fd 3b bb af 13 be
       -0.12061061 0.035073765 0.00772278 -0.14422505
000190 64 58 cf bd 8f 89 2f be df 21 d2 bd ac c1 e1 bd
       -0.10124281 -0.17142318 -0.10260367 -0.11023268
0001a0 fa 6c 14 bc 37 26 aa 3b d7 21 06 3d b6 49 ad bc
       -0.009059185 0.005192544 0.032747116 -0.021153312
0001b0 87 91 08 be a0 39 41 be 5e 52 8a 3d cf 84 1e bd
       -0.13336764 -0.18869638 0.067539915 -0.038700875
0001c0 cd 2a a9 3c 7a d5 14 be 82 5a d0 bd 5d e4 a8 bd
       0.020650292 -0.1453456 -0.10173513 -0.08246682
0001d0 50 34 86 3d e4 37 24 be 30 3a 0c bd d4 06 0e be
       0.065529466 -0.16036946 -0.03423518 -0.13869792
0001e0 9b 5a 1f bd d3 e8 45 bd 47 db c2 bd b2 ea 05 3c
       -0.038904767 -0.04831774 -0.0951448 0.0081736315
0001f0 de 83 b6 bd 2d c3 42 bd 4d 85 02 be 46 b0 a3 bd
       -0.089118704 -0.047549415 -0.12746163 -0.07992606
000200 e5 ab 64 3d 0e b4 ed 3c 78 b4 b8 3d 53 de 14 bd
       0.055827994 0.02901652 0.09018797 -0.036344837
000210 75 78 2f bd 1d 18 02 bd 2a 98 c5 bc aa 25 00 3e
       -0.042839486 -0.031761277 -0.024120409 0.12514368
000220 e9 b1 91 3c 2f 7a be 3d 0a 68 a4 3d 1e 4a 36 bd
       0.01778503 0.093006484 0.080276564 -0.044504277
000230 0d ef ad 3c d7 b9 fc bc a3 70 43 3d 3c 18 86 3c
       0.021232152 -0.030850334 0.04771484 0.016368978
000240 d9 67 16 3c 64 87 80 3d f6 4c de bc f4 0d f2 3c
       0.009180033 0.06275824 -0.027136307 0.029547669
000250 bc 36 e2 3d dd 44 00 3d 8d b3 ba 3c 6b 6b 8a bd
       0.11045596 0.031315673 0.022790695 -0.067587696
000260 f9 c7 24 3d 8e 79 f0 bd 18 b8 a7 bd 3e b8 07 3d
       0.04022977 -0.11741935 -0.0818941 0.03313469
000270 a6 22 e8 bc 2c 3a b3 3d 51 e0 00 be 58 6c bb bd
       -0.028336834 0.0875133 -0.1258557 -0.09151524
000280 e5 55 20 3a f5 32 82 3d 2a 9c 9c bd c8 b7 26 bd
       0.0006116315 0.063573755 -0.076469734 -0.04070261
000290 c7 86 a3 bc 60 03 ca bd 20 8f 1d 3e 94 94 3d bb
       -0.019961728 -0.09863925 0.15386629 -0.002892767
0002a0 eb 27 df bd f3 00 3d bc 3d 3e 1a bd 41 1d c4 bb
       -0.108962856 -0.011535871 -0.03765701 -0.0059849326
0002b0 d2 e6 f8 bd 65 07 91 3d 7c 13 ca bb 0a df a7 3c
       -0.121534005 0.070814885 -0.0061668735 0.020492096
0002c0 02 fb 1e bd f2 7b fa bd 41 2d 20 bd 11 2c 63 bd
       -0.0388136 -0.12230672 -0.039105657 -0.055461947
0002d0 57 86 d7 bd c4 83 63 bc 0f 77 95 bd a1 b1 82 bc
       -0.1052367 -0.013886396 -0.07298099 -0.01595384
0002e0 53 5b a4 3d d7 58 9a bd 14 09 8b bd 6b 15 b4 bc
       0.08025231 -0.07536476 -0.06788841 -0.02198287
0002f0 e9 ef f2 bc df 1d 5a bd 8d 42 cf bd 8d e0 e6 bd
       -0.029655414 -0.053251144 -0.101201154 -0.112732984
000300 9e 27 5b 3d 27 d4 45 3c c3 aa dd bb 45 db b8 3d
       0.05350458 0.012074507 -0.006764741 0.09026197
000310 42 86 96 3c 3c 39 6f bd c2 e2 8e bd 4f 0e 3a 3c
       0.018374566 -0.058404192 -0.06976844 0.0113559505
000320 c7 bb f0 bc ea ea d6 3d 52 a4 c5 3c f2 25 31 3e
       -0.029386414 0.10494025 0.024126206 0.17299631
000330 5f 88 11 3d c1 d2 f0 3a 3c 43 07 be de 1e 68 3e
       0.035530444 0.0018373356 -0.13209242 0.22668025
000340 5d 7b 27 3c e4 51 22 3e 2f 9b 6d 3a 16 8c 10 bd
       0.010222283 0.15851551 0.00090639567 -0.035289846
000350 d8 d7 ad 3d 5c b9 00 3e 8b 91 bc 3d d2 0f 03 be
       0.084884346 0.12570709 0.092074476 -0.12799004
000360 e3 35 ba bd 6d 10 e3 3d c6 d9 80 3d 81 34 15 bb
       -0.09092309 0.11087117 0.06291537 -0.002276689
000370 41 ae 80 3d c8 18 44 3c c2 a1 00 be a7 a1 24 3d
       0.06283236 0.011968799 -0.12561706 0.040193226
000380 1e fe db bd 14 9b 0b 3c 66 ed fc bc af 6c 2d 3d
       -0.107418284 0.00852086 -0.03087492 0.042339977
000390 1c b4 04 3d ea 61 33 bd 6d 6b bf 3d 0e 56 15 bd
       0.03239833 -0.04379455 0.09346662 -0.03645902
0003a0 27 72 e6 3d 0a c1 89 3c 6f 6a eb bb 01 56 f5 bb
       0.112522416 0.016815681 -0.0071843187 -0.007487059
0003b0 c0 f9 0a bd a4 f0 0c 3d d1 85 96 3d cb 70 d9 3c
       -0.033929586 0.03440918 0.07349742 0.026543042
0003c0 26 76 e5 3d b3 7d 6e 3b 70 5c c6 bc 38 c4 24 3e
       0.11204176 0.003639084 -0.024214 0.16090477
0003d0 de 9d 0a 3d a0 a6 12 bd e5 da 0b bc e0 8d e4 3d
       0.03384196 -0.035803437 -0.008536075 0.11159873
0003e0 9c bb 11 3e e0 73 e0 3d b2 3b 95 bd 60 2f 8a 3d
       0.14231724 0.109596014 -0.072867766 0.06747317
0003f0 8f 5e 93 bd 3e 8f b7 3d a3 d5 00 3d 4f b4 e0 3c
       -0.0719577 0.08962868 0.03145374 0.027429728

lstm.bias_hh_l0 f4 [256]
000000 b2 e0 e3 bc 5f c8 3d 3c 9a fc d6 bd 5e aa b5 bd
       -0.027817104 0.011583417 -0.10497399 -0.088703856
000010 f8 7c 50 3d 9b 44 f6 bc 64 33 81 3d b3 5e b8 bc
       0.05090043 -0.03006201 0.0630863 -0.022506094
000020 b2 a4 d4 3d 40 2f ae bc 43 6f 05 3e d1 68 87 3d
       0.10382976 -0.021262765 0.13030724 0.06611789
000030 e1 d2 aa bb c0 92 7d 3d 5f 13 b0 bd 50 02 12 3e
       -0.005213127 0.06190753 -0.08597445 0.14258695
000040 05 af 80 3d 24 d9 b9 3d cf 19 89 3c 06 ca a4 3c
       0.06283382 0.090746194 0.01673594 0.020115864
000050 9d 61 c4 3c 13 a1 c1 3c 06 15 e8 3d ba 03 1d 3d
       0.023972327 0.023636376 0.11332135 0.038333632
000060 63 34 0a bd e7 7a 89 3d e0 fa e1 3c 97 3e fe 3d
       -0.033741366 0.06712895 0.027585447 0.12414282
000070 d9 4b ca 3d 17 60 15 bd 48 8b 65 bd d3 bb 9e 3d
       0.09877748 -0.03646859 -0.056041032 0.077506684
000080 8d 91 1f 3b 6a 46 ea bc c6 be 9e bd 74 3f 00 3d
       0.002434823 -0.02859803 -0.07751231 0.031310514
000090 55 6e 80 bd 93 62 ac bc 96 c0 c7 3d 30 07 1c 3d
       -0.06271044 -0.021043098 0.0975353 0.038092792
0000a0 c3 0c eb 3d 27 2c bd bd 89 54 50 3d 85 1d ff 3c
       0.114770435 -0.09236937 0.05086187 0.031142006
0000b0 62 13 cb bd 11 88 56 3c 39 18 c9 3c c5 3d 29 ba
       -0.09915806 0.013093964 0.024547683 -0.0006456043
0000c0 bf ba c3 3d ca 62 03 3e ec 4d c9 bd bd 96 28 3d
       0.09557103 0.12830654 -0.098293155 0.04115938
0000d0 05 f9 84 3d 15 e8 65 3d 20 17 47 3c 11 a4 85 3d
       0.06492809 0.056129534 0.0121515095 0.06525434
0000e0 63 6b 32 3d b2 13 82 3d c4 dd 3e bd 58 96 b5 3d
       0.043559443 0.06351413 -0.04659821 0.088665664
0000f0 d8 19 fb bc 13 33 a2 bb e7 25 4a 3c bf 72 ac 3d
       -0.030651972 -0.004949936 0.012338138 0.084203236
000100 05 ec 0f be ce 77 6e bb 20 b0 ad 3c c3 91 f3 bd
       -0.14054878 -0.0036387327 0.021202147 -0.11893036
000110 ca ea 13 3d 01 9b 91 3d de 18 11 be 00 85 28 bd
       0.036112584 0.07109643 -0.14169642 -0.041142464
000120 8b 3c 27 bd f4 0e a2 bd 5e b2 82 3d 61 81 d7 bd
       -0.040829223 -0.07913008 0.06381677 -0.10522724
000130 57 f5 dd bd a8 29 51 bc ea 60 0e 3d d8 3a b9 3c
       -0.108378105 -0.012766279 0.034760393 0.022611067
000140 f0 0b 3d be 74 2b c6 bd e4 e0 c8 bd a2 00 ef bd
       -0.18461585 -0.09676257 -0.098085195 -0.116700426
000150 7d 76 e8 bd 53 54 0f be 68 39 e6 bd 8d 96 be bd
       -0.11350725 -0.13997011 -0.11241418 -0.09306059
000160 8d c0 f1 bd bd 03 30 bc bb da 6e 3c 42 fd fb bd
       -0.11804304 -0.010743079 0.014578517 -0.123041645
000170 a9 72 25 3d 2b 2f 6a bc 8d b1 fd bd e2 ce 53 3c
       0.04039255 -0.014293472 -0.12387381 0.012927743
000180 31 92 31 bd 77 cc cd 3d 1d d4 25 bd 0e af c1 bd
       -0.04335231 0.10048764 -0.04048549 -0.09457217
000190 17 17 70 3d 8b a9 44 be d4 2c 51 3d ae 09 24 be
       0.05861577 -0.192053 0.051068142 -0.16019318
0001a0 62 94 95 bd 5c bd 4b bd 99 34 14 be 7f b6 ba bd
       -0.073036924 -0.049741134 -0.1447319 -0.091168396
0001b0 1e 2c db bd 55 1a c7 bd ca 2e ec bb fa 00 0c be
       -0.10701774 -0.09721819 -0.007207726 -0.13672248
0001c0 d7 7e d7 3c 9f 76 dc bc 3a 0e ba bc c1 f8 5e bd
       0.0263056 -0.026912032 -0.022711862 -0.05443645
0001d0 eb f0 d4 bd 17 d4 91 bd f5 98 97 bd 26 47 7a 3d
       -0.10397514 -0.07120531 -0.07402221 0.06110301
0001e0 df 07 12 be 08 81 27 be aa 3f 3f bd d2 39 19 be
       -0.14260815 -0.16357815 -0.046691574 -0.14963463
0001f0 a7 e8 d0 bd d9 c1 f2 bd a9 4b c1 bd e4 14 76 bc
       -0.10200625 -0.1185338 -0.09438259 -0.015019629
000200 e3 16 8e bd 8c 15 5b 3c 44 86 7a bd 3e 24 9a 3c
       -0.06937959 0.013371836 -0.061163202 0.01881611
000210 bb 0d 78 3d 3b 2e 83 3d ea c4 2f 3d f0 16 1b bd
       0.06055997 0.06405302 0.0429124 -0.03786367
000220 dd c5 e5 bb fd 47 60 bd 5a 26 90 bc ee fa 03 3d
       -0.0070121125 -0.054756153 -0.017596412 0.032221727
000230 78 0f ab bd 70 9a ca 3d b2 ba a5 3d fd fe 0a 3d
       -0.0835256 0.09892738 0.0809225 0.033934582
000240 70 6c 53 bd d6 8f 94 bc 3c 70 90 3d 22 f5 6c bd
       -0.051617086 -0.018134993 0.07052657 -0.057850964
000250 11 bf c0 bd f0 df 35 bd 8f 74 76 3d 2f 41 97 3d
       -0.09411443 -0.044403017 0.060169753 0.0738548
000260 70 35 55 3d 2a d8 86 3d 11 54 93 3d 7d c7 bb 3c
       0.052052915 0.06584199 0.07193769 0.022922272
000270 d2 97 11 3d 03 4d e5 bd 44 11 c4 3d 70 69 a6 bd
       0.035545178 -0.111963294 0.09573606 -0.08125579
000280 08 ca 36 bd 5e b7 6e 3b a2 31 87 bd 3b 39 99 3d
       -0.044626266 0.0036425213 -0.066012636 0.07481619
000290 ab 39 ab 3c 0f c0 7e 3b 18 81 16 bd 28 43 4b bb
       0.020901522 0.00388718 -0.036744207 -0.003101537
0002a0 cb 62 89 3d 0b 8d 5a 3d c1 8e cb 3c a1 c9 2c 3a
       0.067082964 0.053357165 0.024848344 0.00065913243
0002b0 21 28 c4 3c 10 64 e6 bd 0f 78 01 3d 94 45 97 bd
       0.023944916 -0.11249554 0.031608637 -0.07386318
0002c0 49 7c 80 bb 60 d8 a8 3d 57 3e 11 3d 04 c6 fd 3d
       -0.003921066 0.08244395 0.035459843 0.12391284
0002d0 00 cd 01 3c 69 02 bb 3c af 50 dd bd 91 3f 18 3d
       0.007922411 0.022828298 -0.10806405 0.037169997
0002e0 50 f2 d2 bd 5a f8 b8 3d 49 24 7b 3d b0 17 04 bd
       -0.10300124 0.09031744 0.0613139 -0.032249153
0002f0 6a 48 02 3e 7b df c3 3d a9 ae 76 3c 21 79 8d ba
       0.12722936 0.0956411 0.015056291 -0.0010793546
000300 44 11 2b bd 4c 41 e3 bd 7b e9 c5 bd e6 2b c1 bb
       -0.041764513 -0.11096439 -0.096636735 -0.0058951257
000310 ce b3 75 bd ab 2c 2e bd b1 09 7b 3d ad 50 97 bd
       -0.05998593 -0.042523067 0.06128854 -0.073884346
000320 0c 7c 6c bd ce fe 95 bd 3f 19 a8 3d 71 d8 bb 3d
       -0.057735488 -0.07323991 0.0820794 0.09172142
000330 81 d4 3a bd 7c eb 17 bd a5 07 e4 3c 04 3a 66 3e
       -0.045612816 -0.03708981 0.027835676 0.22483069
000340 33 0a 07 3e 36 fc 0b 3e 9c d1 1f 3d 71 46 c3 3d
       0.13187484 0.1367043 0.03901826 0.0953492
000350 b0 82 26 3e 64 14 43 3c 2b 0f 82 3d c1 bc 77 bd
       0.16260791 0.011906717 0.06350549 -0.060482744
000360 e1 9f 07 3d 81 ac 12 bd d4 92 63 bd 3a 42 86 3b
       0.033111457 -0.035809044 -0.055559948 0.0040972503
000370 8e 5e e6 bc 1b 1c 08 3e 57 fa a4 bd 7b 09 d9 3b
       -0.028121259 0.13291971 -0.08055561 0.0066234446
000380 66 ae aa bc 90 b9 00 3d 7c 86 6b bd 63 8c eb 3c
       -0.020835113 0.031426966 -0.0575013 0.028753465
000390 80 2b 2f bd aa ed 89 3d 07 d5 d7 bd 81 22 5f bd
       -0.042766094 0.06734784 -0.105386786 -0.054476265
0003a0 14 68 13 3e 82 b5 76 3d 75 02 ad bc e3 3a 43 bd
       0.14395171 0.060231693 -0.021119336 -0.04766358
0003b0 73 77 dc 3d a2 e9 4a 3d fa bd c4 bd e6 cd 21 3e
       0.10764971 0.049539216 -0.09606548 0.158012
0003c0 bd e0 29 3e e3 d7 e0 3d f2 e6 f0 3d 35 5d 99 ba
       0.16589637 0.10978677 0.11762799 -0.0011700751
0003d0 f7 c7 90 bb 90 9e 30 3e 4e a3 25 bd 1a 9f 95 bd
       -0.004418369 0.17247987 -0.040438943 -0.07305737
0003e0 76 30 24 3e 61 fa 16 3d 16 d2 81 3d 0e 19 e8 3b
       0.16034111 0.036859874 0.06338899 0.007083065
0003f0 81 63 0c 3e 28 44 00 3e 88 51 22 bd 94 20 8c bd
       0.13709833 0.12526 -0.039628536 -0.06842151

lstm.weight_ih_l1 f4 [256, 64]
000000 dc 2e 5b 3d 90 3a e6 3c ae b4 0c bc 2b eb a6 3d
       0.053511485 0.028104097 -0.008587999 0.081503235
000010 9b 6a 3e 3b 3f d8 0f bd ce 4f 1f 3b 6b bc 81 3c
       0.002905524 -0.035118338 0.0024309042 0.015836915
000020 f7 2d d1 3b 58 c1 4d 3d 7b 8e 43 3c 2a bf a6 3c
       0.0063836533 0.050233215 0.011935825 0.020354826
000030 38 c7 34 3c 90 6a 9d bb 25 1f 18 bc d2 56 02 bb
       0.011033826 -0.004803963 -0.009284769 -0.0019888175
000040 f7 b5 26 bc 2a 2c d9 bb 1d 29 75 3c 18 af 6c 3c
       -0.01017522 -0.006627579 0.014963415 0.0144460425
000050 a4 dc 07 bd f0 9e f1 3a 56 91 45 3d 73 21 67 3c
       -0.033169404 0.0018434208 0.048234306 0.014107096
000060 f9 18 2d bc 69 77 ac 3c 2c 16 f0 3c 7c b7 20 bb
       -0.010565036 0.021053033 0.029307447 -0.0024523428
000070 dd 6c 39 3c c0 88 91 3a 26 d3 c9 ba 68 be f2 bc
       0.011317459 0.0011103377 -0.001539801 -0.029631808
000080 48 6b 91 3b 32 dc 33 bc e3 92 6b 3c 6f d8 5b 3d
       0.0044378377 -0.010977792 0.014378282 0.053673204
000090 b1 e6 0f bc f9 d2 53 3d 9a 51 4d 3c 9f b9 02 bd
       -0.008783028 0.05171487 0.012531662 -0.031915303
0000a0 26 99 96 3a 37 62 5d 3d c4 89 97 bc 11 a8 de 3c
       0.0011489734 0.054048743 -0.018498309 0.02717975
0000b0 78 04 f6 bc 39 c6 84 bb 5e c7 4c 3c 7d 72 22 3c
       -0.030031428 -0.0040519503 0.012498705 0.009914991
0000c0 76 c6 9a 3c 7b bf 22 bc 0f a1 1a 3d 60 8f 81 b9
       0.018893462 -0.009933348 0.037751254 -0.0002471162
0000d0 7c f6 25 3c 70 c1 63 3d ee c8 3f bc f9 93 15 3c
       0.010129567 0.0556044 -0.01170562 0.009129518
0000e0 7a a7 97 3c 3e d3 a0 3c f0 1e f5 3c 6b c4 bb bd
       0.018512476 0.019631978 0.029921979 -0.09168323
0000f0 83 ac 8b bc fe 0b 09 bb 39 44 86 bc f9 8e 55 bc
       -0.017050033 -0.002091169 -0.016389953 -0.013034576
000100 85 02 75 bd 04 c0 82 bb d6 58 d1 3c 51 22 0a bd
       -0.059816856 -0.003990175 0.025555056 -0.033724133
000110 ac 28 96 bc 00 7e d5 bb 2c d6 0a bd 3b 45 31 3c
       -0.01832994 -0.0065152645 -0.033895656 0.0108197285
000120 f9 d0 87 bd ff 17 f5 3c bb 5a 5a 3d 85 c1 86 3c
       -0.06631655 0.029918669 0.053309184 0.0164497
000130 dd 3b 92 3c 94 e8 0a bd 88 db ad bc 92 da da bc
       0.01785081 -0.03391321 -0.021222845 -0.02671555
000140 f0 6d 60 3d c2 0e 5d bd 64 1d 30 bc c6 95 45 bd
       0.054792345 -0.053969152 -0.010749195 -0.04823854
000150 fa 0e 3e bc e8 19 c3 bc 77 1f 58 bd 15 90 1e bd
       -0.01160025 -0.023816064 -0.052764382 -0.038711626
000160 41 b1 4b bd d2 7e 05 3d 02 3a b7 3c 35 e4 9b bd
       -0.04972959 0.03259165 0.022366527 -0.076118864
000170 10 bd 83 3d 70 be f0 3b 41 d1 85 3c 0d 76 ca bb
       0.06432545 0.0073469207 0.016335132 -0.0061786235
000180 e6 c6 c9 bc 5f 18 86 bc 84 3e 33 bc 59 3a 12 bd
       -0.024630975 -0.016369043 -0.010940198 -0.035700176
000190 be cc a3 3c 2c ea 7f 3c 9c d2 a4 bc e1 99 74 3c
       0.01999509 0.015619796 -0.020119958 0.014929266
0001a0 26 fa 37 bc 73 5f 4a bd 09 b5 5b 3d 89 62 84 bd
       -0.011229074 -0.049407434 0.053639445 -0.064641066
0001b0 3d da 50 bd b4 03 19 3d 9b 81 4a 3d 4a b6 e6 bc
       -0.05098938 0.037357047 0.049440008 -0.028163094
0001c0 3b 89 4b 3d ca 76 02 bc 03 84 d3 bc af 40 61 bc
       0.04969142 -0.007962892 -0.025819784 -0.013748332
0001d0 d6 48 5b bc 98 a9 6b 3d 73 e9 bd bc 93 82 2b 3d
       -0.013384065 0.057534784 -0.023182606 0.041872572
0001e0 35 ee cb 3c fd 7b 05 bd a7 61 38 3a f2 9f cf 3b
       0.02489386 -0.032588948 0.00070335943 0.0063362056
0001f0 a7 6f 86 bc cb 1e 36 bd f5 52 56 3d ab 36 5c 3d
       -0.016410662 -0.04446296 0.052325208 0.053763073
000200 07 9c 76 3d bc 45 b4 3b e6 69 2c bd ce 06 97 bd
       0.060207393 0.005501477 -0.04209318 -0.07374345
000210 f5 34 e0 bc d7 90 35 3d 1b ac 4f 3c fd 28 e7 bc
       -0.027369002 0.044327583 0.0126753105 -0.028217787
000220 b2 7c ae bd f3 b9 9f bd e9 e0 4f bd 04 42 a3 bc
       -0.085198775 -0.07799139 -0.0507516 -0.01992894
000230 61 54 8f 3c d3 a4 bb bb fa ae 75 bd 57 17 97 bd
       0.01749629 -0.0057264357 -0.059981324 -0.073774986
000240 16 92 cc bc 15 05 8d bd 45 ed 87 3c c3 53 ea bc
       -0.024972003 -0.06885735 0.016592631 -0.028604394
000250 35 dd 13 bd ca 7a 8e 3c d5 1a ba bc 24 2c c3 bd
       -0.03609963 0.017392535 -0.022717873 -0.095299035
000260 8a f0 35 3d 97 32 e9 3c ce 59 d4 3b 4f 0d aa 3c
       0.04441885 0.028466506 0.006480432 0.0207583
000270 b6 87 b5 bc 75 1e 22 bd d7 c3 97 3d d3 8e 07 3e
       -0.022159439 -0.039579827 0.074104 0.13238077
000280 ca 6d 90 3d 7b bd 54 3d c6 95 78 3d ba 22 12 3c
       0.070521906 0.051938515 0.06068971 0.008919412
000290 a0 fe 49 bd a0 dd 93 3d e5 03 55 bd 5b 84 81 bd
       -0.049315095 0.07220006 -0.052005667 -0.06324073
0002a0 02 64 45 3d 0b fb 91 bd fc b6 70 bd 6e ec 3d 3d
       0.048191078 -0.07127961 -0.058768257 0.046368055
0002b0 44 48 8d 3d 64 ef 82 3d 28 86 3d bd 2c 00 55 3d
       0.06898549 0.063933164 -0.04627052 0.052002117
0002c0 12 8d 3f 3c a6 b6 ae bb 80 2c e9 bc 1b fb 2c 3d
       0.011691349 -0.005331832 -0.028463602 0.04223166
0002d0 32 e8 97 bc 3f ec 14 bd be c1 86 3d 5e ab f9 bb
       -0.018543337 -0.036358114 0.06579922 -0.0076193055
0002e0 a4 d2 77 3d b3 4a 3b bd e2 26 73 3d 0e 13 5e bd
       0.060503617 -0.045725536 0.059363253 -0.05421739
0002f0 e1 57 53 bd 7f c9 9c bd 2f 7e 3d bd 93 ee 98 3d
       -0.05159748 -0.0765562 -0.046262916 0.074673794
000300 c5 ca 35 3d f7 c5 db ba 5c 1c bb 3d f6 4d de 3c
       0.04438283 -0.0016767372 0.091362685 0.027136784
000310 69 64 92 3d 7f ac b3 3d 75 f2 d2 bd 3d e0 0b 3d
       0.07148058 0.087731354 -0.10300151 0.034149397
000320 04 32 82 3d 3e 51 23 bc a0 14 14 bd 55 51 10 3e
       0.06357196 -0.0099681 -0.036152482 0.14093526
000330 33 f6 f9 3c 90 ae cc bd 0e 74 b8 bc e1 4e 1a bd
       0.030512905 -0.09994233 -0.022516277 -0.03767288
000340 50 80 ab 3d e3 b3 47 bc ec 6e 02 bc 4e 35 fd 3d
       0.08374083 -0.012188884 -0.007961016 0.12363683
000350 69 f7 62 bc 9d 01 35 bd 18 dd 99 bd 23 25 33 bd
       -0.0138529325 -0.04419099 -0.075128734 -0.04373659
000360 73 05 b0 3c 5a ea 46 bd e3 99 33 bd 47 b6 95 3d
       0.021486973 -0.04856334 -0.04384793 0.07310157
000370 c9 26 35 bd 4d 4b 46 3d 6a 70 3e 3d 5b e9 be 3c
       -0.04422644 0.048411656 0.046493925 0.023304632
000380 9b 78 91 bd 01 da ea bc a5 9c 8c bd fa 46 05 be
       -0.07103082 -0.028668405 -0.06865815 -0.13015357
000390 d2 5d 39 3d 8f 15 8d 3d 7f 11 b3 bc 15 d0 ee 3c
       0.04525549 0.068888776 -0.021858929 0.029151956
0003a0 88 3d 89 bd 73 7e 72 bd 5c f7 a0 bd 15 fe a0 bb
       -0.06701189 -0.059202623 -0.0785968 -0.0049131014
0003b0 f9 c9 ad 3c dd df 8e 3c 3c 15 26 b9 78 f2 0d bd
       0.021214472 0.01744073 -0.00015838904 -0.034655064
0003c0 ac 0d 1d bd ff 63 67 bc 0f 33 68 bd 7e a6 c1 bd
       -0.038343117 -0.014122962 -0.05668932 -0.09455584
0003d0 07 15 71 bd df e1 8d 3c 57 3b c9 3d c1 76 8e bd
       -0.058857944 0.017319618 0.09825771 -0.06956244
0003e0 c8 a4 0e 3d 94 d8 19 3d 8e 04 8a bc 9b 7e 3a bd
       0.034825116 0.03756006 -0.016847875 -0.045530897
0003f0 36 3e ff bd 15 d8 1a bc db e7 81 3d 2c bb 0b 3e
       -0.12463038 -0.009450932 0.06343051 0.13645619

lstm.weight_hh_l1 f4 [256, 64]
000000 8c 36 73 39 09 00 85 3a 72 28 fa 3c e3 01 2d 3d
       0.00023194606 0.0010147105 0.030536864 0.042238127
000010 ae f7 16 ba d4 7f a1 3b 7c db 47 3c 3c 24 82 bc
       -0.0005758953 0.0049285684 0.012198325 -0.015886419
000020 39 b8 f1 3a fe cf 62 bd 75 3a 69 3c ad 82 d9 bb
       0.0018441743 -0.055374138 0.014235129 -0.006637892
000030 54 28 6b 3c 63 9d 3f bc 1a bb 58 3c 68 98 b0 3b
       0.014352877 -0.011695239 0.013228202 0.005389262
000040 13 71 d4 3c 6f 64 88 ba 25 0c 9e 3b 5e 5a 71 3b
       0.025932824 -0.0010405908 0.004823225 0.0036827545
000050 60 c5 f9 3c 23 4b 19 3c 68 82 6f bc 55 2f 56 3c
       0.030489624 0.009356293 -0.014618494 0.013072808
000060 c9 cb 0a bd 6c df 6a 3d ab 05 47 bb 71 3e 84 3c
       -0.03388575 0.057341978 -0.0030368369 0.016143056
000070 da 51 64 bb 63 b5 d5 bb b7 d9 6d bb d4 ed 0f bc
       -0.0034838826 -0.006521867 -0.0036293098 -0.00878473
000080 64 1a 26 bb c8 f1 c4 ba d0 89 32 3d c3 c9 a7 bc
       -0.002534532 -0.001502567 0.04358846 -0.02048195
000090 e2 d3 30 3d c7 06 b3 3b 63 83 c6 bb 0a b5 26 bd
       0.043170817 0.0054634544 -0.006058143 -0.040699996
0000a0 61 b0 0e 3c 41 26 1d bc b9 15 b7 3b 35 91 b3 3a
       0.008709044 -0.00959164 0.0055873063 0.0013699891
0000b0 b9 4f b6 3b 2d 54 aa bc 80 84 cb 3b b8 54 87 bd
       0.005563703 -0.020792091 0.0062108636 -0.06607956
0000c0 c0 c1 bd bb e9 ed d1 bc 66 96 85 3c 7a bd b1 bc
       -0.005790919 -0.02562614 0.016307067 -0.021696795
0000d0 7f 85 14 3d 48 02 06 3b 8b d9 68 3c 6b 36 44 bb
       0.036260124 0.0020448137 0.014212023 -0.0029939662
0000e0 69 ff b1 3b 65 fd e0 bb 39 a8 26 bd 45 95 e0 3c
       0.0054320586 -0.0068661445 -0.040687773 0.027414927
0000f0 74 47 a3 bc e3 a3 94 3b 76 e7 99 bc fd 61 c8 3b
       -0.019931532 0.0045361384 -0.018787127 0.0061151967
000100 32 15 21 3d d8 71 27 bd b4 91 80 3d c7 29 bb 3c
       0.039326854 -0.040880054 0.06277791 0.02284707
000110 ff 52 f8 bb 11 c4 8a 3c 87 09 19 bb e4 1e f6 3c
       -0.0075782533 0.016939195 -0.0023351626 0.030044027
000120 4e a2 16 3d 08 9e c1 bd 8b 09 b5 3d 8b 53 0e 3d
       0.03677588 -0.0945397 0.08839711 0.03474764
000130 7b c0 3b 3b 99 55 c9 bc eb 6b 72 3c 7a 11 b5 3c
       0.0028648663 -0.024576949 0.014796237 0.02210306
000140 ae ac 31 bd 6f 31 83 3d e2 3c 1b bc c5 13 55 bc
       -0.04337757 0.06405913 -0.009474965 -0.013005202
000150 5a 51 1c bd 62 65 a4 bd b8 9a 74 bd b4 db 1e 3d
       -0.03816352 -0.0802715 -0.059717864 0.038783744
000160 e8 f9 6e bd d5 7a 0e bd fd 67 82 bc 5b a6 96 3d
       -0.058343798 -0.03478511 -0.015918726 0.073559485
000170 02 91 45 bd 73 86 e7 3a f6 d1 b3 bc db fc 22 3a
       -0.048233993 0.001766397 -0.021950703 0.0006217488
000180 0c 1c a1 bd 14 33 6a ba e5 2e ae 3d 24 0d 99 bd
       -0.07866678 -0.0008934003 0.08505038 -0.074732095
000190 75 35 ce 3d b3 56 32 3d 4a 0f c2 bc 2c 9a 9f bc
       0.1006879 0.043539714 -0.023688931 -0.019482695
0001a0 c0 dc 1a 3d 0b ae 9c bc b6 11 86 bc dd 5c d3 bc
       0.03780818 -0.019125959 -0.016365867 -0.025801117
0001b0 7b c8 c5 bc d0 8f 9d bd 3b 37 06 bc bb 10 be 3c
       -0.024143448 -0.07693446 -0.008191879 0.023201337
0001c0 c6 dd 90 3c 6c 1e dc bc b8 3b 1d 3b f6 13 19 bd
       0.017683875 -0.026869975 0.0023991894 -0.03737255
0001d0 9a 9f b3 bc 8f 3a b9 bc cf 74 a5 bc 4f dc 9a 3b
       -0.02192669 -0.02261093 -0.0201973 0.00472597
0001e0 4d 02 79 3c 8f 8e 1e 3d 28 4c 4d 3c fc b6 3d 3d
       0.015198302 0.038710173 0.012530364 0.046317086
0001f0 17 39 cd 3b 24 42 10 bc a1 6c a1 3d d5 c6 a2 bc
       0.006262909 -0.008804832 0.078820474 -0.019870201
000200 40 31 23 3d 74 87 42 bc 84 28 9e bb ef e2 2f 3d
       0.03984189 -0.011873115 -0.004826607 0.04294103
000210 23 85 37 3d a3 9c d8 3a ab 35 58 3d e9 6b a8 3d
       0.044804703 0.0016526174 0.052785557 0.08223707
000220 57 06 52 3d 82 da 71 3d a0 a7 44 bd ad ab 7b 3d
       0.051275577 0.059046276 -0.048011422 0.06144302
000230 76 00 82 bd 09 4c a6 bc 7e 74 0a 3d f6 cf 49 3c
       -0.06347744 -0.020299928 0.0338025 0.012317648
000240 83 a0 94 3d 5f 4b f5 3a 27 1e 8c 3d d1 8c 89 3d
       0.07257178 0.0018714479 0.068416886 0.06716312
000250 07 3f a1 3b d7 e1 1a bd 0b 4f 34 3c fb 4f a0 bd
       0.0049208435 -0.037813034 0.011005173 -0.07827755
000260 3f c6 2f 3d 94 20 e0 3c 83 fb b3 bc c4 9a c0 ba
       0.04291367 0.027359284 -0.021970516 -0.0014694561
000270 0e 7d 20 bd 08 f5 cf 3c 07 1a 0f 3c f2 08 60 3c
       -0.03918176 0.025385395 0.008734233 0.013674008
000280 c7 62 93 bc 20 3f a8 3c 48 46 db bc 17 7a 09 3d
       -0.017991437 0.020537913 -0.026766911 0.0335637
000290 9e 2c 15 bd df 62 8e 3d 5e fb 25 3d dd 93 60 bb
       -0.036419503 0.06952452 0.040522926 -0.003426782
0002a0 ca e2 64 bc a8 52 94 3d 6c 5c 91 3c 8d 70 9a 3c
       -0.013970086 0.07242328 0.017744265 0.018852497
0002b0 43 c1 a5 3d 34 d0 f0 bb db 8a 4b bc d2 d6 75 bc
       0.08093502 -0.0073490385 -0.012423242 -0.01500483
0002c0 47 3e 9e 3d f7 23 69 3c 47 be aa 3d 24 9d 68 bc
       0.07726722 0.014229766 0.08337074 -0.0141976215
0002d0 84 d0 b3 bd 13 79 0c 3d cc d8 1e bd d4 8d 0c 3d
       -0.087800056 0.034295153 -0.038780972 0.034314945
0002e0 43 64 98 bc 7e 19 88 3d 43 fc 61 3d 85 17 2b bd
       -0.018602496 0.06645487 0.055172216 -0.041770477
0002f0 ca 38 90 bd 38 bc 96 bd 5b 32 65 bd 33 56 db bc
       -0.07042082 -0.07360119 -0.055956226 -0.026774501
000300 6d 4d 26 bd 0f a7 72 3d 9a 00 3b 3d 93 f5 ce 3c
       -0.040601183 0.05924135 0.04565487 0.025263583
000310 19 fa 46 3d ef bd 17 bc e8 28 3d bd 1b 01 de 3c
       0.048578355 -0.009261592 -0.04618159 0.027100137
000320 d1 b2 81 bd d5 bd e0 bc f9 a2 e6 bb 4a 07 f4 3c
       -0.06332935 -0.027434269 -0.007038471 0.029788632
000330 5f 5e cf bd cc f7 13 bc 47 6a dc 3c 96 74 b2 3c
       -0.10125422 -0.009031247 0.026906146 0.021784108
000340 af 06 73 bd a1 ad 8e bd a8 18 c9 3d 67 f7 c0 bd
       -0.059332546 -0.06966711 0.09819156 -0.09422188
000350 34 56 11 bd b6 3e 24 bd f1 d3 88 3d 54 58 35 3b
       -0.0354826 -0.04009887 0.066810496 0.0027671056
000360 d0 40 10 bc 44 1a 48 3d 9f 82 87 3d 89 c2 c2 3c
       -0.008804515 0.048853174 0.06616711 0.023774402
000370 86 d2 69 bd e7 9f 2a 3c 40 c5 0e bd 50 82 5e bd
       -0.057085536 0.0104141 -0.03485608 -0.054323494
000380 c1 8a 0f 3e ee e1 86 3c b5 96 29 3d c1 88 64 bd
       0.14017774 0.016465154 0.04140349 -0.05579448
000390 91 09 28 bd fc 15 ae bd 55 7d 50 bd 4d f0 89 bd
       -0.04102475 -0.08500287 -0.050900776 -0.06735287
0003a0 4d ff b8 bc 11 fa c1 ba 11 7a 44 3d c5 f5 e4 3c
       -0.022582674 -0.0014799257 0.047967974 0.027949223
0003b0 1e 12 cb bc ff 78 6c 3d ff fb 17 3d c3 b2 81 bd
       -0.024788912 0.05773258 0.037105557 -0.06332924
0003c0 83 60 8a 3d 77 27 8c 3d 1e 71 e8 bc c1 d5 03 3d
       0.067566894 0.06843465 -0.028374251 0.032186273
0003d0 2e d7 1a 3d a7 f6 be bd 0b 4f c8 bd 35 a4 a8 bd
       0.037802868 -0.09324389 -0.09780701 -0.08234445
0003e0 9c 81 41 3d ac e9 cf bb a7 51 81 3d 60 24 27 3d
       0.047242746 -0.0063449945 0.06314402 0.040806174
0003f0 e1 c5 66 bd 1f 0a 01 bd 67 2a 87 bc 3a c5 6c bc
       -0.056341056 -0.031503793 -0.016499711 -0.014451319

lstm.bias_ih_l1 f4 [256]
000000 37 a0 a4 3d 7d 92 ad bb 18 fe c6 bd 14 c2 d5 3d
       0.08038371 -0.005297004 -0.09716433 0.10437408
000010 95 1a bd 3d 82 ae be bd be f6 be 3c 91 d2 64 3c
       0.09233586 -0.093106285 0.023311015 0.013966219
000020 2d 52 9a 3d ea f8 97 3d c5 ae 98 3d 99 ba da 3d
       0.07535205 0.074205235 0.0745521 0.10680122
000030 94 5a 08 3e f9 b5 75 bb ed 08 fa 3d 61 ea ba bc
       0.13315803 -0.0037492497 0.12208734 -0.022816839
000040 31 b0 b7 3d d4 50 7c bd 90 58 8a 3c c5 8f 6e bd
       0.08969153 -0.06160052 0.016887933 -0.058242578
000050 0a ec be bd f4 94 bb bd a9 a5 4f 3d 45 31 16 bc
       -0.09322365 -0.0915927 0.050695095 -0.00916702
000060 c8 00 cc 3d d8 24 99 bd e5 9d 81 3d 03 15 91 3d
       0.099610865 -0.074777305 0.06328944 0.07084086
000070 e1 28 4b bd f2 3f 6b bb 36 03 63 bd 5f 7e 9b bc
       -0.049599532 -0.0035896269 -0.055422984 -0.018981157
000080 92 8f f1 bc e0 83 b8 3d 69 f1 00 3c 1c a9 b9 3d
       -0.029487405 0.09009528 0.007870057 0.09065458
000090 bc 41 d3 3c bf da d2 3d 14 16 43 3b ca 7a e8 3d
       0.02578818 0.10295629 0.0029767798 0.11351545
0000a0 cd d9 9d bd 17 18 8e bc 22 dd e9 bb 2c 02 31 bc
       -0.07707558 -0.017345471 -0.007136957 -0.0108037405
0000b0 a9 45 80 bd af b8 14 3e 54 e9 6c 3d ee f4 a8 3d
       -0.062632866 0.14523576 0.057839707 0.08249842
0000c0 6d e9 41 3d 4e 10 8f 3d 80 91 98 bd 6d 80 a4 bc
       0.047341753 0.06985532 -0.07449627 -0.02008077
0000d0 e5 c7 d2 3d 54 4f 62 3c cd 12 f2 bc 0d e3 7d bc
       0.10292033 0.013812859 -0.02954998 -0.015496028
0000e0 95 f6 f5 bd 67 ca 37 3d 5f f3 6b 3c b6 f2 9f bd
       -0.120099224 0.04487076 0.014401286 -0.07809965
0000f0 a4 d4 66 3d 62 d2 8a bd 7a 84 a1 3d 3d cb a8 bd
       0.056355134 -0.067784086 0.07886596 -0.082418896
000100 2b 10 bc bd 81 90 93 bc 43 9f 42 bc 17 d4 f1 3d
       -0.09182771 -0.01801324 -0.011878791 0.11808031
000110 20 61 94 bd c4 85 05 3e d7 b9 84 3c f3 ee b8 3c
       -0.072450876 0.13039309 0.016201897 0.022574877
000120 57 ef 90 3b 22 3e 6d 3d 6b 94 77 3d 3d c8 01 3d
       0.004423063 0.057920583 0.060444277 0.031685103
000130 2e 2e e2 3d bd ce 8c bd a7 5b 5e bc 7e 08 8c bd
       0.11043964 -0.0687537 -0.013571656 -0.06837557
000140 27 d5 c1 bd b4 03 8e bd 06 db 8f bd e7 df 3f 3c
       -0.09464484 -0.069343 -0.07024197 0.011711097
000150 fd 82 37 bd c6 ec b9 bd be 53 16 3e 3c e4 b6 3d
       -0.044802655 -0.09078364 0.14680383 0.08930251
000160 54 ea 6d 3d a9 24 53 bd fb 62 05 3e 98 8e 5a 3b
       0.0580848 -0.051548634 0.1302604 0.0033349153
000170 94 48 eb bc 71 b2 38 bd 38 60 b8 3d 8a 14 63 bd
       -0.028721131 -0.04509205 0.09002727 -0.05543951
000180 88 1f 8b bd 24 44 36 3d 7a 34 d8 bd 46 34 44 bd
       -0.067931235 0.044498578 -0.10556884 -0.047901414
000190 14 de bf bc 28 b9 f1 3d c4 98 17 bd 79 a0 72 3c
       -0.023421325 0.11802894 -0.037010923 0.0148087675
0001a0 ff b2 ce bd 8b 05 48 3d 75 67 d5 bd 5d b9 ec bc
       -0.100927345 0.04883341 -0.104201235 -0.028896982
0001b0 53 57 bb 3c 2d 66 50 3c 11 de 27 3d 7b d5 10 3d
       0.022868788 0.012719673 0.040983263 0.03535984
0001c0 2b e2 87 bd bb 9f d9 bd 41 70 d6 3d 41 f0 fc bd
       -0.06634935 -0.10626169 0.104706295 -0.12350512
0001d0 ab 48 03 bd 25 e4 83 3d 25 94 88 bc 42 4e 4b bd
       -0.032051723 0.064399995 -0.016672203 -0.04963518
0001e0 27 c4 d9 bc 67 e7 69 3b 5a 29 13 3d 54 27 46 bd
       -0.02658279 0.0035690905 0.035928108 -0.04837735
0001f0 d6 47 82 3b 46 14 c0 bd b7 ce b3 bb 01 af cb 3d
       0.0039758487 -0.09378867 -0.005487289 0.09945489
000200 c1 ee de 3c 1a 25 f4 bb 64 b2 15 3c 4e 7a 9b 3d
       0.027213456 -0.007450712 0.00913677 0.07591687
000210 d6 03 4a bd a3 80 b1 3d 28 94 a0 3d 41 21 22 bd
       -0.049320064 0.08667114 0.078407586 -0.039582495
000220 8c 89 89 3d 53 03 4d 3d fc ff b6 bd 53 c9 ae bd
       0.06715688 0.050052 -0.08935544 -0.08534493
000230 34 99 03 bd ab 1f d9 3d 52 15 68 3d 76 21 f9 3d
       -0.032128528 0.10601743 0.056660958 0.12164585
000240 12 0e 89 bd 1a 52 07 be 03 ae 54 bc 20 70 ce bd
       -0.06692137 -0.13214913 -0.012980941 -0.1007998
000250 bc bd 9a 3d c1 95 2e bd 4b 8b 45 bd cb 87 35 bc
       0.0755572 -0.042623285 -0.048228543 -0.011079739
000260 73 62 72 bc ef e2 a4 3b 75 6c b0 3d 4d 3d 82 bd
       -0.01479398 0.0050319354 0.086144365 -0.063593484
000270 ab 32 15 3d 7e af 16 bc b3 7e bc 3d b4 b9 87 3c
       0.036425274 -0.009197114 0.092038535 0.016568042
000280 2c d0 09 3d 3b 9e ba bd 82 60 17 3d c7 91 88 3d
       0.033645794 -0.09112211 0.03695727 0.0666843
000290 82 2e e7 3d 66 43 22 3b 9f 18 de 3a d0 96 d9 3d
       0.112881675 0.002475941 0.0016944594 0.10624468
0002a0 6a c4 9e bd b9 5d 89 bb be b2 3e 3c ca 63 34 bc
       -0.07752307 -0.004192081 0.011639295 -0.01101012
0002b0 18 48 dd 3d 48 8d e6 3d 46 ed c6 3d a9 49 84 3d
       0.108047664 0.11257416 0.09713225 0.06459362
0002c0 87 6c 0d 3d 98 9e 3e 3d e3 2d a6 3d 8b 66 b4 3b
       0.034527328 0.046537966 0.08114221 0.005505388
0002d0 4e 47 f0 bc ba 11 51 3c 7f fc 94 bb 6a 97 9b bd
       -0.029330876 0.012760574 -0.0045467014 -0.07597239
0002e0 f7 5d eb 3c 79 b2 e0 3d 0a 5b 0d 3d 46 c6 5b 3c
       0.02873133 0.10971541 0.03451065 0.013413971
0002f0 4d 2c 5c bc c7 3f d2 bd ec c7 07 be c0 46 cc bd
       -0.0134382965 -0.10266071 -0.13259858 -0.09974432
000300 2d ba 96 bc 0a 88 e0 bd 14 a9 0a 3d 1f d7 23 3e
       -0.018399322 -0.109634474 0.03385265 0.16000031
000310 46 03 57 bc fe 82 dd 3d 0c c2 7d 3d bf 9f 02 3e
       -0.013123339 0.108160004 0.061952636 0.12756251
000320 9b 35 3e 3d 2f 18 de 3d 8e aa c6 3d 6e 0d 3f bd
       0.04643784 0.108444564 0.097004995 -0.046643667
000330 68 e1 80 3d 63 63 e1 3d dc 20 37 bd d7 29 86 bd
       0.06292993 0.11005285 -0.04470907 -0.06550949
000340 7e 8e 1d 3d f3 f8 18 bd 52 12 68 bd b9 3e 12 bc
       0.03846597 -0.03734679 -0.056658097 -0.008926087
000350 5a 41 ce 3c a4 2b 0e bd 75 e3 61 bd 9c e3 7d bd
       0.025177646 -0.034709588 -0.05514856 -0.061984643
000360 9c bd 28 bd ba 3c 1d 3e 9c ed 06 3d bd 63 84 bd
       -0.04119645 0.15355197 0.032941446 -0.06464336
000370 11 59 b9 3d ec c7 49 3d e6 16 90 bc 0e be a5 bb
       0.09050191 0.049262926 -0.017589044 -0.0050580567
000380 d7 d0 7e bd 68 36 a8 bc 6d 39 e6 3d 15 84 9c bd
       -0.062210884 -0.020533755 0.11241422 -0.0764238
000390 a8 69 ce 3b 08 0d d2 3d 16 44 9f bd 1c a6 26 3d
       0.0062992163 0.10256392 -0.07776658 0.040685758
0003a0 b4 dc 29 3d 11 1a e5 3d 1e 76 44 bd 76 d3 83 bc
       0.041470245 0.111866124 -0.047964208 -0.016092043
0003b0 06 84 70 3d 7a d9 b0 3d 3d 9b 1a 3e 87 03 ae 3d
       0.058719657 0.0863523 0.15098281 0.084967665
0003c0 b5 e3 0f 3e 97 f6 fb 3d 2d d1 1e bd 4e cb 38 3d
       0.14051707 0.12302893 -0.038773704 0.04511576
0003d0 2c 8a e5 3d 22 dd f6 bc 13 f9 82 bc 27 8e a0 3c
       0.11207995 -0.030134741 -0.015987908 0.019599034
0003e0 65 70 d9 3c 81 4a 0c 3d fc 29 ae bd f9 b8 a3 bd
       0.026542852 0.03425074 -0.08504102 -0.07994265
0003f0 87 06 12 3d 7a 36 f5 bc 6b b8 45 3d db 33 55 3c
       0.035650756 -0.029933203 0.048271578 0.013012852
