Cheyi Wu/FinalProject/Garch/LSTM-Garch/AAPL/lstm_garch_model.pth (torch, 229302 bytes, 13 tensors)

lstm.weight_ih_l0 f4 [256, 7]
00000000: a502 ec3d 942e 033e d85c 14bb 7e24 233e
00000010: f3c3 5d3d 8bff 6f3c 4222 dbbc 4311 c93d
00000020: 55e5 0d3e 67cf 73bd 3390 ef3d 0e18 193e
00000030: 921a 6f3d b548 543d 078a b93d e7a0 9f3c
00000040: 477d 043e 1611 a03d 5933 12bd 32fa 0a3d
00000050: 6a2a 87bc 954a 0cbc 9a52 1fbd dffc b13d
00000060: 52a1 7abd a596 eabc 11de 52bd ef34 74bd
00000070: 4ddd b13c 491f d9bd a76f f63d 9f97 c5bd
00000080: 7261 853d 6ec3 abbc 0e54 bbbc 71dc 1c3d
00000090: d0ee 88bc 2bf6 713d 038d c33d 3d17 12bd
000000a0: 48dd b5bc 8a0d 8dbd 2469 633d 3546 f43d
000000b0: 960a a13d 6aef 5e3e 5a90 923e d762 d6bc
000000c0: a7c6 9b3d 8b05 f2bc aadc 96bd be86 fa39
000000d0: 3562 5ebb 3912 753e 94c9 033d b057 d13d
000000e0: 1f78 1f3d e283 a33a 6c16 c73d 81c6 1c3c
000000f0: 30d7 8dbc f1ac 96bd d2e6 323d 7b09 9bbc
00000100: 27cd 673d 4e12 23bc eba9 653c c146 a0bd
00000110: 0d73 9abd 77cc 5cbd 1588 fa3b 6339 47bd
00000120: eead 213c b09c c5bc 4617 41bd 8f0a 07be
00000130: 7d25 16be 5c7b 933d 432e 903d 04a6 013e
00000140: 28d5 db3c 5170 0cbd 24ab 9b3d 8593 91bc
00000150: 1421 983d ffa4 c5bc d97b 903d c82e aabb
00000160: 17d4 8d3d 85cc 1e3d 2e51 043d 8b5a 8bbc
00000170: 8ee1 b73d 2c79 c83d 1c74 1fbc c85f 1fbd
00000180: 41db f13d f3f2 b7bc a64f ffbd fd79 52be
00000190: a665 27be d541 353d f9fb 88bd 45d3 d9bd
000001a0: 0072 dcbd 5512 48bd c9ed 84bd a844 f8bc
000001b0: 56b3 c93c 23fd 7a3d 5dae 2b3e 07c7 843d
000001c0: dd80 5e3d 3882 bcbd e810 79bd 7b18 a23d
000001d0: 76f8 ff3d 809d f1bd e6c9 d9bc c299 a9bc
000001e0: ca9f 663d 6528 c33b aef1 743d 7647 b5bd
000001f0: 9b59 22bc f0b4 6cbc 83e0 58bc 67e0 86bd
00000200: 2c37 093e 297e 733c c0c3 c93d 65f5 213d
00000210: b631 92bd 3899 d53d 4f1d 14bc 5b80 d1bc
00000220: 90fd 9b3d 8a0a afbb a8ec 3d3d 254d 05b8
00000230: 8981 313d edb4 c3bd 28c1 b13d 4f40 58bd
00000240: 1e16 19bd 4072 1a3d 4e07 893d 47df 063e
00000250: d820 1b3e c355 71bd 002f 1e3e 5eaf 36bd
00000260: 49b2 3abb 9ec5 30bd c268 033e 0f23 73bd
00000270: 19c0 b33d 6518 cf3d e456 093e 391a 4dbd
00000280: c9a8 113e 83ab 8d3d 4f80 7e3d 50b2 7dbd
00000290: bb3d d03d 9546 d53d 4044 6ebd 2a5b 1f3e
000002a0: 4001 a43d c20b 10bc 674b bcbb f7dc 413d
000002b0: 997f ed3d a9fb 26bd a67c cfbb a6ca 96bb
000002c0: 4427 4dbd 5e4b ab3d f431 483e 7954 2e3b
000002d0: bdab 813d 6fc1 de3d c45b 673d cee5 d1bb
000002e0: 7ccf ce3d 9a45 e73d 2581 683d 3c61 e8bc
000002f0: 26ea ff3b 40e7 213d 48fb 2b3c d824 08bc
00000300: eb28 1c3e 2d04 803d 0cc6 103b f368 283c
00000310: 5caa 1f3d e7ce 103d 6157 8f3d 39c5 173e
00000320: 4468 493c a983 7bbd ef4e 193e 1ea5 6d3d
00000330: f81b d43b f65c 82bd 0f32 8b3b 68fc 6fbd
00000340: 1f2c 1cbd 21c7 613d a4de ee3d e27a cb3d
00000350: 3fdc 88bd 6f8d 843d 98e1 1e3e 3c86 023e
00000360: 3885 813d ebc5 a3ba b64f ae3d 2489 6fbc
00000370: 092e 023e d829 913e e119 69bd 70fa 343c
00000380: fa04 a4bd 47da 023e a98e 0c3e c080 cc3d
00000390: cc3a aabd b03d 26be 7f86 3bbd 94eb a33d
000003a0: bda4 523d 8377 c13d c875 383e 4cea d23d
000003b0: 89b3 60bc 102c c9bd 991c 2cbe 2f88 41be
000003c0: 41a8 36bd a745 babd 5854 42bd 6f64 d5bd
000003d0: f310 f3bd aef9 5dbd 13ac 31bd 7363 9c3d
000003e0: 6500 5b3d e4d4 bf3d c3eb 0ebd c215 48bd
000003f0: 864c 1dbc 2fa5 30bd fd6c d0bc a317 eabb
0.11523942 0.12810737 -0.0022638347 0.1593189 0.05414195 0.014648329 -0.026749734 0.098177455
0.13857014 -0.059523966 0.11697426 0.14950582 0.05837495 0.05182715 0.0905953 0.019485904
0.12938415 0.07815759 -0.0356935 0.03393001 -0.016499717 -0.008562704 -0.038897134 0.086908095
-0.061189003 -0.028636286 -0.05148131 -0.059620794 0.02171197 -0.1060167 0.12033015 -0.0964806
0.06512727 -0.020967212 -0.022867229 0.038296167 -0.016715437 0.059072655 0.0954838 -0.035666693
-0.022200242 -0.06887348 0.05552019 0.119274534 0.07863347 0.21771017 0.28625757 -0.026170177
0.07606249 -0.029543659 -0.07366307 0.00047784107 -0.0033933048 0.23932733 0.03217466 0.10221803
0.038932916 0.0012475217 0.097210735 0.009568811 -0.017314523 -0.07357205 0.04367716 -0.01892542
0.056592133 -0.009953095 0.014017562 -0.07825995 -0.075414754 -0.05390593 0.007645617 -0.048638713
0.009868128 -0.024122566 -0.047141336 -0.13187622 -0.14662738 0.07201263 0.07040074 0.12660986
0.02683504 -0.0342868 0.07601002 -0.017770538 0.07428184 -0.024126528 0.07054872 -0.005193565
0.069252186 0.038769264 0.03230398 -0.017010948 0.08978568 0.09788737 -0.0097322725 -0.038909703
0.118093975 -0.022454714 -0.124663636 -0.20554347 -0.1634737 0.044252235 -0.06688685 -0.106359996
-0.10763931 -0.048845608 -0.064906664 -0.030306175 0.024621647 0.061276566 0.16765733 0.06483274
0.054322112 -0.09204525 -0.06080714 0.079148255 0.12498562 -0.11797619 -0.02658553 -0.0207032
0.05630473 0.005955743 0.059800796 -0.08851521 -0.009909059 -0.014447436 -0.0132371215 -0.0658577
0.13399953 0.014861622 0.098517895 0.039540667 -0.07138388 0.10429615 -0.009040191 -0.0255739
0.076167226 -0.0053418325 0.04636827 -3.1781517e-05 0.043336425 -0.09555993 0.0867942 -0.052795704
-0.03737461 0.037706614 0.066908464 0.13171111 0.15149248 -0.05891968 0.15447617 -0.044600837
-0.0028487614 -0.043157212 0.1283293 -0.059359606 0.08776874 0.10112075 0.13412052 -0.050073836
0.14224543 0.06917479 0.062134083 -0.06193763 0.10168024 0.10413853 -0.058170557 0.1556212
0.08008051 -0.008791866 -0.0057462933 0.04732987 0.11596603 -0.040767346 -0.006331998 -0.0046017943
-0.050086275 0.083639845 0.19550306 0.0026600643 0.063315846 0.10876738 0.056484 -0.0064055687
0.10098168 0.11292572 0.056763787 -0.028366677 0.007809895 0.039527178 0.010496922 -0.0083095655
0.15249984 0.062507965 0.0022090701 0.010278928 0.038980827 0.035353567 0.06999088 0.14821328
0.012292925 -0.061404858 0.14971517 0.058018796 0.0064730607 -0.06365387 0.004247911 -0.058590323
-0.038128015 0.055121545 0.11663559 0.099355474 -0.066826336 0.06472289 0.15515745 0.12746519
0.063242376 -0.0012494897 0.085112974 -0.014620099 0.12712874 0.28352237 -0.056909446 0.011046037
-0.08008762 0.12778579 0.13726296 0.099854946 -0.08311996 -0.1623447 -0.045782562 0.08003917
0.051426638 0.09446623 0.1801368 0.10298595 -0.0137146795 -0.098228574 -0.16807784 -0.18899606
-0.044594053 -0.090953164 -0.047443718 -0.10419547 -0.11868467 -0.05419319 -0.043376993 0.07636156
0.053467173 0.093667775 -0.03489281 -0.048848875 -0.009600764 -0.04312628 -0.025442595 -0.007143931

lstm.weight_hh_l0 f4 [256, 64]
00000000: 0110 64bd 70bf ac3d b32f 82bc b7c2 70bd
00000010: 7ed5 5cbd 3a34 eabc 0a54 563d baa8 34bc
00000020: cb49 8cbd 15a2 c03c d21c 1e3d fcd8 32bc
00000030: 6a0a f7bb 539e 7cbc 13f7 8b3d 819e fd3b
00000040: 80a1 883d eea8 00bd 1e7f f33b 61ff c3bd
00000050: 632d 45bd d790 c23d a170 c03c 9d49 eb3d
00000060: 5c72 a7bc e85e 94bd 51b4 29bd 01fd 8f3d
00000070: 24ae b3bd 5617 063d e21b 003c 2326 e03c
00000080: 4421 993d 9465 143b 40c2 aebd d9e3 adbd
00000090: 2b97 73bc ffcf a33d 9c72 c73c 5b8a d2bc
000000a0: 8a91 fbbc e0b1 6cbd ee31 593d c1b6 bdbc
000000b0: ffcc 18bc 0c6f c03c e3b6 b63d 7b59 5fbd
000000c0: 9103 6bbd 321c 703d a64e 8f3d 5c33 0bbd
000000d0: 54e1 d7bd 05cc 023d 589a 1cbe e9de 3d3d
000000e0: 3e56 db3d 2c1c 91bd b351 263d 5588 85bd
000000f0: 445d 3d3d 21f3 913d 0458 323d 5e7f a73d
00000100: 5592 45bd 6448 8bbd bb86 b1bd 0005 af3d
00000110: 172b 9f3b 43e5 83bd 18a3 403d cf73 c33d
00000120: fb71 bebd 3968 9a3d 5130 ae3c 0e9a 033c
00000130: f3a4 883d 54a4 9b3d 22dd 083d a583 b53d
00000140: 6e46 543d f216 9c3c 6d1e 9fbd 270f 5f3c
00000150: 45ff bebd 2d18 0c3d 9743 b23c fe7f 83ba
00000160: e174 b2bd 2c1c 50bd fb04 9d3d 4b78 073d
00000170: ebf0 183d 29cd efbc 8240 31bc 528a 92bc
00000180: 3d89 a93d a40c eebc 6e09 56bd 03e2 803d
00000190: 4051 9bbd 940f 653c 255b 13bd e4c6 32bd
000001a0: 597d 463d ec17 e0bb 59e2 b53d c3b0 a6bc
000001b0: 1ec1 1f3d 0702 bbbd 7c06 16bd 7409 993b
000001c0: fe1b 5e3d 8f0b 993c ac9a 84bd 1dfe d6bb
000001d0: 3f8f 7abd 2df7 fe3b 6409 92bd 881d c1ba
000001e0: 883b d43d 9aba 9dbd cbb7 dbbd 5175 7a3c
000001f0: 846a 3bbb 6c41 87bc 2127 af3d 5f19 60bd
00000200: 65a1 76bd 5fa7 9ebd 88a4 23bd 52f3 c1bc
00000210: 4233 473d 6b92 25bc b883 a13c cf97 59bd
00000220: 6332 973d 201c 9f3d ea3a 84b9 7ad6 a6bc
00000230: 7be6 c9bd d4ed 133d 06b3 c1bc 0a40 57bd
00000240: 962c eb3d 9c66 b8bd ac1b 9a3d 7e49 8cba
00000250: b6df b13d 4a48 50bd 4903 993d 63c0 0e3c
00000260: 1c27 6b3a fece 963d c5aa b6bd 7074 a0bd
00000270: f2bf d93d cfe7 94bd 87c9 98bd 5003 343c
00000280: 4971 e8bc af04 5dbc b972 21bd 7132 063d
00000290: f791 aabd 1056 a03c 1e85 413d d0cc bf3c
000002a0: 432d 813c 5fd0 d23b 4c3a eabc b66a 1a3b
000002b0: 3a68 14bd 9de8 98bd 5a65 73bd 0fb2 db3d
000002c0: dc21 92bc b3a4 c63c c211 833d 4977 3fbc
000002d0: 172e 3fbd f57f 9cbd 7250 f0bd a0c9 103d
000002e0: ea46 6fbd 60f5 0abc d511 f43c 73c4 c53d
000002f0: 5a72 d93c 47c0 703c 69bc 903d 7f4b 6b3d
00000300: fbcb d83c 5558 08bd bed2 8cbd 2a04 c43c
00000310: 6d39 61bc b00e 5cbc b02c 8cbc dae1 8f3c
00000320: 4a28 203d 4c9a d8bb ad31 5c3b a3bc fcbc
00000330: c8da 3cbd 725f c03c 1a74 33bd 05d9 12bd
00000340: d893 0cbc 9f2c 58bd a2ac c43c 6655 62bb
00000350: 294b 3fbc f7ef 4cbd 2d29 6fbc 13a4 14bc
00000360: 95bf 88bc 70e2 0dbd 3ba3 913c 2668 12bd
00000370: 827f 3bbd 1e83 88bd 1202 42ba c2fa 8abd
00000380: 04e0 8d3d d0fc 43bd 34b7 9cbb 60c8 5b3c
00000390: 3422 7b3c 2120 19bc 0723 713d 88fb 2dbd
000003a0: 66c4 183d 381f 85bc 6c6c a4bd 3ac3 4ebb
000003b0: 0432 e13c 2b65 d33c c211 a53d ccdf a83d
000003c0: 506a debc 7168 27bc add0 73bc 76ef d1bd
000003d0: bf42 9dbc 13c6 8bbd 844f 14ba d53e 303d
000003e0: 2de5 643c 117b 8ebd 1f87 92bd 4f85 44bd
000003f0: eaf1 26bb 88cf 30bb 1f56 193d f607 f23d
-0.055679325 0.08434951 -0.015891885 -0.058779445 -0.05391454 -0.028589357 0.05232624 -0.011026556
-0.068500124 0.023514787 0.038601704 -0.010915991 -0.0075390832 -0.015418607 0.06834235 0.0077398424
0.06671429 -0.031411104 0.007430925 -0.09570194 -0.048138987 0.09500282 0.023491206 0.1148865
-0.020440273 -0.072446644 -0.04143173 0.070306785 -0.08773449 0.0327371 0.007819148 0.027361935
0.07477048 0.0022643553 -0.08533144 -0.08490724 -0.014867584 0.079986565 0.024346642 -0.025700739
-0.030709047 -0.057786822 0.053026132 -0.023158433 -0.009326219 0.023490451 0.089216016 -0.054528695
-0.057376448 0.05862064 0.06997423 -0.033984527 -0.10541025 0.03193285 -0.15293252 0.04635516
0.10709809 -0.070854515 0.04060526 -0.06520144 0.046231523 0.07126451 0.04354097 0.0817859
-0.048235256 -0.06800917 -0.08668276 0.085458755 0.0048574316 -0.064402126 0.04703054 0.09543573
-0.09299084 0.0753941 0.021263273 0.008032335 0.066720866 0.075997025 0.033414014 0.08863
0.05182498 0.01905391 -0.07769475 0.013614452 -0.093260325 0.034202743 0.021760745 -0.0010032651
-0.08713699 -0.050808117 0.076669656 0.033073705 0.037339132 -0.029272633 -0.0108186025 -0.017888222
0.08278129 -0.029058762 -0.052255087 0.06293108 -0.075838566 0.013980765 -0.035975594 -0.043646708
0.048459385 -0.006838789 0.08881063 -0.020347958 0.03900253 -0.09131246 -0.036627278 0.0046703164
0.054225914 0.01868227 -0.06474814 -0.0065610544 -0.061171766 0.0077809305 -0.07130697 -0.0014733532
0.10362917 -0.07701607 -0.10728415 0.0152867595 -0.0028597424 -0.016510688 0.08552385 -0.054711696
-0.06021251 -0.07746767 -0.03995183 -0.023675594 0.048632868 -0.01010571 0.019716129 -0.05312329
0.073826574 0.07769036 -0.00025220896 -0.020365942 -0.09858414 0.036115482 -0.023644935 -0.052551307
0.114831135 -0.09003946 0.07524809 -0.0010703055 0.086852476 -0.05085019 0.0747133 0.008712861
0.00089703663 0.073636994 -0.089192905 -0.07834709 0.10632314 -0.072707765 -0.07460313 0.010987118
-0.028374331 -0.013489886 -0.03941605 0.03276295 -0.08328622 0.019572288 0.04724609 0.023413092
0.015768653 0.006433531 -0.028592251 0.002356214 -0.03623221 -0.074662425 -0.05942283 0.10727321
-0.017838411 0.024248457 0.063998714 -0.011686155 -0.046674814 -0.07641593 -0.11734094 0.035348535
-0.05841724 -0.0084813535 0.02979366 0.0965661 0.026543785 0.01469428 0.070671864 0.057445046
0.026464453 -0.033287365 -0.068761334 0.023927767 -0.0137466015 -0.013431236 -0.017111152 0.01756375
0.039100923 -0.0066101905 0.0033598945 -0.030851668 -0.046107084 0.023483012 -0.043811895 -0.035851497
-0.008580171 -0.05277693 0.024008099 -0.0034535765 -0.011675634 -0.050033536 -0.014597219 -0.0090723215
-0.016692916 -0.034639776 0.01777803 -0.035743855 -0.045775898 -0.066656336 -0.0007400821 -0.067861095
0.06927493 -0.047848523 -0.0047825817 0.013414472 0.015327979 -0.009346039 0.058871295 -0.042476207
0.037296675 -0.016250238 -0.08028492 -0.003154947 0.02748967 0.025805077 0.08060028 0.08245811
-0.027150303 -0.010217772 -0.014881295 -0.10250752 -0.019196866 -0.06824889 -0.00056576007 0.04302867
0.013970655 -0.06957067 -0.071546786 -0.047978695 -0.0025473782 -0.0026979167 0.037435647 0.11817925

lstm.bias_ih_l0 f4 [256]
00000000: ef7d 143d a04d 4abc b035 5c3c 64cd 493d
00000010: 207f 023e 8b18 e93d 0ae4 2ebe e137 d3bd
00000020: aabb 083e afd6 af3d 97e5 c7bc 3aad b33d
00000030: d8f7 583c 5738 2c3d 3dc2 9fbd a76c 933d
00000040: 39d3 813d b019 0cbd 283e abbd 486b c5bc
00000050: f31f 643c f65a 2bbd 8d14 503d 5370 16bd
00000060: f889 1d3c 6d4e b83d f832 b13d c898 5b3d
00000070: 7d39 08be d0b1 e43d a664 a8bd 7a4c c2bd
00000080: 8792 903b d591 91bc 290e 683c 30bb eabc
00000090: d703 89bd de50 793d 2810 743d 6530 9b3d
000000a0: ec81 093e b580 abbd 6328 d93b cb5f 0a3e
000000b0: d1c8 8abc 702b 0ebd 7002 00be 1eff 883c
000000c0: d762 e3bc 6c73 70bd 8880 ddbd c426 7f3d
000000d0: f852 6fbd f534 fd3c bb3c 273e 7625 e0bd
000000e0: 7427 abbd 3a06 b13d 43fd 3fbd b91c 313d
000000f0: 25d9 47bd dad1 213e b8f2 863d 642c f6bd
00000100: d653 38bd f0d5 9d3c 730d 8d3b 0b20 40bd
00000110: f101 0bbe e9a8 9fbd 23c6 28be 301e 623d
00000120: 682f 71bd 690e 1abd 79d8 a0bd dde0 24be
00000130: 9a51 b2bd 626d 24ba 4a66 6a3d fff4 89bd
00000140: 0bbe 42bd e129 b3bd 1852 85bd 3606 2c3d
00000150: acf0 27bd fcc1 83bb 398d 2bbe 5e11 1abd
00000160: a6bd a1bd 7329 e8ba cf6d 16bc 8191 89bd
00000170: 98b6 963b 7d05 0bbe e2f2 abbd cdf4 81bc
00000180: ae4f 0ebe e666 eebc f901 00bc d33e 23be
00000190: 284f 15be c6be 4fbe 8411 23be 3d22 06be
000001a0: 909d 26bc ef8a 38bc 8340 eb3b 571a 16bd
000001b0: 28d7 24be 5a6f 4fbe 2e36 233d 6e01 67bd
000001c0: ba4b f3bc 2e4d 45be 6373 09be 2cb2 c6bd
000001d0: 39b0 343d 95b8 29be f6db cfbb bec9 37be
000001e0: 323b 0bbc 290f 86bd 0ed2 c2bd ba45 0fbb
000001f0: d1df 2fbe cc06 abbd b688 02be 32ba babd
00000200: 6084 933d 1042 ab3c 8588 7d3d a870 45bd
00000210: 7cd4 b2bd 0a7e 883b 169b c83c aaf3 183e
00000220: bbc4 cfbc f478 d73d 72b1 463d a91c c8bd
00000230: dd25 fb3d f18b 81bc 7b08 893d d274 353d
00000240: 7caf 6bbc fd03 a43d 200b 47bc 4cf6 bb3c
00000250: 0b55 203d 81bf 8c3d 01b3 283d ecfb 5ebd
00000260: 3dac 39bc 3848 12be dc87 31bd b927 8cbc
00000270: d9cb 86bd 5d43 813d c5ef 1fbe 7e5d c5bd
00000280: 5b46 2b3d 3a64 073b d5c8 57bd d360 e1bc
00000290: 34d9 b53c 911f f3bd 4dc4 233e 146b 35bc
000002a0: 80ab 0ebe 7d8a 5d3c aa1b a1bd 8135 9ebd
000002b0: c42a 05be 45a9 063d 1b8e d63c 56de 673a
000002c0: 19ec 93bd c687 79bd 5bc3 4abb 4707 d9bc
000002d0: d545 00be 76ae df3b 3f0c b83d fe2d 6c3c
000002e0: 87fe 563d 539b 0dbd 3c09 803d b27b 2abd
000002f0: 71d7 7dbc 469b 7abc c8d3 04be d82a 20be
00000300: 01c1 233d c310 ce3b 95c3 86bc 10b4 e13c
00000310: 4385 393d 8a46 83bd b694 fabd 8f0d 1d3b
00000320: b6b3 b7bc 4d24 de3d 1c1d 9ebd d3e0 103e
00000330: ddf4 a43c bac1 76bd 3b4b 0ebe d4d8 353e
00000340: 5c74 14be 2bcd eb3d 7b97 19bd 5062 c1bd
00000350: 5a46 9bbd 0009 0b3e 8b4c 223d 1fe0 17be
00000360: 4d06 f9bd c21c 273d 3d91 c53d 464a 8cba
00000370: 18fb 4e3c cda0 fbbb f2c2 1bbe 3d8c 0e3d
00000380: abb5 12be 0619 04bd df76 0ebc 62e9 5db8
00000390: cbc0 833c c431 9ebd 98da 033e 778b acbd
000003a0: ac6a 933d 7343 83bc ad2f 68bd 1665 643c
000003b0: 6e9c 53bd 67fd 123b 2f03 0d3d 10b6 42bd
000003c0: b831 af3d 0aca 2ebd 1316 20bd 7bf1 873d
000003d0: addc 93ba 92c0 efbd a5f7 f93b df36 993d
000003e0: 8add 23bb c15c 5a3d 6927 36be b342 d3bc
000003f0: 487b 89bd 1ba4 de3d bc04 c1bc 04e6 2cbc
0.036252912 -0.012347609 0.0134405345 0.04926814 0.12743807 0.11381634 -0.17079177 -0.103133924
0.13352838 0.085858695 -0.02440147 0.08773275 0.013242684 0.042045917 -0.0780072 0.07198458
0.06339116 -0.034204185 -0.08361465 -0.024099007 0.013923633 -0.041834794 0.05080085 -0.036728214
0.009615414 0.089993335 0.086523 0.0536125 -0.1330318 0.111667275 -0.08222322 -0.09487243
0.0044119987 -0.017769733 0.014163532 -0.028653711 -0.066901855 0.060868137 0.05958572 0.0757759
0.13428468 -0.08374158 0.006627129 0.13513105 -0.01694146 -0.034709394 -0.1250093 0.016723212
-0.027757091 -0.058703825 -0.10815531 0.06229283 -0.058428735 0.030909041 0.1633176 -0.10944645
-0.083571345 0.08643766 -0.04687239 0.043240283 -0.04879107 0.15802708 0.06589264 -0.120201856
-0.045001827 0.019267052 0.004304582 -0.04690556 -0.1357496 -0.07795889 -0.16481833 0.05520457
-0.0588831 -0.0376114 -0.07853789 -0.16101404 -0.087069705 -0.0006272403 0.057226457 -0.067361824
-0.04754452 -0.08748222 -0.06509799 0.04199811 -0.041001007 -0.0040209275 -0.16753091 -0.03761422
-0.07897501 -0.0017712548 -0.009181454 -0.06717206 0.0045994036 -0.13576312 -0.083959356 -0.0158638
-0.13897583 -0.0291018 -0.00781297 -0.15941934 -0.14580977 -0.20287618 -0.1592465 -0.13098998
-0.010169402 -0.011263593 0.0071793213 -0.036646213 -0.160977 -0.20257321 0.03984659 -0.056397848
-0.029699195 -0.19267723 -0.13422923 -0.09701952 0.04411337 -0.16574319 -0.00634336 -0.17948052
-0.008498 -0.0654586 -0.09512721 -0.0021861629 -0.17175223 -0.08350906 -0.12747464 -0.09117545
0.07202983 0.020905524 0.061897773 -0.04820314 -0.087319344 0.0041654157 0.024488013 0.149367
-0.025362363 0.10521117 0.04850907 -0.097710915 0.12263081 -0.0158138 0.06691071 0.04430086
-0.0143851 0.08008573 -0.0121486485 0.022944592 0.039143603 0.06872464 0.041186336 -0.05443947
-0.011332569 -0.14285362 -0.043342456 -0.017108785 -0.065818496 0.06311677 -0.15618809 -0.09636973
0.041815143 0.0020659105 -0.052681763 -0.02751199 0.022198297 -0.11871255 0.15992852 -0.011072893
-0.1393261 0.013521788 -0.078666046 -0.07725049 -0.13004595 0.03287627 0.026190808 0.00088450813
-0.072227664 -0.0609205 -0.0030939195 -0.026492728 -0.12526639 0.0068262173 0.08986711 0.014415262
0.05248883 -0.034571957 0.06251761 -0.04162187 -0.01549326 -0.015295809 -0.12971413 -0.15641344
0.039978985 0.0062886192 -0.016450683 0.02755168 0.045293104 -0.06409939 -0.122353956 0.002396438
-0.02242456 0.108467676 -0.07720396 0.14148264 0.020136291 -0.060243346 -0.13895886 0.17758495
-0.14497513 0.11513742 -0.03749798 -0.0944258 -0.07581778 0.13577652 0.03962378 -0.14831589
-0.12159405 0.04079891 0.09646843 -0.0010703288 0.012633108 -0.007679081 -0.15211084 0.03480171
-0.14327113 -0.032250427 -0.008695333 -5.290786e-05 0.016083142 -0.07724336 0.12876356 -0.08425038
0.071980804 -0.016023373 -0.056686092 0.013940116 -0.051662855 0.0022428872 0.034426864 -0.04753691
0.08554405 -0.04267315 -0.03908355 0.066378556 -0.0011280976 -0.11706652 0.0076283985 0.07481169
-0.0025003874 0.053311113 -0.17788471 -0.02578864 -0.06712967 0.108711444 -0.023561828 -0.010552887

lstm.bias_hh_l0 f4 [256]
00000000: a08d 5cbd c964 98bc 4739 ecbd 5878 fabd
00000010: 7cbb ca3d c759 14bd 6e3e 83bd 1b18 ebbc
00000020: 7d29 ea3d 4180 36bd 2f34 4abc 3e15 203d
00000030: 97e3 bebc 13f4 bf3c 2e9c bfbd 1a3f d73d
00000040: d7b6 cbbd 2ab9 5a3d f6b6 b4bb fafd 37bd
00000050: 554b 09be 5124 da3c 6a36 943d 707c c73c
00000060: 8e1b 59bd 1981 f63c d38b 653d b059 073e
00000070: 8fd3 673d ba57 5abd 48d9 93bd d1b5 8c3d
00000080: 2a06 b8bc 2fcb 25be a898 74bd d8c1 a3bc
00000090: 5237 91bd 5138 8dbd 3647 053e c789 48bb
000000a0: 7c63 c23d faf9 02be 24ae d33c c73d 8f3d
000000b0: 019c f6bd 95c1 a3bc 39b7 a8bb 3324 98bd
000000c0: c61d 9e3d 558e ad3d 7fa4 d3bd 1276 f5bc
000000d0: eb9e 253d 2bea f9bc edd7 103d a08a 1c3d
000000e0: 7913 0cbe 214a aa3c 8ab5 c2bd e57b f53b
000000f0: e9d0 12bc d9ac 683c e29b 0fbd 6bba a83c
00000100: 5bb2 3abe 65e8 7d3c bf4d 013b a39b 17be
00000110: 7d5c 4fbc 5537 303d 5dcf 1cbe 16cd 57bd
00000120: cefb 53bd e6ad 9dbd d8da 50bc 6145 c7bd
00000130: 3bed e8bd 1ccf eabc 4de8 003d c5b2 243d
00000140: 58e3 5bbe 7e86 c4bd a958 a9bd 61c0 f8bd
00000150: f9b0 cabd cc18 38be 7125 fbbd 5f36 e6bd
00000160: 39b2 f1bd 4c6c 40bd e5f1 6cbb 117d 0fbe
00000170: 4ad2 2f3d 536b c0bc 88ec 12be e988 a1bc
00000180: 657b 76bd 5b10 3a3d a93f 67bd 38c6 debd
00000190: 5f26 8a3c 6fdf 64be c802 44bb 478e 3ebe
000001a0: d6bd 9ebd 361f 89bd 5773 34be 6c4a e2bd
000001b0: fe50 08be aa7c d9bd 365f 1bbd 1b27 22be
000001c0: 8580 c3bc e3d9 9fbd 9f73 63bd 0d63 89bd
000001d0: 93b7 06be efa7 8dbd de3b 3ebd f8c3 cf3c
000001e0: 1867 ecbd 0fb6 3ebe 6053 1dbd fe5e 2bbe
000001f0: ffc7 3dbe fc99 1fbe ab28 bbbd f145 b6bc
00000200: a70a 5abd bd04 ad3b f736 b7bd 1e23 e23b
00000210: fed5 843c 4404 ce3d 367c bb3d ea3b 5fbc
00000220: 68b1 4dbd 4b40 30bd 1d4d 3fbd 34d4 aabc
00000230: 1b76 8b3c be43 ea3d 28d4 cd3d 2990 7d3d
00000240: 685b 9abd 2266 61ba 63aa af3d 091d 84bd
00000250: 3980 27be 8dec e9bb 8cbd a03d 141e b23d
00000260: 691d 173a 70a4 273d 3684 e33d 8bfa dfbc
00000270: ce99 03bb 4841 0bbe 6d56 853d 0959 b0bd
00000280: 6db1 63bb 9d28 70bd 79e6 2cbd b2e1 b43d
00000290: 322b 813d 7f88 84bc b18e f7bc 94e3 38bc
000002a0: 292f 183d 2cb7 a03d afac 82bc 2d5f 90bd
000002b0: 806e 843c 7d45 1abe 22b3 833d ca43 c0bd
000002c0: 406d 18bd a138 143e 4e44 923d 4449 1d3e
000002d0: bbbe 40bc e647 343d f193 603d 08a9 8a3d
000002e0: 22f6 05be cd57 073e 8e29 463e 7dcc 54bd
000002f0: 350a 123e 472c 093e 4e57 51bc db2f 35bd
00000300: fcc0 63bd 540f f5bd d324 dbbd c432 88bd
00000310: 1078 0dbd 8a03 42bd bf03 683c e5ab abbd
00000320: 932c 52bd d9ac 9abd ee9a 2cbd e15a 6a3d
00000330: aa24 90bd 89a2 cebd 7106 c63c 9fde 333e
00000340: 7556 23bc 142a bc3d 0312 093b 130a 1e3d
00000350: 5b22 933c 76a5 9b3c 7426 3f3c 141f a7bd
00000360: e28d ae3b 71f0 e3bd 23bc c7bc b71d b23b
00000370: bdbb a8bd b8f3 e83d 9b8f dbbd d94d b0b8
00000380: e2f3 65bd b590 cdbb 5533 11bd de59 61bc
00000390: ad02 7abd 8500 183d 96c8 a3bd fcf4 d5bd
000003a0: d698 d53d 1118 e93c 29e0 90bd beb7 f1bc
000003b0: 3e70 cd3d fea3 953c 6f8c 14be ec2d b03d
000003c0: 16b8 103e 2055 823d 7b14 d73d 3e05 d3bd
000003d0: 76ef 27bd 53b1 dd3d b9f3 c3bc 0611 e8bd
000003e0: f356 843c 4240 bdbc b262 04bd 44a3 b6bd
000003f0: 3b74 0f3e 1762 143e cf77 c7bd 2a3b dfbd
-0.053846 -0.018602746 -0.11534362 -0.12229985 0.09899041 -0.03621843 -0.06408392 -0.028698018
0.114336945 -0.044555906 -0.012341543 0.039082758 -0.023301883 0.023431813 -0.09355961 0.105100825
-0.09946983 0.053399242 -0.0055149747 -0.044919945 -0.13407643 0.026628645 0.07236941 0.024351329
-0.053004794 0.030090855 0.05604155 0.13217807 0.056598242 -0.05330632 -0.072191775 0.06870616
-0.022463877 -0.1619079 -0.059715897 -0.019989893 -0.0709063 -0.06895507 0.13015446 -0.00305997
0.094916314 -0.12790671 0.025839873 0.06994205 -0.12041474 -0.019989768 -0.005148795 -0.074287795
0.077205226 0.08474413 -0.103341095 -0.029963527 0.04043476 -0.030507168 0.035362173 0.03821814
-0.13679303 0.0207873 -0.09507282 0.007491576 -0.008960941 0.014201366 -0.03506077 0.020596704
-0.182321 0.015497302 0.0019730178 -0.14805464 -0.012656328 0.04302152 -0.15313478 -0.05268582
-0.05175381 -0.07699184 -0.012747489 -0.0973003 -0.11373373 -0.02866321 0.03147154 0.04020955
-0.21473444 -0.09595965 -0.08268864 -0.12146068 -0.09897036 -0.1797821 -0.12263001 -0.11240839
-0.118015714 -0.04697828 -0.0036154923 -0.14012553 0.042925157 -0.023488676 -0.14348042 -0.019718604
-0.060176272 0.045425754 -0.056457195 -0.10877651 0.016864 -0.22350858 -0.0029908884 -0.18608962
-0.07751052 -0.06695406 -0.17622124 -0.11049351 -0.13312146 -0.10619481 -0.037932597 -0.1583523
-0.023864994 -0.078052305 -0.055530187 -0.067083456 -0.13155966 -0.069167964 -0.046443813 0.025362
-0.11543101 -0.18624137 -0.03840959 -0.16735455 -0.18533324 -0.15586084 -0.09138616 -0.022250148
-0.053232815 0.005280106 -0.089460306 0.006901159 0.01621532 0.10059407 0.09154551 -0.0136251245
-0.050218016 -0.043030065 -0.0467044 -0.02085314 0.01702409 0.11438702 0.10050231 0.06190506
-0.075369656 -0.0008598288 0.085774206 -0.064508505 -0.16357507 -0.0071387948 0.07848653 0.08697143
0.00057645753 0.040928304 0.111092016 -0.027341148 -0.0020080688 -0.13599122 0.06510625 -0.08610732
-0.0034743205 -0.05863248 -0.042211983 0.088321105 0.06307067 -0.016178368 -0.030219408 -0.011284728
0.03715435 0.07847437 -0.015951483 -0.07049403 0.016165972 -0.1506557 0.06430651 -0.0938793
-0.037213564 0.14474727 0.07141934 0.1535998 -0.011764224 0.04401388 0.054828588 0.067705214
-0.13082173 0.13217087 0.1935179 -0.051952828 0.14261706 0.13395797 -0.012777163 -0.04423509
-0.055603966 -0.11965814 -0.10700383 -0.06650308 -0.03453833 -0.047366656 0.014161049 -0.08382396
-0.05131204 -0.07552499 -0.04213994 0.057215575 -0.07038243 -0.10089595 0.024172993 0.17565392
-0.009969343 0.09187713 0.0020915277 0.038583826 0.017960718 0.018999796 0.011666883 -0.081602246
0.0053269723 -0.11129845 -0.024381703 0.005435671 -0.08238933 0.11374611 -0.1072075 -8.406834e-05
-0.056140788 -0.006273354 -0.035449345 -0.013754336 -0.061037708 0.03710987 -0.07997243 -0.10447118
0.10429542 0.028453859 -0.07074005 -0.02950656 0.10031174 0.018266674 -0.14506696 0.08602509
0.14132723 0.063638926 0.10501953 -0.10303734 -0.040999852 0.108248375 -0.023919927 -0.11331372
0.016154742 -0.02310193 -0.032320686 -0.08917859 0.14009182 0.14490543 -0.097396486 -0.108999565

lstm.weight_ih_l1 f4 [256, 64]
00000000: b21b cb3d 7f28 ebbc 8cc2 13bb f518 173d
00000010: e574 81bc 8f86 33bb b092 47bd 63b2 62bd
00000020: efd8 a03c 19e3 103c 4c9f 283c 7a1c d1bd
00000030: 683f e23d b2c9 673d 26cc 02bb d196 c13c
00000040: 0f52 44bc cd07 013d 552f 643d 2cff 963c
00000050: 09ea e7bd 0ab2 e43c ee04 b73d 1002 83bc
00000060: b87b b13d 880d d63d 6a2b 7d3d cab7 883d
00000070: 532c b93c 0304 50bd fa42 a23c 327b 84bd
00000080: 3b06 05bd 4db4 c2bd 595c 7eba ef2e fa3d
00000090: b10f a13c c5ca e5bc ab83 a33d 3517 02bd
000000a0: 98fa 8c3d d67f cc3d 74ee d7bc 1c85 e03b
000000b0: a161 dcbd e32c a7bd 06ec 29bc b62a d93c
000000c0: 4096 1a3a 96bc 32bc 336a 923d 41c6 23bd
000000d0: d562 953c 73bc 163e fe96 a4bc 8c22 aa3d
000000e0: 50f1 fc3c ad87 123d 0d26 8c3d d4a7 01be
000000f0: 4d4f cfbc 7aa2 86bb 1b2d c0bd fa82 1bbd
00000100: 0ccc 05be 4274 e9bc 6a3f 953d 04fd 8fbd
00000110: 530a fabc 7b55 90bc 21f3 afbd 05df a7bc
00000120: 0252 c2bd 2f7c 533d e261 a63c 1422 293c
00000130: 5858 bd3d f6ef f8bd 9c9c 01bd e333 5dbd
00000140: 25e0 f93d d40b eabd 05b4 edbc 5bbe 91bd
00000150: c126 253d 3110 dbbd 5d12 cbbd a47f bfbd
00000160: 4a07 70bd 47d6 ca3d 7c39 e03c 1862 c9bd
00000170: 21b8 003e 9d39 383c d138 343d b7f5 44ba
00000180: 32c5 8bbd 6589 93bd 13ea 55bd 5cb6 7dbd
00000190: 557c 8c3d ff97 88bc 0849 c7bd a6a5 323d
000001a0: 6e0c 26bc 9f4c bbbd 1cb1 fa3d d76c 13bd
000001b0: 7764 b5bd 02cc a83d d396 5d3d 8d99 f5bc
000001c0: 0d1a c13d 1f0f 76bd e348 4cbd 1a71 9dbd
000001d0: 3c4e b0bc 393c 8e3d 4f07 11be 26cc 953d
000001e0: 0544 da3d 6660 9dbd b6da bbbd d04e 8c3c
000001f0: 99c4 5bbd e8f0 03be b7df dc3d 648f 053e
00000200: ba6f 823d ee31 6b3c 6e20 88bd da71 9ebd
00000210: b651 4abd 81b2 d13c a4f6 c73c 1fd2 07bd
00000220: 91a5 d5bd 1d8a 27bd c363 49ba 5832 9cbd
00000230: 9bf5 1a3d 3082 37bc 67b0 38bd aed9 b4bd
00000240: e8d3 3dbd 25c4 96bd 36e0 313d 2da9 d3bc
00000250: a33e a5bd 9536 a0bb 2354 6cbc 8514 07be
00000260: da3d 3e3d daa8 173d f35a c33c cc1b 103d
00000270: d7ed 29bd 4059 9abd b66b b43d 99b9 0e3e
00000280: 8270 b43d 180f 933d 4f9e 043d 66ab 073d
00000290: 14ca 91bd f956 183d fbe8 c3bd 72e9 cabd
000002a0: 0d82 803d 5561 91bd bd90 65bd c63e 4f3d
000002b0: 4061 383d aa00 703d 3561 2fbd 1e26 3a3d
000002c0: f004 faba fe5e f2bc 8643 43bc 00a6 073d
000002d0: 5b2f 99bd fab2 dcbc c000 49bb 597f 25bc
000002e0: 30ac a53d 87be 43bd d4ce 6a3d 7c74 bbbd
000002f0: b182 acbd 95d0 ddbd ee2c 9bbd 366f bb3d
00000300: 259c fb3c c0f8 dc3b 41a8 d63d b15f 1d3d
00000310: 66df a73d 6f59 8f3d 0830 e5bd eca8 433d
00000320: b17d 9a3d 8d2b 753b 59a3 b3bc 4c0f ff3d
00000330: ce96 47bd 4e99 17be 83f0 babc 2c18 fbbc
00000340: 20ec c73d 3df6 343c a9c0 fc3a dce1 153e
00000350: 19c2 f43d 1dd5 b6bd cc83 9dbd 82e5 6dbd
00000360: 13af ea3c 057b 81bd 1f53 1cbd f118 ad3d
00000370: 328d 81bd aad4 f53c 638c 9f3d 517f 933c
00000380: 4be3 b1bd d48a b1bc f505 d7bd de46 0dbe
00000390: ca4d 383d 7408 163d 1de4 5fbd c910 a33c
000003a0: 5bc2 85bd c401 91bd cbc5 98bd b743 ad3c
000003b0: 4514 98bb 1f80 e6bb 33c0 493b 1385 50bd
000003c0: f87e 69bd 80c5 bebc 0ba5 2cbd df24 f8bd
000003d0: 3481 a9bd 741c 933c b696 adbc 92a9 89bd
000003e0: c25e f4ba 1435 3f3d 838f 01be f34c 71bd
000003f0: 248d 1abe fa0c 953b 7950 833d bc38 123e
0.09917392 -0.028705833 -0.002254638 0.036889035 -0.01580281 -0.0027393436 -0.048723876 -0.055345904
0.019634692 0.008843207 0.010291886 -0.102105096 0.1104725 0.056588836 -0.0019958108 0.023631485
-0.011982455 0.03150158 0.0557092 0.018432222 -0.113239355 0.027916927 0.08936487 -0.015992194
0.086661756 0.104518 0.06180898 0.0667568 0.022604143 -0.050785076 0.019807328 -0.0646881
-0.032476645 -0.09507046 -0.0009703092 0.12215983 0.019660803 -0.02805079 0.07984098 -0.031760413
0.068837345 0.0998532 -0.02635882 0.0068518054 -0.10760809 -0.08162858 -0.010371214 0.026509624
0.0005897023 -0.01090922 0.07149162 -0.03998399 0.018235603 0.14720325 -0.02009153 0.083073705
0.030876786 0.03577392 0.06843195 -0.12661678 -0.025306368 -0.004108724 -0.09383603 -0.037966706
-0.13066119 -0.028497819 0.07287486 -0.07030681 -0.030522501 -0.017618885 -0.08591295 -0.020492086
-0.09488298 0.051632103 0.020310346 0.010323066 0.09245366 -0.12155144 -0.031643495 -0.05400456
0.12200955 -0.11428037 -0.029016504 -0.071163855 0.04032016 -0.10696448 -0.09915612 -0.093505174
-0.0586007 0.099041514 0.02737116 -0.09833163 0.1257024 0.011244205 0.043999497 -0.0007513421
-0.068247214 -0.0720394 -0.052225184 -0.06194149 0.06859652 -0.01667404 -0.097307265 0.043615006
-0.010134799 -0.09145474 0.12240812 -0.03599247 -0.08857053 0.082420364 0.054098915 -0.029980445
0.09428797 -0.060073014 -0.049874198 -0.07687588 -0.02152168 0.0694508 -0.14162944 0.07314329
0.10657505 -0.07684402 -0.09172575 0.017127424 -0.053654287 -0.12884867 0.10784858 0.1304298
0.063689664 0.014355166 -0.066468105 -0.07736559 -0.049394332 0.025597813 0.0244096 -0.03315937
-0.1043197 -0.0409032 -0.0007682407 -0.0762679 0.037831884 -0.011200473 -0.045090105 -0.088305816
-0.046344668 -0.0736163 0.043426715 -0.025837505 -0.08068588 -0.004889319 -0.014424357 -0.13191421
0.046445705 0.037026264 0.023847079 0.03518276 -0.041486587 -0.07536554 0.08809607 0.13937987
0.08810522 0.07180613 0.032377537 0.033122443 -0.071186215 0.03719232 -0.09565922 -0.099078074
0.06274805 -0.07098643 -0.056046236 0.050596975 0.04501462 0.058594383 -0.042817313 0.045446508
-0.0019074958 -0.029586311 -0.011917954 0.033117294 -0.074797355 -0.026940811 -0.0030670613 -0.010101163
0.08089483 -0.047789123 0.057326153 -0.09153077 -0.08423365 -0.108307995 -0.07576929 0.09152071
0.030714104 0.0067435205 0.10481311 0.038421337 0.08196907 0.0699948 -0.11190802 0.04776852
0.07543505 0.0037409991 -0.021928476 0.124540895 -0.048727803 -0.14804575 -0.022819763 -0.030651174
0.09761834 0.011045036 0.0019283491 0.1463694 0.11951084 -0.08927367 -0.07691154 -0.058080204
0.028647935 -0.06322292 -0.038165208 0.08452023 -0.06325759 0.030008633 0.077904485 0.018005045
-0.08685931 -0.021672644 -0.10499183 -0.13796565 0.04499606 0.036629155 -0.054660905 0.019905465
-0.06531211 -0.07080415 -0.07459601 0.021150453 -0.004641088 -0.007034316 0.0030784726 -0.05090816
-0.057005852 -0.023287535 -0.042149585 -0.121164076 -0.08276597 0.017957903 -0.021190029 -0.06721796
-0.0018643963 0.04668148 -0.12652402 -0.058911275 -0.15092903 0.004548666 0.06411833 0.14279455

lstm.weight_hh_l1 f4 [256, 64]
00000000: a4c7 fbba b376 14bc 5a00 f53c 4853 913d
00000010: a9bf 903c 8d11 8cbc 712a 213c 72f7 5abd
00000020: 8061 163d 931f aebd 7e04 c23c 33c9 883b
00000030: 09fc 513d bdd1 1fbd 16d8 ddbc a866 b93c
00000040: 01e2 443d 44d4 413d 2553 dd3c f844 b23d
00000050: 9f5c 8a3d 10f8 5d3d b185 923c 788e 823d
00000060: 156c 3fbd fc15 823d 6174 283c 9239 87bb
00000070: 0872 1ebc f71d 993b 96e7 cdbb 4874 803b
00000080: 2623 103c cc11 293d b30e 9f3d e0a1 15bd
00000090: b54f ab3d e210 bf3a e652 8dba e52e 99bd
000000a0: 0ab3 5d3d c92f 04bd 32a2 d83b 75b0 debc
000000b0: 144e fa3c a26a 04bd 2f64 ca3c c456 c8bd
000000c0: 88fc 33ba 8ffe 25bd 78b4 803d e3c3 c2bd
000000d0: 310b 6b3d a878 06bd 5c92 3f3b 479b 7abd
000000e0: 6c4b b93c 6cbf ad3a ff46 c3bd e661 bc3d
000000f0: 0ebb 47bd 131c 07bd 6127 32bd aed1 f93a
00000100: 8fad 8a3d 8c6e c5bd edc0 ee3d 7d98 083d
00000110: 1229 0f3c d6c9 103d 1a0b ef3b 8ac8 243d
00000120: 9693 863d 3894 f3bd b69e d93d 9b15 873d
00000130: 9b92 40bb 482b 67bd a29d 343d 754e 183d
00000140: 83c9 64bd dfb1 fd3d 5a76 15bc c657 aebc
00000150: 041f 89bd 4b46 e8bd de65 89bd cfc3 663d
00000160: e419 73bd 604d 57bd 4493 fabc d659 c53d
00000170: d720 c9bd b4a5 46bd 34eb 04bd f298 033d
00000180: eeb9 b5bd 8857 b6bc 2b87 113e 2e90 bfbd
00000190: 0bb3 093e beda 413d 6de5 28bd 5b34 afbc
000001a0: 1bca 3c3d 542d bcbc 8e92 2fbd 7df0 a7bd
000001b0: 903f dfbc f628 dbbd bd0e 84bc 97ae 0c3d
000001c0: 4c9d 353d 7708 1ebd 6d69 373c cb34 97bd
000001d0: 3749 e9bc 2bda 88bd dfaf 89bd 1350 93bb
000001e0: 2f61 fd3c e386 a63d a162 0d3d 2700 af3d
000001f0: 750f fc3b 7b0f b9bc 3ba5 b43d 8c40 76bd
00000200: 59d8 a93d a8ee 2cbd b593 903c f786 663d
00000210: 533f 9d3d 9cc3 edba 0452 ae3d 70b4 ea3d
00000220: b81b 8e3d 4b7c 543d 8e73 34bd 7aed 843d
00000230: 1753 adbd 7b2b c6bb dd2e 163d b63c 443c
00000240: 1796 d63d 6d89 3ebb a124 893d 68fd b83d
00000250: ab31 5a3c c786 65bd 527f 763b 5a76 e6bd
00000260: 0afc 513d e27b 0a3d d47c b3bc dde2 a93c
00000270: e899 8fbd 50bd 743c acd3 9a3c 0996 803c
00000280: 5670 cebc 5ce3 913c 77d6 103c ff6c e53c
00000290: 2a3a 07bd ffcb 683d f2e9 163d c175 5fbc
000002a0: c14f f1bc 7067 aa3d 626a 023d b086 5f3c
000002b0: ed67 dd3d 3164 9ebc 4511 f3bc a753 24bd
000002c0: 8013 bf3d d091 de3b bf92 af3d 869d 11bd
000002d0: 1754 bbbd e504 ab3c 5aa6 8dbd 81d0 2b3d
000002e0: 7a30 a4bc 47e5 983d 5e1f 843d b02b 35bd
000002f0: 5237 ebbd ef03 d8bd 70cd 8cbd ca2d 1ebd
00000300: ae0a 59bd 0167 8f3d 9fcb 7c3d 8fc2 183d
00000310: e59d 663d b059 e1bc daac 77bd 4a0c 443d
00000320: 4507 88bd 6fcb 26bd 0e0a 1e3c fab2 b83c
00000330: be8a dcbd 93b9 09bd 25f6 eb3c 52fc a63c
00000340: 8979 51bd 65d0 a9bd 42eb af3d 64b6 d7bd
00000350: 7ce8 75bd d0f0 50bd 65eb 443d 78bc 023c
00000360: 4c2b aabc 8863 5a3d 7f1d 6f3d 8084 0e3d
00000370: 28b8 83bd 049c 4ebd 2e60 58bd d520 fbbd
00000380: 5255 083e 2f41 2f3d f7ac 8f3d 251a 8abd
00000390: 9346 2ebd 7014 9fbd 170d 91bd b87d bdbd
000003a0: 453f f2bc 6ec5 76bb 7a29 4a3d 9bff 493d
000003b0: 9b4a f4bc 0931 fa3c 63c2 383d d32b b5bd
000003c0: 3942 8a3d d2ae 9c3d e88f 46bd 2281 c13c
000003d0: d355 483d c2df b7bd 6448 e5bd fcc8 e1bd
000003e0: f0b1 413d 8924 a5ba 1d5b 7e3d f3aa 383d
000003f0: d85c 8fbd 074f 40bc 2c01 99bb 9d27 20bd
-0.0019209278 -0.009061503 0.029907394 0.07095963 0.017669516 -0.017098213 0.009836779 -0.05345864
0.036714077 -0.08502116 0.023683783 0.0041743754 0.05126575 -0.03901838 -0.027080577 0.022631958
0.048067097 0.047321573 0.027017185 0.08704561 0.06755947 0.05419165 0.017886015 0.0637483
-0.046733934 0.063518494 0.010281653 -0.004126736 -0.009670742 0.0046727615 -0.0062837107 0.003920112
0.008797443 0.041276738 0.077664755 -0.03653133 0.08364812 0.0014577175 -0.0010782152 -0.074796475
0.054125823 -0.032272134 0.006611132 -0.02718375 0.030554809 -0.032328255 0.024705974 -0.09782174
-0.0006865938 -0.04052597 0.06284422 -0.09510019 0.05738372 -0.03282991 0.0029231524 -0.06118324
0.022618972 0.0013255901 -0.09535026 0.0919836 -0.048762374 -0.032985758 -0.043494586 0.0019059682
0.06771385 -0.09640226 0.116578914 0.03334855 0.008737819 0.035348736 0.0072950246 0.04023031
0.065711185 -0.11893505 0.10625975 0.06595918 -0.0029384259 -0.05643776 0.044095643 0.037184197
-0.05585624 0.12387442 -0.0091224555 -0.021282088 -0.06695369 -0.11341532 -0.06708883 0.05633908
-0.059350863 -0.052564025 -0.0305878 0.096362755 -0.09820717 -0.04849787 -0.03245087 0.032128282
-0.08873354 -0.022258535 0.14211719 -0.09353672 0.13447206 0.04732775 -0.041234422 -0.02138727
0.04609118 -0.022970833 -0.042864375 -0.082001664 -0.027251989 -0.10701172 -0.016120309 0.03434619
0.044339463 -0.03858229 0.011194569 -0.07383116 -0.028477294 -0.06682237 -0.06722998 -0.0044956296
0.03093013 0.08131196 0.034517888 0.08544951 0.0076922723 -0.02259039 0.08820578 -0.06012015
0.08293218 -0.042219788 0.017648557 0.056281056 0.07678094 -0.0018139961 0.08511737 0.11460197
0.06938881 0.051876348 -0.044055514 0.064906076 -0.08463114 -0.0060476637 0.036665786 0.011977365
0.10477846 -0.0029073611 0.066964395 0.090327084 0.013317506 -0.056036737 0.003761251 -0.112530425
0.051265754 0.03380955 -0.021910109 0.02073806 -0.07011777 0.014937714 0.018899761 0.015696542
-0.02520005 0.017808609 0.008840195 0.028006075 -0.033014454 0.05683517 0.0368442 -0.013638915
-0.029456975 0.083205104 0.031839736 0.013642952 0.10810838 -0.019334884 -0.02967132 -0.04011884
0.09329891 0.0067922845 0.085729115 -0.035550617 -0.09146898 0.020876357 -0.06916495 0.04194689
-0.020042647 0.07465606 0.06451295 -0.044231117 -0.11485161 -0.10547625 -0.068751216 -0.038617887
-0.0529887 0.07002068 0.061717626 0.03729492 0.056302924 -0.027508587 -0.06046758 0.047863282
-0.066420116 -0.040721353 0.009645952 0.02254628 -0.107686505 -0.033624243 0.028803894 0.020383988
-0.051141296 -0.08291701 0.08589794 -0.10532835 -0.060036168 -0.051010907 0.048076052 0.007979505
-0.020772599 0.053317577 0.05837774 0.03479433 -0.064316094 -0.050441757 -0.0528261 -0.122621216
0.13313797 0.042786773 0.07015412 -0.06743268 -0.042547774 -0.0776757 -0.07082575 -0.092524946
-0.029571185 -0.0037654298 0.04935596 0.04931603 -0.02982073 0.03054096 0.045107257 -0.088462494
0.06750912 0.07650532 -0.048477083 0.023621146 0.048909973 -0.08978225 -0.11195448 -0.11024663
0.047288835 -0.0012599389 0.06209861 0.045084905 -0.070001304 -0.011737592 -0.004669329 -0.03910028

lstm.bias_ih_l1 f4 [256]
00000000: ad99 a53c 7823 48bb 8e91 d5bd 8de8 a23d
00000010: 69e8 943d 956c d7bd edae 4c3d 8094 093c
00000020: d6fc 833d 5f8e ab3c 30b2 913d 3c2c df3d
00000030: 0f8e 013e d8cf 86bd cb25 08bd 92a3 56bd
00000040: c024 793d a8ed 9abd 1840 babc 534b abbd
00000050: d7f4 0cbe 53d5 d1bd 6307 acbd b469 b0bb
00000060: 47d4 c93d d103 25be fa25 613d 8456 943c
00000070: 018d 3fbd caff 453c 4810 8bbd bda1 4fbc
00000080: c34e 46bd c559 9f3d 100f b1bd ce08 733d
00000090: 5cf2 db3c aefa ce3d 8e0f afbb aa27 ce3d
000000a0: eee8 bbbd 721c 9bbc 21df b9bc da1c a6bd
000000b0: 2784 83bd 01f4 b13d e8d1 8c3d df52 d23d
000000c0: aa7d 993c 8b18 bd3d 9c99 cabd cfc6 94bc
000000d0: a85c 813d 8ee5 2f3c 95d4 25bd 14b1 9dbc
000000e0: 18e8 07be f46c 0f3d c228 74bc a1ce 95bd
000000f0: 93fd 533d b153 82bd 770e 4d3d 6a30 b9bd
00000100: 2262 1ebe 1cc9 49bc 79b5 23bd a8cd d83d
00000110: 9d2b 83bd 71a8 e83d c008 413d 7d5a a43c
00000120: cd6b 06bc 94b9 e6ba f453 3d3d 3ae5 b53c
00000130: ee33 bd3d 2ff4 efbd 1441 efbd 3d9c 4cbd
00000140: 35b4 02be 5821 bfbd 047b e4bd f0af 063c
00000150: 3bc0 41bd 3ce3 d7bd b9d7 653c 5e32 b73d
00000160: 87d8 393d bd2e e3bd fc43 f23d 6ee1 6cbd
00000170: 6f8e d8bc a04e 983d 752b b73d 0b4b 99bd
00000180: 2959 aabd b2a2 563c 80fa 03be 6e26 b1bd
00000190: fdf5 51bd b9ca dc3d bd21 40bd ee28 77bb
000001a0: 2593 0abe d64e 893d 526b fbbd 7d20 c7bc
000001b0: 8a14 b63c e301 10bd e5b6 213d a10c dc3c
000001c0: f2e9 8abd f183 b2bd 741f dc3d 9a55 07be
000001d0: 2b01 6cbd 61af 793d 0c0f 97bc 8c1e 7fbd
000001e0: 5900 02bd 979d 65bc 6f84 173d 563b 74bd
000001f0: 657f c9bb f77c e1bd 3995 a9bc eb0d ca3d
00000200: 0336 503c 34bb 26bc 9b53 71bc f403 983d
00000210: 83ae 4bbd fc78 943d 2953 b13d eb40 e8bc
00000220: ddc4 953d c081 183d 1957 98bd 4792 9abd
00000230: f55a 10bd d54e cd3d f993 853d 8d27 cb3d
00000240: 9a31 a6bc 4d98 04be b8f2 42bd 0b3a b9bd
00000250: 49ad 933d 13c4 51bd fab5 2bbd 8c62 08bc
00000260: 8382 11bd d2c8 403c 7a5f 853d 7ba3 4dbd
00000270: 21e7 173d 9e76 a2bb 3891 9a3d ec85 023c
00000280: 02be 693c 1efd a2bd 8229 843c 7056 333d
00000290: 68f3 0d3e 2df6 1eb5 6865 28bb 514a cd3d
000002a0: 5b85 a6bd 208a 92bc 71ef 003d 9082 cbbc
000002b0: 8b4a ce3d 553b 9c3d 0a06 b83d 220a 913d
000002c0: 97fd d43c d006 143d d1ae a43c fefa 9ebb
000002d0: 03ee dfbb fdf4 c83c d44a 59bc b6ca 98bd
000002e0: f940 403c fcd2 d13d 41f9 223b 0625 8a3c
000002f0: 2624 8dbb d1bd c6bd ffa3 e4bd a3cf 94bd
00000300: cb37 d0bd 6e55 e8bd ca79 fc3c 8e38 1a3e
00000310: ffbe f9bc 6638 d53d 802b c83d cd03 063e
00000320: adc7 123d dab8 783d 19b0 cc3d 4b5b 44bd
00000330: e235 663d bc6c 743d 3f40 f1bd cae2 a1bd
00000340: 3ad1 963c f2d2 35bd d69e 94bd 91e3 81bc
00000350: 2942 08bc 81af 13bd 19fd d6bd 3a02 95bd
00000360: 35c3 2fbd 8a55 ba3d daa6 d83c 9899 bcbd
00000370: b0e3 d33d 0e41 903d a1ca 70bc 0f30 263c
00000380: 1545 c0bd d521 d1bc 9032 cc3d d76b e2bd
00000390: 0042 9bbb f114 c83d e230 9fbd 7c1d 7c3c
000003a0: adfd 453d 2d73 f03d 3271 6abd 2b95 99bd
000003b0: 5979 823d 31fc 703d 3836 2e3e 621f a63d
000003c0: ff04 023e 8906 163e 3ac1 49bd adcd 4b3d
000003d0: f1e3 b13d 1a82 51bc 3664 0abd dae0 a33c
000003e0: 61bc 523c 83f3 ef3c 5b1a adbd 1a94 82bd
000003f0: a282 ce3c 59c2 a8bc dae8 1b3d 70a7 903b
0.02021488 -0.003053872 -0.10428153 0.07954512 0.07270891 -0.10518757 0.04997151 0.008397222
0.06444709 0.020941911 0.07114065 0.10897109 0.12651847 -0.06582612 -0.033239167 -0.052402087
0.060826063 -0.075648606 -0.02273564 -0.08363976 -0.13765274 -0.102457665 -0.083998464 -0.0053836945
0.09854942 -0.16114737 0.054967858 0.01810766 -0.04676533 0.012084911 -0.06790215 -0.012672839
-0.048414957 0.07780794 -0.08645451 0.05933457 0.026848964 0.10106407 -0.0053424304 0.10066159
-0.09175287 -0.018934462 -0.022689404 -0.08110972 -0.064216904 0.08689118 0.06875974 0.10269713
0.01873668 0.09233197 -0.0989258 -0.018161206 0.06316501 0.010735882 -0.040485937 -0.019249476
-0.1327213 0.035016015 -0.014902296 -0.07314802 0.0517555 -0.06363619 0.050062623 -0.090424374
-0.15467122 -0.012316015 -0.039967988 0.10586101 -0.06404803 0.11360253 0.047127485 0.02006268
-0.008204413 -0.0017602914 0.046222642 0.02220403 0.092384204 -0.11716496 -0.116823345 -0.049953688
-0.12764056 -0.09332532 -0.11156276 0.008220658 -0.047302466 -0.105413884 0.014028483 0.08945154
0.045372512 -0.11092899 0.11829373 -0.057832174 -0.026435105 0.074368715 0.08943836 -0.074850164
-0.08317787 0.013100313 -0.12888527 -0.08649908 -0.051259983 0.10780854 -0.046907175 -0.0037713605
-0.13532694 0.0670449 -0.12276329 -0.024307484 0.02222659 -0.03515805 0.039481062 0.02686149
-0.06782903 -0.08716572 0.10748187 -0.13216248 -0.0576183 0.06095827 -0.018439792 -0.06228499
-0.031738613 -0.014014623 0.036991533 -0.0596269 -0.00614922 -0.11010163 -0.020701038 0.09865936
0.01270819 -0.010176469 -0.014729406 0.07422629 -0.049726974 0.072496384 0.0865844 -0.028351268
0.07312939 0.037233114 -0.074384876 -0.075474314 -0.035242993 0.10024802 0.06522364 0.09919653
-0.020287324 -0.12948723 -0.047594756 -0.09044274 0.07210786 -0.05121238 -0.041921593 -0.008324277
-0.035524856 0.011766629 0.06512351 -0.050204735 0.037085656 -0.004957988 0.075472295 0.0079665
0.014266493 -0.079584345 0.016133074 0.043783605 0.13862383 -5.921782e-07 -0.0025695208 0.1002394
-0.08130904 -0.017888129 0.03147835 -0.02484253 0.10072812 0.07628504 0.08985527 0.07082011
0.025999827 0.03613931 0.02010289 -0.004851698 -0.006833793 0.024530882 -0.013262469 -0.07460539
0.011734241 0.1024532 0.0024867805 0.016863357 -0.0043072877 -0.09704173 -0.11164092 -0.07266166
-0.10166892 -0.113444194 0.030819792 0.15060636 -0.030486582 0.10411148 0.09773922 0.13087387
0.035834957 0.060723163 0.099945255 -0.047938626 0.05620373 0.05967401 -0.11779832 -0.07904585
0.018410314 -0.044390626 -0.07256858 -0.015855582 -0.008316555 -0.036056045 -0.10497493 -0.07275815
-0.042910773 0.090983465 0.026446749 -0.09208983 0.10346162 0.07043658 -0.014696748 0.010143294
-0.09388176 -0.025528828 0.099705815 -0.11055725 -0.0047380924 0.09769619 -0.077729955 0.015387889
0.048337627 0.11740718 -0.057236858 -0.07499155 0.063708015 0.05883426 0.1701287 0.081114545
0.12697218 0.1465093 -0.04925654 0.049756695 0.086860545 -0.012787366 -0.033786975 0.020004679
0.012862296 0.02929092 -0.084522925 -0.063759044 0.025208775 -0.020600485 0.03806386 0.0044144914
