Cheyi Wu/FinalProject/Garch/LSTM-Garch/IBM/lstm_garch_model.pth (torch, 229302 bytes, 13 tensors)

lstm.weight_ih_l0 f4 [256, 7]
00000000: c8e0 b53d 9928 ad3d e299 19bd e260 f13d
00000010: ff77 14bb 7196 373d 356a 7dbd 893c f73d
00000020: 1fd9 2a3e 2dee f4bc 7eee fd3d 9714 b03d
00000030: 524e a63d 2c6b b93d 4b6e e33d 398e 5d3d
00000040: cbd6 1d3e c64e 833d df81 c73c 5ae0 123c
00000050: 17a1 243d b0db 5e3c 3c62 60bb dad6 da3d
00000060: 4e76 d8bd 5902 5bbd 0932 ce3b d976 37bb
00000070: 3062 f2bb 6f2b 0cbe 8514 8f3d 5306 6dbd
00000080: 3e55 1c3e 3eba ab3d 99d7 8dbd 386e 473d
00000090: de12 9e39 4d3f 603d 02ce f63d c767 7e3d
000000a0: f05f 7b3d ef1b 59bd dffa 743d 9fdb 043e
000000b0: 7354 7d3d 3897 603d b99a 793e 2118 a73d
000000c0: 1ea4 7f3d 01ba 12bd 2036 9abd c345 b5bc
000000d0: 5895 febc 2602 893d df82 803d 6b33 a93d
000000e0: eca2 823b c831 01bd b964 1c3d 1ce0 afbd
000000f0: 45c5 4f3d 7dad 33bd a7ad 8abc 4d1d e1bc
00000100: a417 ea3c da4e f5bc b174 07bd 3231 e7bd
00000110: 0ea1 b9bc 6112 bdbd 7f3f aa3d 76f2 87bc
00000120: 0906 bf3d 8b83 933b 3bc5 81be 3b0b 2dbe
00000130: a7a2 17be 27d8 a53d 643d a33d f884 ef3d
00000140: 1052 c73d ed7a 9bbd d4b2 493d 9dc1 debc
00000150: 99b2 103d d31f c5bd e1f8 f63c 2c64 25bc
00000160: 83fd d93c 7a1c d23d 5e7b 62bd 7b2e 79bd
00000170: 094c fe3c 77b6 6f3c 9b21 d8bc c7b6 9abd
00000180: 29ab bc3d 9b01 e5bd a501 7ebd 84a4 1ebe
00000190: f397 f7bd 9606 bd3d 32d3 21bd 514a 08bd
000001a0: edd8 afbd 04aa a9bc cda9 8dbc e1bd c1bc
000001b0: 55e2 80bd 4425 a83d 40c5 3f3e e006 883d
000001c0: b524 0c3e 277d d1bc b93b 8f3c 0c90 2abe
000001d0: 2c5f 7e3b a7fb 1ebc 4620 2a3c 553a 85bd
000001e0: e91b 543c 108a 8abd 4de0 00bd 6b8a 37be
000001f0: 685a 70bd f3eb d2bd 63fd 81bd 35c7 00be
00000200: 8524 2b3d 7bd8 643c bcc6 9f3d 3a0b a03d
00000210: 18a6 21be e7ae e63d a4a6 faba 8369 dabc
00000220: 1357 bb3b 611d b8bd 6def 373d 1b26 49bc
00000230: e3ab a03c d331 0cbe fb52 0e3d 946f 0cbd
00000240: aa19 413d b879 a3bc 9b23 42bc 9862 833d
00000250: 96ed 923d b468 14be 24fa 843d 1a35 1fbd
00000260: 5026 ccbc 4185 09be 7e26 243e 064b 31bd
00000270: cd09 0c3e fc47 bcbc dbd9 6f3d 98e9 a439
00000280: 7ac1 293e 711b 9b3d 6c3d 913d d607 47bd
00000290: 6a1b cd3c 3c0b 8c3c c6ca 5d3d 2549 353e
000002a0: 306a 8d3d d104 83bc 66b0 2bbc f925 16bd
000002b0: b7e6 d43c 6bd2 aebc 53b4 953b 2648 7cbd
000002c0: fc21 dcbd 9faf c538 26b4 113e 4ca0 8cbd
000002d0: 735a 9c3d 721e ba3c 4e01 aa3c ed2c 02bd
000002e0: 543b 2f3d 09ba 4e3e 2a3c 173e c243 25bd
000002f0: ed61 01bd 6750 20bd 3722 6cbd df2f c4bd
00000300: eda2 b03d adec 1b3e ad0d f3bc dd93 99bd
00000310: 0f9e 003d f72f 1f3d 3738 823d 2ea2 a53d
00000320: 15ee d1bd be69 66bd 3ad5 1f3e b7e8 923d
00000330: 01b8 a63c ea31 8bbd 2693 75bc ccff a53c
00000340: c985 84bd c809 303d 6299 103e d64c f73d
00000350: c4e9 12bd 60e3 b6bd 9c30 963d 6aad 5d3e
00000360: fbc3 c83d 4115 dcba 4e2e 6e3d 8250 0fbd
00000370: ad28 163a cfd0 bf3d c5c9 81bd 6b74 1ebd
00000380: 26ab c6bd df66 b93d b8a9 c63d a6f0 a23d
00000390: 2bd7 cabd eb10 0dbe 26f8 9abd f723 803d
000003a0: 3409 853c 882e 973d 7db0 48be 44e1 a33d
000003b0: 2635 c6bc c51f 05be 31de 21be 4c8a 35be
000003c0: e636 2fbd c102 8f3d 3d8d febd ec2e 5cbd
000003d0: 8087 efbd c99c 55bd 6591 06bd d54f 823d
000003e0: aff5 053d c876 043e f79f 55bd 6045 4bbd
000003f0: f2ba c9bd 6df0 11be 6223 0dbe a614 84bd
0.08880764 0.08455009 -0.03750027 0.11786057 -0.002265453 0.044821206 -0.061868865 0.12072093
0.16684388 -0.029898727 0.123990044 0.08597677 0.08120407 0.090536445 0.11105021 0.054090712
0.15413968 0.06411509 0.02435392 0.008964622 0.04019269 0.013602182 -0.003423824 0.10685511
-0.1056944 -0.053469036 0.0062925857 -0.0027994423 -0.007396959 -0.13688444 0.06986336 -0.05786736
0.15266892 0.08385132 -0.069258876 0.048689097 0.00030150166 0.05474787 0.120510116 0.06211069
0.06137079 -0.053005155 0.05980956 0.12974404 0.061848115 0.054831713 0.24375428 0.08158899
0.062412374 -0.03582192 -0.07529855 -0.022127992 -0.031077072 0.06689863 0.06274962 0.0826176
0.003986707 -0.031541616 0.038181994 -0.08587667 0.05072524 -0.043866623 -0.016928507 -0.027479792
0.028575726 -0.029944826 -0.03307027 -0.1128868 -0.022659805 -0.09232021 0.08312892 -0.016595107
0.09327323 0.004501765 -0.25345787 -0.16898815 -0.1480814 0.080978684 0.07970694 0.11695284
0.09732449 -0.075918056 0.04924281 -0.027191931 0.035326574 -0.096252106 0.030147972 -0.010094684
0.026610142 0.10259338 -0.055293433 -0.060835343 0.031042116 0.014630905 -0.026383212 -0.07554393
0.09212334 -0.11181947 -0.062013287 -0.15492445 -0.12089529 0.09229772 -0.039508052 -0.033274
-0.08586297 -0.020710953 -0.017292881 -0.023650112 -0.062931694 0.08210233 0.18727589 0.06641936
0.13685878 -0.025572373 0.017484533 -0.16656512 0.003881405 -0.009703553 0.010383671 -0.065052666
0.012946107 -0.067646146 -0.03146391 -0.17923896 -0.058679968 -0.1029891 -0.06347158 -0.12575991
0.041782875 0.013967629 0.078015774 0.07814641 -0.15786016 0.11263829 -0.0019123149 -0.02666164
0.005717167 -0.089899786 0.04490607 -0.012277151 0.019613212 -0.13690881 0.034747105 -0.034286097
0.047143616 -0.019955501 -0.011849309 0.0641529 0.07174222 -0.14493066 0.06493023 -0.038869
-0.024920613 -0.13429739 0.16030309 -0.04328444 0.13675614 -0.022983544 0.058557373 0.00031454558
0.16577712 0.075735934 0.070917934 -0.048591457 0.025037486 0.0170952 0.054148458 0.17703684
0.06905019 -0.015993508 -0.010479068 -0.036657307 0.02598892 -0.02134057 0.0045686155 -0.061592244
-0.107486695 9.426404e-05 0.14228877 -0.06866512 0.07634439 0.022719596 0.020752575 -0.031781126
0.04278119 0.20188154 0.14769045 -0.040347822 -0.03158753 -0.039139178 -0.057649817 -0.09579443
0.086248256 0.15227003 -0.029669607 -0.07498906 0.031400736 0.038864102 0.063583784 0.08087574
-0.10250489 -0.056253187 0.15608683 0.07173293 0.020351412 -0.0679663 -0.014988696 0.020263575
-0.0647083 0.042978078 0.14121011 0.12075202 -0.035867468 -0.08930087 0.0733349 0.21648183
0.09803005 -0.0016791002 0.05814963 -0.034988888 0.0005728107 0.09365999 -0.063373126 -0.038685244
-0.09700613 0.09052824 0.0970034 0.07956056 -0.09904321 -0.13775985 -0.07566862 0.0625686
0.01623974 0.07381922 -0.19598575 0.080019504 -0.024195265 -0.130004 -0.15807416 -0.17728537
-0.042776965 0.06982947 -0.12429283 -0.053755686 -0.116957664 -0.052151475 -0.032853503 0.06362883
0.032705005 0.12935936 -0.052154507 -0.049626708 -0.0985011 -0.14251871 -0.13783029 -0.06449251

lstm.weight_hh_l0 f4 [256, 64]
00000000: bc5b 24bd 4a76 893d a88b 1bbc 09d7 3cbd
00000010: 8647 87bd 6874 4ebd bac1 6b3d d665 d3bb
00000020: 6451 a5bd 4595 9b3c 5986 333e 6a88 c3bc
00000030: 7f3b ed3d 3749 e03c 3b00 043d aa88 993d
00000040: 1326 473d 1d68 223d 99c1 623d 25b9 b4bd
00000050: f66b a6bd f5e7 ed3d 7bfd 0eba 6bbd b03d
00000060: 4af3 b2bc 11f5 9ebd 8350 7cbc d786 0d3c
00000070: f991 6cbd 9770 813a 41dc 1f3c 1709 833c
00000080: 95b1 863d 8242 26bc 94e6 05bd 8c2c d4bc
00000090: fbcf 623d 2c69 073d 5508 2abd e718 afbc
000000a0: a3de 8fbd 1909 22bd ea07 6c3c c39b 97bb
000000b0: 1012 8cbc a1e4 2fbb 393e 8b3d f4e0 43bd
000000c0: edc8 a9bd 0910 a43d 44f4 493d a179 9dba
000000d0: 3620 60bd bd44 ff3c 2734 10bd d847 7d3d
000000e0: d817 4c3c e606 9fbd 1544 fb3d 6d60 73bd
000000f0: 4f6d b3bd ba29 ea3d 3ec4 dabc 0c8e 513d
00000100: 9ae3 f7bc 835f 75bd 5400 7ebc 6de0 e43c
00000110: bca0 b33c ee94 22bd 9ebc 843c 19c0 033d
00000120: abb3 5dbd 2f0c 983d e8fc 993d 8e8f 893c
00000130: 30a6 043e 9bbd 8e3c 0cb7 963d 4b77 b53c
00000140: ab67 eb3c 411e d93c 0fe8 b6bc 8714 c13b
00000150: 25f4 2fbd d0f3 be3c a452 803c aafe 66bc
00000160: e6fd 04bd 8156 10bc 39c8 a83c 8ffa 373c
00000170: 64bf 393d 4abd f8bb d908 043b 926a 35bc
00000180: 78cf 283d 1fc1 c63c 7cb2 10bd 6f7d 383d
00000190: 6e4a 8d3c b233 de3c fcd8 30bd fcbd f1bc
000001a0: f87b a33a 6827 46bc 3aba 223d 7c8a 80bd
000001b0: 52e9 bd3c f490 f4bc d634 3fbd feaa 513c
000001c0: f000 953c e16a 423d f410 63bd 5e43 71bb
000001d0: d644 e1bc 8a98 d43a 9898 5bbd 3a1b 88bb
000001e0: a280 2c3d 95f4 b3bd 3061 c83c e97e 4d3c
000001f0: 9328 debd 1bf7 953c 63a0 903c 3e96 27bd
00000200: 65ce 15bd b2cc 88bd 8f36 c93b ae4d 64bc
00000210: fc15 3d3d ee43 90bc bf02 6bbc 649c 98bc
00000220: 8d4a 313d 12b0 863c c8d6 cebd 1123 d7bb
00000230: 8733 82bd 260f 203c 9b29 82bd afff 08bd
00000240: a4b7 8e3d 1fd0 59ba 141f 063d b12b 873c
00000250: 675b 6e3d 5163 a5bc 300e 283d e4a2 093c
00000260: 1688 af3c b07a 653d 5d2f b7bd a760 54bd
00000270: 00d9 7a3d 381c f2bc 8bb5 1dbd 9ad6 c43c
00000280: f0bf e5bc e556 80bc 0a50 a3bc eb6c 9f3c
00000290: e93e a4bc 248b 083d 2081 bc3c 41b7 b43c
000002a0: 14e2 4b3b e42f ee3a 82cc 10bd 9ece b0bc
000002b0: e6eb 8ab9 109a b1bc d887 1dbd 0dae b03d
000002c0: b0c4 62bc e74b 113d 2930 273d 1b29 c3bc
000002d0: 7607 8fbd d93b 83bd adf2 8ebb c4e5 a73c
000002e0: 5329 4b3c eb75 38bc 888d 743c 225f 8e3d
000002f0: 7469 823c 313d b43c 5e10 243d c148 ee3c
00000300: ca38 e23c cc33 e2bc ba57 31bd 1713 babc
00000310: 341a d5bc c256 443c 510e 093d 3c3c bb3c
00000320: 6ba1 243c bc50 c5bb 22e6 4a3b a8c5 30bd
00000330: 4bb5 423d fec1 a33c 5aec b63b fbfc 313d
00000340: b676 d1bb d503 88bb d708 db3c c9a8 bbbc
00000350: ada0 d0bb 77ef 5bbb f7db a4bc 2a60 5b39
00000360: b3e7 c23b d5fe 24bd a355 da3c 3d48 41bd
00000370: df37 0abd c9a9 8fbd d992 45bc 5f16 8cbd
00000380: 3453 5a3d 4403 2cbd ea79 40bd e500 093d
00000390: c003 683d 9905 afbc 5417 903c 3b9d 46bd
000003a0: 6413 6cbc 17e4 23bc 82c3 9cbd a54f 5abd
000003b0: 2665 7fba 3c0e 61bc 7b4d 4b3d 639b 683d
000003c0: 2e28 81bd 3828 efbc 3920 a4bc ce75 593b
000003d0: 3316 03bb 9b06 66bd 57c1 ab3b b7d6 8e3d
000003e0: 65ad e5bc fd1c 8dbd 9104 bb3c fab3 18bd
000003f0: c8a8 1bbd c7fd b43c 165c b0bc eaff 583d
-0.040126547 0.06712015 -0.009493746 -0.04610351 -0.06605439 -0.050403982 0.0575578 -0.006451349
-0.08072165 0.018992076 0.17531718 -0.023868758 0.115836136 0.027378662 0.032226782 0.0749677
0.048620295 0.03965007 0.05536041 -0.08824376 -0.08126061 0.11616508 -0.00054546417 0.086298786
-0.021844525 -0.077615865 -0.015400055 0.008638105 -0.057756398 0.0009875473 0.0097571025 0.015995545
0.0657684 -0.010147693 -0.0326906 -0.025900148 0.055374127 0.033059284 -0.041511852 -0.021374179
-0.070248865 -0.039559457 0.014406184 -0.0046267225 -0.017098457 -0.0026839154 0.067989774 -0.047821954
-0.08290277 0.08010871 0.049305215 -0.0012014398 -0.05471822 0.031160707 -0.035205986 0.061836094
0.012456857 -0.07764988 0.12268845 -0.05941813 -0.08761083 0.1143374 -0.026704904 0.051160857
-0.030259896 -0.05990554 -0.015503008 0.027939046 0.02192723 -0.03969281 0.016203221 0.03216562
-0.054126423 0.07424199 0.07518941 0.016792085 0.1295402 0.017424395 0.07359132 0.02215161
0.028735956 0.026503684 -0.022327451 0.0058923396 -0.042957444 0.023309618 0.015664406 -0.014098803
-0.0324687 -0.008809687 0.020603286 0.011229171 0.04534854 -0.0075909244 0.0020146875 -0.011072772
0.041213483 0.02426201 -0.035326466 0.045041498 0.017247405 0.02712426 -0.043175682 -0.029509537
0.0012472859 -0.012094356 0.03972838 -0.06276414 0.023182545 -0.029854275 -0.046681248 0.012797115
0.018188924 0.04746521 -0.05543609 -0.0036813836 -0.027498644 0.0016219777 -0.05361232 -0.0041536363
0.04211486 -0.08786885 0.024460405 0.012542465 -0.10847583 0.018306306 0.017654603 -0.040914766
-0.036573786 -0.066796675 0.006140537 -0.013934536 0.046163544 -0.017610516 -0.014343916 -0.01862926
0.043283988 0.016441379 -0.1009956 -0.0065654595 -0.06357484 0.009769237 -0.06355592 -0.033446964
0.069686204 -0.00083089055 0.032744482 0.016500326 0.058192637 -0.02018896 0.041029155 0.008400653
0.021427196 0.056025207 -0.08944581 -0.051849987 0.061242104 -0.029554471 -0.03850321 0.024028111
-0.028045624 -0.015666435 -0.019935627 0.019461116 -0.02004953 0.03333582 0.02301079 0.022060039
0.0031110095 0.0018172232 -0.035351284 -0.021582898 -0.0002649717 -0.021679908 -0.03845963 0.086269476
-0.013840839 0.035472777 0.040817413 -0.023823312 -0.06983845 -0.064078994 -0.0043624253 0.020495303
0.012399989 -0.011258583 0.014926322 0.06951739 0.015919425 0.022001835 0.04005467 0.029087426
0.02761497 -0.02761259 -0.043296553 -0.02271418 -0.026013471 0.011983575 0.03346092 0.02285587
0.010048251 -0.006021587 0.0030959924 -0.04315725 0.047536176 0.019989964 0.0055823745 0.04345415
-0.0063923253 -0.0041508474 0.026737614 -0.022907631 -0.0063668103 -0.003355948 -0.020124419 0.00020921291
0.005948031 -0.04028209 0.026652163 -0.047188032 -0.03374469 -0.07014806 -0.012058937 -0.068402044
0.053302005 -0.0419953 -0.046991266 0.03344812 0.0566442 -0.021364974 0.017589249 -0.04848979
-0.01440892 -0.010003111 -0.07654478 -0.05329861 -0.00097425503 -0.013736304 0.049634438 0.056788813
-0.06306492 -0.029193982 -0.020034896 0.003318179 -0.0020002245 -0.056158643 0.0052415538 0.06974547
-0.028036783 -0.06890295 0.022829326 -0.037281014 -0.03800276 0.022093667 -0.021528285 0.052978434

lstm.bias_ih_l0 f4 [256]
00000000: 5514 7d3d 8ab8 923d 2d5d 933c a6f0 013e
00000010: 90ac 123e 1b02 9c3d 2673 6c3e 7557 80bd
00000020: 58c1 143e 05e6 b73d 3561 f23c 3b2c 5c3e
00000030: 8d6e 9d3d 2d34 0f3e 4cc0 b9bd 54c0 953e
00000040: a0f1 333e 7e9d 6a3c a279 a8bd 2dd0 b13d
00000050: a5ab 993d 9933 82bc 031f 1b3e c33b cbbc
00000060: 8329 983d 2583 ee3d 360d 663d 9af2 e43d
00000070: 465f e8bd 0465 353e e5a4 77bd 0350 88bd
00000080: 0ae6 953c 09c1 bf3d 1b74 bbbc 598e 153e
00000090: 09ce 86bd 81f4 0a3e c65b fb3c dae8 553e
000000a0: a19f 3c3e bfad 9fbd b397 4c3d 862a c53d
000000b0: 41dc d63d 4d21 f13d af23 93bd 410e 9a3d
000000c0: b40a 51bd 205e a93c b3c7 b6bd 017d 8e3e
000000d0: 622b 38bc 458e 033e 7352 833d 20cb 0ebc
000000e0: 78eb 183d 95c9 e63d 2749 eabc 9362 533e
000000f0: b547 9abd f429 ca3d ba8c 4a3e 3276 5abd
00000100: 9ac1 36bd 48a8 06bd ab37 e53b ebb4 22bc
00000110: 03f7 f7bd df70 38bd b30f 9bbe 5a94 1a3d
00000120: 8e93 94bd 36eb 7c3c 1ef5 a3bd 5f6e 62be
00000130: 6837 cabb 4c78 0dbd 86bf 273d d50a 78be
00000140: 5f14 3cbd 5e4b e2bd 4968 afbd b6c1 783c
00000150: 5ee6 58bd 25a9 393c 4a77 08be bc11 23bd
00000160: bec1 b8bd 656c 183c 4e90 813b 578e 00be
00000170: 7d52 09bc 2903 31be a15c 87bd 2ff1 b0bc
00000180: e3ca 04be ada9 383d 615e 2fbc f437 79be
00000190: 18ae 01be 14e1 63be 1d18 1bbe 4f71 38be
000001a0: e5b4 6abd 6c3a 28bc 7bfd 2bbc db9f a33c
000001b0: ed62 53be 338b 93be 70e1 853d ee5e 90bd
000001c0: 343f 7d3a 195f 51bd 2285 e5bd 5f96 3dbe
000001d0: 51ba c23d c25d 4cbe 1ec0 b8bd a0ee 56be
000001e0: 9f67 f6bc 0169 5dbd 423f 02be 2649 5bbd
000001f0: 1853 f9bc 421b 57bd 1f9a 29be 4e01 bbbd
00000200: 2797 363d 9764 b53b c2e7 e53d dbcc 5cbd
00000210: f596 34bd d875 36bd 9cec 65bd c998 af3d
00000220: a2ac 123d 0ef2 023d cc32 cc3c c0e2 1bbd
00000230: 4c2b 6c3d febe 93bd 4558 f13c aa80 97bc
00000240: d5ab b6bb eb59 b83c b8aa 81bd e8c6 413d
00000250: 7d40 e93d 2762 683b 374b 0f3d 5a79 9cbd
00000260: ee80 913d 87f2 c6bd 5799 d3bd 3c34 863d
00000270: fe8a 81bc f834 ce3d a354 02be 56e0 11bd
00000280: caa6 f5bb fb21 333d cb67 d4bc e7e0 a7bd
00000290: 43f3 6abd 96a5 3fbd 1bb8 273e 420e a83c
000002a0: 0389 95bd 1944 e2bc 74d8 07bc 8197 31bd
000002b0: 6f8a 8ebd fb04 da3d fe28 55bd a9e6 e43c
000002c0: 3fbe 4e3b ee51 e7bd fecf 59bd 422a b7bd
000002d0: dc50 0dbe 4592 24bd cdd2 803d ea9d 56bd
000002e0: ba65 a73d d386 9ebd e78f aabd 58bf b33c
000002f0: 57ee 39bd 59a7 c0bd d41b 59bd ce7f ffbd
00000300: f42c 663d 44cd a33d f2dc ddbb 889e c83d
00000310: deaa 833d 9828 b9bd 56f9 3b3e 0eb7 263d
00000320: 5528 03bc a41d ae3d 4d39 0bbd e327 833e
00000330: c3c3 4b3d e1e8 583d 9a5c 2dbe db20 d73e
00000340: fbe9 15bd bf54 363e f5f2 f7bc 5347 103b
00000350: 1f21 bbbc 5cce 143e 0742 1c3e 61a2 09be
00000360: 69bc 55bd 02fe 913d c2d6 713d 6dea 423d
00000370: efe3 263d 3915 713d 443a 04be 8037 743d
00000380: 7642 f1bd 3001 153c a50e 62bd f8db 2f3e
00000390: 06f0 53bc 5f66 85bc 56ef 9f3d 2a57 843d
000003a0: da5b 1d3e 996e a7bc 48e1 a63c 5a4a 553c
000003b0: b87e 5a3d 0702 0e3e 671f d23d f83c 7d3c
000003c0: 9393 803d 7edb 1abd 00a6 c9bc f976 9c3e
000003d0: 6c44 673d 15e9 9fbc 481b d8bd 8d0e 3b3e
000003e0: c37e 6f3d aa0e b63d f926 ddbd 28b7 193e
000003f0: 867b 97bd c494 fe3c 729f e53d 2185 aaba
0.06178697 0.07164104 0.017988766 0.12689456 0.1432364 0.07617589 0.230908 -0.06266681
0.1452688 0.089794196 0.029587368 0.21501248 0.076871015 0.13984747 -0.09069881 0.29248297
0.17572641 0.014319776 -0.082263246 0.086822845 0.07503442 -0.015893744 0.15148549 -0.02480877
0.07429793 0.116461076 0.056164943 0.11179085 -0.11346297 0.17714316 -0.06045999 -0.06655886
0.018298168 0.093629904 -0.022882512 0.14605083 -0.06582267 0.13569833 0.03068341 0.20889607
0.18420269 -0.07796811 0.04994936 0.09627251 0.10491229 0.1177393 -0.071845405 0.0752225
-0.051035598 0.020674765 -0.08924808 0.27829745 -0.011240812 0.1284724 0.0641221 -0.008715421
0.037333935 0.112689175 -0.028599335 0.20643072 -0.07533208 0.09871283 0.19780245 -0.053335376
-0.044618227 -0.03287533 0.0069951615 -0.0099308295 -0.121076606 -0.045029517 -0.30285415 0.037739135
-0.07254706 0.015436938 -0.08005737 -0.22112416 -0.0061711557 -0.034538552 0.040954135 -0.24222882
-0.045917865 -0.110495314 -0.08564813 0.015182903 -0.05295407 0.011331831 -0.13326755 -0.039811835
-0.090213284 0.009303187 0.00395397 -0.12554298 -0.008381483 -0.17286362 -0.066094644 -0.02159938
-0.1296802 0.04508369 -0.010703654 -0.2433775 -0.12664068 -0.22253829 -0.15145917 -0.18011974
-0.05730142 -0.010267835 -0.010497446 0.019973686 -0.20643206 -0.28817138 0.065371394 -0.070493564
0.0009660602 -0.051116083 -0.11207034 -0.18514393 0.09508193 -0.19957641 -0.090210184 -0.20989466
-0.030078707 -0.054055218 -0.12719443 -0.053536557 -0.03043513 -0.05251623 -0.16562699 -0.09131108
0.044577744 0.005535673 0.11225845 -0.053906303 -0.044089276 -0.04454598 -0.05613385 0.08574063
0.035809167 0.031969123 0.024926566 -0.038058043 0.05765848 -0.07214163 0.029461036 -0.018493969
-0.005574683 0.022503814 -0.0633139 0.047308832 0.11389253 0.0035458894 0.03498384 -0.076403335
0.071046695 -0.09714227 -0.10331982 0.06552932 -0.015813347 0.10068697 -0.12727599 -0.035614334
-0.0074966894 0.04373358 -0.025928399 -0.081971936 -0.0573609 -0.046788774 0.16378824 0.020514611
-0.073015235 -0.027620362 -0.008291353 -0.043357376 -0.06959998 0.10645481 -0.052041046 0.027942019
0.00315465 -0.11294924 -0.053176872 -0.08943607 -0.13800377 -0.040178556 0.06290207 -0.052396692
0.081737 -0.077405594 -0.083282284 0.021941826 -0.045393314 -0.09406919 -0.053005055 -0.12475549
0.056195214 0.07998136 -0.0067707235 0.097958624 0.06429075 -0.09040946 0.18356833 0.04070192
-0.008005221 0.08501747 -0.033990193 0.2561637 0.04974724 0.052956466 -0.16929856 0.42017254
-0.036600094 0.17805766 -0.030267218 0.0022015169 -0.022842942 0.14531845 0.15259562 -0.13440849
-0.052181635 0.07128526 0.0590427 0.047586847 0.04074472 0.05885813 -0.12912852 0.05962324
-0.117802545 0.009094521 -0.055189747 0.17173755 -0.012935644 -0.016284166 0.078093216 0.06461938
0.1536707 -0.02043848 0.020371094 0.013018215 0.053343505 0.13867961 0.10259896 0.015456431
0.062781475 -0.03780698 -0.024615288 0.3055952 0.056461737 -0.019520322 -0.105520785 0.1826727
0.0584705 0.08889516 -0.10798449 0.15011275 -0.07396607 0.031076796 0.112120524 -0.0013009646

lstm.bias_hh_l0 f4 [256]
00000000: bf8b d9bc ed8b 863d de2f d5bd 68be 3abd
00000010: a200 eb3d 6ea6 7fbd b060 ab3e f9fe 213c
00000020: a534 013e 82f3 32bd 5c6e 543d c708 2b3e
00000030: 0add 1c3d a9ba f83d 6010 d9bd 185a a63e
00000040: 2661 ab3c d51a cf3d 4345 cbbb 18f6 863d
00000050: 29a8 98bd 1927 563d eaca 323e 0a05 123d
00000060: a396 543c 6204 723d da7b d93c f00a 413e
00000070: 3b1a 9b3d d478 623c 376d 4ebd 8bbb b33d
00000080: 15c9 04bc ef95 41bd e244 c6bd c734 1e3e
00000090: 98f8 8ebd 3c66 f03b e913 d13d 94b3 073e
000000a0: 4140 163e cda1 f6bd 4387 8b3d 1ba9 f83c
000000b0: 0eba 353b 853b 073e 953d 323d fa7a 79bc
000000c0: d694 4f3d 977a 2e3e 16e2 acbd 2b75 403e
000000d0: 9b1c b03d 540d 8f3d 68a5 82bd 7dcc 093e
000000e0: 2d7d 94bc ba45 493d add6 93bd b4cb 303e
000000f0: 8ed7 15bd 77a5 39bd 2f0d c83d 17e2 b13d
00000100: aaea 35be e289 15bd ad70 9c3b 67a3 e6bd
00000110: 2b79 b73b 9de0 8a3d bc61 95be a2c3 89bd
00000120: 9d01 86bd 4d58 d2bc f1cf 903d be2e 23be
00000130: 38cd 07bd 3077 7cbd e662 7f3c 18ff 0dbe
00000140: 13cc 51be 0a91 f3bd 7671 d2bd 902c 15be
00000150: 5777 dfbd 79d4 2cbe 324e b3bd 241e e8bd
00000160: f5bd 03be 6fbf 10bd 7804 1c3c b665 4bbe
00000170: b492 f03c c2ca 77bd 1341 00be fcf6 cebc
00000180: ced0 57bd 453d ee3d 7e9f 73bd feb0 46be
00000190: 54b8 0e3d 6a50 79be 6ffb 333b c1bf 6fbe
000001a0: 9bcf f9bd ce8f 82bd 2e13 3dbe a87c 69bd
000001b0: 06bc 37be 95b9 49be 7e70 27bc 38ed 2dbe
000001c0: 23c3 db3b e358 9f3d 130d 06bd 30f5 1fbe
000001d0: 8546 9bbd 33fa dabd 1af5 05be 0599 1bbc
000001e0: 5d7e 0abe 8631 30be 8953 9abd 5ec1 57be
000001f0: 03e2 33bd fb2b 00be 4f6f 05be 01b5 cebc
00000200: e306 a5bd 574b 26bc 4e4f 1ebd 4570 963a
00000210: aaf9 733d 8441 4f3d 7737 353c 1a92 9ebd
00000220: 131b 333c bdc6 eebd b707 96bd 95ba 1e3d
00000230: b923 45bd 654e 6e3d ecb4 803d 5275 64ba
00000240: c984 88bd 611e 70bd 545d 0d3d 0b1d 25bd
00000250: cb58 b8bd 4636 94bd dc3b 943d 83e3 843d
00000260: 92f2 a93d 4c82 b13d 1f13 513d e15a 623d
00000270: ac55 453d db98 cabd eec3 c13d 7be8 cfbc
00000280: c036 58bd 50a9 87bc b63a 7dbc 281d 0c3d
00000290: 15b6 86bc d0af 643d 4bd2 d8bc 3a53 a63c
000002a0: 481d d43d fadb 173d cc81 5e3d 172f 16bd
000002b0: 3982 9d3d 5484 9ebd eb24 64bc b6b3 88bd
000002c0: 41f9 1b3d 6cc3 bd3d 5f19 b03c 0500 ba3d
000002d0: 599b c9bc d7dc 45bb fd52 e23c ca78 693a
000002e0: c3df cfbd 5e94 b63d 15ab 403d 8a77 3e3c
000002f0: 243f e53d 0964 613d 9b8c 833d 79c3 51bc
00000300: c837 18bd 26e0 24bd 56f9 bdbd 45f1 623b
00000310: 12b5 79bc 156e 99bd 9b0d a13e 09fe 31bd
00000320: d4d0 15bd 1a14 d1bd d1ed c83c ba7c 313e
00000330: 9dc8 38bd 93f2 593c 0edf fdbb e027 d63e
00000340: 3246 c53d dd67 1e3e c690 203c a686 0c3e
00000350: 5caa 8d3d d08a ee3c 0559 fa3d 5a62 8bbd
00000360: a08c 983d 937a 9ebd 49e5 7cbd ce3a 5d3d
00000370: 9377 5fbd a3e1 383e 1c6c adbd d506 da3c
00000380: 7344 02bd 01ef 0a3d 215a a8bd 44c6 213e
00000390: 7e6d b5bd bd44 c83d 2c4f 01be be99 373d
000003a0: 5806 3e3e 12c9 b43c e221 df3b 9b86 01bd
000003b0: 3396 4e3e 35d7 1d3e ab11 92bd 06a1 193e
000003c0: bede ef3d f638 a73d b3da f33d 3ba4 0b3e
000003d0: f863 8c3c 7608 493e 9536 0dbe 1290 e8ba
000003e0: 73c6 9d3d f24a 653c 02dd e23c da17 b63d
000003f0: 8b9e 103e 498d 8a3d c6b3 193d 9910 cabd
-0.026555894 0.065696575 -0.104095206 -0.04559174 0.1147473 -0.06241458 0.33472204 0.00988745
0.12617739 -0.04368926 0.05186306 0.16702567 0.038296737 0.121449776 -0.105988264 0.3249061
0.020920347 0.1011254 -0.006203325 0.065899074 -0.07453949 0.05228338 0.17460218 0.035649337
0.012975368 0.05908621 0.026548315 0.18851829 0.075733624 0.013822753 -0.050397124 0.08776005
-0.008104582 -0.04726213 -0.09681107 0.1544982 -0.06981009 0.007336406 0.10208876 0.13252097
0.14672948 -0.1204258 0.068129085 0.030354073 0.0027729305 0.13206299 0.04351576 -0.015227074
0.05067905 0.17038952 -0.0844156 0.18794696 0.08599206 0.06984964 -0.06379205 0.13456912
-0.018126095 0.049138762 -0.072186805 0.17265207 -0.036582522 -0.045323815 0.097681396 0.08685701
-0.17765298 -0.03650845 0.004774174 -0.11261635 0.005599161 0.06781123 -0.29176128 -0.06726767
-0.065432765 -0.02567687 0.07070912 -0.159358 -0.033154696 -0.061637104 0.015587544 -0.13866842
-0.20488004 -0.118928984 -0.10275547 -0.1456778 -0.10911434 -0.16877927 -0.08755149 -0.11333874
-0.12865432 -0.035338815 0.00952255 -0.19863018 0.029366829 -0.0604961 -0.12524824 -0.025264256
-0.052689366 0.1163278 -0.059478275 -0.19403455 0.034843758 -0.24347082 0.0027463099 -0.23412992
-0.12197801 -0.06375085 -0.18464348 -0.057003647 -0.17942819 -0.196997 -0.010219691 -0.16985023
0.0067066117 0.07780626 -0.032727312 -0.15620875 -0.0758181 -0.10692253 -0.1308178 -0.009496932
-0.13524766 -0.17206392 -0.07535464 -0.21069857 -0.043916713 -0.12516777 -0.13030742 -0.025232794
-0.08057954 -0.010149798 -0.03864985 0.0011477551 0.05956427 0.05059959 0.011060587 -0.077427104
0.010931748 -0.11659 -0.0732569 0.038752157 -0.04812977 0.05818023 0.06284508 -0.0008714992
-0.06665952 -0.05862272 0.034512833 -0.0403109 -0.09001311 -0.07236914 0.0723798 0.06488707
0.0829822 0.0866743 0.051043626 0.05526245 0.048177406 -0.09892436 0.09461199 -0.02537941
-0.05278659 -0.016560227 -0.015455892 0.034207493 -0.016444245 0.05583173 -0.026467463 0.020303357
0.103571475 0.03707502 0.054323003 -0.036666002 0.076908536 -0.07740083 -0.013924818 -0.06674902
0.038079504 0.092657894 0.021496473 0.09082035 -0.024610208 -0.0030191445 0.027627463 0.00089062436
-0.10150101 0.089150175 0.047038157 0.01162518 0.11193684 0.05502704 0.06423303 -0.012802952
-0.037162572 -0.040252827 -0.09276073 0.003462867 -0.015240924 -0.074916996 0.31455693 -0.043455157
-0.036576107 -0.10208912 0.024527462 0.17332736 -0.045113195 0.013302463 -0.0077475375 0.41827297
0.09632529 0.15469308 0.009800142 0.1372324 0.06917259 0.029118925 0.122240104 -0.068058684
0.07448697 -0.07738223 -0.0617421 0.05401116 -0.054557394 0.18054824 -0.08467886 0.026614586
-0.03180356 0.033919338 -0.08220316 0.15798289 -0.088587746 0.09778736 -0.12627858 0.044824354
0.18557107 0.022068534 0.006809459 -0.03162251 0.20174484 0.15414126 -0.07132276 0.15002832
0.117124066 0.08165161 0.11906948 0.13636868 0.017137513 0.19632134 -0.13790353 -0.0017743132
0.07703867 0.013994919 0.027693275 0.08891268 0.1412298 0.06765229 0.03752496 -0.09866447

lstm.weight_ih_l1 f4 [256, 64]
00000000: 473e c43c 0215 2abc fdc5 5cbc d6b4 0b3c
00000010: b0bc 41bc 6ec0 10ba 08c2 e83c 3ff0 46b9
00000020: 2aae e5bb 1a8a 57bb 2016 64bd 1c42 f4bc
00000030: acd3 de3c 25cb 203c d7e0 c6bd b193 5a3d
00000040: fe15 b6bb 9897 4d3c 872a 5d38 6c8e 7bbb
00000050: 3b16 57bd b7f9 273d 913f 5abc 1728 9fbb
00000060: 5d78 203d 193c c93c 8ba4 fe3c 1605 10bc
00000070: 6887 03bc 41a6 76bd 5bc5 a63c b90c 05bd
00000080: 2668 78bd eb49 bdbd 9345 5e3c 7023 a63d
00000090: d484 fcba c59d abbc 40a4 f63c dccc 063c
000000a0: 61f7 803b aff6 733b 6565 e0bc e85e 25bc
000000b0: 8a03 1bbd a478 eebc 907a 8d3c 22ac 3b3c
000000c0: 6d41 f3bb 8c32 c73c b1f3 973c 356e 993c
000000d0: e619 4cbc cb0e 283d cf80 74bd 6664 a73d
000000e0: d685 99bc 8de0 913c c85c 8d3c fdb2 00bd
000000f0: 1bdf 50bc 7fdf 32bd 876f 27bd ff8c a53b
00000100: 574f 40bd 9410 adbc 9cd0 bd3c 8f3e 19bd
00000110: 6135 70bc 3063 f0bb 77c2 0bbd 9e8b 673b
00000120: 4e5a 62bd 4632 e63c a4cf 863d 1134 2d3c
00000130: 55ff 803d 47f1 12bd 0291 66bd e187 90bc
00000140: 6e6f 873d a163 50bd 5583 91bc 5352 1dbd
00000150: e0af 913c 68da 0abd 5583 b4bd 75a3 31bd
00000160: 14d5 08bd da26 233d 5b1d 7e3c 11a9 8ebd
00000170: 577b 803d f1aa 413c 93c5 cb3c ed6a bfbb
00000180: 0e2a 52bd 7fa0 09bd 7e14 57bd 4825 1abd
00000190: 7ace 7d3d 8cbf 15bb e2a7 97bd 26dd dd3c
000001a0: 683c 2dbc d948 4abd 2ae7 2a3d 2529 78bd
000001b0: bfff 04bd bc91 493d 7b7c 743d aadd a6bc
000001c0: 81fc 293d 5610 4fbd 8513 03bd 6e17 aabc
000001d0: d69b 91bc 9518 2b3d daab a1bd 8036 403d
000001e0: 169c 643c 4700 22bd 070c f1bc 5ed1 7b3c
000001f0: 202b b9b9 aee3 90bd ca22 393d 7ca1 943d
00000200: cc96 143d 9c64 083c 8e26 d9bc 5b29 83bc
00000210: 54c2 e5bc da2d 1bbc 2a42 16bc 5182 053c
00000220: 8b35 7dbd 2d00 1fbd 2733 bbbc 9539 78bc
00000230: 6abe 2c3d 1257 ec3b 9b37 68bd c41f 1ebd
00000240: 1f33 09bd 6300 b9bc f9a4 173d c4f0 88bc
00000250: bcf8 14bd 13e5 af3c efc3 55bc e8aa 77bd
00000260: f191 d33c 240d 303c c2c9 0aba d2c1 7a3c
00000270: ec07 3abd c6b0 a6bc 0a47 fb3c 7149 883d
00000280: 031b 603d 4c41 0f3d cfe9 4b3d 2ab6 9d3b
00000290: ad9e 12bd 550b 0d3d e26a 88bd 84c4 41bd
000002a0: 7ba7 df3c 115c 99bc 8959 43bd 4c5c bc3d
000002b0: 3408 be3c 6da7 253d a8f6 473c efd0 dc3c
000002c0: 9a79 8ebc bbc7 22bd 8acc a0ba 1dfd 3c3c
000002d0: 5f42 45bd 743d a4bc 9138 043d 05f2 89bb
000002e0: 85f1 aa3c dbad 4739 7c54 2b3d 9d2e 46bd
000002f0: 1181 17bd 5750 14bd 6576 34bd 4710 023d
00000300: 0955 163d 4652 57bc 7752 ab3d 11a7 af3c
00000310: fe94 253d 0378 b43d 5e6c 76bd 09d3 423d
00000320: 44ae 523d adff 923d 72a1 a339 f259 d23d
00000330: 64bb 48bc 1586 82bd 00d8 91bc 5849 42bc
00000340: ba25 a63d 45bc d43b b723 573c d517 c43d
00000350: c619 9f3d a0fd 1cbd e048 afbd 2b65 90bd
00000360: e932 cb3c 0153 87bd 22db 33bd 8da7 123d
00000370: d131 94bd bb1e 123d 1668 683d dec4 1ebc
00000380: 1c99 95bd 2c2a 37bd 88e7 0ebe 33d8 c9bd
00000390: 7c07 cc3d 8cd9 ac3c 11a8 3abd a4b0 483c
000003a0: 74ff b5bd 9f03 05bd ec76 bcbd 6ef5 bb3b
000003b0: e33e fb3b b935 473c 92ca a73c 5942 1dbd
000003c0: e86c 9cbd 6d87 24bd 7666 40bd faad a7bd
000003d0: b784 acbd 7996 1d3c 5033 623b 11a8 93bc
000003e0: 7ee2 6cbd 4e2b 173d 6476 edbc b2ae 5cbd
000003f0: d241 04be cb9a 223d b523 a53c b28d d53d
0.023955477 -0.010380985 -0.013474938 0.008527001 -0.011824772 -0.00055218383 0.028412834 -0.0001897225
-0.0070092874 -0.0032888711 -0.055685163 -0.02981668 0.027200542 0.009814058 -0.097108535 0.053363506
-0.005556821 0.01254835 5.2730113e-05 -0.003838445 -0.052511435 0.04100963 -0.0133208195 -0.004857074
0.039177287 0.02456479 0.03108432 -0.008790275 -0.008027889 -0.060217146 0.020357778 -0.032482836
-0.0606462 -0.09242614 0.0135663925 0.08112228 -0.001926566 -0.020949254 0.030107617 0.008227553
0.00393574 0.0037225892 -0.027392099 -0.010093428 -0.037845172 -0.02911026 0.017270356 0.011454614
-0.007423571 0.024316095 0.018548818 0.018729309 -0.012457347 0.041029733 -0.059693154 0.08173446
-0.018740576 0.01780727 0.017256156 -0.031420697 -0.012748505 -0.043670174 -0.040877845 0.0050522084
-0.046950664 -0.02112607 0.023170762 -0.037413176 -0.014661164 -0.007336043 -0.034121003 0.003533102
-0.055261903 0.028100144 0.06582573 0.010571496 0.06298701 -0.03587463 -0.056290634 -0.017642917
0.066130504 -0.050876264 -0.01776282 -0.03840859 0.017784059 -0.033899695 -0.08814112 -0.043368775
-0.033406332 0.039831974 0.015509929 -0.069658406 0.06273525 0.011820541 0.024874484 -0.005841604
-0.051309638 -0.033600327 -0.052509777 -0.03763321 0.06196449 -0.0022849767 -0.07405068 0.02708299
-0.010573484 -0.04938588 0.04172436 -0.060586113 -0.03247046 0.04921125 0.059689026 -0.02036937
0.041500572 -0.05055269 -0.032001037 -0.020763125 -0.017774504 0.04177149 -0.07894106 0.046926975
0.013953229 -0.039551046 -0.02942468 0.015369741 -0.0003531808 -0.070746765 0.045199193 0.07257363
0.036276624 0.008324768 -0.026507642 -0.01601093 -0.028046764 -0.009471381 -0.009171048 0.008148746
-0.06181864 -0.038818527 -0.02285154 -0.015150447 0.04217378 0.007212528 -0.056693655 -0.038604513
-0.03349602 -0.022583192 0.037022565 -0.016716368 -0.036370024 0.021471536 -0.0130472025 -0.060465723
0.025826426 0.0107453205 -0.00052943465 0.015304999 -0.04541771 -0.020347964 0.030673523 0.06654633
0.05471326 0.03497438 0.049783524 0.0048129754 -0.035795856 0.034434635 -0.06661011 -0.047306553
0.02730154 -0.018720658 -0.04769281 0.09197292 0.02319727 0.040442873 0.0122048035 0.026955096
-0.017391969 -0.03974126 -0.0012267989 0.011534956 -0.048159 -0.020048834 0.03228051 -0.004209759
0.020867119 0.00019042885 0.041828617 -0.048384298 -0.03698832 -0.03620943 -0.044058222 0.031753805
0.03670219 -0.013142174 0.08365338 0.021441968 0.040425293 0.08811953 -0.06016194 0.04756454
0.051435724 0.071776725 0.0003121007 0.10271062 -0.012251709 -0.0637323 -0.017803192 -0.011858307
0.081126645 0.00649217 0.013131074 0.09574858 0.07768588 -0.038327813 -0.08558822 -0.07050546
0.02480455 -0.066076286 -0.043910153 0.03580432 -0.07236064 0.035673838 0.05673989 -0.0096904915
-0.07304594 -0.044717953 -0.1395551 -0.0985569 0.09962365 0.021099828 -0.045570437 0.012249146
-0.088866144 -0.032474156 -0.0920237 0.0057360446 0.007667409 0.012158805 0.020482335 -0.038393352
-0.0763796 -0.040168215 -0.046972714 -0.0818748 -0.08423751 0.009618395 0.0034515448 -0.018024476
-0.057833187 0.036906533 -0.028987117 -0.05387754 -0.12915733 0.039698403 0.020158628 0.10427417

lstm.weight_hh_l1 f4 [256, 64]
00000000: 3c46 db3b 0303 c33c 8058 6cba 5676 c63c
00000010: 3c26 913b a6d4 e03c a50a 12bc b6c8 40bd
00000020: ee68 d63c d59b e6bc b2cf 0f3c e2f9 90bc
00000030: 1cdb 893d db48 89bd 1c51 03bc 091a dcbb
00000040: 38c9 86bc fad2 3f3d 7b25 8bbb 1fc2 75bb
00000050: 738c 893c 6660 133d b2df 11bc b7f2 493d
00000060: fdb2 fdbb d5ae 073d bfa3 063d 6ce4 813c
00000070: 4067 233c d736 57bd d0df 62bc c079 19bd
00000080: 7d9f 303c c450 393d 9bfe 813c 7580 773c
00000090: 7a77 1d3c 5963 33bc d956 00bd 0f80 b2bb
000000a0: b949 193c 5416 223c 233b 8d3b ef99 233b
000000b0: d56a ce3c b7f2 ecbc d663 4e3d 8cda c3bc
000000c0: 3f28 cdbd c24a 73bb 981a d2bb fe03 99bc
000000d0: 693b 6b3c cdee dcbc 9efb 053d be0d 31bc
000000e0: 05ed 883b ce32 56bc 9b4c a4bc 63f6 2b3d
000000f0: 7811 e3bb 5888 28b9 3481 52bc a31f 4b3d
00000100: c173 cc3c 07d5 32bd a3fb 5c3d 34a9 0c3d
00000110: 99be 8bbc 891b ec3c f459 513a 33a9 b93c
00000120: cbd1 363d fc3a 8abd b86b a43d 98d3 793d
00000130: 4a1c 7a3b e690 5cbd bd2d ee3c 0a34 bc3c
00000140: 7213 3abd 299a b33d c736 38bc 57b3 a7bc
00000150: 3459 11bd 101d a7bd 11f7 b9bc 7327 2d3d
00000160: f3b6 40bd 490d 4dbc f959 aebb d257 9c3d
00000170: 77fd 2fbd 2260 cabb c452 afbc 548a 1dbc
00000180: 26f2 8bbd ef47 10bb 1c3c 7b3d 5ad0 88bd
00000190: 64ec cb3d 686a 573d 769f 53bd dc6b aebc
000001a0: d273 c43c e3b7 56bc d4f2 26bc f258 d0bc
000001b0: 7e25 30bc 16ea 85bd 7f97 453b cd63 f63c
000001c0: e6d0 fa3c 62c3 fdbc ee47 833c 6b3b e4bc
000001d0: 62fc d1bc 08e0 3cbd d350 2abd 237b c4b9
000001e0: c1ce dc3c fd98 883d 5aec a83c edd1 203d
000001f0: e34f ef3b 308e 4bbb a513 873d c374 09bd
00000200: cf46 193d 8095 9dbc e9b8 08bb cedc 113d
00000210: 7f60 f03c bbc2 373c b980 353d bc18 903d
00000220: bc17 503d cdf1 313d e2d0 c4bc 670c 743d
00000230: af46 35bd 5774 94bc f8c9 aa3c 8811 183c
00000240: b6e1 4f3d a0f3 6abb 0b9d f43c b2ca 0a3d
00000250: dfc4 3c39 329a 0dbd f287 0abc 6c70 5fbd
00000260: 56f0 5f3c d835 093d 99b1 dfbb 7a5b d438
00000270: f7f4 e9bc db1f 3d3d 8e42 30bc f3bf 32bc
00000280: 1dd3 a2bc ebb0 f73c ca76 57bd a937 bd3c
00000290: fdbf 9bbc 6cfb 7a3d 74bf 1d3d ed57 83bc
000002a0: 434a 50bc 2105 423d df97 703b 2569 ef3c
000002b0: 17ee 7b3d faee efbc e3b6 19bb cbf8 04bd
000002c0: 12a1 a23d a629 d13a 17a9 323d 8ef7 b7bb
000002d0: 197f 3ebd b093 bf3c 964d 38bd a4ac 9f3c
000002e0: f08e bdbc ad17 8b3d 036b d53c 6942 0fbd
000002f0: 71e4 06bd 3370 83bd 662d ffbc 3df1 c5bc
00000300: dd71 dcbc 93c7 9a3d fae2 493d b228 203d
00000310: f0c7 0d3d 34ba 3c3c 3d75 1ebd 5529 a13c
00000320: 22fa 3cbd cae0 d7bc 9805 8fbb e6c4 1f3d
00000330: 50a8 93bd 0f53 d6bc b7e4 cf3c f833 113d
00000340: e10d 8ebd 83e5 7dbd bb2a ba3d 5c80 acbd
00000350: 34fa 2dbd 2a44 a2bc ac7c c73c 0e6c aa3c
00000360: 554e 763c 4594 703d 2979 933d 422a 323c
00000370: 5c22 30bd b71a 37bb 5c8d b1bc 262d b7bd
00000380: c9e6 0c3e 92e8 cd3c 905f c53c 5a32 12bd
00000390: 61d0 71bd 1126 a4bd d03b 97bd 9f44 80bd
000003a0: ba0f e0bc 4198 223c e06c 8b3c f7e9 0c3d
000003b0: 006f 86bc fc70 2e3d 1ab0 313d 7aa9 6cbd
000003c0: 9778 543d a38d b63d a07f 3e3b 1af1 0d3d
000003d0: 1ad8 b53c 55c6 04be 76ad bcbd 24c1 87bd
000003e0: e868 7e3d 1b4d d1bc 1f56 9d3d 9d81 2b3d
000003f0: c79d 02bd 4567 cabc d197 8bbc 7159 85bc
0.006691722 0.023805147 -0.0009015873 0.024226349 0.0044296067 0.027445149 -0.008913671 -0.047066413
0.026173081 -0.028150478 0.008777546 -0.017697278 0.06731245 -0.06703349 -0.008014943 -0.006716971
-0.01645337 0.046832062 -0.0042464114 -0.0037499738 0.016790604 0.035980605 -0.008903431 0.049303737
-0.0077422843 0.033125717 0.032871004 0.01585599 0.009973347 -0.052542534 -0.013847306 -0.037469625
0.0107802125 0.04524304 0.015868476 0.01510631 0.009611005 -0.010948979 -0.031332824 -0.0054473947
0.009355956 0.009893019 0.004310028 0.0024963578 0.025197426 -0.02892433 0.05038818 -0.023907922
-0.10017442 -0.0037123417 -0.0064118616 -0.018678661 0.014357426 -0.026969338 0.032710664 -0.010806499
0.0041786456 -0.013073636 -0.02005606 0.04198302 -0.0069295727 -0.0001607252 -0.012848187 0.049590718
0.02495754 -0.04366019 0.053950917 0.034341052 -0.017058657 0.028821724 0.00079861213 0.022663688
0.044633668 -0.067495316 0.08028358 0.060992807 0.0038163834 -0.053849123 0.029074544 0.022974033
-0.0454287 0.08769638 -0.011243529 -0.020471258 -0.03548546 -0.0815984 -0.022700818 0.04227395
-0.047049474 -0.012515374 -0.005320784 0.07633938 -0.042966332 -0.0061760107 -0.02140177 -0.0096154995
-0.068332955 -0.0022015532 0.06133662 -0.06680365 0.09957197 0.05259171 -0.051665746 -0.021291666
0.023981009 -0.013105365 -0.010189731 -0.025433037 -0.010751126 -0.06538789 0.0030150113 0.030076886
0.030617189 -0.030976955 0.01602551 -0.027860364 -0.02563304 -0.04611209 -0.041580986 -0.00037475777
0.026954057 0.06669805 0.020620514 0.0392627 0.0073032244 -0.0031060092 0.06595544 -0.03355862
0.037421044 -0.019236326 -0.0020862168 0.035610966 0.029342888 0.011215861 0.044312213 0.07035968
0.050803885 0.04344349 -0.024025384 0.05958214 -0.044256862 -0.018121881 0.02084826 0.0092815235
0.050752364 -0.0035850778 0.02986004 0.03388471 0.00018002417 -0.03457088 -0.008455263 -0.054550573
0.01366814 0.033498615 -0.006826591 0.000101259866 -0.028559191 0.046172958 -0.010758055 -0.010910022
-0.019876057 0.030235728 -0.05260352 0.02309783 -0.019012446 0.06127493 0.038512662 -0.016033137
-0.012713018 0.047368173 0.0036711616 0.029224942 0.061506357 -0.029288758 -0.0023454956 -0.03246383
0.07940878 0.0015957847 0.043618288 -0.0056142276 -0.04650793 0.023385853 -0.044995867 0.019491501
-0.023139447 0.06791625 0.026052004 -0.034975443 -0.032932702 -0.06417885 -0.031149577 -0.024162883
-0.026909763 0.07557597 0.049288727 0.03910131 0.034614503 0.011519004 -0.038686026 0.019673029
-0.046136983 -0.026352305 -0.0043646805 0.039006136 -0.072098374 -0.026162652 0.025377614 0.035449952
-0.06936241 -0.061986458 0.090901814 -0.0842292 -0.04247494 -0.019807894 0.02435144 0.020803478
0.015033324 0.05873515 0.07200844 0.010874333 -0.043001518 -0.0027939507 -0.02167385 -0.08944158
0.13759913 0.025135312 0.02409342 -0.03569255 -0.059036616 -0.08015073 -0.07384455 -0.062630884
-0.027351249 0.0099239955 0.01701969 0.034402814 -0.01641035 0.04258822 0.043380834 -0.057778813
0.051872816 0.08913734 0.002906777 0.03465376 0.022197772 -0.12966283 -0.092127725 -0.066286355
0.062111765 -0.025549462 0.07682442 0.041871656 -0.03188875 -0.024707446 -0.017040165 -0.016278

lstm.bias_ih_l1 f4 [256]
00000000: bee8 4d3d 88e8 1abc ff8a d6bd cec0 b53d
00000010: 9df0 ac3d 81c1 d5bd 5295 193d bd98 eebb
00000020: 2c06 f03d cb3b 1c3d 3355 633d b4d9 cf3d
00000030: e557 f93d 2ac1 5ebd 0914 d23d ffb9 ad3b
00000040: d61c c43d 182d 7ebd 3751 c7ba 218f 65bd
00000050: de03 d3bd c3a4 b9bd 002d 1e3d 14db fabc
00000060: 77cc fa3d 2fbb 0cbe 8571 a53d 4975 bc3d
00000070: ef93 81bd 63b4 95bb 5e25 eabc 6c25 37bb
00000080: a3b9 ebbc f475 f13d bbd7 1a3e 6d01 9d3d
00000090: f6bc 413d eb24 e23d 7419 2ab9 ee96 e83d
000000a0: 84f2 94bd cff1 a9bc 2b6e 38bd ae84 07bd
000000b0: b2bd 34bd 1e4a 013e 1177 4a3d d667 c13d
000000c0: d0bb 023d 8b89 ab3d 6c54 92bd 19df 17bd
000000d0: d042 a33d c72a 003d 2ed2 2cbd b0b8 50bc
000000e0: 16d0 fcbd 5717 5f3d 0013 213c 997a a3bd
000000f0: 5169 0c3d 2df9 aebd e609 863d 95c7 aebd
00000100: c227 09be 4243 03bc 9be6 22bd 2ff1 d53d
00000110: ae72 a9bd 975d df3d 49e1 5a3d 85b9 103d
00000120: bae3 7dbc 2927 0a3d b442 653d 7fb7 993c
00000130: dc0b dc3d 50e8 bdbd a89a 11bd 921e 58bd
00000140: 5401 b8bd 2bf8 57bd ea6c c1bd 128f b5bc
00000150: 8c1b 21bd d1fc a9bd c0ec 4abd 3177 b73d
00000160: 9434 873d 0f1f f7bd 25e2 113e a43a 45bc
00000170: 0be4 e9bc 73a7 d63c aaf8 013e aa75 b2bd
00000180: a705 b8bd 6323 123d 7fe6 31be 7ab0 74bd
00000190: 2387 88bc 5ff6 f23d 9713 50bd dd7b 8f3c
000001a0: 1c71 e5bd e3cd 503d a673 eebd 4e6e 52bc
000001b0: 351f 723c 27b7 87bc 50bf 3e3d 7d2d 433d
000001c0: d575 88bd ec12 96bd 8027 e33d 0db9 f8bd
000001d0: b2b0 a4bc 6930 ce3d 6817 81bc 2cc0 59bd
000001e0: 1c4d a5bc 1330 30bb d0f8 3a3d 9645 82bd
000001f0: 3af9 b9bc 7477 cabd 5351 8dbc d24e a83d
00000200: 595f d13c 49dc 5dbc 733a 3fbc 4cf6 9c3d
00000210: d142 56bd f51e 9c3d 6a1f 9c3d d0aa debc
00000220: 7177 993d 0455 323d ec5e 86bd 6281 bebd
00000230: 87b9 fabc 51b6 c83d c889 453d 2189 e43d
00000240: eab6 79bd 044b dfbd e216 0abd a1de a4bd
00000250: 6b51 a03d 5ec0 32bd b50a 41bd facb b2bb
00000260: f2d8 11bd 0ab9 523a 0018 a13d 84ee 37bd
00000270: 6db6 063d c550 cdba 70cc ad3d dd6f 073c
00000280: af00 bd3c 10c3 a2bd 7e10 543d f880 783d
00000290: b10b f83d ad21 34bb ae8d 94ba 2869 d33d
000002a0: 26a3 9ebd c591 80bc 409e b73c e249 1cbc
000002b0: 60a9 c63d 34c1 dd3d 7ac1 c13d 9adf 8e3d
000002c0: e8b0 e63c 4e76 0e3d 4227 a53d 3208 363a
000002d0: e500 d6bb 0899 a53c a90f e53b 4904 53bd
000002e0: 677e ed3c 2c3f df3d b348 923c 13d5 3e3c
000002f0: c13d 4cbc 4732 dbbd c407 e1bd 29c8 b2bd
00000300: 919d d8bd e505 eebd 50da b43c e55b 193e
00000310: 5836 b5bc 1ffb c03d 1c33 923d 58a9 fc3d
00000320: e423 c33d df99 ab3d 4a16 be3d 1935 52bd
00000330: 3c5c 643d 1b47 bf3d 5545 9fbd c60b 2fbd
00000340: 8041 2b3d 9254 1cbd d258 86bd 8765 583b
00000350: ab70 9c3c 8c06 c6bc 41df fa3c 5638 a8bd
00000360: bf1c 7ebc 5e19 8b3d ef11 223d c6e7 62bb
00000370: 0783 aa3d 3281 153d b7b7 d93b 6112 973b
00000380: ed3c 86bd 8231 b5bb cc9d 943e 972a babd
00000390: 3773 9e3c d2e4 df3d 4a78 b4bd 7ddc 173d
000003a0: 5d76 083d 62f7 e03d 62b4 9ebd b362 04bd
000003b0: 4904 8f3d 1fdf 6d3d 09db 1e3e 02bb ba3d
000003c0: cbe1 f23d 926f 0d3e 8b9a 0abd 765a f53c
000003d0: 4a14 de3d cdbb 01bd 132e 01bd 703c 7c3c
000003e0: 174f b83c 8405 e13c 8785 b2bd b1a8 a3bd
000003f0: 5e0a ad3c e520 46bd 49a5 0e3d 602d 863c
0.05027079 -0.009454854 -0.1047573 0.08874665 0.08444331 -0.104372986 0.03749592 -0.0072813914
0.11719927 0.03814296 0.055501174 0.101489455 0.12174968 -0.054383434 0.10257728 0.0053017135
0.095758125 -0.062054724 -0.0015206699 -0.0560447 -0.10303472 -0.09064629 0.038617134 -0.030622043
0.1224603 -0.1374328 0.08078293 0.09202058 -0.06327044 -0.004568623 -0.028582271 -0.002794589
-0.028775042 0.11790076 0.15121357 0.076662876 0.047299348 0.11042198 -0.00016221945 0.113569126
-0.07272819 -0.020745186 -0.04502694 -0.033085518 -0.04412622 0.1262593 0.049429957 0.09443633
0.031917393 0.083758436 -0.071450084 -0.037077997 0.07971728 0.031290796 -0.04219263 -0.012739345
-0.12344377 0.054465618 0.00983119 -0.07982368 0.034280125 -0.0854362 0.06544857 -0.08534161
-0.13394073 -0.008011641 -0.039770704 0.10446393 -0.082738265 0.10906523 0.053437505 0.035333175
-0.015496189 0.033728752 0.055971816 0.018764256 0.107444495 -0.09272826 -0.035547882 -0.05276353
-0.08984628 -0.052726906 -0.09444602 -0.022162948 -0.03933291 -0.08300174 -0.04954219 0.08958281
0.06601825 -0.12066471 0.14246424 -0.012037907 -0.028551122 0.026202893 0.12692514 -0.08713849
-0.08985453 0.03567828 -0.17373084 -0.059738614 -0.016666 0.11863398 -0.050799932 0.017515117
-0.112032145 0.0509776 -0.11643152 -0.0128436815 0.014777948 -0.016566826 0.04656917 0.047650803
-0.066631 -0.07327828 0.110915184 -0.12144671 -0.020103786 0.10067827 -0.015758231 -0.053161785
-0.02017837 -0.0026884123 0.045647442 -0.06360929 -0.022701848 -0.09886065 -0.017250692 0.08218159
0.02555816 -0.01354129 -0.01167165 0.07664165 -0.052309815 0.07623092 0.07623179 -0.02718106
0.07493485 0.04353811 -0.06561074 -0.093020216 -0.030606044 0.09800399 0.0482271 0.11158968
-0.060965456 -0.1090298 -0.03371323 -0.080502756 0.07828029 -0.043640487 -0.04712935 -0.005456445
-0.035607286 0.0008038437 0.07865906 -0.0449052 0.03288882 -0.001566433 0.08486259 0.008266416
0.023071615 -0.079473615 0.05177354 0.06066987 0.12111605 -0.0027485893 -0.0011333728 0.10322791
-0.07745962 -0.015694508 0.022414327 -0.009539099 0.097002745 0.10827866 0.09460731 0.06976242
0.028160527 0.034780793 0.080641285 0.000694397 -0.0065308684 0.020214573 0.006990392 -0.05151776
0.028990937 0.10900721 0.017856931 0.011647481 -0.012465895 -0.10702949 -0.10987809 -0.08729584
-0.105769284 -0.11622218 0.022076756 0.14976461 -0.02212064 0.094228975 0.071386546 0.12336987
0.0952833 0.08378958 0.09281595 -0.05132017 0.055752024 0.09339734 -0.07776896 -0.042735837
0.041810513 -0.03816659 -0.0655991 0.00330195 0.019096693 -0.024173044 0.030624034 -0.0821387
-0.015509783 0.06791948 0.039567884 -0.003462301 0.08325773 0.036500163 0.006644215 0.0046103452
-0.065545894 -0.0055295834 0.2902664 -0.090901546 0.019342048 0.10932316 -0.08812006 0.03707551
0.033316005 0.109846845 -0.07749249 -0.03232069 0.06983239 0.058074113 0.15513243 0.091177
0.11859473 0.13812092 -0.03383879 0.029950362 0.108437136 -0.03167324 -0.03153808 0.015395269
0.02249865 0.02746845 -0.087168746 -0.0799116 0.021123108 -0.048371214 0.034825597 0.016379058
