Cheyi Wu/FinalProject/Garch/best_model.pth (torch, 168610 bytes, 11 tensors)

gru.weight_ih_l0 f4 [192, 7]
000000 ae ab 58 3b 87 63 5b 3d b1 cc 1e bd c1 12 a9 3c
       0.0033061313 0.053561714 -0.038769428 0.020638825
000010 ec 64 25 3e ea 77 0e bd dc f7 3d 3e 74 c6 48 3d
       0.1615178 -0.034782328 0.18551582 0.049017385
000020 1c 3f f0 3d 10 99 31 3d d0 2f fc 3c cf 50 ab bc
       0.11730787 0.043358862 0.030784518 -0.020912556
000030 17 0a c3 3d 8b 21 54 3b 55 89 5f bd 89 66 0d 3d
       0.09523409 0.0032368626 -0.05457433 0.034521613
000040 2d 5e 6c bd 18 48 0d bd 55 82 5d bd a1 d0 0d 3e
       -0.057707 -0.034492582 -0.054079372 0.13849117
000050 48 bd 60 bd 50 9e 71 bd 96 3a 16 bd dd e7 a5 bd
       -0.054868013 -0.05898887 -0.036676966 -0.08100865
000060 a5 c7 ce bb 11 d8 3a be 57 99 cb 3d bb 89 ed bd
       -0.0063104206 -0.18246485 0.09941357 -0.115985356
000070 94 7e de 3d 69 ca 08 3d 85 3f e1 bc 7a 92 ef 3c
       0.108639866 0.03339616 -0.027496109 0.02924465
000080 e8 8e 2f bd 84 fa 73 3d 72 b1 a0 bc 2e cc a8 bc
       -0.042860895 0.059565082 -0.019615863 -0.020605173
000090 7b e5 5b 3d ea a2 26 bc b9 e4 0a 3d bf a3 cb 3d
       0.053685647 -0.010170678 0.033909533 0.099433415
0000a0 d3 73 ba 3d c3 49 b5 bd 7a ef fa 3c 73 39 98 bc
       0.09104123 -0.088519596 0.03063177 -0.018582081
0000b0 b5 2e 60 3c 47 61 c8 bb 84 9d 01 be 53 61 50 bd
       0.013683011 -0.006115112 -0.12657744 -0.050874066
0000c0 e0 7a 25 bd 3f 11 b9 3d 3b f1 9f 3c a5 bd 15 3d
       -0.040400386 0.090364926 0.019524207 0.036557812
0000d0 94 8b 3b bc dd 45 98 bd bd b1 28 3d e1 d4 07 be
       -0.011446852 -0.074352 0.04118513 -0.132648
0000e0 58 4b d3 bc cc 16 f6 bd 4f 8a 1c 3b 5e e7 68 bd
       -0.025792763 -0.12016067 0.002388615 -0.056861274
0000f0 27 9e ab 3c 86 4f 24 3c 40 66 1c 3e f2 75 79 bd
       0.020949436 0.0100287255 0.1527338 -0.060903497
000100 f4 e6 7a bd a5 3a 7e bd d7 4f 9f 3d 0c 63 30 3d
       -0.06125541 -0.062067647 0.077789 0.04306321
000110 8a b5 24 3e cc c7 cd bd 40 e0 9b bd a0 f7 45 bd
       0.16084877 -0.10047874 -0.07611132 -0.048331857
000120 6a 30 0b bd 50 5f 40 3d ed a8 4b 3d e7 ed 00 3e
       -0.033981718 0.046965897 0.049721647 0.12590753
000130 75 1f ad bd ea 0e a4 bd 87 29 93 3d c4 8c 5b bd
       -0.084532656 -0.08010657 0.07185655 -0.05360104
000140 c8 74 c0 3d 14 45 ce bc 33 f6 e0 3d 7d 29 32 bd
       0.09397274 -0.025179423 0.10984459 -0.043496598
000150 5b b4 19 bd 34 5c 7c 3d 1e b7 30 3d 0e dc 8d bd
       -0.037525516 0.06161137 0.043143384 -0.06926738
000160 4e 58 81 3d 43 ff fa 3d 5b 42 79 bd 55 85 6d bd
       0.06315671 0.122557186 -0.060854297 -0.057988483
000170 63 04 f9 3d 30 8f 15 bd c4 41 a4 bd 24 6c 1d be
       0.1215904 -0.036513507 -0.08020356 -0.15373284
000180 6e 43 95 bd 48 fe 15 bb a0 22 84 bc 2f 6a b9 bd
       -0.07288252 -0.002288716 -0.016129792 -0.09053456
000190 67 5f ff 3a e3 87 0f be ad f0 2d be 16 aa 86 bd
       0.0019483388 -0.1401668 -0.16986342 -0.0657541
0001a0 77 d9 05 be 28 61 12 be 48 8b 81 3d ca 26 48 bd
       -0.13071238 -0.14294875 0.06325394 -0.048865117
0001b0 e9 92 86 3d 10 0b 25 be 2e 57 7f bd c0 f8 54 3b
       0.0657099 -0.16117501 -0.062339 0.00324969
0001c0 6c 5b 14 3e 7c 63 74 3c 8b e3 8e 3d 8e e8 87 bd
       0.14488 0.014916297 0.06976994 -0.06636153
0001d0 4a a3 c4 3d 86 02 38 bc 82 3b 61 3d d7 b6 ff bd
       0.096014574 -0.01123107 0.05498839 -0.12486046
0001e0 bd 8f ff bd 24 47 f3 bd 15 cd 9a bc ed f2 20 be
       -0.12478588 -0.11878803 -0.018896619 -0.15717669
0001f0 ef 23 d8 3d fb 0e f5 bb ed 2a dc 3d fd 93 18 3d
       0.10553729 -0.0074785925 0.10750375 0.037250508
000200 dc 4d df bd 7e 8f f5 3d 37 97 36 bd 0c 84 73 bd
       -0.10903522 0.119902596 -0.044577803 -0.0594521
000210 d3 66 fa bd 9a 80 49 be bd 1b 10 bd 1b 01 e0 bd
       -0.122266434 -0.19677964 -0.035182703 -0.10937711
000220 4d 74 0a 3e 19 d0 14 be 00 39 11 3e e9 b9 71 bd
       0.13520928 -0.14532508 0.141819 -0.05901519
000230 34 4a 90 3c 21 46 7b 3d 79 94 cc 3d a4 3a 45 3d
       0.017613508 0.061346177 0.099892564 0.048151627
000240 87 2a 81 3d ae b4 d5 bd b7 6d 3c 3c 16 2c 00 3c
       0.063069396 -0.104348525 0.011500767 0.007823011
000250 ba 7d 47 3d 84 de 03 bd 90 a8 bb 3d 7b f8 93 bd
       0.048703887 -0.03219463 0.0916301 -0.07225128
000260 23 72 a8 3d c0 19 47 3d 52 3b 11 3d f6 c7 91 bd
       0.08224895 0.04860854 0.035456963 -0.07118218
000270 2f 99 e7 3d 76 80 96 3c 2c 8c 58 bd 1d 79 f9 bd
       0.11308514 0.018371802 -0.052868053 -0.12181304
000280 46 21 e2 3c 8e 2d 6a 3d 66 55 a8 3c 0b 7a 36 3e
       0.027603757 0.05717235 0.020548534 0.17819993
000290 4f b5 13 3d f3 83 3b bd e4 f4 0c bd 63 0f 7f 3d
       0.03606158 -0.045780133 -0.034413233 0.062270533
0002a0 d4 e3 fb 3d 18 71 b5 3c 43 2f a2 bc 12 63 76 bd
       0.12299314 0.022148654 -0.019797927 -0.060153075
0002b0 2e 38 9f bd a8 63 5f 3d da 17 bd 3d 26 b5 91 bd
       -0.07774387 0.0545384 0.09233065 -0.071146294
0002c0 ab 62 87 3d da 14 d3 3d fe 19 a6 bd 51 b2 79 bd
       0.06610616 0.103067115 -0.08110426 -0.06096107
0002d0 9b 75 6f 3d b8 ef 96 3d 6b 79 51 3c 55 96 68 bd
       0.058461767 0.073699415 0.012785296 -0.056783993
0002e0 89 6e 9a bd a1 cd 4c 3c f4 ee 39 bd dc e9 de bc
       -0.07540614 0.012500198 -0.0453939 -0.027211122
0002f0 e3 41 a5 3d 29 54 ed 3d e4 12 8a bb e4 f6 a5 bc
       0.080692075 0.11588318 -0.0042136777 -0.020259328
000300 99 cf e1 3c 4c 61 d8 bc 3d 6e 54 bc 6a 5f 58 bc
       0.02756481 -0.026413582 -0.012965736 -0.013206342
000310 4b d9 38 be 08 27 e7 bd 7e 03 f3 3c ee fd c6 3d
       -0.1805164 -0.112867415 0.029664751 0.09716402
000320 a2 2f d1 bc 1c b9 6e bd f9 88 72 bd 70 36 23 be
       -0.025535408 -0.058282003 -0.05921266 -0.15938735
000330 e1 df b4 bd ca 98 6b bc 2c a2 37 3e 92 9d b0 3d
       -0.08831764 -0.0143796895 0.17932957 0.08623804
000340 e2 53 a0 bd 1a ca 02 39 99 5f c3 bd ea 4e 3c 3d
       -0.078284994 0.00012473055 -0.09539718 0.045973696
000350 47 24 87 bd 7c 57 80 3c b6 b7 47 3d dd ab 72 3b
       -0.06598716 0.015666716 0.048759185 0.0037028708
000360 ca 34 44 3c ab 4e ad 3d 0d 6e 7a bd 16 0c 18 bd
       0.0119754765 0.0846227 -0.06114011 -0.0371209
000370 fe 29 ad bd d0 9e 82 3d ba f4 b2 3d d0 a5 89 3d
       -0.08455275 0.06377947 0.08738084 0.06721079
000380 f2 10 02 be fc 25 26 be 17 3d 13 be d2 ad 22 3c
       -0.12701777 -0.16225427 -0.14378773 0.009929137
000390 bc a8 a9 bc fa 59 bf 3d 68 24 bb 3d 2f 38 25 3d
       -0.020710342 0.093433335 0.09137803 0.040336784
0003a0 71 ef 86 3a 44 e5 c5 bd 34 29 53 be 27 8d 1f be
       0.0010294748 -0.096628696 -0.20621186 -0.15581189
0003b0 0b 2f 0a 3d 47 d6 d1 bd d9 29 28 bd be c7 b1 bd
       0.03373627 -0.10245948 -0.041055534 -0.08680676
0003c0 e4 71 3a bd d6 67 b6 bd 92 8e f3 bd ae d7 5e 3d
       -0.04551877 -0.08906524 -0.118924275 0.054404907
0003d0 f8 b6 9a bc 09 2b 97 3d 1c 6c 33 bd a6 93 d2 bd
       -0.018886074 0.07381255 -0.043804273 -0.10282068
0003e0 35 b1 e5 bc 99 ec d2 bd 64 9c a4 bc d3 d6 d3 bd
       -0.0280386 -0.10299034 -0.020094104 -0.10343709
0003f0 b2 df c5 3d bd a7 7a bd 05 62 ba 3d 63 d8 5d 3c
       0.09661807 -0.061195124 0.09100727 0.01354036

gru.weight_hh_l0 f4 [192, 64]
000000 58 2e 2f bd 55 72 5d 3d ae 47 a8 bd c4 03 0c be
       -0.042768806 0.054064114 -0.08216797 -0.13673311
000010 db b3 aa 3d cd 09 87 bd 0b b9 da 3c 40 e4 2f bd
       0.08335086 -0.06593666 0.026699563 -0.042942286
000020 00 c0 52 bd 10 6e 67 3d 78 f0 b7 3d ea bf 06 3d
       -0.051452637 0.05650145 0.08981413 0.032897867
000030 06 2f 25 be 54 3d 23 bd ee d3 33 be 1a fc e5 3a
       -0.1613122 -0.03985341 -0.17561314 0.0017546446
000040 1e 7f f6 3d 47 a0 ec bd 71 49 07 bd d0 b1 24 be
       0.120359644 -0.11554008 -0.033029024 -0.16083455
000050 08 ea 03 3d cc b0 c7 3c d8 5c 33 3d c0 81 34 3e
       0.03220561 0.024376296 0.043789715 0.1762762
000060 9c 3a d6 3c b2 35 e7 bd 53 63 19 3c 40 ba e6 3d
       0.026150994 -0.112895384 0.00936206 0.11265993
000070 0e 18 ef 3d e3 28 2c bd 66 a8 a7 3d 94 35 15 3e
       0.1167451 -0.04203118 0.08186416 0.1457122
000080 ac 7a 25 3e b5 e6 46 be fc 90 07 3d eb d8 3d be
       0.16160077 -0.19423945 0.033097252 -0.18539779
000090 44 95 3a 3e 86 0a f8 3c 05 bf 44 be ca f6 b7 3d
       0.18221003 0.030278455 -0.19213493 0.08982618
0000a0 7c 1d 9e bd 91 bc 2b bd 33 36 ef bd 63 24 17 bd
       -0.077204674 -0.041927878 -0.116802596 -0.036899935
0000b0 e7 ed 35 3e 39 58 4b 3b 40 db 9c 3c c7 3f ad 3d
       0.17766534 0.0031027927 0.019147515 0.0845943
0000c0 ea bd 3b bd a2 7d ba bc b1 79 ed bd d5 41 91 bd
       -0.045835413 -0.022764985 -0.115954764 -0.070926346
0000d0 51 19 47 bc 49 59 01 bd 5d 98 0f be 5b d8 61 bb
       -0.012152032 -0.03157929 -0.14022966 -0.0034461233
0000e0 7d 2c 40 bd 94 7a ce bd 03 ff 80 3d e3 d0 27 3d
       -0.046917427 -0.10081974 0.062986396 0.040970694
0000f0 7f 25 13 be 0a 80 ba 3d 17 4c 76 3c fb 60 9f 3d
       -0.14369772 0.09106453 0.01503279 0.077821694
000100 2d 33 d8 3c 3d 0f 63 bd 01 9c d6 bc 43 5c b1 bc
       0.02639159 -0.055434454 -0.026197435 -0.02165044
000110 16 80 46 bd c6 5b f6 3b 9b 5f a5 bc 3d 88 81 3c
       -0.048461996 0.0075182645 -0.02018719 0.015812034
000120 95 b7 0c bb a1 2e b6 3d 09 8a 84 37 49 29 a0 bd
       -0.0021471728 0.088956125 1.5799904e-05 -0.078203745
000130 98 0a 16 3d ef a1 ce bd c8 70 cc bc d3 34 81 bd
       0.036631197 -0.1008948 -0.024956122 -0.063089035
000140 62 8d 92 bd cb 50 62 bd 5b a1 d4 3d f9 ed cd 3d
       -0.07155873 -0.05525283 0.103823386 0.10055155
000150 2d 60 01 3d bc 82 e6 3d f8 4e ab bd 66 2b 00 3d
       0.03158586 0.11255404 -0.083646715 0.031291388
000160 d1 6d ac 3d 99 73 dc 3d fd cf 07 be 52 07 21 3d
       0.08419383 0.10764236 -0.13262935 0.03931362
000170 c1 f9 13 bd 84 fd b2 3c 66 57 67 bd 7a 93 ab bd
       -0.036126856 0.021849401 -0.056479834 -0.08377738
000180 38 96 01 be 43 06 d9 bd 70 41 0d 3d 72 06 3a 3d
       -0.1265496 -0.105968975 0.034486234 0.045416303
000190 16 05 da bd 64 f8 0b bd 8e 08 02 39 36 85 cb bd
       -0.10645501 -0.03417243 0.00012400953 -0.09937517
0001a0 cc 83 4d 3d 92 c6 e8 3d c0 e4 46 3c 6d 41 c4 bd
       0.05017452 0.11365999 0.012139499 -0.095827915
0001b0 ba c0 34 3d a4 5d 6b 3d a5 0a ea 3d 8d 9a a6 bd
       0.04412911 0.05746235 0.114278115 -0.08134947
0001c0 a8 cc f6 bd f0 1d 9d 3d 6f d3 aa bb 50 b6 83 bd
       -0.12050754 0.07671726 -0.005213193 -0.06431258
0001d0 34 fe 36 bd 15 e5 5e bd 93 91 c3 3d 49 1f 00 3c
       -0.04467602 -0.05441769 0.095492505 0.007819959
0001e0 9c 3b db 3d cf 20 ab 3d 13 4f 0c 3d 29 f9 16 3d
       0.10704729 0.08355867 0.0342551 0.03685871
0001f0 ef b8 70 bc c3 70 db 3d 30 74 c7 bd 70 b8 92 3d
       -0.014692529 0.10714867 -0.09738958 0.07164085
000200 d7 c6 f8 3a 4a 2d b1 3d bd 1a 71 bd 0d 58 a0 bd
       0.0018980157 0.08651216 -0.05886339 -0.07829294
000210 d0 97 8f bb fb 62 da 3c 37 c4 e0 bd 4d b5 a9 bd
       -0.004382111 0.026658526 -0.10974925 -0.082865335
000220 2f 2c 8b 3c b6 a4 a2 bd ce 97 91 3d a8 bb e0 3d
       0.016988842 -0.07941572 0.071090326 0.109732926
000230 20 bd 2e bd 29 08 cd 3d 5a 53 88 bd 43 31 90 bd
       -0.042660832 0.10011322 -0.06656523 -0.07040646
000240 a3 db 67 3b 7b 25 a6 bd ba 86 6f bd e4 08 ca bd
       0.0035378716 -0.081126176 -0.058478095 -0.09864977
000250 64 20 19 be 28 da 32 ba b5 68 ab 3d 78 3a 06 3e
       -0.14953762 -0.0006822669 0.08369581 0.13108242
000260 87 0c 0b 3e a3 03 4e 3c 6b ef 84 3c a2 cd 83 bc
       0.13578998 0.012574109 0.016227445 -0.016089264
000270 ce 35 c6 3c 09 dc 00 be 12 52 48 3d 16 b6 2b 3d
       0.024195578 -0.12583937 0.048906393 0.041921698
000280 bc 70 8d 3d ec 2d ed 3c 45 f8 99 bd ce a0 a6 3d
       0.06906268 0.028952561 -0.07518057 0.0813614
000290 35 15 bc 3d 4c 57 a8 3d 16 a8 0e bc 56 24 d3 3d
       0.091837324 0.082197756 -0.008707067 0.10309665
0002a0 7c e6 70 3d cc 9e ce 3d 75 d0 9b 3d 60 e0 1e bd
       0.058813557 0.10088882 0.076081194 -0.0387882
0002b0 b6 5b e1 3d 6c c3 29 3d fd 46 17 3d fc f7 21 3e
       0.110038206 0.041446134 0.036932934 0.15817255
0002c0 2d aa 97 bc 98 51 e1 bd 92 00 96 bc 63 78 0f 3d
       -0.018513763 -0.11001891 -0.018310819 0.03502692
0002d0 37 dc 35 3d 55 2f ff bb 39 e8 99 3d d5 2f aa 3d
       0.044399466 -0.007787625 0.07514996 0.083099045
0002e0 71 3a 79 bd 62 18 1e bd 33 3d 8b 3c 65 7a 59 bd
       -0.06084675 -0.038597472 0.016996955 -0.05309524
0002f0 22 d8 cc bb e6 3f 79 bb ca 92 89 bd 30 eb c6 bc
       -0.006251351 -0.0038032471 -0.06717451 -0.024282068
000300 9b b2 f9 bc 72 bf c8 3d 1f d5 8e 3d b2 58 04 3e
       -0.030480674 0.0980214 0.069742434 0.1292446
000310 a9 28 6b 3d 00 a6 2e 3d 3e 73 95 3d c9 dd 9f bb
       0.057411823 0.04263878 0.07297371 -0.004878734
000320 9a ce ac bd 79 10 86 bd ee b2 43 bd 67 06 4b 3b
       -0.084378436 -0.06546111 -0.047778063 0.0030979158
000330 1e 39 00 3d 73 6c 7a 3d ac 29 ec 3d aa 90 15 3d
       0.03130447 0.06113858 0.11531386 0.036514916
000340 a2 bd 2b bd 07 4f 8f bd f8 48 cd bd 0b 7f 6b bd
       -0.041928895 -0.06997495 -0.10023683 -0.057494204
000350 be de 6a 3d 7e 7e 6c 3d de e7 05 3e f8 a7 56 bd
       0.05734133 0.05773782 0.13076732 -0.05240628
000360 67 06 ce bc 74 01 64 bb ea bd 1a bd 36 21 e4 3c
       -0.025149537 -0.0034790905 -0.037778772 0.027847867
000370 ab cd 83 3d 29 ab 46 3d 5e aa 6d 38 df 6a 7d 3d
       0.064357124 0.048503075 5.666387e-05 0.0618695
000380 49 6a 89 bd e6 94 8a bd 98 47 41 3c d7 45 de bb
       -0.067097254 -0.067666814 0.011796854 -0.006783228
000390 56 64 a0 bd a2 27 23 3d ef ec 9d 3c be 3c dc bc
       -0.078316376 0.03983272 0.019278018 -0.026884433
0003a0 b8 36 8b bd 66 01 2c bd 5d 99 c9 bd 3a e5 39 3d
       -0.06797546 -0.04199352 -0.09843705 0.045384623
0003b0 20 9b 34 bb 91 00 9d 3d 3c 24 9e bc 96 1a 8a bc
       -0.0027558282 0.07666124 -0.019304387 -0.01685838
0003c0 a6 bd 30 3d 2b 2e e2 3d d0 1b 46 bd b5 cf f3 3c
       0.043149613 0.11043962 -0.048366368 0.029762128
0003d0 a0 85 ed 3c a7 95 d2 bd f5 6d 80 3d 55 28 84 bd
       0.028994381 -0.1028245 0.06270973 -0.06453005
0003e0 35 cd f5 bc 95 f3 b4 bd dc 11 b3 bd 67 94 ba 3d
       -0.030005077 -0.08835522 -0.08743641 0.09110337
0003f0 92 e5 bb bd 86 8b 8f 3d 2a b3 09 be f7 49 1c 3a
       -0.091746464 0.07009034 -0.13447252 0.00059619494

gru.bias_ih_l0 f4 [192]
000000 b4 43 77 bd 78 6f ea 3d a9 18 c4 3d 59 26 b1 bd
       -0.0603673 0.11447042 0.09575016 -0.08649892
000010 88 1b 64 bc 73 a9 49 3d 8b f6 7f bd c0 1a bc 3b
       -0.01392258 0.049233865 -0.06249098 0.0057404935
000020 8e 4c b1 3d dd 46 ae bd 6d d6 b6 bd f4 b0 b5 3b
       0.0865718 -0.0850961 -0.08927617 0.005544776
000030 90 04 8d bd 5d 22 b4 3d 9d b1 12 3c f8 18 cd bc
       -0.06885636 0.08795617 0.008953479 -0.02503632
000040 40 95 37 3d 8a fb 71 bc c3 e0 cc 3c 1f 11 a9 3d
       0.04482007 -0.014769444 0.025009518 0.08255219
000050 cf 30 b3 bd 7e 56 1c bd 76 e5 86 3c 2a 11 29 bd
       -0.08749544 -0.038168423 0.016466837 -0.041276135
000060 1c ce 95 bd f1 33 10 bd 98 1a 8b 3d b8 85 05 be
       -0.07314703 -0.035205785 0.06792182 -0.13039291
000070 81 ac ca 3d 0c 5b cd 3d 76 e8 0c bd e5 b0 c7 bc
       0.09896184 0.100271314 -0.03440138 -0.024376342
000080 77 9f c5 3b 1e 59 06 be 05 96 bb bd d5 d5 e9 3d
       0.0060309726 -0.13119933 -0.09159473 0.11417738
000090 9b 09 a1 3d ce 49 a4 bd 82 0f 6d bc 19 9a a9 3c
       0.0786316 -0.080218896 -0.014469029 0.020703362
0000a0 53 34 96 3d 59 6a 93 3d 93 cf a3 3d 05 d3 c1 3d
       0.07334199 0.071980186 0.07998576 0.09464077
0000b0 33 37 34 bd a0 ae 29 bd 35 27 19 3d 1a 99 f5 bd
       -0.043997955 -0.0414263 0.037390906 -0.119920924
0000c0 77 be de bd 29 7b bc 3d 2a cc b9 3d 57 59 2a 3d
       -0.10876172 0.092031784 0.09072144 0.041589107
0000d0 2e bc b0 3d ba 2e 13 3d 41 8e cc 3b 5d de a8 3b
       0.086296424 0.035933234 0.006242544 0.005153461
0000e0 c9 f6 e1 bc f9 0e 7d bd a6 1b 99 3d cb 39 bd 3d
       -0.027583497 -0.061781857 0.07475977 0.09239539
0000f0 d1 f5 3f bd 50 39 17 3d 93 bd 41 bd d7 16 c1 3d
       -0.04686529 0.03691989 -0.047299933 0.094281845
000100 db b1 b8 be ba 35 d0 3c 38 89 35 bd 9c c8 82 bd
       -0.36073193 0.025416244 -0.044320315 -0.063859195
000110 b9 e8 6d be 4d 9b 03 be 32 92 9f be eb a5 4d be
       -0.23233308 -0.12852211 -0.31166226 -0.20082824
000120 a0 a9 44 3e 1f 5b c1 bb 1d 9a 51 be 26 af cd be
       0.19205332 -0.005900755 -0.20468946 -0.4017269
000130 30 76 00 be b5 c8 ed bd 7a 8a 5a be da 0f fa bd
       -0.12545085 -0.116105475 -0.21341887 -0.12210055
000140 6a 5e 5e 3d 7c b5 77 be 55 19 84 bc 78 ae 6f be
       0.05428926 -0.24190325 -0.01612536 -0.23406398
000150 c6 5d f4 bd aa b0 0a 3c e2 97 ba bd 01 60 87 be
       -0.11931948 0.008464972 -0.091110006 -0.26440433
000160 4d 9a bf be 78 6b cd bd 3f ea 91 bd 37 66 a4 bc
       -0.3742241 -0.10030264 -0.07124757 -0.020068271
000170 64 da a1 be 10 ad 13 be 08 8b 8f bd c8 7c 93 be
       -0.3161193 -0.14421487 -0.0700894 -0.28806138
000180 cf 93 b6 bd e5 f1 1a be 67 b6 4c be 18 4a 66 be
       -0.08914911 -0.15131338 -0.19991456 -0.22489202
000190 66 5c 6c 3d 0d 44 72 bd 49 e2 c2 be 99 86 4a be
       0.057705306 -0.05914693 -0.38063267 -0.19777907
0001a0 75 93 53 be 3f d0 2f be f7 84 91 be fa 44 50 bd
       -0.20661719 -0.17169283 -0.28421757 -0.05084703
0001b0 19 47 3f be ca 8c c5 be 0d 84 20 be ce ad 35 be
       -0.18679465 -0.38583976 -0.15675373 -0.17742082
0001c0 5e e6 12 be 63 81 24 3e e4 80 8f be 47 43 d7 bd
       -0.1434569 0.16064982 -0.28028023 -0.10510879
0001d0 38 3c 9d be 92 52 c9 bd 87 74 10 be 77 d8 c5 ba
       -0.30710006 -0.09830202 -0.14106952 -0.0015094419
0001e0 49 be f2 bd 2f e0 28 be dd 47 0b 3d dc a0 1d be
       -0.118527 -0.16491769 0.03400408 -0.15393394
0001f0 c2 45 32 be 7d 02 bb bd 13 42 2e be 83 d3 d0 bd
       -0.17409423 -0.09131334 -0.17017393 -0.10196593
000200 6e 7a 59 bd 07 95 bf bd b2 34 d2 bd 0e 4d b0 3d
       -0.053095274 -0.093545966 -0.10263957 0.08608447
000210 15 e9 bc bc df f6 0c bd ca 28 31 3d fc 84 b4 3d
       -0.02306036 -0.034415122 0.04325179 0.08814427
000220 59 0f a6 3d 8a ac 23 bd 9f a1 0e 3d 90 9f 00 bc
       0.08108396 -0.039959468 0.034822103 -0.007850543
000230 e4 b4 09 bd 25 0f 05 3d 74 ba 85 3c 19 99 a8 3d
       -0.033619776 0.032485146 0.01632426 0.08232326
000240 73 b9 b2 3d aa 67 8c 3d 64 ca 94 3c fc 0e a6 bd
       0.08726778 0.0685571 0.018162914 -0.08108327
000250 9d a9 87 bd 55 b8 63 3d 15 7f b8 bd 30 bb b6 bb
       -0.06624148 0.055595715 -0.09008614 -0.0055765137
000260 1b 1e aa 3d 65 d8 15 3c ea 3c e9 3b b8 fc 90 bb
       0.083065234 0.009145831 0.007117857 -0.0044246577
000270 a3 a3 8f bc 89 75 27 3c 0f 69 01 3e f9 a5 b0 bd
       -0.017534083 0.010220894 0.12637733 -0.08625407
000280 86 2e 0c 3e 5f ab 5e 3c ce c0 c9 3d aa e7 c2 bc
       0.13689622 0.013590663 0.09851228 -0.023792107
000290 f4 22 8c 3d bb 85 ae bd 63 02 c9 bd 58 33 48 3d
       0.06842604 -0.08521601 -0.09814908 0.04887709
0002a0 ea 8c 42 3d ea b6 e4 3d cf d3 86 3d 2d b2 35 bd
       0.047497667 0.111677006 0.06583368 -0.044359375
0002b0 2b 85 9a bd 65 7d 98 3d d9 1a a5 bd e0 f3 59 bd
       -0.07544931 0.07445792 -0.080617614 -0.053211093
0002c0 a8 b2 97 bd b2 a5 a4 bd 00 d0 c0 bc 7d 60 aa bd
       -0.07407123 -0.080394164 -0.023536682 -0.08319185
0002d0 0e fd 88 3d 65 1b 8b 3c 0d 09 ce 3c bb 2a 5d bd
       0.06688891 0.016980836 0.0251508 -0.05399583
0002e0 81 ca 40 bd ed cf 92 3d c4 d2 51 bd b3 e0 7c 3d
       -0.047068123 0.07168565 -0.051226392 0.061737727
0002f0 b9 b4 06 bd c5 b4 17 bd e5 34 b3 bd 03 41 c6 bd
       -0.032887194 -0.03703763 -0.08750323 -0.09680369

gru.bias_hh_l0 f4 [192]
000000 57 35 e3 3d a2 12 b5 bd af cf c4 bc a4 26 87 bd
       0.11094158 -0.088414446 -0.024024813 -0.06599167
000010 0c 88 c6 bd 86 c7 06 be a7 f9 8e bd cc 50 c5 3d
       -0.09693918 -0.1316205 -0.06981211 0.096345514
000020 3a d7 59 3d 3e 59 54 bd 69 49 0b bd ba 60 07 3e
       0.05318377 -0.05184292 -0.034005556 0.13220492
000030 9b 57 33 bd bc e3 fc 3c e5 e9 4c bd 42 4a bb bd
       -0.04378472 0.030870311 -0.050027747 -0.09145023
000040 5b 0f 04 3e 72 6f 2a 3d 0b 96 9a 3d b9 db 50 3d
       0.12896483 0.04161019 0.0754815 0.050990794
000050 32 50 1b 3d a7 33 37 3d ff b2 f9 bd ed 92 18 3e
       0.037918277 0.044726994 -0.12192344 0.14899798
000060 64 0c 17 be c2 67 b7 3d eb ab a9 bd 85 64 1d be
       -0.1475082 0.08955337 -0.08284744 -0.15370376
000070 4d f9 1a 3d 04 6a fb 3d c0 76 ad 3c db 58 11 3d
       0.037835408 0.1227608 0.021174788 0.03548513
000080 7b c5 ba bd 9e 6f bb bc d6 d7 00 3e 73 9c 02 3e
       -0.09119698 -0.022880372 0.12582335 0.12754993
000090 34 d5 50 bd b4 46 51 3d 42 fd d0 3d 48 1c 09 3d
       -0.050984576 0.05109282 0.10204555 0.033474237
0000a0 1d b4 a3 3c 90 d0 0e be ec 9b 19 3d 04 72 c7 3c
       0.019983346 -0.13946748 0.037502214 0.02434636
0000b0 b8 ac 08 bd 82 ac 4a 3d f5 e8 d4 bd f9 89 c4 3d
       -0.033367842 0.049480923 -0.103959955 0.09596629
0000c0 6f 90 c4 3b 5f 7b da 3d fd 2a 08 bd 12 2d 93 bd
       0.005998663 0.106680624 -0.03324412 -0.07186331
0000d0 13 5f c8 3d 54 7c 5a 3d fb 7d e5 3d cb 71 8f 3d
       0.09783759 0.053341225 0.112056695 0.07004126
0000e0 17 43 c7 bd 7a 92 bb bd 29 82 15 be ae 88 ac bb
       -0.09729593 -0.091587976 -0.14600433 -0.005265317
0000f0 6b 84 e3 3d 47 73 74 bd 80 8c 19 bd 7e 92 a8 3d
       0.11109241 -0.05968025 -0.037487507 0.08231066
000100 5f 61 0c be 15 58 2a 3d 80 f9 ca bc 9b ef dc bc
       -0.13709019 0.041587908 -0.024777174 -0.026969722
000110 44 46 10 be 4d 57 6d be f8 8d 8d be 03 98 24 be
       -0.14089304 -0.23177834 -0.27647376 -0.16073613
000120 fe d0 ff 3d aa ce 91 bd 50 8e 9f be fb 0b 94 be
       0.12491034 -0.07119496 -0.31163263 -0.2891539
000130 6c b4 62 be 38 56 b5 3c 75 a8 f8 bd 14 7e 1d be
       -0.22139138 0.022135839 -0.12141506 -0.15380126
000140 06 01 04 3d 74 87 51 be 56 6e 66 bd 06 9c c8 be
       0.03222754 -0.20461828 -0.05625757 -0.39181536
000150 5d 17 e6 bd e2 50 03 3c 2c 4f 2e be be c4 0a be
       -0.11234925 0.008014889 -0.17022389 -0.13551614
000160 96 de 4f be 9f 8a 67 be 93 9e e5 bd 4e e8 2c be
       -0.20299754 -0.22611474 -0.11211886 -0.16885492
000170 1e 49 c3 be e4 df 86 bd 69 08 1d be 4f f3 95 be
       -0.3814172 -0.065856725 -0.1533524 -0.29287192
000180 41 78 46 be fc ee ba bd db 7f b4 be ea 3a e4 bd
       -0.1938181 -0.09127614 -0.35253796 -0.111440495
000190 e5 b8 db bd c2 13 70 bd 8a f8 b1 be d0 8b ca bd
       -0.10728625 -0.058612593 -0.34759933 -0.09889948
0001a0 4f 4a 6b be 48 90 80 be d6 fe 24 be a9 e9 cc bc
       -0.22977565 -0.25110078 -0.16112837 -0.025013762
0001b0 26 92 b1 be b6 06 c9 be 22 c8 47 bd 4b 2a 7c bc
       -0.34681815 -0.39262933 -0.048774846 -0.015390943
0001c0 ae fe 70 3d aa 88 87 3c 5a f8 ae be 5b d7 07 bd
       0.05883663 0.016544659 -0.34173852 -0.033164363
0001d0 b3 bd 87 be 92 d3 fc bc 3b f1 2b be 51 c6 6d 3d
       -0.26511917 -0.030862603 -0.16791241 0.058050457
0001e0 b0 49 b0 bd 87 5f 37 bc 7f d1 67 bd cd 43 bd bd
       -0.08607805 -0.011192209 -0.056596275 -0.092414476
0001f0 af 66 e5 bd 50 e1 57 be 5f cc e0 bd 42 26 fe bc
       -0.11201226 -0.21082044 -0.10976481 -0.031024102
000200 5f 7d 29 bd 04 4d d1 3d 83 1e c3 3d a4 dd 99 bd
       -0.04137933 0.10219768 0.09527304 -0.07512978
000210 2a 2f 25 3d a8 d9 25 bd 12 da 0c bc b0 1a 1a 3d
       0.040328182 -0.040490776 -0.008596914 0.037623107
000220 f7 b8 a8 bd f4 69 73 bc 98 f2 20 3d af 74 5b bd
       -0.08238404 -0.014856804 0.039293855 -0.053578075
000230 57 e6 9e 3d 01 25 f7 3d 42 45 ef 3c cc c3 d5 3c
       0.077587776 0.12067605 0.02920783 0.02609434
000240 6f 98 df 3d 79 fa 35 bd 30 fd a9 bb 9d eb cd bd
       0.10917746 -0.044428322 -0.005187653 -0.10054705
000250 ef 63 e6 bc de ed 89 bc bb 96 d6 3d c7 1b 6f 3d
       -0.028123824 -0.016837057 0.10477968 0.0583761
000260 b5 26 07 bd b0 9c b3 bd cf 7b 38 3d 38 72 a1 bd
       -0.0329959 -0.0877012 0.045039948 -0.078831136
000270 cf df 2f bd d1 e2 fe 3c 12 59 02 bd bf e7 aa 3d
       -0.04293805 0.031114014 -0.031823225 0.08344983
000280 c9 e4 8d 3d b2 8c 22 ba af d2 19 bd b2 cd 16 3d
       0.06928403 -0.0006200775 -0.03755444 0.03681726
000290 c2 c9 70 3d 76 c7 01 3d 82 9b 0d bd d2 70 63 3b
       0.05878616 0.03168436 -0.034572132 0.0034704697
0002a0 54 e7 13 3c 10 f2 d2 bd 22 30 be bd 78 48 f4 3b
       0.009027321 -0.10300076 -0.09286524 0.007454928
0002b0 be 0e ce 3d e4 6b 9b bd 79 d2 cd 3c d5 45 68 bc
       0.100614056 -0.07588938 0.025124775 -0.0141768055
0002c0 e6 56 bc 3d b2 68 c8 bc a7 29 f6 bc e2 a1 6b 3d
       0.09196262 -0.024463985 -0.030049158 0.05752743
0002d0 7b 7d 73 3c 9f 99 b5 bd 45 5d 02 bd b8 45 2f 3d
       0.01486146 -0.088671915 -0.03182723 0.0427911
0002e0 33 60 d1 bc 17 0a f7 3d b9 21 ee bd cc bf 7f 3d
       -0.025558567 0.12062471 -0.11627526 0.06243877
0002f0 95 1b 86 3d 71 5a dd bd 53 da 22 bd 73 de 86 3d
       0.065482296 -0.10808266 -0.03975899 0.065853976

gru.weight_ih_l1 f4 [192, 64]
000000 b0 45 17 be 14 b0 89 3d e1 d1 c0 3c fb 54 c0 3d
       -0.14772677 0.06723037 0.023537578 0.09391209
000010 db 27 f3 3b 07 d5 8e 3b 09 0f 84 bd d6 63 bf 3c
       0.0074205226 0.004358891 -0.0644818 0.023363035
000020 34 a0 92 bd 6a 1e a3 bd 42 30 29 bd 39 28 e8 bd
       -0.071594626 -0.079647854 -0.041305788 -0.11335797
000030 a7 80 00 3e 19 b6 81 bd 87 1e b5 bc c2 d9 07 3e
       0.12549077 -0.063335605 -0.022109283 0.13266662
000040 f8 24 b1 bd 15 25 27 3e 3b b4 62 bd 9e d5 ba bb
       -0.08649629 0.1632274 -0.055347662 -0.0057017347
000050 e9 e0 43 3e 56 0b 9f 3d 2a 11 16 be 58 8c cc bd
       0.19128765 0.07765834 -0.14654985 -0.09987706
000060 43 85 06 bd 8c 8b c6 3d f4 6c f1 3d 98 e2 d2 bd
       -0.032841932 0.09694585 0.11788359 -0.102971256
000070 fc d4 ea 3b 05 0c 18 3e 14 35 29 bd ef 9e 00 bd
       0.007166503 0.14848335 -0.041310385 -0.03140157
000080 4d c9 10 be 42 30 c3 3d a5 30 3d 3e 33 76 23 3e
       -0.1413929 0.09530689 0.18475588 0.15963058
000090 75 b8 0d be 69 7d 15 3c c7 13 41 3e 47 f3 a0 bd
       -0.13839896 0.009124138 0.188552 -0.078589015
0000a0 dc 76 e7 3d 73 3d 39 be a3 75 0a 3e ec 13 2f 3d
       0.113019675 -0.18089847 0.13521437 0.04274361
0000b0 b3 46 25 3d 5a 0f 26 3d cd a9 d3 bc be cc 1b be
       0.040350627 0.040541984 -0.025837803 -0.15214822
0000c0 11 00 e6 bd 28 02 a7 bd 9f a8 91 bd bd fb 26 bd
       -0.112304814 -0.08154708 -0.0711224 -0.04076742
0000d0 a2 55 e6 3c 97 9a 12 be 14 ea 22 3e 29 67 8c bd
       0.028117005 -0.14316784 0.15909606 -0.06855614
0000e0 6f 30 77 bc b8 e6 0a 3e 23 06 b7 3c 9a 22 02 be
       -0.015087231 0.13564575 0.022341793 -0.12708512
0000f0 ed 01 ea 3d 1d 0c db bd 25 24 21 be 6a 6b a5 bd
       0.114261486 -0.1069567 -0.15736444 -0.08077128
000100 db be f6 bc c6 c3 c6 bc 96 20 7c 3d db 1d a8 3d
       -0.030120304 -0.024263274 0.061554514 0.082088195
000110 fe 10 3f 3d fd b1 25 bd c8 8c 80 bd d4 9e b0 bd
       0.046647064 -0.040452946 -0.06276852 -0.08624044
000120 ae 03 65 3d 53 b1 16 3e d0 01 0e be f2 20 3d bc
       0.055911712 0.14716081 -0.13867879 -0.011543499
000130 ed 80 e9 3c 95 ee a1 3d 27 22 cd 3d 34 a9 19 3d
       0.02850386 0.07906834 0.1001628 0.03751488
000140 05 ac e2 3c f7 b1 96 bc fe 33 66 3d 71 e2 8c 3d
       0.027669916 -0.018395407 0.056201927 0.06879128
000150 71 e7 41 bd 60 8d 89 3d 5e 45 a5 3d 26 91 22 3d
       -0.04733986 0.06716418 0.08069871 0.039689206
000160 8f 8d 4c bd f3 d9 8e 3d 44 6d 1b 3d 76 0f 79 bd
       -0.04993969 0.06975164 0.037946 -0.06080576
000170 d7 1d b5 3c 5f d1 68 bc a0 ca 82 bd 66 e9 95 bd
       0.022108955 -0.014210074 -0.06386304 -0.07319908
000180 61 f3 ff bd e5 1f 99 39 a1 2c 90 bd eb 5b f8 3d
       -0.12497593 0.00029206197 -0.07039762 0.12126907
000190 5f 0a 9f bd c9 f7 86 3d 0a 0b 5d bc 4b 4e 4d bc
       -0.0776565 0.0659023 -0.013491401 -0.0125308735
0001a0 83 2a f8 bc c5 a2 f2 bb 52 dd 42 3c b2 ec 91 bb
       -0.030293709 -0.0074046575 0.011893587 -0.004453265
0001b0 88 b2 ea bc d8 10 d4 bd 66 96 9f 3d e3 9b 1d bc
       -0.028649583 -0.10354775 0.07792358 -0.009619686
0001c0 2a f6 f1 3d 55 96 b4 3c 60 b3 14 3b d7 26 0c be
       0.1181453 0.02204434 0.0022689924 -0.13686691
0001d0 97 87 79 3c 1c 85 41 bb 5f ec 09 3e 5e 90 80 3c
       0.015230081 -0.0029528802 0.13469075 0.01569384
0001e0 58 ea 54 bd c6 54 73 bc 2a 85 e1 3c 29 e3 85 3d
       -0.0519813 -0.0148517545 0.027529318 0.06537468
0001f0 36 55 57 3d df a3 05 be 67 ad 08 be 13 5d 5a 3d
       0.052571498 -0.13050793 -0.13347398 0.05331142
000200 da 76 d5 3d f9 e5 64 bd 3c 9c 41 3d 9f d1 d4 3d
       0.1042306 -0.05588338 0.047268137 0.103915446
000210 1b 43 e8 3d 1e 39 81 3d 64 fd 73 bd f9 31 c3 3d
       0.11340924 0.06309722 -0.059567824 0.09531016
000220 2e 0b 91 bc 13 a5 e9 bd 49 ec ee bd 1c 47 42 bd
       -0.017705526 -0.114084385 -0.116661616 -0.047431096
000230 6d c6 ad 3d ea 72 00 3e 30 66 b4 3d cb 7b 79 bd
       0.08485112 0.12543836 0.08808553 -0.060909074
000240 27 f9 7c 3d fd 04 c3 3d e9 35 d4 3d d4 9e 02 be
       0.061761048 0.09522436 0.10361845 -0.127559
000250 b3 95 9f 3d 0d a3 b7 bb 1c 9d 35 3d a9 2f d0 bd
       0.07792225 -0.005604154 0.044339284 -0.101653405
000260 ae 27 8e bc 3a 54 3d bd fd ed 68 bd d1 c3 d9 bb
       -0.017352905 -0.046222903 -0.05686759 -0.0066456576
000270 59 8d 4e bd ac 3a 5f 3d 5c 1f 0b 3e 3d c3 1c 3d
       -0.05042777 0.054499313 0.13586181 0.03827213
000280 37 54 85 bd e0 01 1a bd 51 43 10 bd 86 b9 1c bc
       -0.06510203 -0.037599444 -0.035220448 -0.009565717
000290 cd c1 04 3c 54 31 94 3d 71 5c a2 bb 7e 3b ed bd
       0.008102846 0.07235971 -0.0049548675 -0.11583613
0002a0 a8 30 ee bc 0c 96 50 bd e1 91 ed 3c 03 7c ce 3d
       -0.029075935 -0.050924346 0.029000225 0.10082247
0002b0 70 25 d3 3d 89 7f 9d 3c f7 56 ae bd c8 39 07 bd
       0.10309875 0.019225853 -0.08512681 -0.03301409
0002c0 e2 39 7a 3c 7b 1a c2 3c 17 55 bc 3d 32 84 9f 3c
       0.015272589 0.023694267 0.09195917 0.019472215
0002d0 19 3c 51 bd e4 f7 48 bd 45 f6 c9 3b 2d 59 4c 3d
       -0.051082704 -0.049064532 0.006163391 0.049889732
0002e0 4b c1 a3 bb 24 15 e4 bd 3e 8f c7 bd ba c3 fc 3d
       -0.0049974076 -0.11136845 -0.09744118 0.123420194
0002f0 d7 eb eb 3d bd 1f d0 bd 60 e7 db bd 34 85 17 bd
       0.11519592 -0.101623036 -0.10737491 -0.036992267
000300 b2 19 4b bd c7 6a f2 bd 36 81 48 3d 61 00 de bd
       -0.04958505 -0.118367724 0.04895135 -0.10839916
000310 7b 9d 85 3d 60 5f 7b bd 92 c0 64 bc 2a 69 aa bd
       0.06524178 -0.061370254 -0.013961928 -0.0832084
000320 79 c7 0f bd c6 6f 53 bd e4 39 f4 bd a0 d3 d6 3d
       -0.03510234 -0.051620267 -0.11925104 0.10489583
000330 3a 94 93 bc ce 64 ac bd e6 54 0a 3e 79 b3 ee 3b
       -0.018015016 -0.084176645 0.13508949 0.0072845784
000340 4a 19 58 bd da d3 53 3d 87 2a a4 bc 47 02 3e 3d
       -0.052758493 0.05171571 -0.02003981 0.04638889
000350 f9 59 f8 3d 77 d5 cb 3c d9 ee e9 3d 1e 97 76 3d
       0.12126536 0.024882061 0.1142251 0.06020271
000360 c9 37 85 bd 03 9f 36 3d de 44 7e bd 80 0b 1a 3e
       -0.06504781 0.04458524 -0.062077396 0.1504345
000370 b9 6e 30 3c ec bf e5 3d 2a f6 9d bd 69 fe ff 3d
       0.010768586 0.11218247 -0.07712968 0.12499697
000380 9d ca bb 3c 5e 3c 2d 3d 2b 5b e9 bd af 71 24 ba
       0.022923762 0.0422939 -0.11394342 -0.00062730437
000390 b0 4e b9 3d 72 15 dd bd 3f 1a 13 bc 16 b9 00 be
       0.090482116 -0.10795106 -0.0089784255 -0.12570605
0003a0 c1 c0 f2 bd b5 54 9a 3d d1 df 88 bd 3c 0d 3f 3d
       -0.11853171 0.07535688 -0.066833146 0.04664348
0003b0 68 92 c4 bd 3e 06 d1 bd bc 7d 27 3e 3c 6c 60 bb
       -0.09598237 -0.10206269 0.16356558 -0.00342442
0003c0 e6 b7 0d bd 8f 7d 3e 3b cc 5d 06 3e e6 fb 81 3d
       -0.034599207 0.0029066538 0.13121718 0.06346874
0003d0 5b 6e 88 3d df 88 f3 3d a2 1c a1 3c c6 3f d6 3c
       0.06661674 0.118913405 0.019666974 0.026153456
0003e0 d8 7c f7 bb 21 1a 92 bd fd f4 c9 bd e1 0e c1 3d
       -0.0075527243 -0.0713389 -0.09861181 0.09426666
0003f0 b9 45 d5 3d 2d 89 13 3d e1 c4 2b bd e0 6b bf 3d
       0.10413689 0.036019493 -0.041935805 0.093467474

gru.weight_hh_l1 f4 [192, 64]
000000 b9 c3 f0 ba 11 fe 07 be be a1 9c 3c 62 78 bc bd
       -0.0018368877 -0.13280512 0.019120093 -0.09202649
000010 91 2a 16 3e fc cb 0c 3c 87 f7 12 3e bf 0b 96 3d
       0.14664675 0.008593556 0.14352237 0.07326459
000020 3c b3 07 be b7 fd a5 3d 5d 76 ef 3d 77 36 22 be
       -0.13251966 0.08105033 0.11692498 -0.15841089
000030 f4 21 a7 bc 33 04 15 bd ba 74 15 3d f1 c2 b8 bc
       -0.020401932 -0.036380958 0.036488272 -0.022553893
000040 8a d0 06 be 85 2d a9 bb 55 9e b7 bd 29 4c bb bd
       -0.13165489 -0.005162897 -0.08965746 -0.09145386
000050 af 56 39 bd 40 21 2d 3d e2 70 d9 bd 63 5c a4 bd
       -0.045248684 0.042268038 -0.10617234 -0.08025434
000060 9a 99 06 bc a2 df 92 bd d5 a0 50 3c dd d9 2f 3e
       -0.008215332 -0.07171561 0.012733658 0.17172952
000070 37 a1 b1 3a 39 4e ff 3c da f2 96 3b 9e 6b c7 3d
       0.0013552074 0.03116523 0.004606587 0.09737323
000080 45 72 27 bc a1 de 6f bd 77 d3 22 bd 17 81 81 3b
       -0.010220115 -0.058561925 -0.03975245 0.0039521563
000090 7b 6d 20 bb 5b 7c f4 3d 16 cc a7 bd dd 3c ea 3c
       -0.0024479318 0.119377814 -0.08193223 0.028593475
0000a0 25 7e cd bd 56 03 52 3d db 4d 2c 3e 0b 53 4a bd
       -0.10033826 0.051272713 0.16826575 -0.049395602
0000b0 ee aa 86 3d dc 4c 81 3c 6a 32 14 3d f3 07 d1 3d
       0.06575571 0.01578372 0.03618089 0.10206594
0000c0 32 15 0c bd fa 9f 20 be 11 f8 82 bd 04 1b 25 3d
       -0.0341999 -0.15686026 -0.06394971 0.040308967
0000d0 1f be 04 3e 44 f1 79 3d c9 99 c1 ba b9 a7 2a bd
       0.1296315 0.061021104 -0.0014770563 -0.04166386
0000e0 8c 81 1c bd fa 93 f5 bd 78 17 30 3e cc e9 58 3d
       -0.038209483 -0.11991115 0.17196453 0.05295734
0000f0 0d ba 15 be 08 b1 2e bd 9f 11 9c bd 35 e6 1a be
       -0.14621754 -0.0426493 -0.076205485 -0.1512688
000100 b2 8e ba bd 80 dc 7c 3d ab 87 04 bd ab a3 4a 3d
       -0.09109248 0.061733723 -0.032355946 0.049472492
000110 d7 9e 6d bd cb 3b ca bc ec 21 38 3d 40 7a b9 3c
       -0.05801281 -0.024686715 0.044954225 0.022641301
000120 52 93 68 bd fb 7b 01 bd b3 a8 51 bd 85 61 62 bd
       -0.05678112 -0.031612378 -0.051186275 -0.055268783
000130 cd d9 9a 3b 40 78 a0 bc 68 07 3c bc 5d 25 fc 3b
       0.004725671 -0.01958859 -0.011476375 0.0076948837
000140 be fd 41 be 3a 73 eb 3c 58 bd 6e bc ea 05 10 be
       -0.18944451 0.028741468 -0.01457151 -0.14064756
000150 54 39 81 3d ac 03 a0 bd cc 9b 43 be 84 b7 ae bd
       0.063097626 -0.078132 -0.191024 -0.085310966
000160 4a 3f fc 3c ef f7 1a be 6f 73 8b 3d c0 76 42 3b
       0.030791897 -0.15133642 0.068091266 0.0029672831
000170 c6 58 fa bd 0b f5 0e 3e d2 a1 fc bc e2 a2 81 3d
       -0.122239634 0.13960664 -0.03083888 0.063298956
000180 e6 82 a1 bc b0 1d 5d 3d b7 4e 8a bd 18 d7 ae ba
       -0.019715738 0.05398339 -0.06753295 -0.0013339249
000190 eb 54 c5 bd 72 0f bd bd e9 03 42 3d 62 a1 ee 3d
       -0.096353374 -0.092314616 0.04736701 0.11651875
0001a0 d7 2f c2 3c af 53 d5 bd 71 d9 67 bd 66 e5 05 bb
       0.023704452 -0.10416352 -0.056603853 -0.0020430922
0001b0 71 86 a1 3d c4 a4 4a 3d bd c5 17 3e 2b ff fd 3d
       0.07886971 0.04947354 0.14821525 0.12402185
0001c0 f3 98 12 3e 6d 2c b9 bd 42 1a 4a bd 03 0d fa bd
       0.14316158 -0.09041677 -0.049341448 -0.12209513
0001d0 ac e5 0b bd 5e f6 c8 bc 18 8b de bd 30 5f 06 be
       -0.03415458 -0.02453154 -0.10866374 -0.13122249
0001e0 79 43 85 bd 0a 30 03 bc 20 7a f1 3c 63 16 a0 3b
       -0.0650701 -0.008007059 0.029477179 0.004885481
0001f0 f4 f0 f9 bd 43 de 2e 3e 47 3d 73 bd 96 06 c5 3c
       -0.12204161 0.17076974 -0.05938461 0.024050992
000200 ab d7 19 3e 9a 2f 16 3e 12 db de bc b3 40 31 bd
       0.15023677 0.14666596 -0.02720407 -0.043274593
000210 6f 78 68 bc 8d 49 91 bd 3b 91 7c bd e7 7e 84 bd
       -0.01418887 -0.07094107 -0.06166194 -0.06469517
000220 d2 15 8a 3d f5 ed c7 3d cd 2e ad 3c 86 7e 03 3d
       0.06742443 0.097621836 0.02114048 0.032103084
000230 14 6a cd bc d2 40 af bc 7c fc ee 3d e3 53 03 be
       -0.025074996 -0.021393213 0.11669251 -0.12824969
000240 6d 6f 06 3c a4 9c a8 bd a8 f4 ba bc b2 70 91 bd
       0.008205277 -0.08233002 -0.02282174 -0.07101573
000250 df 12 c2 bd 7d 43 a0 3d 8a 59 5b bd d7 83 11 3d
       -0.094762556 0.07825372 -0.053552188 0.035526123
000260 50 6d a8 3d 16 7d 9d 3c f1 36 00 3d 74 22 b7 bd
       0.08223975 0.019224685 0.031302396 -0.08942118
000270 eb b8 d9 3d 4c e9 d6 3d d6 d5 94 bd ca 06 0e be
       0.106309734 0.104937166 -0.072673485 -0.13869777
000280 d0 85 6b 3d ad ff 7f 3d 9e aa 90 3c 08 d6 98 bc
       0.05750066 0.06249969 0.017659482 -0.018656746
000290 df 90 bf 3c 9b d1 ae 3d bb 24 40 3d 4a d7 99 bd
       0.02338451 0.08536073 0.04691003 -0.07511766
0002a0 df f8 3a 3d c8 62 f0 3d fe 7c 5a bd 32 83 07 be
       0.0456475 0.11737591 -0.053341858 -0.13233641
0002b0 04 fa 5f bd 8a 45 68 bd bb 90 9d 3c e8 66 5e bd
       -0.054681793 -0.056706943 0.019234052 -0.054297358
0002c0 1a 32 b1 3d 29 03 55 3d 74 c7 a1 3d 23 b3 9d bd
       0.08652134 0.052004967 0.07899371 -0.07700183
0002d0 43 bb a7 3d 38 37 d9 3d 5f f2 81 3d 0e b4 b5 3d
       0.08190014 0.10606235 0.06345057 0.08872233
0002e0 03 47 8d bd 06 c1 23 3e 7b 22 19 bd b1 36 cf bd
       -0.0689831 0.15991601 -0.0373864 -0.101178534
0002f0 20 71 a3 3d 0a 6d 07 3d 14 91 e1 3d 1a b8 1a 3e
       0.07980561 0.033062972 0.110139996 0.15109292
000300 a0 2e 25 bc 89 83 1d 3d 67 4d fb 3d 9e 48 08 3d
       -0.010081917 0.03845552 0.12270623 0.03327238
000310 22 31 36 3c 15 11 b2 bc bc fe a0 bd 54 f7 88 3d
       0.011120113 -0.021736661 -0.07861087 0.06687799
000320 ef 77 bf bd 9d 55 5e b9 fb 99 52 bd 08 7c 15 be
       -0.093490474 -0.00021203463 -0.05141638 -0.14598095
000330 5e 0d 72 bd 09 3b 21 be 88 5b 6a 3d d6 af 44 3d
       -0.05909478 -0.15745176 0.057216197 0.048019253
000340 a2 b1 90 bd c5 a1 d6 3d 5c 88 47 3d 1f 21 7d 3d
       -0.07065131 0.10480074 0.048714027 0.061799165
000350 8d 4e c5 bd 27 cb f6 bd 19 19 96 bd 1e 73 70 3d
       -0.09634123 -0.12050467 -0.07329006 0.058703534
000360 87 44 b8 bd 62 fb e2 bd 3b 50 87 3c 64 b0 a3 3d
       -0.089974456 -0.11083104 0.016517749 0.07992628
000370 2f 49 57 3d f8 25 04 3d e9 25 be bb e9 99 d4 bc
       0.052560028 0.032262772 -0.005802859 -0.025952296
000380 5a cd ab 3c ed 30 dd 3d 30 0b b6 bd d2 ba b1 bd
       0.020971943 0.108003475 -0.088888526 -0.08678211
000390 78 be f2 ba f5 c7 cf 3a c8 56 75 3d 75 3a 9b 3d
       -0.0018519899 0.0015852439 0.059897214 0.07579509
0003a0 86 47 b4 3d a0 ee 87 bd 4a cc 5e 3d 85 ed 8d bd
       0.088027045 -0.06637311 0.054394044 -0.06930069
0003b0 e9 f9 bf bd 84 eb 36 bd 82 ae e6 3d 38 7e a4 bd
       -0.093738385 -0.0446582 0.112637535 -0.08031887
0003c0 ef ce d7 bc 63 08 b0 3b fc df d5 bd b7 a3 df 3c
       -0.02634379 0.0053720935 -0.10443112 0.027299745
0003d0 e5 31 cb bd df eb a0 3d 5b 45 be 3d 7f 6b 06 3d
       -0.09921626 0.07857489 0.09290572 0.03281736
0003e0 28 36 59 3d 82 4d 81 3d 53 a4 4a 3d 9d a1 8a bb
       0.053030163 0.063136116 0.049473118 -0.0042306916
0003f0 c6 4b c0 bc 2d 25 77 bb c2 fe 98 bc 0a 10 e7 bd
       -0.023473632 -0.0037711367 -0.018676165 -0.11282356

gru.bias_ih_l1 f4 [192]
000000 2b b2 bd bc be f1 43 be 6b 1f ac 3d 16 83 06 bd
       -0.023156246 -0.19135186 0.0840443 -0.032839857
000010 17 ab ff bd da 01 89 bd 85 e9 1e bd 9c 4d 08 be
       -0.12483805 -0.06689806 -0.03879692 -0.13310856
000020 c0 b1 6c bd 6c 34 b5 3d a9 06 2a bd 57 23 7d 3d
       -0.057786703 0.08847889 -0.041510258 0.06180128
000030 ff c6 c6 bd 0c ce 10 bd 45 cf fa bd 44 5e 89 3c
       -0.09705924 -0.03535275 -0.12246565 0.016768582
000040 0a 21 36 be 33 b6 ad bc 16 ab 0b be 7c 26 6a bd
       -0.17786041 -0.021205043 -0.13639483 -0.057165608
000050 6b a9 98 bd 84 5d 68 3d b0 ed 94 bd 1e d4 d7 3b
       -0.07454189 0.05672981 -0.07271898 0.0065865656
000060 03 50 da bd a8 f6 97 bd f7 fb cb bc d9 7a 9e 38
       -0.10659792 -0.07420093 -0.02490042 7.556909e-05
000070 c9 06 bf bd 2a 2f 1a bd 2d 11 0d bd 09 f5 b2 bc
       -0.09327466 -0.037642635 -0.03444021 -0.021845357
000080 46 bf e3 3c a5 21 d1 3b f9 fe 17 be aa 8d d3 3c
       0.027801167 0.0063821846 -0.14843358 0.025824387
000090 07 af c1 bc 9a b3 af bd 01 b0 6b bd 28 da 2f bd
       -0.02364303 -0.08579178 -0.057540897 -0.04293266
0000a0 c0 6e d3 3d cc 41 d9 bd 9e 1b 3f be 2b ce 07 3d
       0.10323858 -0.10608253 -0.18662879 0.0331556
0000b0 05 15 07 be c6 42 91 3d d1 4e ed 3c de 51 92 3d
       -0.13191612 0.07092814 0.028968247 0.07144521
0000c0 9f 48 b0 bd 49 df 27 3d c9 b6 c8 3b b6 bf a4 3d
       -0.086076014 0.040984426 0.0061253053 0.080443785
0000d0 57 e2 c3 bc d7 6f ca bd c3 40 bf 3d f6 4f 89 bd
       -0.023911638 -0.09884613 0.09338524 -0.067047045
0000e0 0e 8b 6a bd b1 3d c4 bb f8 86 46 3d 2f 20 da 3b
       -0.05726152 -0.0059887995 0.04846856 0.0066566686
0000f0 70 47 7d bd c0 9a ce bc 81 23 c8 bd 7f 4c f7 bd
       -0.061835706 -0.025220275 -0.09772397 -0.12075137
000100 cb bc a8 3d 0d 7d 81 bc ef bc 04 be 7c 14 34 bd
       0.082391344 -0.0158067 -0.12962697 -0.043964848
000110 75 fc 19 bd 00 42 52 3c fe 8b 02 3d db 9e 85 bc
       -0.037594277 0.012833118 0.03187179 -0.0163111
000120 52 68 11 bd 3c 4a 09 3e 0d 59 9a 3d 5c e8 e4 bd
       -0.03549988 0.13407224 0.07536516 -0.111771315
000130 d7 e6 29 bc d7 e0 88 bd d7 19 1a bd 23 b4 30 bc
       -0.010369978 -0.0668351 -0.0376223 -0.010785135
000140 b2 fa b9 3c 7d de 41 bc ac 48 41 3e b8 06 46 3d
       0.022702549 -0.0118328305 0.18875378 0.04834625
000150 ee 56 ee 3b 7e 1c 3e 3d 66 12 02 3e d3 3f 2a bc
       0.0072735464 0.04641389 0.12702331 -0.010391193
000160 57 f9 78 bd 66 b3 86 bd db 99 ed bc 13 ca 40 3d
       -0.060784664 -0.06577186 -0.029004028 0.047067713
000170 f3 8c 0a 3e f7 aa ac bc 76 59 ab 3c 8e d2 86 3d
       0.1353033 -0.021077616 0.020916682 0.06583129
000180 53 72 b3 bd 05 f2 cf 3d 23 9a 84 bd 94 aa 2b bd
       -0.0876204 0.101535834 -0.06474712 -0.041910723
000190 2c 30 b9 3d 9f 9f 07 3e b9 9d e9 bd 7f be be bd
       0.09042391 0.13244484 -0.11407036 -0.09313678
0001a0 35 4e c8 3d 7b 21 c8 3c 1d 87 6d bd 50 48 49 3d
       0.09780542 0.024430027 -0.057990182 0.04914123
0001b0 ba 1a 56 3d 04 5e ec 3c 80 01 c4 3d 44 a4 ba bd
       0.052271582 0.028853424 0.095705986 -0.091133624
0001c0 ce f9 d6 bb fd 29 26 3e 35 80 5e be 53 24 8b bd
       -0.0065605408 0.16226955 -0.21728595 -0.06794038
0001d0 d4 10 97 3d 50 5a cd bd 42 33 99 bc 90 7d bf bc
       0.073762566 -0.10026991 -0.0187012 -0.023375303
0001e0 ea 62 4b bb 20 2b 05 be 8d 6e 6d 3d 4c dc 78 3c
       -0.00310343 -0.13004732 0.057966758 0.015189242
0001f0 4a 0f e3 3d b7 aa 52 bd aa f1 a8 bd ab 76 2d 3e
       0.110869005 -0.051432338 -0.08249219 0.169398
000200 35 bb 08 3e 69 0f ba 3b ff 5a a6 3d 35 42 6a bb
       0.13352664 0.0056781066 0.08122825 -0.003574503
000210 e2 65 fb 3d 54 71 68 bd 9d 61 85 bd 27 85 30 3c
       0.12275292 -0.056748703 -0.06512759 0.0107739335
000220 09 79 14 bd c2 52 a5 3d 68 7f 2b bd 23 72 b0 3d
       -0.03624824 0.080724254 -0.04186955 0.0861552
000230 aa 7e c6 bd 8c e3 87 bd e6 9f 1e bd 21 31 c5 3c
       -0.09692128 -0.06635198 -0.03872671 0.024071278
000240 7a 63 d8 3d 60 00 48 3d 47 29 9d bd 65 4b 00 be
       0.10565849 0.048828483 -0.07673889 -0.1252876
000250 56 f1 94 3d 89 83 98 3d 57 43 b9 3d 81 61 9f bd
       0.07272594 0.07446963 0.09046047 -0.07782269
000260 83 e6 b1 bd 2b 2e b8 3d 8d 06 9b 3d 84 c3 46 bb
       -0.08686545 0.08993181 0.07569609 -0.0030328939
000270 86 e1 d0 bd cb 8b f1 3d 6c f1 a7 3d 71 b7 72 bd
       -0.10199265 0.117942415 0.082003444 -0.059256975
000280 77 2b 24 bd 9f 49 91 bc c1 f6 15 3e bf 8d 93 3b
       -0.040080514 -0.0177353 0.1464491 0.0045029814
000290 c3 75 99 3d 4a 84 6c 3d 66 26 8d bd 33 9d 0e be
       0.074931644 0.05774335 -0.068920895 -0.13927154
0002a0 eb 93 8c 3d 99 ff 46 bd bd 5d d5 3c c5 8f 88 3d
       0.068641506 -0.0485836 0.026045674 0.06668047
0002b0 e7 53 0d bd 3b 60 40 bd 3b cc e1 3d b1 93 57 bd
       -0.034503844 -0.046966773 0.11025282 -0.052631084
0002c0 9a e7 bf 3d 74 05 f8 3d 51 a0 03 3e d9 c5 c8 3d
       0.09370346 0.12110415 0.12854125 0.098033614
0002d0 f4 8b 8b 3a 25 17 bc 3d e9 c7 f6 bd aa 0c 82 3c
       0.0010646568 0.09184102 -0.120498486 0.01587518
0002e0 54 c3 9d bd 16 d4 bb bd 06 21 4a 3d 42 45 c7 bc
       -0.077032715 -0.091713116 0.0493479 -0.024325017
0002f0 03 47 51 bc 49 99 ec bd 45 63 6c bd f2 e0 5d 3d
       -0.012773278 -0.11552674 -0.05771186 0.054169603

gru.bias_hh_l1 f4 [192]
000000 7b 9c 10 3e e3 8d 1c bd 28 85 b8 bc 53 00 b0 bd
       0.14122193 -0.03822125 -0.022524431 -0.08593812
000010 2d c4 fd bd b5 48 dc bd 65 c4 36 3d dc e1 87 bd
       -0.12390933 -0.10756055 0.04462089 -0.06634876
000020 2f 33 38 3d 7e bc 27 3d b8 9d bf bd 11 91 bb bd
       0.044970687 0.040951245 -0.09356254 -0.091585286
000030 49 7c 9a bd 74 7d cd bd 65 58 b1 3d 58 5e c9 bd
       -0.07543237 -0.10033694 0.08659438 -0.09832448
000040 09 44 45 be e1 36 d9 bd fa 94 1b bd 48 c4 b6 3d
       -0.19264235 -0.106061704 -0.037983872 0.089241564
000050 35 d1 15 be 4a 53 96 3b 29 7f 60 bd 1e 85 fc bc
       -0.14630587 0.0045875655 -0.05480877 -0.030825194
000060 19 d6 f7 bb 62 2c 71 bd 60 14 0b bb 2e 3b 85 3b
       -0.007563364 -0.058880217 -0.0021221861 0.0040658927
000070 d1 66 78 3d 9c 7c 04 3e e8 52 1b 3c b6 63 de bd
       0.06064493 0.1293816 0.009480216 -0.10858862
000080 00 6d 7d bc b2 45 f4 bd 60 b0 b5 3b 77 33 fc bb
       -0.015467882 -0.11927356 0.005544707 -0.007696565
000090 3a 3c 26 bc 7e f8 26 be 05 8b b6 bd 42 2d 6d 3d
       -0.010146195 -0.1630573 -0.089132346 0.05790449
0000a0 e3 34 94 3d 45 f5 f1 bd 66 b3 17 be 09 71 2b 3c
       0.0723665 -0.118143596 -0.14814529 0.010463961
0000b0 71 0a 69 3d 9c 54 b2 bd 9e 9f 2b bd 19 ce ae 3d
       0.056894723 -0.08707544 -0.04190027 0.08535404
0000c0 5b be a2 bd f8 6a 88 bc 92 f8 8d bd 9e 6d aa 3d
       -0.07946464 -0.01665257 -0.06932177 0.08321689
0000d0 72 da 38 3d b8 31 23 bc cc ee 8d 3d bb a7 9d bc
       0.0451302 -0.009960584 0.069303125 -0.01924502
0000e0 02 d3 c8 bd 9c a2 28 be 94 40 c3 3d ec 52 83 3d
       -0.098058715 -0.1646828 0.09533802 0.064123005
0000f0 fa 04 44 bd dd 16 29 be 97 81 94 3d 05 4e 11 3d
       -0.04785631 -0.16512628 0.0725128 0.035474796
000100 cb 3d 13 bd 80 72 15 3c 25 f0 ab bc 4e 58 bf 3d
       -0.035947602 0.009121537 -0.020988533 0.09343015
000110 47 ed e9 3a 49 e8 f3 bc 72 c4 af bd 21 a1 a7 3d
       0.0017847203 -0.029773848 -0.08582391 0.0818503
000120 0c 8c 17 bd c4 a8 b3 3d a8 36 2e 3e 15 51 82 3d
       -0.036998793 0.08772424 0.17013037 0.063631214
000130 3d 10 87 3d f6 b0 9f bd 9a 45 a5 3b 2d 46 05 3c
       0.06594894 -0.077974245 0.0050436975 0.008134407
000140 ff 69 aa 3c 53 a6 cf bd 4b e3 0a 3d d7 a1 e3 bd
       0.020802496 -0.10139146 0.03390817 -0.11114853
000150 28 f4 de bb 82 2b 2a bd ff 07 ed 3d 71 6a d0 3d
       -0.006804008 -0.0415454 0.11573791 0.10176552
000160 1b ad d0 3d 30 ee 02 be 64 d1 ba 3c 00 78 70 bc
       0.10189267 -0.12786174 0.022804923 -0.014677048
000170 37 e5 45 3d 74 7e c4 bd a1 a8 cf 3d a3 b0 04 3e
       0.0483143 -0.095944315 0.10139585 0.12958007
000180 82 b1 80 3d 58 be 71 3d 34 51 d4 bc 9a aa 43 bd
       0.06283857 0.059019417 -0.025917627 -0.04777012
000190 1b 68 11 3d ff b1 44 bd ca ff f4 bd 23 2b f5 bd
       0.035499673 -0.048021313 -0.119628504 -0.11971118
0001a0 4b ea 35 3d 27 45 ec 3c 08 da 56 bb e5 72 e2 3c
       0.044412892 0.028841568 -0.0032783765 0.027642677
0001b0 60 5e aa bd 60 f1 a5 bd 15 5a f5 bd d4 0e 20 bc
       -0.08318782 -0.08102679 -0.119800724 -0.00976916
0001c0 61 62 38 bc d4 c6 1b 3e 6d 5a c9 bd fe 0e c2 bd
       -0.011253924 0.15212566 -0.098317005 -0.09475516
0001d0 cb b3 8d 3d d8 e8 f0 bd 58 c9 56 bd c8 45 ef 3d
       0.069190584 -0.117631614 -0.05243811 0.116832316
0001e0 1b 98 c0 bc ba a8 5a bc ec f3 12 3e ed b6 fa 3d
       -0.02351003 -0.013345892 0.14350861 0.122419216
0001f0 bb 54 7a bd 55 a8 10 3d 4a 4d 67 bd 38 fb ef 3d
       -0.06111596 0.035316784 -0.056470193 0.11717838
000200 62 dd 11 bd 44 9b 1e bd e5 47 81 bc 8d 31 a4 3d
       -0.035611518 -0.03872229 -0.015781352 0.080172636
000210 b6 18 bf bd f0 13 a9 bd b1 78 af 3d 94 39 a8 3c
       -0.09330885 -0.08255756 0.08567942 0.020535268
000220 0b 46 cd bc 21 fa fc bd c9 26 93 bc e6 15 8f 3d
       -0.025057813 -0.12352396 -0.01796283 0.06986599
000230 5e b4 53 bd cc 3c e5 bc bd 62 37 bd b9 28 d3 bc
       -0.051685683 -0.027983092 -0.0447719 -0.025776254
000240 a4 98 81 3b 0e be 6a 3d a9 0b 53 bd 3e a0 d3 bd
       0.0039549638 0.057310157 -0.051524792 -0.10333298
000250 d2 de 38 3d 63 a0 a5 bd b4 83 85 3d 86 0a 61 bd
       0.045134373 -0.08087232 0.06519261 -0.054941677
000260 7f 16 c8 bd 76 e6 b4 bc 13 c6 ff 3c 9b da cc bd
       -0.09769916 -0.022082549 0.031222379 -0.10002633
000270 04 22 f9 3b c1 db 96 bd 43 fe 1b bd a2 f5 c4 bd
       0.007602932 -0.073661335 -0.03808428 -0.09617163
000280 54 c8 5b 3d a3 49 9d bd 76 e9 72 bd b2 24 e2 bd
       0.053657845 -0.07680061 -0.059304677 -0.11042155
000290 0f 6a e7 3d b0 f4 94 3a fc 53 11 bb aa 96 d5 3d
       0.11299526 0.0011364426 -0.0022175303 0.104291275
0002a0 3a 33 9a 3d cc 8f 42 bc 2c 98 91 3d 00 02 b3 bc
       0.07529302 -0.011875104 0.071091026 -0.02185154
0002b0 02 77 c5 3d 67 bb 49 bd 28 5a a4 3c 1d d8 b8 bd
       0.096418396 -0.049250986 0.020062521 -0.09025595
0002c0 5f 0b 72 bd 19 e2 59 3c a1 61 a6 bd 6e 08 31 bc
       -0.059092876 0.013298535 -0.0812409 -0.010805232
0002d0 ef 08 06 3c 20 66 e2 3d ed 19 5c 3c e7 e7 a7 3d
       0.008180841 0.11054635 0.013433916 0.08198529
0002e0 4c 5d 96 3d 0b c9 8f 3d 78 cd 6c 3d 86 e7 8d 3d
       0.07342014 0.07020768 0.057813138 0.06928925
0002f0 6b 7f cd 3d 1a 02 ef 3d 42 9f c9 bc 78 dc a0 3d
       0.10034069 0.11670323 -0.024612073 0.07854551
