Cheyi Wu/FinalProject/Garch/GRU-Garch/VZ/gru_garch_model.pth (torch, 159448 bytes, 9 tensors)

gru.weight_ih_l0 f4 [192, 7]
0.06870093 0.11695804 -0.06857174 0.34759614 0.2585688 -0.15085259 -0.07119543 0.16055334
0.21525954 -0.006068708 0.1285015 0.037655246 0.048251018 0.16977426 -0.077359766 -0.13186109
-0.026286 -0.35422653 -0.12347106 0.34521168 -0.13404399 -0.016740557 -0.01809388 0.13237622
-0.11206877 -0.56606925 -0.123146296 -0.05457582 0.24362494 0.09285167 0.3666459 -0.15343364
0.15365304 -0.15515538 0.0017857488 -0.05780518 -0.1365561 -0.11366372 -0.04640948 0.13977112
0.14548966 -0.19320428 0.052936416 0.12396554 0.07043927 -0.111443594 -0.010789251 0.10992819
0.051550727 -0.07022835 -0.13390875 -0.050329242 -0.40309283 0.16570583 0.27610973 0.07547764
0.029424474 0.0075353025 0.093058474 -0.020769052 0.026890552 -0.13795656 0.051352214 -0.13680379
-0.01346745 -0.083223775 0.12972301 0.06546758 -0.0752199 -0.17650409 0.059982646 0.020335766
0.13444766 -0.045111742 -0.114876494 -0.062021393 -0.073865205 -0.016441097 0.02944702 0.07023451
-0.12097846 -0.024667684 0.09989435 -0.05041377 -0.023569746 -0.112468004 0.022518486 -0.09172107
0.0049069906 0.2705234 -0.0035557211 -0.24660037 -0.32662892 -0.2872637 0.031996943 0.16753274
0.23513357 -0.3466039 -0.08414043 -0.14645138 -0.07531477 0.14191216 0.026544364 0.0017975743
-0.101415746 -0.16206464 -0.09558782 -0.12083208 -0.05769315 -0.019105732 0.096576236 0.0018824439
0.081501536 -0.08836359 -0.104607016 0.13561654 -0.12124684 -0.2847584 -0.041079458 -0.1099288
-0.03353581 -0.09899067 -0.2926687 -0.10377227 -0.06259746 -0.12659569 0.007079761 -0.070744604
0.1462517 0.023049202 0.24029171 -0.1966548 -0.08710875 0.12074464 -0.0028837007 0.0015549386
-0.10472461 -0.28702074 0.1534365 -0.0346149 -0.010990028 -0.17429058 0.02526844 -0.10099036
0.029852396 0.0627767 -0.04163053 0.09294464 0.1231069 -0.10252222 0.13581514 -0.07783286
0.0316542 -0.08706838 0.15531206 -0.12714693 -0.026313448 0.089865 0.32218817 -0.19787095
0.08792182 0.08350244 0.11856213 -0.03849198 0.09801336 -0.014359062 -0.031160261 0.21626453
-0.15607151 -0.119661115 -0.24452487 0.4787699 0.73040694 0.13550715 -0.10610669 -0.0124251405
-0.042069245 0.07305805 0.14737053 -0.13270243 -0.0036164878 0.11495386 -0.038908888 -0.06675723
0.0023134176 0.15135585 -0.018513689 -0.08661815 -0.08332788 -0.033473287 -0.04140245 -0.10098815
0.18012676 0.18029578 -0.037625637 -0.050080813 0.03948709 0.019774584 0.05114223 0.20947014
-0.2510293 0.12854965 0.12735574 0.0043163323 -0.047837183 -0.10484893 -0.07271488 -0.09421149
-0.00053849537 -0.030992115 0.15525873 0.13927339 -0.025631152 -0.054852128 -0.03465364 -0.018039366
0.10737976 -0.043923397 0.016399188 -0.034105286 -0.0924572 0.24999115 -0.10164801 -0.0869567
-0.11103641 0.10753015 0.07816542 0.36544403 0.11815286 -0.25570962 -0.10399446 0.098377645
0.08080914 0.11546259 0.11817575 -0.024888882 0.06622665 -0.061423056 -0.12389998 -0.08929839
0.006999633 -0.11073093 -0.08038807 -0.27178133 0.018193282 -0.0755746 -0.112285875 0.032575794
-0.06994653 0.120181054 -0.051660653 -0.1639773 -0.084112786 -0.10604582 -0.0801501 -0.11530157
00000000: 13b3 8c3d b287 ef3d 576f 8cbd 1ff8 b13e
00000010: 2163 843e 1a79 1abe e9ce 91bd 1868 243e
00000020: ff6c 5c3e 03dc c6bb e695 033e 633c 1a3d
00000030: dca2 453d 4ed9 2d3e cc6e 9ebd 9806 07be
00000040: bd55 d7bc 2e5d b5be 65de fcbd 96bf b03e
00000050: d442 09be 7e23 89bc 9e39 94bc a28d 073e
00000060: 5084 e5bd eae9 10bf 2034 fcbd e58a 5fbd
00000070: d178 793e 0429 be3d 03b9 bb3e b51d 1dbe
00000080: 3957 1d3e 0de1 1ebe c90f ea3a 20c5 6cbd
00000090: 5dd5 0bbe 86c8 e8bd de17 3ebd 2920 0f3e
000000a0: 3efb 143e 58d7 45be dbd3 583d a5e1 fd3d
000000b0: 7742 903d 8a3c e4bd 66c5 30bc 0822 e13d
000000c0: db26 533d e2d3 8fbd 601f 09be 0926 4ebd
000000d0: 2f62 cebe caae 293e 415e 8d3e 0594 9a3d
000000e0: 980b f13c b3ea f63b 7195 be3d dc23 aabc
000000f0: 9349 dc3c 7c44 0dbe b356 523d 4b16 0cbe
00000100: 94a6 5cbc 3a71 aabd 1cd6 043e de13 863d
00000110: e40c 9abd 7dbd 34be 5db0 753d 3197 a63c
00000120: a6ac 093e 17c7 38bd 5e44 ebbd 250a 7ebd
00000130: a446 97bd 7baf 86bc e03a f13c 1cd7 8f3d
00000140: 8ec3 f7bd e213 cabc 6995 cc3d ab7e 4ebd
00000150: 5715 c1bc a055 e6bd b078 b83c 42d8 bbbd
00000160: d2ca a03b 0b82 8a3e 1a07 69bb cf84 7cbe
00000170: e83b a7be 3a14 93be 3a0f 033d b48d 2b3e
00000180: dbc6 703e 1176 b1be d151 acbd 5af7 15be
00000190: a13e 9abd 6c51 113e 9173 d93c 969c eb3a
000001a0: 0fb3 cfbd 46f4 25be 8cc3 c3bd cf76 f7bd
000001b0: a74f 6cbd a083 9cbc c3c9 c53d 56bc f63a
000001c0: 47ea a63d f8f7 b4bd 343c d6bd 10df 0a3e
000001d0: 4350 f8bd dacb 91be ef42 28bd 5a22 e1bd
000001e0: d85c 09bd 9fbb cabd acd8 95be 8e86 d4bd
000001f0: 1933 80bd 4da2 01be 57fd e73b 8ce2 90bd
00000200: 01c3 153e aed1 bc3c 080f 763e e05f 49be
00000210: 1366 b2bd f748 f73d 78fc 3cbb 15cf cb3a
00000220: db79 d6bd 62f4 92be 751e 1d3e 5ac8 0dbd
00000230: 850f 34bc 3b79 32be c2ff ce3c 09d4 cebd
00000240: 038d f43c 1291 803d c684 2abd c259 be3d
00000250: 781f fc3d 2bf7 d1bd 2013 0b3e d666 9fbd
00000260: d6a7 013d e850 b2bd 200a 1f3e ce32 02be
00000270: 4d8f d7bc 240b b83d d9f5 a43e af9e 4abe
00000280: 5b10 b43d 5403 ab3d b4d0 f23d c4a9 1dbd
00000290: 3abb c83d 4542 6bbc ce43 ffbc 7374 5d3e
000002a0: 36d1 1fbe e310 f5bd ba64 7abe 5421 f53e
000002b0: f3fb 3a3f 63c2 0a3e 774e d9bd d192 4bbc
000002c0: cd50 2cbd 759f 953d 4de8 163e 25e3 07be
000002d0: 9902 6dbb ee6c eb3d ed5e 1fbd 04b8 88bd
000002e0: b59c 173b 07fd 1a3e 05aa 97bc db64 b1bd
000002f0: cfa7 aabd 491b 09bd 9e95 29bd e0d2 cebd
00000300: 2673 383e 759f 383e 571d 1abd 8a21 4dbd
00000310: 37bd 213d 4ffe a13c 847a 513d 577f 563e
00000320: ea86 80be 85a2 033e 8b69 023e 0570 8d3b
00000330: ecf0 43bd 09bb d6bd 8aeb 94bd f4f1 c0bd
00000340: d029 0dba 2de3 fdbc 25fc 1e3e af9d 0e3e
00000350: 6cf8 d1bc a0ac 60bd faf0 0dbd 4bc7 93bc
00000360: ebe9 db3d 05e9 33bd 9757 863c fcb1 0bbd
00000370: 335a bdbd aefd 7f3e d52c d0bd 5b16 b2bd
00000380: 0f67 e3bd c438 dc3d 3115 a03d 7b1b bb3e
00000390: 20fa f13d 5fec 82be 0cfb d4bd 387a c93d
000003a0: 437f a53d a677 ec3d 2106 f23d c5e3 cbbc
000003b0: d6a1 873d be96 7bbd 46bf fdbd 13e2 b6bd
000003c0: 2d5d e53b e6c6 e2bd 80a2 a4bd ec26 8bbe
000003d0: 140a 953c dbc6 9abd 23f6 e5bd 326e 053d
000003e0: 2040 8fbd 7c21 f63d 1f9a 53bd aae9 27be
000003f0: 5343 acbd 8d2e d9bd bc25 a4bd 3b23 ecbd

gru.weight_hh_l0 f4 [192, 64]
0.18156739 -0.056298174 0.20082112 0.1383317 -0.010415751 -0.31635046 -0.11290974 -0.21001163
-0.05212253 -0.13992107 -0.04617544 -0.021256411 -0.23836169 0.38213885 0.10443736 -0.11053856
-0.051296223 0.19334523 -0.03725095 -0.34441245 -0.16020559 -0.06316526 -0.023694292 -0.025545113
0.11014848 0.09408217 0.02377721 -0.0074689537 -0.28308102 -0.050250877 -0.0075271544 -0.0014304605
0.2735987 0.050732046 0.030956246 0.081627086 0.15223014 -0.077330664 0.13389662 -0.102427684
0.011382531 0.09566219 -0.17803603 -0.14282253 -0.027053807 -0.06298939 -0.09130317 0.12827374
0.062522314 -0.08597869 0.064707994 0.14743385 0.22768597 0.12808909 0.06903708 -0.06902813
0.14469029 0.16924456 0.17991976 -0.16998653 -0.23062101 0.02152576 -0.06530544 -0.16484123
-0.09067114 -0.057641786 -0.013070363 0.016432147 -0.027970156 -0.06450475 -0.10937048 -0.0018635261
-0.010814346 0.07266236 -0.06379427 0.12938894 -0.015795378 0.12796995 -0.017289627 -0.17535336
0.06403277 -0.11190784 -0.08679604 -0.053703506 -0.11222928 -0.13690825 0.16913585 0.023187103
-0.0014501162 0.15422532 -0.19503276 0.087440565 0.035892267 0.12562546 -0.037351802 0.08884655
-0.08466875 0.051384788 0.0147374 -0.15205464 -0.20313594 -0.018573916 0.004315744 0.0076236683
-0.102758095 -0.099830896 0.059478175 -0.062099647 0.09965006 0.17665724 -0.058073442 -0.008773058
0.094852105 0.011451128 0.021981733 -0.11035613 -0.034089424 0.02915639 0.03225156 -0.08423281
-0.025915306 -0.089102186 0.10438954 -0.048032016 0.03606272 -0.0076176543 0.121462405 0.054856256
0.1607082 0.1245839 -0.12082495 -0.042663474 0.035615776 0.17822985 0.20563385 -0.26531214
-0.23926014 -0.1220262 -0.084327675 -0.16590893 0.07236043 -0.12257364 -0.08038693 0.16233866
0.030681215 -0.010522055 0.084087804 -0.0026960473 0.12532945 0.116982475 -0.1965707 -0.04498482
-0.035961367 -0.19634944 0.0727637 0.020869216 0.23393373 -0.28287524 -0.3725283 -0.2367067
-0.06149163 -0.41884193 -0.011881736 0.25930968 0.25114986 -0.16829054 0.05281587 0.6166663
-0.019633329 0.20258954 -0.28138873 -0.0015748887 0.013352208 0.0069576427 -0.0112393815 -0.23994413
-0.14812677 0.34885037 0.13385102 0.17993596 0.009872175 0.012545188 0.039733533 0.21482703
-0.21387768 -0.24921721 0.1575931 0.042082436 0.11474468 0.14513919 -0.019358788 -0.18562675
-0.4200263 -0.14582565 -0.38961866 0.31186992 -0.06995004 0.8826061 0.18084148 0.3768053
0.257337 0.34945175 0.1905867 0.07622961 -0.006750043 -0.6585034 -0.22723375 0.18783174
0.3135953 -0.30934516 0.0030932592 0.68643266 0.10102038 -0.21663159 -0.16289312 -0.2932951
0.1973716 0.03874956 0.42905667 0.08226434 0.2387074 -0.090771966 0.20116664 0.0005375736
-0.18600167 0.06848948 -0.006898026 0.15011737 -0.104602404 -0.16850978 -0.1025197 -0.39356935
0.1100189 0.2302251 0.5295986 0.22277458 -0.2859175 -0.22004203 -0.4063584 -0.34157068
0.08177038 -0.17175911 0.20609988 -0.3116162 -0.18836688 -0.16446663 -0.19361632 -0.0035783362
-0.1977253 -0.04806769 -0.1196227 0.17482942 0.18191522 -0.2329662 0.07733305 0.46204805
00000000: cdec 393e ea98 66bd 0da4 4d3e d3a6 0d3e
00000010: d3a6 2abc b0f8 a1be 393d e7bd 4a0d 57be
00000020: 6f7e 55bd 7847 0fbe 7522 3dbd ed21 aebc
00000030: 1615 74be b4a7 c33e 41e3 d53d 0a62 e2bd
00000040: fd1b 52bd 4bfc 453e 7494 18bd d456 b0be
00000050: ef0c 24be ca5c 81bd 881a c2bc fc43 d1bc
00000060: 8795 e13d 27ae c03d 6cc8 c23c 20be f4bb
00000070: ffef 90be ddd3 4dbd 59a6 f6bb 4a7e bbba
00000080: 2115 8c3e 68cc 4f3d f497 fd3c 1a2c a73d
00000090: 38e2 1b3e 8a5f 9ebd 321c 093e 9bc5 d1bd
000000a0: cc7d 3a3c 8aea c33d 144f 36be 1240 12be
000000b0: f29f ddbc 9500 81bd 28fd babd 315a 033e
000000c0: b30b 803d 9815 b0bd a085 843d e6f8 163e
000000d0: 8326 693e c929 033e 5063 8d3d 9f5e 8dbd
000000e0: b129 143e 724e 2d3e e33c 383e f310 2ebe
000000f0: ea27 6cbe ca56 b03c dcbe 85bd 24cc 28be
00000100: cab1 b9bd cb19 6cbd 1325 56bc b69c 863c
00000110: ab21 e5bc 111b 84bd a1fd dfbd 8f41 f4ba
00000120: a82e 31bc 01d0 943d 92a6 82bd 897e 043e
00000130: 4f65 81bc 8e0a 033e faa2 8dbc d58f 33be
00000140: 9d23 833d f02f e5bd 1fc2 b1bd 35f8 5bbd
00000150: 77d8 e5bd ad31 0cbe f331 2d3e e1f2 bd3c
00000160: d311 beba 3eed 1d3e abb6 47be 0a14 b33d
00000170: c503 133d f6a3 003e 34fe 18bd 2ef5 b53d
00000180: cf66 adbd db78 523d 2375 713c 36b4 1bbe
00000190: de02 50be 5328 98bc 166b 8d3b f7cf f93b
000001a0: d672 d2bd 2474 ccbd 639f 733d 335c 7ebd
000001b0: 5515 cc3d a3e5 343e 6bde 6dbd dfbc 0fbc
000001c0: d241 c23d 839d 3b3c 0913 b43c 6502 e2bd
000001d0: 5aa1 0bbd 62d9 ee3c 361a 043d 4082 acbd
000001e0: 564c d4bc 357b b6bd 2fca d53d 38bd 44bd
000001f0: 81b6 133d 849d f9bb 48c1 f83d f4b0 603d
00000200: b190 243e d825 ff3d 1273 f7bd e5bf 2ebd
00000210: d9e1 113d e381 363e ae91 523e fed6 87be
00000220: 9c00 75be dfe8 f9bd fdb3 acbd 08e4 29be
00000230: b531 943d e307 fbbd e7a1 a4bd 1b3c 263e
00000240: 2c57 fb3c b364 2cbc 3a36 ac3d 2bb0 30bb
00000250: 5d56 003e 8294 ef3d d449 49be 0142 38bd
00000260: 3a4c 13bd d40f 49be 2205 953d ebf5 aa3c
00000270: 538c 6f3e 06d5 90be 08bc bebe 3e63 72be
00000280: a6de 7bbd 7372 d6be 9dab 42bc 3dc4 843e
00000290: b796 803e 5b54 2cbe 7455 583d d8dd 1d3f
000002a0: 13d6 a0bc a273 4f3e 2f12 90be 7f6c ceba
000002b0: 38c3 5a3c f0fc e33b 6225 38bc eab3 75be
000002c0: 8bae 17be 849c b23e 3e10 093e 2241 383e
000002d0: e7be 213c 558a 4d3c a1bf 223d 9efb 5b3e
000002e0: c002 5bbe cc32 7fbe 1660 213e a25e 2c3d
000002f0: 42ff ea3d 5e9f 143e 5296 9ebc f014 3ebe
00000300: b00d d7be 5253 15be 197c c7be 6aad 9f3e
00000310: f741 8fbd 79f2 613f 822e 393e a0ec c03e
00000320: adc1 833e 57eb b23e 2929 433e 451e 9c3d
00000330: 772f ddbb ae93 28bf f7af 68be f756 403e
00000340: 908f a03e 7d62 9ebe 47b8 4a3b 0dba 2f3f
00000350: c6e3 ce3d acd4 5dbe 74cd 26be c62a 96be
00000360: c81b 4a3e dcb7 1e3d 51ad db3e 357a a83d
00000370: b66f 743e a7e6 b9bd a1fe 4d3e f4eb 0c3a
00000380: 3977 3ebe 3644 8c3d d608 e2bb 5eb8 193e
00000390: c939 d6bd d48d 2cbe d9f5 d1bd ec81 c9be
000003a0: 9751 e13d 21c0 6b3e c693 073f 051f 643e
000003b0: c763 92be b352 61be 350e d0be 5ae2 aebe
000003c0: 3b77 a73d 9fe1 2fbe d90b 533e 298c 9fbe
000003d0: 3fe3 40be f169 28be 5b43 46be 8582 6abb
000003e0: 8078 4abe a0e2 44bd bffc f4bd 7c06 333e
000003f0: fc47 3a3e b18e 6ebe ca60 9e3d 9091 ec3e

gru.bias_ih_l0 f4 [192]
-0.12988685 -0.14042927 0.14291057 0.16147037 0.02575517 0.24977575 0.018214988 -0.09717277
0.021160206 0.093706295 -0.024453238 -0.026113527 0.04194124 -0.17697002 -0.08061208 -0.07089562
-0.10703755 0.10205473 -0.03977461 0.0015822529 -0.0698448 -0.0329661 0.15165928 0.07743285
-0.07425668 -0.104053214 0.03579249 -0.087352276 0.069782205 -0.08145614 0.07447463 -0.11607393
0.066585615 0.012814458 -0.15061478 -0.07474872 -0.048514523 -0.16433537 -0.15796982 0.09146929
0.11012002 -0.15499774 0.05765961 0.016805204 -0.001706631 0.082095176 0.00040141965 0.14454319
-0.045920398 -0.06450005 0.070224024 -0.17541505 -0.12121365 0.22163829 0.08251914 -0.027802395
0.0956506 0.17315008 -0.0012115311 -0.055037513 -0.0283737 -0.0025029583 0.05403829 0.08209614
-0.05311741 -0.031181557 -0.028036479 -0.067515254 -0.5745224 -0.030629005 -0.29691514 -0.046038985
-0.048681673 -0.14890276 -0.5121808 -0.3138903 -0.06316995 -0.5969622 -0.37200454 -0.23004524
-0.01606496 -0.18797001 0.0069934158 -0.32586655 -0.016977334 -0.2637344 -0.20773344 0.19092403
-0.039683484 0.09261847 -0.025779298 -0.04566616 -0.27652022 -0.1859549 0.24047951 -0.06641318
-0.12515843 -0.16184042 0.09910616 -0.34880105 -0.13852806 0.013386403 -0.0148917 0.13129477
0.17286055 0.14110887 0.060625784 -0.31808925 -0.24181142 -0.28556535 -0.23913245 -0.36842296
-0.107442096 -0.22508867 -0.43304813 -0.49401587 -0.03839909 -0.24031454 0.065259576 -0.23602869
-0.20823409 -0.12298502 0.21652278 -0.20511429 -0.16922453 -0.10300471 0.01945079 0.043053254
-0.0326509 0.030418063 -0.062319838 -0.0013962969 0.014523787 -0.08086552 -0.08090752 0.101609595
-0.02795533 -0.053955685 -0.007886626 0.04864022 0.09986634 -0.01826711 -0.01119247 0.012599146
-0.06222581 -0.015733954 -0.0067384765 0.07674305 0.09185241 0.05979797 0.015117729 -0.053648826
-0.075507365 0.050180137 -0.05610892 -0.023037879 0.10383361 0.04756032 -0.021070005 0.032258365
-0.014098467 0.0004462143 0.09317808 -0.057353888 0.10576843 -0.008729974 0.08150962 -0.027000196
0.054832235 -0.046522237 -0.042338 0.049251184 0.019945282 0.10796432 0.074400164 -0.049151
-0.051515214 0.08324585 -0.031924814 -0.04712623 -0.11489783 -0.042883143 -0.07539017 -0.091379344
0.11864244 0.06545989 0.005304619 -0.03775091 0.008367052 0.061927486 -0.034360323 0.07969696
00000000: 0f01 05be b1cc 0fbe 2657 123e 7d58 253e
00000010: 82fc d23c 37c5 7f3e 9937 953c 8402 c7bd
00000020: 2b58 ad3c 16e9 bf3d 2852 c8bc 09ec d5bc
00000030: 94ca 2b3d a137 35be f217 a5bd b931 91bd
00000040: 8136 dbbd 1202 d13d b4ea 22bd 9963 cf3a
00000050: ca0a 8fbd 7607 07bd 924c 1b3e 1d95 9e3d
00000060: e313 98bd da19 d5bd 259b 123d c0e5 b2bd
00000070: f9e9 8e3d 7ad2 a6bd 2886 983d 2bb8 edbd
00000080: 0a5e 883d bcf3 513c c33a 1abe db15 99bd
00000090: 2ab7 46bd 8847 28be d7c2 21be 4054 bb3d
000000a0: 9b86 e13d bab7 1ebe 7c2c 6c3d 11ab 893c
000000b0: 09b1 dfba 8421 a83d a275 d239 2103 143e
000000c0: 0717 3cbd 9a18 84bd 9dd1 8f3d 01a0 33be
000000d0: dd3e f8bd 26f5 623e cbff a83d d9c1 e3bc
000000e0: 76e4 c33d 414e 313e 3dcc 9eba 046f 61bd
000000f0: f66f e8bc ac08 24bb 4157 5d3d 0522 a83d
00000100: a491 59bd 7770 ffbc c2ac e5bc 7045 8abd
00000110: e613 13bf aee9 fabc 4305 98be 6093 3cbd
00000120: 6f66 47bd f779 18be 481e 03bf 3bb6 a0be
00000130: 3f5f 81bd 84d2 18bf 6177 bebe fb90 6bbe
00000140: aa9a 83bc 367b 40be 0629 e53b fbd7 a6be
00000150: 0d14 8bbc 3208 87be 13b8 54be 9781 433e
00000160: 268b 22bd c1ae bd3d 1b2f d3bc 700c 3bbd
00000170: 0f94 8dbe f66a 3ebe 4340 763e a203 88bd
00000180: 8829 00be 7fb9 25be 2cf8 ca3d 0d96 b2be
00000190: 4dda 0dbe a552 5b3c 51fc 73bc 2372 063e
000001a0: 5b02 313e d87e 103e be52 783d 98dc a2be
000001b0: 6a9d 77be 9f35 92be 23df 74be efa1 bcbe
000001c0: 9a0a dcbd a57d 66be 7cb8 ddbe a6ef fcbe
000001d0: 5d48 1dbd 0415 76be d0a6 853d 81b1 71be
000001e0: 513b 55be 92df fbbd 26b8 5d3e 7b09 52be
000001f0: 3249 2dbe 22f4 d2bd 4357 9f3c 9c58 303d
00000200: f3bc 05bd 4d2f f93c 1643 7fbd f303 b7ba
00000210: 2ef5 6d3c d29c a5bd d8b2 a5bd b118 d03d
00000220: 9402 e5bc a300 5dbd e836 01bc f83a 473d
00000230: b986 cc3d e8a4 95bc 9f60 37bc a66c 4e3c
00000240: 7ee0 7ebd 7ee4 80bc 70ce dcbb 762b 9d3d
00000250: 1e1d bc3d b7ee 743d 5ab0 773c dfbe 5bbd
00000260: 9ba3 9abd b089 4d3d 78d2 65bd efb9 bcbc
00000270: b7a6 d43d 9cce 423d 019b acbc 5921 043d
00000280: 42fd 66bc dff1 e939 26d4 be3d e9eb 6abd
00000290: 1e9d d83d 2a08 0fbc 84ee a63d 842f ddbc
000002a0: c497 603d 1a8e 3ebd 9c6a 2dbd 9cbb 493d
000002b0: 4a64 a33c 661c dd3d 1d5f 983d 8f52 49bd
000002c0: 9e01 53bd cd7c aa3d 98c3 02bd 6f07 41bd
000002d0: 8e4f ebbd 3ca6 2fbd 2966 9abd 1825 bbbd
000002e0: cffa f23d d60f 863d 5fd2 ad3b b3a0 1abd
000002f0: f615 093c ada7 7d3d 69bd 0cbd 2938 a33d

gru.bias_hh_l0 f4 [192]
-0.11996865 -0.0822787 -0.0043485085 0.024632126 0.1970642 0.046890706 -0.10155964 -0.07666521
-0.06185633 -0.08714767 -0.031774364 0.0644912 0.008553057 -0.14371671 -0.025341757 0.0557647
-0.08196583 0.04496875 -0.09875616 -0.06483162 0.01430006 0.023413384 0.2021305 0.045871597
0.051157176 -0.021157619 -0.102597736 0.1029218 -0.004579378 0.043302543 -0.07629462 -0.13938442
0.0054592574 0.035304148 -0.09503869 -0.0148874 -0.14574261 -0.056017082 0.059447955 0.10484201
-0.0194961 -0.023685815 0.17417404 0.02957606 -0.05506511 -0.12935244 -0.04208212 0.07424888
-0.03529026 0.026407186 -0.071126945 0.04047264 -0.0064535313 0.23628703 -0.041446373 -0.14125419
0.10719176 0.19055794 0.104602434 0.009850287 -0.09808619 -0.03230905 -0.16672584 -0.015564724
0.10484054 -0.12778161 -0.01822409 -0.079486385 -0.3508808 -0.01445731 -0.27737218 -0.009149447
0.042758416 -0.25215772 -0.4769909 -0.2737985 -0.13031332 -0.6622558 -0.4789466 -0.11747299
-0.11200544 -0.049728833 0.09899795 -0.35756657 -0.039039083 -0.2264496 -0.24786542 0.03317329
-0.03271319 0.092168376 -0.10489285 0.0832223 -0.10529247 -0.31176603 0.1996081 -0.21519938
-0.19045676 -0.08348237 0.015843093 -0.35361165 -0.24319717 0.07342388 -0.16751494 0.2447458
0.007868795 0.14164321 0.093658715 -0.21921028 -0.2649698 -0.3649731 -0.11604368 -0.34258962
-0.26746526 -0.23187813 -0.3250696 -0.33198342 0.16389503 -0.3844198 0.0038010343 -0.16408424
-0.1662525 -0.055545922 0.1896802 -0.14555426 -0.1367758 0.050721034 -0.07114958 0.10457299
0.034663077 -0.09137796 -0.01915395 0.064305335 -0.0452619 0.10713486 0.09642049 -0.10764254
0.040691327 -0.05575743 -0.021626858 0.0060138996 -0.08653814 -0.119108245 0.0070451237 -0.01258277
0.033289846 0.08017837 0.022025308 0.025044683 0.08663341 -0.046287797 0.0064381617 -0.07448758
0.04110321 -0.01554967 0.13545403 0.05369491 -0.014946022 -0.04035827 0.01850494 -0.049429063
-0.040953953 0.026851265 -0.065323345 0.11744877 0.024525387 -0.016725207 -0.103847995 0.04506658
0.027772447 0.048531897 0.022297567 0.0062240604 -0.0109847095 -0.10127178 -0.084967434 -0.010656901
0.12589386 -0.059352335 0.063115515 -0.0015427077 0.073554106 0.017544998 -0.034794167 0.05737474
0.060959004 -0.06840132 -0.04564482 0.06741032 0.02509027 0.092687875 -0.10002813 0.089214094
00000000: 20b2 f5bd bc81 a8bd ef7d 8ebb 50c9 c93c
00000010: 33cb 493e 7810 403d 80fe cfbd a602 9dbd
00000020: 105d 7dbd 7a7a b2bd d625 02bd f613 843d
00000030: 1f22 0c3c 792a 13be 8499 cfbc 8769 643d
00000040: b3dd a7bd 2731 383d ab40 cabd 71c6 84bd
00000050: cd4a 6a3c 6dcd bf3c 4cfb 4e3e dbe3 3b3d
00000060: 308a 513d be52 adbc c31e d2bd aac8 d23d
00000070: 9b0e 96bb 025e 313d 5b40 9cbd caba 0ebe
00000080: 92e3 b23b 159b 103d a5a3 c2bd 48ea 73bc
00000090: 8d3d 15be 2b72 65bd b37f 733d 68b7 d63d
000000a0: 49b6 9fbc c108 c2bc ae5a 323e 7e49 f23c
000000b0: f48b 61bd f774 04be 4d5e 2cbd cc0f 983d
000000c0: 858c 10bd e253 d83c 01ab 91bd a4c6 253d
000000d0: 2578 d3bb 3af5 713e acc3 29bd f0a4 10be
000000e0: 5a87 db3d 9f21 433e cd39 d63d 1963 213c
000000f0: 6ae1 c8bd 7f56 04bd 2eba 2abe 2f03 7fbc
00000100: a3b6 d63d 2fd9 02be b04a 95bc c2c9 a2bd
00000110: a6a6 b3be 5ade 6cbc ba03 8ebe 90e7 15bc
00000120: 7323 2f3d d11a 81be 2738 f4be 512f 8cbe
00000130: db70 05be 9989 29bf 7d38 f5be ae95 f0bd
00000140: 1c63 e5bd 76b0 4bbd 70bf ca3d f712 b7be
00000150: 72e7 1fbd 67e2 67be 6fd0 7dbe b7e0 073d
00000160: 44fe 05bd c6c2 bc3d 10d2 d6bd 7470 aa3d
00000170: 94a3 d7bd cc9f 9fbe 1166 4c3e 3a5d 5cbe
00000180: 1907 43be cef8 aabd 60c9 813c 960c b5be
00000190: ae08 79be 425f 963d 0989 2bbe a59e 7a3e
000001a0: 1eec 003c eb0a 113e 24d0 bf3d a978 60be
000001b0: 1faa 87be c1dd babe 4fa8 edbd e867 afbe
000001c0: 35f1 88be 7671 6dbe 866f a6be bbf9 a9be
000001d0: 19d4 273e acd2 c4be c61a 793b b305 28be
000001e0: 183e 2abe 1f84 63bd 873b 423e 2d0c 15be
000001f0: f50e 0cbe dcc0 4f3d dfb6 91bd 5d2a d63d
00000200: dffa 0d3d 5e24 bbbd bfe8 9cbc 84b2 833d
00000210: 8b64 39bd 8569 db3d 1b78 c53d b173 dcbd
00000220: f3ab 263d e761 64bd cf2a b1bc 3f10 c53b
00000230: e93a b1bd 06ef f3bd c8da e63b f627 4ebc
00000240: ef5a 083d 8f34 a43d 6b6e b43c 822a cd3c
00000250: db6c b13d 4698 3dbd 37f7 d23b f28c 98bd
00000260: d75b 283d 0bc4 7ebc 76b4 0a3e 32ef 5b3d
00000270: 29e0 74bc b74e 25bd ac97 973c 2176 4abd
00000280: 55bf 27bd 2ff7 db3c 3fc8 85bd fb88 f03d
00000290: 77e9 c83c 4d03 89bc 42ae d4bd bc97 383d
000002a0: 0b83 e33c 62c9 463d 63a9 b63c 34f3 cb3b
000002b0: 36f9 33bc 9467 cfbd 6803 aebd 489a 2ebc
000002c0: 52ea 003e 6f1b 73bd b542 813d ae34 caba
000002d0: 89a3 963d 87ba 8f3c 5484 0ebd c601 6b3d
000002e0: 26b0 793d fe15 8cbd 10f6 3abd 6c0e 8a3d
000002f0: 1c8a cd3c 24d3 bd3d 8cdb ccbd e1b5 b63d

gru.weight_ih_l1 f4 [192, 64]
-0.05203319 -0.22573578 0.0047170334 0.0054309517 -0.030285625 0.08960228 -0.073145516 -0.09297559
0.009436019 -0.021035925 -0.2583948 -0.033494234 -0.056487825 0.058914617 0.021250479 -0.13528232
0.0786001 -0.06963683 -0.22958697 -0.07499824 -0.123954356 0.09016013 0.017569354 -0.108486824
0.19547692 -0.040285815 -0.17037258 -0.059623044 -0.09052744 0.053718194 0.1791768 -0.03367168
-0.09332337 0.015254463 -0.0013679025 0.038852133 -0.023340177 0.050024442 0.19204494 0.06679275
-0.13673846 0.12368587 0.05845472 -0.14781222 -0.045917794 -0.18691157 0.18404253 -0.019828632
0.072900645 -0.013060243 -0.09323255 -0.102515556 -0.074441396 -0.17181714 0.06760659 0.003349013
0.057962567 0.12066638 0.14416495 0.14749601 0.030384254 0.06302152 0.20806189 -0.14961675
-0.087393135 -0.21449512 -0.06805292 0.09135651 0.28810364 0.058445055 -0.21925502 0.017636271
0.18976323 0.1279774 -0.116272606 0.024972185 -0.0030175112 0.14033155 0.12839997 -0.21909635
0.026856573 0.09403656 -0.15019923 -0.03609735 -0.35465667 -0.23242968 0.37688985 -0.0881485
-0.0038405512 0.13731469 0.090604 0.13265455 -0.34162343 0.21205217 0.2084403 0.10944875
-0.09548136 -0.036512684 0.0200442 -0.14757667 -0.12873536 0.2758304 -0.07444736 0.026382357
0.019372717 0.18726218 -0.044986323 0.088494375 -0.0138985645 0.07845531 0.22617996 0.12378121
0.013020477 -0.4284354 -0.03622917 -0.17539605 0.07844252 -0.12242872 0.15123677 -0.29295766
0.21749413 0.33730444 0.21874176 0.23635694 -0.09738163 -0.07197546 0.22392109 0.15844528
0.03600637 -0.10239073 -0.13353787 0.23925339 0.28501663 -0.09742728 -0.011775337 0.10043202
0.12377563 0.033081193 -0.030601125 0.120842986 -0.0323499 -0.19093543 -0.088006124 -0.07352659
0.09186355 0.13387255 0.08269783 -0.078039676 -0.035698712 0.026962914 0.18718898 -0.0631553
0.15491974 0.028917016 -0.027978105 -0.10354534 0.12297939 -0.018255388 -0.03153982 0.023403645
-0.019007778 0.08205205 0.12186317 -0.030347105 -0.012892321 0.004462387 -0.08451227 0.03728908
0.035071846 0.10629784 0.007908558 -0.08849337 -0.04263207 0.029512813 0.12121951 0.08539309
0.18298127 0.065358214 -0.10837179 -0.005739854 0.036698524 0.015895113 0.13671453 0.031059472
0.055152353 0.020772096 0.054775666 0.11001276 -0.107842624 -0.13209023 -0.10277866 0.11932179
0.057539403 -0.13606545 -0.059987675 -0.088462725 -0.07374258 -0.17292733 0.0020863425 -0.117918186
0.029851835 -0.101845935 0.03648468 -0.028874246 0.020554058 -0.03662339 -0.1619372 0.09240537
-0.014567172 -0.09783364 0.06986792 0.038825385 -0.011079537 0.013006468 -0.049402826 -0.049129836
0.18902282 0.036301862 0.063565984 0.043509662 0.19479577 -0.013332139 0.007110337 0.14142907
-0.10976265 0.07252556 -0.024337329 0.094681315 0.083307065 0.02064774 -0.07084068 -0.01875972
0.13354439 -0.04271562 -0.0091395 -0.1432474 -0.14553271 0.19388129 -0.0703473 -0.022256978
-0.08531739 -0.13951862 0.109438814 0.023811882 -0.09652089 -0.12376003 0.25015163 0.0642555
0.097122744 0.18026528 0.011313462 0.11884623 -0.09453744 -0.076378055 -0.060390733 0.14031021
00000000: c120 55bd 4827 67be 5891 9a3b 20f6 b13b
00000010: 8f19 f8bc 6681 b73d 51cd 95bd fc69 bebd
00000020: 8899 1a3c 8853 acbc 534c 84be 4031 09bd
00000030: c75f 67bd 7450 713d 7c15 ae3c 7387 0abe
00000040: 17f9 a03d c19d 8ebd d918 6bbe ad98 99bd
00000050: c8db fdbd e0a5 b83d 9bed 8f3c 572e debd
00000060: 1a2b 483e bd02 25bd 2676 2ebe 4b37 74bd
00000070: 7366 b9bd 9c07 5c3d 207a 373e 51eb 09bd
00000080: 5320 bfbd dbed 793c 314b b3ba 6a23 1f3d
00000090: e633 bfbc 6ee6 4c3d 6ea7 443e a3ca 883d
000000a0: 2b05 0cbe 044f fd3d 376e 6f3d 165c 17be
000000b0: 4c14 3cbd bf65 3fbe a575 3c3e a86f a2bc
000000c0: ef4c 953d a1fa 55bc b5f0 bebd adf3 d1bd
000000d0: bb74 98bd d5f0 2fbe 5375 8a3d 1d7b 5b3b
000000e0: 286a 6d3d ef1f f73d fa9f 133e 3209 173e
000000f0: 66e8 f83c 6d11 813d 2d0e 553e 2235 19be
00000100: 2cfb b2bd 9ca4 5bbe 545f 8bbd 1f19 bb3d
00000110: 5282 933e 1564 6f3d 6384 60be f179 903c
00000120: 4b51 423e 820c 033e 5520 eebd 7892 cc3c
00000130: 70c1 45bb 13b3 0f3e 487b 033e cb5a 60be
00000140: 5102 dc3c 3d96 c03d d4cd 19be d1da 13bd
00000150: 8f95 b5be 0c02 6ebe b5f7 c03e 3387 b4bd
00000160: c2b1 7bbb 399c 0c3e 978e b93d 98d6 073e
00000170: 44e9 aebe 3424 593e 6071 553e ab26 e03d
00000180: bb8b c3bd 538e 15bd bc33 a43c 571e 17be
00000190: 34d3 03be a439 8d3e dc77 98bd d01f d83c
000001a0: 88b3 9e3c a8c1 3f3e 9443 38bd 8a3c b53d
000001b0: ceb6 63bc 2dad a03d b89b 673e 0181 fd3d
000001c0: d753 553c e25b dbbe 0a65 14bd 069b 33be
000001d0: 79a6 a03d e9bb fabd d0dd 1a3e 8cfe 95be
000001e0: c8b6 5e3e 2bb3 ac3e d7fd 5f3e 8e07 723e
000001f0: 0570 c7bd df67 93bd 924b 653e 7b3f 223e
00000200: 6a7b 133d 3bb2 d1bd 27be 08be d7fe 743e
00000210: b3ed 913e f487 c7bd 58ed 40bc 4eaf cd3d
00000220: 147e fd3d 2580 073d 36af fabc 877c f73d
00000230: 5481 04bd 9484 43be 8e3c b4bd 1c95 96bd
00000240: f522 bc3d e315 093e 7b5d a93d 44d3 9fbd
00000250: d038 12bd 54e1 dc3c 78ae 3f3e 9157 81bd
00000260: 48a3 1e3e 61e3 ec3c 5732 e5bc 940f d4bd
00000270: 9edc fb3d 538c 95bc e62f 01bd 00b9 bf3c
00000280: 33b6 9bbc e80a a83d 6693 f93d 7e9a f8bc
00000290: 503a 53bc 3739 923b c514 adbd 6fbc 183d
000002a0: 7fa7 0f3d afb2 d93d e592 013c 033c b5bd
000002b0: f79e 2ebd dbc4 f13c ef41 f83d 93e2 ae3d
000002c0: 715f 3b3e 87da 853d 07f2 ddbd 6315 bcbb
000002d0: 3151 163d 7836 823c e5fe 0b3e 6f70 fe3c
000002e0: 6fe7 613d 3e2a aa3c 735c 603d 5f4e e13d
000002f0: 98dc dcbd a942 07be 9e7d d2bd fc5e f43d
00000300: 70ae 6b3d be54 0bbe a3b5 75bd f22b b5bd
00000310: 5a06 97bd dd13 31be 05bb 083b 177f f1bd
00000320: d68b f43c 9a94 d0bd f670 153d af89 ecbc
00000330: fc60 a83c 6802 16bd ded2 25be 073f bd3d
00000340: 26ab 6ebc 015d c8bd e916 8f3d 5e07 1f3d
00000350: f286 35bc 1519 553c 9e5a 4abd 5e3c 49bd
00000360: 338f 413e 43b1 143d e22e 823d 3037 323d
00000370: 8b78 473e 0b6f 5abc d4fd e83b c8d2 103e
00000380: 3ecb e0bd 4888 943d 145f c7bc 47e8 c13d
00000390: e59c aa3d 7325 a93c eb14 91bd fcad 99bc
000003a0: dcbf 083e 93f6 2ebd d7bd 15bc 72af 12be
000003b0: 8706 15be d188 463e 3f12 90bd 4454 b6bc
000003c0: e2ba aebd f8dd 0ebe 7521 e03d 2311 c33c
000003d0: bfac c5bd e675 fdbd e013 803e 6398 833d
000003e0: 4ae8 c63d 7697 383e 195c 393c a765 f33d
000003f0: d89c c1bd 196c 9cbd 465c 77bd 7bad 0f3e

gru.weight_hh_l1 f4 [192, 64]
0.014490743 -0.06985963 0.10707293 -0.08909875 0.11517566 -0.0712989 0.08964478 -0.007817342
-0.092223555 0.18363915 0.10159247 0.042738866 -0.035983432 -0.023654653 0.032052178 -0.11765105
0.030876521 0.14216849 0.057552874 0.061383687 -0.18445382 0.023540873 -0.118032455 0.15181658
-0.04592273 0.062683895 -0.13563068 -0.041804228 -0.05092675 0.0032984165 -0.06453801 0.09756447
0.06788192 -0.092162654 -0.1286839 0.20195048 -0.022004018 -0.1303504 -0.03796155 0.06806274
-0.20416197 0.031931665 -0.059433956 -0.11404841 0.051547762 0.09355936 0.1492538 -0.19700737
0.27859303 -0.047059096 -0.07467284 -0.0057424996 -0.1615989 -0.18174104 0.042315103 0.06509788
0.15533975 0.0012844458 0.23686472 -0.03342191 -0.0535588 -0.05989605 0.031159628 0.06569603
0.014323337 -0.33593416 0.01822377 -0.18634239 0.014890079 0.100725114 0.1987464 0.038409702
-0.32395712 0.32688895 0.1663079 0.074059896 0.038295392 -0.3246609 -0.25497654 0.08464993
-0.043236334 0.34865603 -0.09508649 0.07794496 -0.38419935 0.16152906 -0.15875752 0.31300136
0.23335277 -0.21572708 -0.17607331 -0.24137102 0.026752625 -0.10884111 0.00033668053 -0.048282254
-0.29354173 -0.05663239 -0.13536073 0.2660874 0.0565884 0.116240524 -0.034762047 0.11081179
-0.27289367 -0.2514904 -0.038338274 0.08957056 -0.055029567 -0.13607153 -0.060876373 -0.27051395
0.3590951 -0.1326013 0.15798926 -0.023765337 -0.053316813 -0.14120968 0.069899276 -0.11971802
0.04602191 -0.23179628 0.13198136 -0.2601985 -0.18599527 -0.0942762 -0.027519368 0.0034499953
-0.025905432 0.06198512 -0.021329656 0.07896034 0.036360566 0.15511794 0.0010606213 0.019902369
-0.07523005 -0.083468385 0.041516237 -0.05251905 0.08961956 0.05314016 0.026861435 -0.017291272
-0.05500338 -0.080532074 0.13808684 -0.032758035 -0.016103731 -0.10287969 -0.075466506 -0.11764649
-0.20830797 0.10255722 -0.12977532 -0.0013548888 0.11412669 0.013835367 0.018868113 -0.16803144
0.027460817 0.107230134 -0.010224468 -0.098513745 0.14689568 0.12844224 0.07294076 0.04826783
-0.017068878 0.09760727 0.024402428 -0.1428012 0.047634695 0.2235653 -0.07618266 -0.08958013
-0.19473262 0.0034215068 0.076776676 -0.03839684 0.0842074 0.023087068 0.093184724 -0.017863803
0.106075846 0.112249084 0.13336875 0.02292283 -0.11076206 0.05696258 -0.0152829485 -0.17211634
0.06057969 0.15293194 0.062045947 0.14892535 0.20073922 0.10339574 0.05445691 0.052683916
-0.11987245 0.033139274 -0.053662285 0.086786315 -0.11610452 -0.0017640922 -0.14693263 -0.10053834
-0.07531104 -0.074411705 0.02594356 0.22661301 -0.08623449 0.09728769 0.013598357 0.15318781
-0.11254379 -0.1176832 -0.07497663 0.008928403 -0.080543436 -0.07953308 0.014368931 -0.052543443
0.0850778 -0.053876255 -0.10046283 -0.0057655657 0.02314303 0.18036798 0.000209499 -0.06675673
-0.0386822 -0.1292825 0.028251546 0.038663853 0.06250946 0.0008916309 0.076984845 -0.13754219
-0.01563034 -0.122602105 0.123543866 -0.15390605 -0.102406636 0.030536024 -0.055533256 0.17827304
-0.117130116 0.09237968 0.19499366 0.011456343 -0.07690866 0.1393893 -0.017167332 0.042224824
00000000: 956a 6d3c 9112 8fbd 0d49 db3d 6879 b6bd
00000010: 37e1 eb3d 2805 92bd af97 b73d 4f14 00bc
00000020: b4df bcbd e70b 3c3e b70f d03d f30e 2f3d
00000030: 5d63 13bd 67c7 c1bc 2549 033d 09f3 f0bd
00000040: c2f0 fc3c 9e94 113e 90bc 6b3d 766d 7b3d
00000050: 76e1 3cbe cad8 c03c 00bb f1bd ce75 1b3e
00000060: 7919 3cbd 6a60 803d c5e2 0abe e93a 2bbd
00000070: 9198 50bd 3f2a 583b 812c 84bd e1cf c73d
00000080: ad05 8b3d c6bf bcbd b6c5 03be 1bcc 4e3e
00000090: c541 b4bc 937a 05be 927d 1bbd 7a64 8b3d
000000a0: d60f 51be c7ca 023d 0571 73bd 3692 e9bd
000000b0: bf23 533d 0d9c bf3d fdd5 183e 4dbc 49be
000000c0: bfa3 8e3e 0ac1 40bd 13ee 98bd 942b bcbb
000000d0: 2f7a 25be 531a 3abe 9a52 2d3d 0a52 853d
000000e0: 6211 1f3e d95a a83a aa8c 723e 6ae5 08bd
000000f0: 7960 5bbd 8f55 75bd 7a42 ff3c a48b 863d
00000100: 6eac 6a3c 90ff abbe 044a 953c 8ad0 3ebe
00000110: 85f5 733c f848 ce3d 2d84 4b3e 7e53 1d3d
00000120: b5dd a5be fd5d a73e 9e4c 2a3e b7ac 973d
00000130: a1db 1c3d f439 a6be 498c 82be f15c ad3d
00000140: 9518 31bd 0b83 b23e b5bc c2bd 9ba1 9f3d
00000150: c7b5 c4be e067 253e 5591 22be b741 a03e
00000160: 07f4 6e3e 8fe7 5cbe 904c 34be f729 77be
00000170: 5228 db3c 16e8 debd 7f84 b039 9dc3 45bd
00000180: 1a4b 96be 5df7 67bd 019c 0abe 9c3c 883e
00000190: 3dc9 673d 830f ee3d a662 0ebd 4bf1 e23d
000001a0: b8b8 8bbe 5ac3 80be 9808 1dbd c570 b73d
000001b0: af66 61bd 5656 0bbe 8159 79bd ce80 8abe
000001c0: 50db b73e a3c8 07be f0c7 213e 86af c2bc
000001d0: bb62 5abd 4599 10be 5a27 8f3d b92e f5bd
000001e0: 7881 3c3d 015c 6dbe 1f26 073e bd38 85be
000001f0: 8b75 3ebe e113 c1bd 4c70 e1bc 5119 623b
00000200: a137 d4bc 1ce4 7d3d 88bb aebc f5b5 a13d
00000210: d1ee 143d 3dd7 1e3e 8c04 8b3a 4b0a a33c
00000220: 3612 9abd 79f1 aabd ee0c 2a3d 371e 57bd
00000230: 768a b73d 7fa9 593d 830c dc3c 6da6 8dbc
00000240: 394b 61bd 00ee a4bd a366 0d3e 4a2d 06bd
00000250: f9eb 83bc 96b2 d2bd 2f8e 9abd a5f0 f0bd
00000260: af4e 55be 8509 d23d d2e3 04be 8696 b1ba
00000270: 41bb e93d bcad 623c 4d91 9a3c 6f10 2cbe
00000280: 82f5 e03c 799b db3d 8784 27bc 93c1 c9bd
00000290: d26b 163e 5d86 033e f761 953d 7db4 453d
000002a0: 08d4 8bbc 52e6 c73d 9ae7 c73c 7a3a 12be
000002b0: 991c 433d 4dee 643e a805 9cbd ca75 b7bd
000002c0: fd67 47be 5c3b 603b 173d 9d3d 0146 1dbd
000002d0: ee74 ac3d 1721 bd3c a2d7 be3d 1c57 92bc
000002e0: 4b3e d93d d9e2 e53d d191 083e a9c8 bb3c
000002f0: 38d7 e2bd 9851 693d 5565 7abc 443f 30be
00000300: 6922 783d 319a 1c3e e423 7e3d e37f 183e
00000310: 958e 4d3e 25c1 d33d 350e 5f3d 17cb 573d
00000320: b07f f5bd 0cbd 073d fccc 5bbd 06bd b13d
00000330: 35c8 edbd 1d39 e7ba 8275 16be 0ce7 cdbd
00000340: ad3c 9abd 2a65 98bd 9787 d43c 3e0d 683e
00000350: b59b b0bd c53e c73d a5cb 5e3c 44dd 1c3e
00000360: 5c7d e6bd e403 f1bd 598d 99bd 7048 123c
00000370: f5f3 a4bd 3de2 a2bd aa6b 6b3c cb37 57bd
00000380: 453d ae3d 59ad 5cbd 75bf cdbd 12ed bcbb
00000390: 7496 bd3c 62b2 383e f6ac 5b39 c1b7 88bd
000003a0: 3a71 1ebd a262 04be c96f e73c fd5d 1e3d
000003b0: f604 803d 56bc 693a 3baa 9d3d dcd7 0cbe
000003c0: 330b 80bc d016 fbbd 9104 fd3d 8c99 1dbe
000003d0: 92ba d1bd af26 fa3c d776 63bd 358d 363e
000003e0: eae1 efbd 8f31 bd3d 6bac 473e 63b3 3b3c
000003f0: 4a82 9dbd 12bc 0e3e 81a2 8cbc f0f3 2c3d

gru.bias_ih_l1 f4 [192]
-0.060309708 -0.0950332 0.067280546 0.053050645 0.047061376 -0.0993915 0.22229698 0.07362695
0.00969729 -0.055972364 0.08117605 -0.15153553 0.005829352 0.12080779 -0.1112186 0.04095986
-0.18990934 -0.08056061 -0.093121916 0.091780476 -0.11653079 -0.030052312 -0.1299958 -0.051605243
0.071573265 0.052941736 -0.052502874 0.115800306 0.006006682 -0.17120592 0.047392763 -0.0007038614
0.089150175 -0.09894314 -0.026278742 -0.008972822 -0.020154325 0.124327734 -0.023860872 0.028372709
-0.05375009 -0.012325987 -0.1452789 0.116874084 0.20890543 0.06672631 -0.17245854 -0.05009462
-0.104651906 0.22291179 0.0782854 0.17476563 -0.03539819 0.16372842 0.042810094 0.22622375
0.060197275 -0.05662736 0.17281139 -0.14195259 0.11856994 0.11160087 0.008628692 0.03300322
-0.14129597 -0.26621938 -0.16935691 -0.30966252 -0.1537654 -0.09145327 -0.4598978 -0.24416798
0.17402786 -0.15141512 -0.13551885 -0.14362572 -0.35908338 -0.044577 -0.11975496 -0.25335932
-0.15006818 -0.1279963 -0.1755942 -0.41768163 -0.12119449 -0.19215465 -0.053901218 0.077519454
-0.38257036 0.00861162 0.026830908 -0.30111897 -0.3693858 -0.18438374 -0.15625268 -0.109338574
-0.38226435 -0.0017109895 -0.24892393 -0.100340344 -0.14947945 0.0477356 -0.27817273 -0.2357429
-0.16716847 -0.23632148 -0.13334084 -0.30942222 0.008281035 -0.098991215 -0.17653237 -0.069059044
0.107120454 -0.25888926 0.041697852 -0.1823832 -0.30135792 -0.0023508877 -0.20285833 -0.115021944
-0.40132296 -0.043022566 0.053956103 -0.15202208 -0.28012478 -0.20549859 -0.2293242 -0.14370753
0.08047999 -0.083167724 -0.011165524 0.072922006 0.098335825 -0.010245179 0.037254333 0.023331981
0.1053189 -0.057198234 -0.06864058 0.014677909 0.0050185216 0.09977856 -0.030928783 0.06541565
-0.09218647 -0.070006475 -0.045451038 0.03252241 0.120416135 0.047719333 -0.09377492 -0.12445991
0.034858383 0.07942247 0.08571268 -0.07678634 -0.054210786 0.09315534 0.05489529 0.0037122017
-0.049256228 0.1149188 0.06653986 -0.05173412 -0.034202922 0.0077724345 0.08463247 0.0032506087
0.02966246 0.07690068 -0.053096045 -0.112002894 0.03418575 -0.046909157 0.039419238 0.0685706
-0.04136163 -0.013715203 0.11312999 -0.0036263978 0.07846261 0.056069195 0.09903465 0.10984534
0.022002872 0.089786775 -0.09595782 0.011488872 -0.07445226 -0.10376924 -0.006148446 -0.07092659
00000000: 5007 77bd c4a0 c2bd 62ca 893d a24b 593d
00000010: 6ec3 403d c58d cbbd d2a1 633e bac9 963d
00000020: 62e1 1e3c 4743 65bd a13f a63d 212c 1bbe
00000030: 2604 bf3b 136a f73d 94c6 e3bd 87c5 273d
00000040: 9877 42be f6fc a4bd b4b6 bebd 67f7 bb3d
00000050: b2a7 eebd 4430 f6bc 9e1d 05be 0560 53bd
00000060: 0195 923d 6fd9 583d 410d 57bd b628 ed3d
00000070: b3d3 c43b 9b50 2fbe ea1e 423d 5783 38ba
00000080: 5e94 b63d b3a2 cabd 8446 d7bc be02 13bc
00000090: af1a a5bc 8a9f fe3d e077 c3bc e26d e83c
000000a0: 0e29 5cbd f0f2 49bc fec3 14be ae5b ef3d
000000b0: 4eeb 553e cea7 883d f998 30be 0430 4dbd
000000c0: bd53 d6bd fd42 643e 1954 a03d c3f5 323e
000000d0: b1fd 10bd 6ca8 273e a359 2f3d 33a7 673e
000000e0: 6b91 763d 17f2 67bd 78f5 303e 055c 11be
000000f0: ccd4 f23d ff8e e43d 5b5f 0d3c 622e 073d
00000100: e4af 10be e84d 88be e66b 2dbe 168c 9ebe
00000110: ad74 1dbe da4b bbbd b977 ebbe 2c07 7abe
00000120: 5c34 323e 910c 1bbe 74c5 0abe 9f12 13be
00000130: c7d9 b7be 5f96 36bd 1742 f5bd 50b8 81be
00000140: 79ab 19be 7611 03be f7ce 33be 5eda d5be
00000150: d134 f8bd 30c4 44be 86c7 5cbd 85c2 9e3d
00000160: 43e0 c3be c117 0d3c 7ecc db3c 442c 9abe
00000170: 2320 bdbe 17cf 3cbe b400 20be e7ec dfbd
00000180: 27b8 c3be 4843 e0ba eae5 7ebe 3d7f cdbd
00000190: 2411 19be 6886 433d a86c 8ebe 9666 71be
000001a0: 362e 2bbe 42fe 71be 808a 08be 976c 9ebe
000001b0: 2ead 073c e8bb cabd e7c4 34be d46e 8dbd
000001c0: f861 db3d 228d 84be 5ecb 2a3d a9c2 3abe
000001d0: 964b 9abe 5a11 1abb 18ba 4fbe a090 ebbd
000001e0: 347a cdbe 6e38 30bd 1301 5d3d adab 1bbe
000001f0: 846c 8fbe 396e 52be f7d3 6abe 1128 13be
00000200: b1d2 a43d d753 aabd 9aef 36bc 2258 953d
00000210: 4b64 c93d 65db 27bc 0098 183d b622 bf3c
00000220: 6fb1 d73d b248 6abd 6f93 8cbd 9d7b 703c
00000230: 6972 a43b b458 cc3d 5c5e fdbc a4f8 853d
00000240: 43cc bcbd 8e5f 8fbd de2a 3abd 3836 053d
00000250: bc9c f63d 5975 433d 110d c0bd d6e4 febd
00000260: aac7 0e3d 3fa8 a23d 218a af3d 2842 9dbd
00000270: 210c 5ebd 3ac8 be3d e2d9 603d 6948 733b
00000280: e6c0 49bd 8c5a eb3d 0d46 883d 28e7 53bd
00000290: 5d18 0cbd e8af fe3b ca53 ad3d 2a08 553b
000002a0: b0fe f23c 1b7e 9d3d 3d7b 59bd c661 e5bd
000002b0: 5b06 0c3d d123 40bd 1176 213d be6e 8c3d
000002c0: d06a 29bd bbb5 60bc b2b0 e73d dca8 6dbb
000002d0: 01b1 a03d d0a8 653d aed2 ca3d 98f6 e03d
000002e0: 5e3f b43c 21e2 b73d 8985 c4bd d23b 3c3c
000002f0: 6d7a 98bd f884 d4bd e778 c9bb f641 91bd

gru.bias_hh_l1 f4 [192]
-0.06721865 -0.18001707 -0.029310985 0.05411229 0.21144061 0.053739563 0.11572788 0.020528734
0.010626096 -0.096634574 0.1645937 -0.08477611 0.10858667 0.07328036 -0.16327137 -0.11242658
-0.16828245 -0.14554454 0.115938045 -0.023312941 -0.13131283 -0.11490917 -0.031584993 0.094802454
-0.00019054691 0.0007995519 -0.034592647 0.078388385 0.10504155 -0.15588503 0.07017086 0.0032863868
0.24306893 0.068081245 0.017641576 -0.095715895 -0.06342342 -0.001327602 0.13011774 -0.0051481356
-0.040253103 -0.08959192 -0.17687061 0.21771139 0.17803343 0.05466518 -0.13397467 -0.07278629
0.08415914 0.06490854 0.0074170306 0.18867436 -0.028786756 0.10609188 -0.032637123 0.22899681
0.12923919 0.03225812 0.14872913 -0.09415063 0.07777274 -0.04709295 0.05549827 0.0904696
-0.12731649 -0.40612575 0.00087998837 -0.15343553 -0.2721037 -0.06652501 -0.35125902 -0.106773205
0.21340662 -0.19402215 -0.2532141 -0.04546512 -0.3605824 -0.09092503 -0.024989361 -0.07795601
-0.07374892 -0.13913533 -0.13292822 -0.39876235 -0.12309453 -0.2817136 -0.20874701 -0.08197585
-0.3966477 -0.07934775 0.015545478 -0.18896198 -0.2067086 -0.24647306 -0.104443826 -0.17108394
-0.469253 -0.07657772 -0.16844472 -0.036591075 0.0009798547 0.0052192225 -0.23934296 -0.24160221
-0.22209302 -0.4167879 -0.13889895 -0.3359967 -0.045111608 -0.094579615 -0.12182039 -0.090557694
-0.028339038 -0.36877006 -0.17380905 -0.101018555 -0.30605128 -0.01249488 -0.083889306 -0.14183675
-0.40589526 -0.060384497 0.020219218 -0.011815088 -0.3005316 -0.08879735 -0.14378223 -0.036477696
-0.08379852 -0.009326762 -0.014437963 0.015936332 -0.1069813 -0.052070245 -0.06269172 0.10742913
-0.09523288 -0.09425168 0.09204047 0.031957503 0.032951348 -0.10336856 -0.0154516045 0.061599404
-0.05262737 -0.019149873 -0.08511489 -0.031057397 -0.009732847 0.046648216 -0.06786293 -0.1084604
-0.0018038555 -0.07241197 0.061591003 -0.0663833 -0.06960139 -0.03693908 0.023171805 -0.08828146
0.048251525 -0.064923875 -0.059382644 -0.083847776 0.062369227 -0.055727605 -0.13619559 -0.10730647
-0.021632945 -0.040612176 -0.005722451 0.12047972 0.046649095 -0.0012491108 0.0827893 -0.015323673
0.07914049 -0.028204296 0.02853056 -0.032478075 -0.08125438 -0.04404057 -0.10454956 0.009687248
-0.030662728 0.11074171 0.037398946 0.07851063 0.105708815 0.076337695 -0.0039657727 0.033393167
00000000: eea9 89bd 6556 38be 971d f0bc d9a4 5d3d
00000010: e383 583e 041e 5c3d bd02 ed3d e02b a83c
00000020: 1419 2e3c 59e8 c5bd 408b 283e 199f adbd
00000030: b062 de3d 0314 963d 9c30 27be e83f e6bd
00000040: 3c52 2cbe a109 15be ed70 ed3d c8fa bebc
00000050: df76 06be 8055 ebbd 445f 01bd ca27 c23d
00000060: 8ccd 47b9 0599 513a 05b1 0dbd 178a a03d
00000070: 0620 d73d 53a0 1fbe bdb5 8f3d 6c60 573b
00000080: 10e7 783e 2e6e 8b3d 1185 903c b206 c4bd
00000090: 23e4 81bd ee02 aeba 963d 053e b1b1 a8bb
000000a0: 70e0 24bd f87b b7bd 921d 35be bcef 5e3e
000000b0: 654e 363e 99e8 5f3d a830 09be fa10 95bd
000000c0: a15b ac3d c5ee 843d 900a f33b da33 413e
000000d0: 34d2 ebbc b346 d93d 81ae 05bd 247e 6a3e
000000e0: 4757 043e 1721 043d 734c 183e 0cd2 c0bd
000000f0: 5047 9f3d 8ae4 40bd 2752 633d 2048 b93d
00000100: 415f 02be b7ef cfbe 05af 663a 341e 1dbe
00000110: 2d51 8bbe 443e 88bd 39d8 b3be e9ab dabd
00000120: 4487 5a3e bead 46be 47a5 81be a239 3abd
00000130: 429e b8be e736 babd 7db6 ccbc 67a7 9fbd
00000140: ac09 97bd 7e79 0ebe 561e 08be 942a ccbe
00000150: fc18 fcbd c43c 90be c7c1 55be f4e2 a7bd
00000160: 6815 cbbe 1381 a2bd 76b2 7e3c 407f 41be
00000170: 6bab 53be 6f63 7cbe a5e6 d5bd a130 2fbe
00000180: ee41 f0be c8d4 9cbd c67c 2cbe 86e0 15bd
00000190: 786e 803a 0306 ab3b 5216 75be 9266 77be
000001a0: 5a6c 63be 3965 d5be 873b 0ebe c207 acbe
000001b0: f3c6 38bd f5b2 c1bd f87c f9bd 5076 b9bd
000001c0: 4527 e8bc 6ecf bcbe 00fb 31be d1e2 cebd
000001d0: c1b2 9cbe 53b7 4cbc 28ce abbd a73d 11be
000001e0: 81d1 cfbe bc55 77bd c6a2 a53c 1294 41bc
000001f0: 47df 99be 63db b5bd a63b 13be a369 15bd
00000200: 8f9e abbd 46cf 18bc 358d 6cbc e98c 823c
00000210: 0319 dbbd 9c47 55bd 8464 80bd ce03 dc3d
00000220: 7509 c3bd 0607 c1bd b77f bc3d dfe5 023d
00000230: fef7 063d e5b2 d3bd ba28 7dbc a84f 7c3d
00000240: cc8f 57bd 32e0 9cbc b750 aebd 156c febc
00000250: 8576 1fbc 3312 3f3d b8fb 8abd 7c20 debd
00000260: 596f ecba ba4c 94bd d946 7c3d f8f3 87bd
00000270: 2c8b 8ebd 6f4d 17bd ccd2 bd3c e9cc b4bd
00000280: 64a3 453d cff6 84bd 373b 73bd 62b8 abbd
00000290: e076 7f3d a142 64bd db76 0bbe 7fc3 dbbd
000002a0: 9337 b1bc f458 26bd 6683 bbbb 12be f63d
000002b0: 1f13 3f3d 34b9 a3ba 708d a93d 2510 7bbc
000002c0: 6914 a23d b20c e7bc ecb8 e93c bb07 05bd
000002d0: b268 a6bd e263 34bd 141e d6bd 43b7 1e3c
000002e0: 6730 fbbc 8dcc e23d a32f 193d 2eca a03d
000002f0: dd7d d83d f056 9c3d 50f3 81bb 46c7 083d

fc.weight f4 [1, 65]
0.12044747 0.110168904 -0.063019305 0.07264721 0.07511275 0.104182445 -0.09675243 0.033893246
0.016559763 0.053400986 0.035686415 0.08795932 -0.057896137 -0.018691333 -0.13875987 0.10354784
-0.1427281 0.050997395 -0.113701016 0.04830952 -0.09604939 0.09853157 -0.13091756 0.08603712
-0.078750014 -0.12856494 -0.035825033 -0.0848321 0.09141408 0.1273006 0.048852716 -0.02923481
0.014484315 -0.09367582 -0.0670648 0.13587154 0.10986961 0.0015045862 0.086383194 0.09250723
-0.11716184 -0.08543127 -0.084081754 0.053359866 -0.05968056 -0.016943345 0.12299479 -0.09399068
0.026902266 -0.077423155 0.1530919 0.002064343 -0.053620983 0.025112664 0.056288995 -0.01046908
-0.115507536 -0.056600694 -0.016144635 -0.10798008 -0.051190794 0.0420337 -0.069512166 0.09813501
-0.07832668
00000000: 2aad f63d 3ca0 e13d 4410 81bd 0fc8 943d
00000010: b7d4 993d 9b5d d53d 2326 c6bd a5d3 0a3d
00000020: 57a8 873c feba 5a3d eb2b 123d 0424 b43d
00000030: 8024 6dbd 911e 99bc 1117 0ebe e410 d43d
00000040: 5127 12be a5e2 503d 14dc e8bd 34e0 453d
00000050: 8bb5 c4bd ebca c93d 410f 06be 3b34 b03d
00000060: b047 a1bd 87a6 03be 45bd 12bd 74bc adbd
00000070: 4e37 bb3d 175b 023e c919 483d d77d efbc
00000080: 9f4f 6d3c 1cd9 bfbd 4559 89bd e921 0b3e
00000090: 5103 e13d 8935 c53a ace9 b03d 6e74 bd3d
000000a0: 8cf2 efbd 97f6 aebd 0e33 acbd e08f 5a3d
000000b0: 9a73 74bd c5cc 8abc b1e4 fb3d 307e c0bd
000000c0: 2462 dc3c 0890 9ebd 1fc4 1c3e ee49 073b
000000d0: ada1 5bbd 13b9 cd3c 4a8f 663d 8186 2bbc
000000e0: 378f ecbd 21d6 67bd c141 84bc a924 ddbd
000000f0: 70ad 51bd 872b 2c3d 655c 8ebd 02fb c83d
00000100: bd69 a0bd
