Cheyi Wu/FinalProject/LSTM/NVDA/stock_lstm_model.pth (torch, 23975 bytes, 9 tensors)

lstm.weight_ih_l0 f4 [80, 7]
000000 ee 92 7e 3e 18 8b f9 3e 13 ab c0 3e dd 6c e9 3e
       0.24860737 0.48738933 0.3763052 0.4559087
000010 ec 46 a7 3e 43 4c 0a 3d c0 fb 32 3e b4 8c 44 3e
       0.32671297 0.033764135 0.17478848 0.19194299
000020 45 69 e0 3e df 34 9b 3e ec 9a 83 3e 9a c0 38 bd
       0.43830314 0.30313775 0.25704134 -0.045105554
000030 61 51 f2 3d 0b ad cf bd ba dd b8 bc 5b 5c ab 3d
       0.11831928 -0.10140427 -0.022566665 0.08367225
000040 d5 45 b7 3e 74 2d 87 3e f8 a6 70 3e 1a 07 31 3d
       0.35795465 0.26401865 0.23501194 0.043219663
000050 2c 86 3b 3d f5 1d 82 3e 70 4f 9c 3e b9 31 d2 3e
       0.045782253 0.2541348 0.30529356 0.4105356
000060 53 b8 42 3e 5a e2 14 3d ee d6 2e 3c ae 0c 4d bd
       0.19015627 0.03634868 0.01067136 -0.05006092
000070 9a 99 73 3f 67 e3 3c 3f b1 b2 47 3f 3e 2f 44 3f
       0.9515625 0.7378449 0.78007036 0.76634586
000080 35 72 8f be 32 13 9c bb 78 cb d7 be 28 51 5f 3f
       -0.2801682 -0.0047630304 -0.42147422 0.8723321
000090 7c ff 54 3f bb 47 5a 3f f2 1f 3d 3f b0 d0 81 bc
       0.8320234 0.852657 0.7387687 -0.01584658
0000a0 3a 0b 14 3f b4 ab 20 be 53 1b 5a 3e 80 cc 01 3f
       0.5782963 -0.156905 0.21299486 0.5070267
0000b0 25 ae 39 3e a2 39 f0 3e 1d b4 95 3e f8 26 8f 3d
       0.18132837 0.4691897 0.29238978 0.069898546
0000c0 fd f9 38 bd 49 1e 88 3e 2d c4 27 3f 15 a8 fc 3e
       -0.045160282 0.26585606 0.65533715 0.49346986
0000d0 4d 57 29 3f 12 dc 97 3e 0c c2 70 3d f4 34 bb 3e
       0.66148835 0.29660088 0.058778808 0.36563838
0000e0 f3 a4 14 3f 7a e5 39 3f d1 e3 49 3f 00 ca 3c 3f
       0.5806419 0.7261578 0.78863245 0.7374573
0000f0 a4 7a 7f bc 90 49 22 3e cb be bf be 88 f4 e7 3e
       -0.015593205 0.15848374 -0.3745025 0.4530375
000100 e1 65 8a 3e 8a 68 89 3e 58 ba e4 3e a3 75 91 3d
       0.27030852 0.2683757 0.4467342 0.071025155
000110 73 e3 48 3e 97 42 04 be 6b 65 19 3f 5f 56 1c 3f
       0.19618015 -0.12916027 0.59920377 0.6106929
000120 e5 43 11 3f 77 d7 e9 3e 3f f1 c8 3c a7 2d b9 3e
       0.56744224 0.456722 0.024529098 0.36167642
000130 43 df 86 be 46 ce 00 3f 26 a3 48 3f 21 32 3b 3f
       -0.2634221 0.5031475 0.78373945 0.73123366
000140 67 45 17 3f f1 41 b2 be c6 9f 86 3e de f5 a0 be
       0.59090275 -0.34815934 0.26293772 -0.31437582
000150 07 35 1c 3d 24 49 c5 3d ad af 15 3e 31 96 9d 3e
       0.03813651 0.09633091 0.14617796 0.3077865
000160 0e ba 4c 3e e5 03 6b 3e 37 f6 92 3e 88 17 28 3f
       0.19992849 0.22950704 0.28703472 0.65660906
000170 1e e2 50 3f f3 72 27 3f d4 82 58 3f c5 1e 58 be
       0.8159503 0.65409774 0.8457463 -0.21105488
000180 d7 b5 97 3e 27 e6 d3 be ac 91 2a 3f 4e 1c f9 3e
       0.2963092 -0.4138653 0.6662853 0.48654407
000190 c8 dc 01 3f fa 2b 08 3f 5d 84 30 be 25 72 9a 3e
       0.5072751 0.531921 -0.17237993 0.3016521
0001a0 ce 1b e9 be a3 e3 07 3f ae 7a 0a 3f a5 15 9c 3e
       -0.45529026 0.5308172 0.54093444 0.30485263
0001b0 a4 1d d6 3e ed a3 ca 3d d0 2c 10 bd b5 85 27 3d
       0.4181949 0.098945476 -0.035198987 0.040898997
0001c0 3a 71 df 3e 40 96 a6 3e e0 b8 d8 3e 78 e4 b4 3e
       0.43641073 0.32536507 0.42328548 0.35330558
0001d0 0f 0c 9d 3e 20 ad e5 3e 39 1b e5 3c d5 a2 97 3e
       0.30673262 0.44858646 0.027967082 0.29616418
0001e0 57 5f bb 3e 0d 91 b1 3e e8 13 c0 3e c3 f6 dd 3d
       0.36596176 0.34680977 0.37515187 0.10838082
0001f0 d7 c2 66 3e e4 23 8b be 2a 12 5c 3f 9a dc 5b 3f
       0.22535263 -0.2717582 0.85965216 0.85883486
000200 90 c8 60 3f 73 1c 5b 3f e2 61 55 be c2 47 de 3e
       0.87806034 0.85590285 -0.2083812 0.43414122
000210 b4 ae 02 bf d8 13 c6 3e 96 53 44 3e 28 eb 1a 3e
       -0.51047826 0.38687015 0.1917251 0.15128767
000220 35 ba 9e 3e e7 ad 7e 3e 0a 80 b6 bb 8a 01 ac bc
       0.3100144 0.24871026 -0.0055694627 -0.020996828
000230 a4 a7 b1 3e 2a a1 24 3f 37 7c aa 3e f1 c4 ee 3e
       0.34698212 0.64308417 0.33297893 0.4663463
000240 95 24 2e bd eb 8b 16 3e c7 33 96 3d 1b 36 f6 3e
       -0.042515356 0.14701812 0.073340945 0.48088154
000250 8b 08 9a 3e 08 9e 8c 3e fb 10 f9 3e d6 ab 98 be
       0.30084643 0.27464318 0.48645768 -0.298186
000260 0f 60 16 bb c9 96 4d be 58 9e 90 3e f3 15 ea 3c
       -0.002294544 -0.20077051 0.28245807 0.02857492
000270 73 c1 7b bd 96 80 bf 3e 93 2d a9 3e e1 4c 71 3d
       -0.061463784 0.3740279 0.33042583 0.058911208
000280 b2 f8 01 3d 1f c7 82 3d 34 d0 c3 3e 18 38 fe 3d
       0.031731315 0.063856356 0.38244784 0.12413043
000290 11 56 97 3d 0b af 63 bc e4 c3 55 3d 1b aa 12 be
       0.07389463 -0.013896714 0.05218877 -0.14322703
0002a0 19 57 1a 3f a3 58 21 3f be 2b 5c 3f 15 d6 33 3f
       0.6028915 0.63025874 0.86004245 0.7024854
0002b0 ad d6 20 be 16 2d 73 3e bd e8 9b be d6 18 03 3f
       -0.15706892 0.23747668 -0.30451003 0.5120977
0002c0 00 c1 00 3f 81 9f 62 3f 78 8f 16 3f 1b 38 81 bd
       0.50294495 0.88524634 0.58812666 -0.063095294
0002d0 49 89 ff 3e d9 ea d3 be 43 bc fa 3e fa 8d 01 3f
       0.49909428 -0.41390112 0.48971757 0.50607264
0002e0 43 9a 90 3e a2 a1 d4 3e 3b 92 21 bc 68 c7 88 3d
       0.28242692 0.41529566 -0.009861524 0.06678659
0002f0 49 c2 36 be ef 5c 11 3f ce f7 82 3e a0 3a 86 3e
       -0.17847551 0.5678243 0.25579685 0.26216602
000300 3d ec b9 3e 81 1a 63 3e aa 99 1a 3d a9 9b c0 3e
       0.36313048 0.22178079 0.0377442 0.3761876
000310 d9 29 db 3e 47 00 35 3f 34 c6 08 3f 3a da 1c 3f
       0.42805365 0.7070355 0.53427434 0.6127049
000320 27 5e 1e be 57 3c bc 3e 33 ac e0 be c3 aa 3b 3e
       -0.15465604 0.36764786 -0.43881378 0.18326859
000330 16 52 f6 3d d9 56 d3 3e 98 c6 3f 3e 47 70 9e 3e
       0.120273754 0.41277197 0.18728101 0.30945036
000340 0b b6 cd 3d d2 49 08 3e 31 de 13 3f 7b b3 1f 3f
       0.100444876 0.1330941 0.5776091 0.6238324
000350 1f 71 44 3f c9 01 3c 3f 6d d8 2f 3d 22 73 13 3e
       0.7673511 0.73440224 0.04293101 0.14399388
000360 25 91 0b be 43 43 1a 3f 6b 62 11 3f 2d 13 43 3f
       -0.13629587 0.60258883 0.567908 0.76201135
000370 c5 b0 2d 3f dc aa 71 be 53 15 2b 3d 48 eb ee be
       0.67847854 -0.23600334 0.041768383 -0.4666388
000380 93 ca af 3d c4 6f cf 3e b4 ba 9e 3e 77 57 8c 3e
       0.0858356 0.40514958 0.31001818 0.2741048
000390 23 e0 83 be 60 2e db 3d 3e 27 a7 3e 13 5d 27 3f
       -0.2575694 0.10702205 0.32647127 0.65376395
0003a0 92 84 17 3f 54 bb 5c 3f e9 0f 4a 3f 17 32 06 bf
       0.5918666 0.8622334 0.78930527 -0.5242018
0003b0 7d eb c6 3e 99 b3 75 be 09 22 04 3f 60 a1 33 3f
       0.38851538 -0.23994292 0.51614434 0.70168114
0003c0 1c b3 19 3f 94 fb 3e 3f 57 b2 c5 be 3e 28 03 bd
       0.60038924 0.7460263 -0.38612625 -0.0320208
0003d0 6c d0 c8 be 4b 57 21 3f b7 a7 3a 3f 03 c4 e5 3e
       -0.39221513 0.63023823 0.7291216 0.44876108
0003e0 ed 9b 22 3f b7 1a 4e 3c ba c7 43 3a 4d 6e bf be
       0.63519174 0.0125796115 0.0007468421 -0.3738884
0003f0 81 29 fa 3e a6 2c da 3e b3 a0 32 3f e2 26 bd 3e
       0.4885979 0.4261219 0.6977646 0.36943728

lstm.weight_hh_l0 f4 [80, 20]
000000 02 7a ad 3e eb 93 e3 3c 11 ae b1 3d bb c5 bc 3d
       0.33882147 0.027780494 0.08675779 0.092174016
000010 c0 e5 6c be 9f b6 8b bd a4 c0 61 3e 20 01 0d be
       -0.23134518 -0.068219416 0.22046143 -0.1376996
000020 03 ac 5f 3d c2 83 54 3d 7f ef 46 bd 89 8a 62 be
       0.054607403 0.051883467 -0.048568245 -0.2212316
000030 ba cd 92 3e b1 de e4 3d e6 80 53 bd 1d 3d 42 bc
       0.28672582 0.111752875 -0.0516366 -0.011855391
000040 f2 3e e0 bc 17 b8 f4 bc c6 c1 71 3e 12 e2 1d 3d
       -0.027373765 -0.029872937 0.23609075 0.038545676
000050 20 20 5d 3d e4 48 d5 bd e7 91 3f bd c7 55 0f 3e
       0.053985715 -0.104142934 -0.046770003 0.13997565
000060 24 12 54 be 9b f0 cf bd 4f b5 08 3e 1b f9 57 3c
       -0.20710045 -0.10153314 0.13350414 0.01318195
000070 7f e9 b9 bd 79 b4 29 bd e2 c5 39 3d 33 01 09 3c
       -0.09077739 -0.041431878 0.04535473 0.008362102
000080 35 bd 87 3c 5f 34 5a bd e5 5c cf bd ad a4 3f 3e
       0.016569713 -0.0532726 -0.1012514 0.18715163
000090 51 cd d6 bc 10 f6 91 3e 8d a7 9e 3e 8e ab e4 3c
       -0.02622095 0.28508043 0.30987206 0.027913835
0000a0 0b 8d bd bd 45 e4 a7 3d 92 b3 fc bd ce b2 2d be
       -0.092554174 0.08197836 -0.12338938 -0.1696274
0000b0 4f e7 b9 3d d9 58 33 3e 41 3f 64 3e c0 8b 46 be
       0.09077322 0.17514361 0.22289754 -0.19389248
0000c0 06 9d 2e 3e 3e 51 ce bc fa 26 23 3d 7a 38 43 bd
       0.17052087 -0.025185224 0.039832093 -0.047661282
0000d0 6b f5 30 bd f3 2d 65 be 87 e8 04 3e 15 8a ae 3c
       -0.0432028 -0.2238081 0.12979327 0.021306077
0000e0 c6 32 90 3e d8 b3 4a 3e 08 8f 4f 3d 91 be 1d be
       0.28163737 0.19795167 0.050673515 -0.15404727
0000f0 9a 84 96 3d 6d 12 94 3d c2 1f 33 3d e9 c2 81 3c
       0.073495105 0.07230077 0.04373146 0.01584001
000100 36 93 08 be b3 41 7f bc 70 86 f3 3d b1 ae f5 3d
       -0.13337407 -0.015579629 0.11890876 0.1199621
000110 6e 2b 99 3e 33 12 e2 bd 96 79 be 3e 66 1d 03 be
       0.29915947 -0.110386275 0.37202138 -0.12804183
000120 93 33 92 3e ad 79 28 be 87 66 48 be 3f e3 e1 3d
       0.28554973 -0.16452666 -0.19570361 0.11029672
000130 4d b6 a0 3e 5b ad 90 3d a9 8c a3 3d 10 00 0d 3e
       0.31389084 0.07064315 0.07985813 0.13769555
000140 96 c9 06 3d 19 c2 8b bd c5 c7 87 bc b8 a6 63 3e
       0.03290709 -0.068241306 -0.01657475 0.22231567
000150 26 99 74 3c 37 4a fc 3d 5d 99 a2 bd 59 b8 13 3c
       0.014929092 0.12318843 -0.07939408 0.00901612
000160 0b b1 2c be 18 8b 1e be a1 fd a0 3d f5 6a 0b be
       -0.16864412 -0.15482748 0.07860876 -0.1361502
000170 54 7a 68 be 48 24 11 3e 41 0e 5b bd c3 c6 b8 3d
       -0.22702914 0.14173996 -0.05348039 0.09022286
000180 ca 84 0d be 14 bc 5b be 59 79 b9 3e b0 c2 cc bd
       -0.13820186 -0.21458465 0.36225393 -0.09998071
000190 1e 1b e9 bd c9 af 27 3e 1e 29 e6 3d 1a ea c1 3d
       -0.11382125 0.1637565 0.11238311 0.094684795
0001a0 8f 81 8a bc 6a 1d 22 be 3d b7 28 3c 9f 5a 27 be
       -0.016907481 -0.15831533 0.010297594 -0.16343163
0001b0 b1 44 cd 3d 48 ec 0d 3e dc cb 3c bd 93 0b 20 3e
       0.100228675 0.13859665 -0.046092853 0.15629415
0001c0 58 e6 e8 3d dc 7a 2f 3e 9c 04 a5 3d 28 fe 25 bd
       0.113720596 0.17136711 0.0805752 -0.040525585
0001d0 a8 24 db bd 3d 31 bd 3d b1 08 58 3d a8 ce 6a be
       -0.10700351 0.09237907 0.052742664 -0.22930396
0001e0 38 dd 33 bd 03 77 44 3e 5e e4 d5 bd 57 27 26 3e
       -0.043912143 0.19186024 -0.10443948 0.16225944
0001f0 5e 2d c9 ba bf e6 ac bd 18 95 03 be 59 ec 3f be
       -0.0015348603 -0.08442449 -0.12849844 -0.18742503
000200 85 d5 83 3d 0f e8 2e be d8 93 a1 3c a9 ad 13 be
       0.0643721 -0.17080711 0.019723818 -0.14421715
000210 66 f7 8a bb af 7a c4 3d 28 3a e4 3d 6b 6c d9 3e
       -0.004240918 0.095937125 0.11143905 0.4246553
000220 9c e6 29 be 28 84 f8 3d d7 9d 93 3c c2 ed 0f be
       -0.16591877 0.12134582 0.0180196 -0.14055541
000230 60 88 26 3e 2f f0 25 be 97 0e 3e 3d a5 48 7e bd
       0.1626296 -0.16204904 0.046400633 -0.062080998
000240 8d 2c 82 bd ab 71 dd bd c7 25 c5 3d 36 cd 77 be
       -0.06356154 -0.10812696 0.09626346 -0.24199376
000250 f4 3d 81 3a 76 9a 08 3e 28 22 14 3e 39 3b 75 be
       0.0009860382 0.13340172 0.14466155 -0.23948373
000260 7d c8 cf 3d b1 f2 6a 3d 4e 73 bb be e5 cd 60 3e
       0.10145662 0.057360355 -0.36611408 0.21953543
000270 ed ee 2a 3e 94 05 ef 3d 74 cd d3 3d 37 b1 65 3d
       0.16692705 0.11670986 0.103419214 0.05607721
000280 5b d5 11 be a3 1b cd 3d a7 09 0d 3e 1d 18 24 bd
       -0.14241545 0.10015037 0.13773213 -0.04006206
000290 23 69 f5 3c 3a 97 53 3e 38 f9 da 3d b4 ff 5e 3e
       0.02995736 0.20663157 0.10692066 0.2177723
0002a0 bb cf e9 bd 8a f5 0d be 19 23 4a be 41 b0 59 be
       -0.114165746 -0.13863197 -0.19739951 -0.21258642
0002b0 ce f7 59 3e b9 15 61 3e d0 3c 15 be aa 35 45 3e
       0.21285936 0.21980943 -0.1457398 0.19258752
0002c0 23 c6 23 be 38 ab e6 bd e2 8f 4e 3e 5d 90 d4 3d
       -0.15993552 -0.11263126 0.20172074 0.103790976
0002d0 99 69 4a 3d ce 5c 57 bb 2c 81 57 3d 00 75 22 3e
       0.049417112 -0.0032861712 0.052613422 0.15864944
0002e0 9b 97 18 3e 58 7e d8 bd 01 78 61 3e d3 73 86 3d
       0.14901583 -0.10570973 0.22018434 0.065650605
0002f0 28 01 a8 3c 65 f8 19 be d0 6e b7 bd a6 66 5f 3d
       0.020508364 -0.15036161 -0.08956683 0.054541253
000300 ef c7 24 3e 8e c7 b9 3d f3 4e 83 be 99 40 d0 3e
       0.16091894 0.09071265 -0.2564617 0.40674284
000310 52 77 01 be 4e f8 93 3e 87 f6 57 3e 93 a0 24 3e
       -0.12643173 0.2890038 0.21090136 0.16076879
000320 63 e0 3d 3e a1 4f fa bd 65 6b 3d be 3a 67 f5 3c
       0.18542628 -0.12222219 -0.18497999 0.029956449
000330 0d ec 11 be 00 4a 95 3d 0a 9f 30 3e 0d d8 29 3e
       -0.14250202 0.07289505 0.17248169 0.16586323
000340 20 39 74 3d 02 33 52 3e ee e7 58 bd 17 41 3e bc
       0.05962479 0.2052727 -0.05295556 -0.011612198
000350 6e 19 84 3e 2d 20 8e 3d df b2 86 be 41 76 59 3e
       0.2580065 0.06939731 -0.26308343 0.21236517
000360 c3 36 45 3e 0e db cc bd 0a 3b 9f 3e 05 43 f4 bd
       0.19259171 -0.10002719 0.3109973 -0.119268455
000370 93 5c 5a 3e 7c b4 4e 3e 32 da 37 3e 4e 6b ce 3d
       0.21324377 0.20186037 0.17954329 0.100790605
000380 28 d5 85 bd 3a 5c 06 3e 6d 64 c0 3c 49 97 b1 3d
       -0.06534797 0.13121119 0.023485387 0.086714335
000390 51 cb 1c be c4 27 12 3d b5 be bc 3c 91 90 51 be
       -0.15311934 0.035682455 0.023040155 -0.20465304
0003a0 18 de 6b 3e 0b fa cc bd 8a 45 70 bd 66 21 8e 3e
       0.23033941 -0.100086294 -0.058660068 0.27759856
0003b0 ed d1 80 be 5c 8e 15 3e f1 95 83 3e b8 d4 91 bd
       -0.2516016 0.14605087 0.25700334 -0.07120651
0003c0 ab 72 23 be 35 3c df bd 3c ef 05 3e 05 5c 17 bd
       -0.15961711 -0.109001555 0.13079542 -0.03695299
0003d0 6e ac 0e 3e 9a 45 7f 3d 47 b3 12 3e cc 9e da 3d
       0.13932964 0.062322237 0.14326201 0.10674819
0003e0 da 44 13 3e d7 dd 85 3e a0 c7 05 be 6a e5 2b be
       0.14381734 0.26145813 -0.13064432 -0.16786733
0003f0 1f ee 1e 3e 41 99 4e 3e 01 a3 16 bd 61 69 be 3e
       0.15520523 0.20175649 -0.036776546 0.37189773

lstm.bias_ih_l0 f4 [80]
000000 ca 5b 78 3e 95 cb cd 3d f9 0f 30 3e 41 90 8d bd
       0.24253765 0.10048596 0.17193593 -0.0691228
000010 f5 a7 c8 3d e7 fe 20 3e 87 fe df bd 8b b7 2e be
       0.0979766 0.15722238 -0.10937219 -0.17062204
000020 e6 12 f9 3d c8 4d 27 3e d4 1c ee bd 4f 3b 90 bc
       0.12161808 0.16338265 -0.11626592 -0.017606406
000030 5c 98 34 be d7 02 a5 bc 70 73 ea bd 11 5a 7f 3e
       -0.17636245 -0.020142956 -0.11447799 0.24936701
000040 c8 bd c7 bb 59 0a 52 3e df 01 98 bd 84 eb f5 3d
       -0.0060956217 0.2051176 -0.07422232 0.12007812
000050 23 7f 00 be 7d 4a 40 be dc 81 0d be 92 5a 7b bb
       -0.12548499 -0.18778415 -0.13819069 -0.0038353545
000060 28 c5 53 be d5 a4 5c be 45 63 e2 3c 1c cb 6b 3e
       -0.20680678 -0.21547253 0.027635226 0.23026699
000070 01 1c 40 3d 6e b4 35 3e bc fb 23 be d1 3c 7b bd
       0.046901707 0.1774461 -0.16013998 -0.061337296
000080 fe 32 3a 3e b1 86 4f be 0c fa fa 3d 5d d6 b8 bd
       0.18183514 -0.20266224 0.12254724 -0.090252616
000090 38 89 90 3e 08 e9 28 3d b8 a3 b9 3d b8 ec 33 3d
       0.2822969 0.04123786 0.0906443 0.043926924
0000a0 84 82 5a 3e 93 66 a8 bd 60 60 eb bd d5 f9 b3 3d
       0.2133885 -0.082226895 -0.114929914 0.08787886
0000b0 40 be a7 bd a8 80 12 3d ae 54 18 3d a0 68 8a bd
       -0.08190584 0.035767227 0.03719013 -0.06758237
0000c0 3e a5 fa bd 3f 50 0d 3e 39 09 d3 bd 4d d0 d1 bd
       -0.12238549 0.13800143 -0.103044935 -0.10244808
0000d0 95 da 67 be 4e d8 94 bb 54 81 aa bd a7 a6 20 bd
       -0.22641976 -0.004542387 -0.08325449 -0.039221432
0000e0 64 b9 6d bd a1 d9 a7 be 35 fb 20 3d 1d e9 9f 3d
       -0.05803813 -0.32783225 0.03930207 0.07808135
0000f0 fc 42 28 be ca 8c 59 3e 6d ea 14 3e 60 28 c8 bd
       -0.16431803 0.21245113 0.14542551 -0.09773326
000100 b3 cc 1d 3e f8 cf 5f 3e a9 3a fc bd 4b 27 42 be
       0.15410118 0.21856678 -0.12315876 -0.18960302
000110 49 97 d1 3d 55 68 95 3c 36 cd 2e 3e 4a bf 7a 3c
       0.102339335 0.018238226 0.1707047 0.015304396
000120 37 fe 46 be 22 48 7e 3e cd ff ca 3d a9 ad 79 3e
       -0.19432913 0.24832204 0.099120714 0.24382652
000130 3d 67 cb 3c 18 16 c1 bd 23 f4 6d 3e 95 d3 db 3c
       0.024829501 -0.09428042 0.23237662 0.026834289

lstm.bias_hh_l0 f4 [80]
000000 a0 bb 57 3d 1c 1f 56 3c a1 66 30 3e fe 98 c1 3d
       0.052669168 0.0130689405 0.1722665 0.09453009
000010 19 62 1a be 8c 73 b1 bd 2a 29 00 3e fa 22 7c 3e
       -0.15076484 -0.08664617 0.12515703 0.24622717
000020 47 91 24 be bc 71 fe bd 05 98 8a 3c bb 99 ef 3d
       -0.16071044 -0.12424037 0.016918192 0.11699244
000030 3e ec 56 3e e1 e6 48 bd 08 22 42 be 4a ee 22 3d
       0.20988557 -0.04904831 -0.18958294 0.03977803
000040 6f 59 1d 3e 7a 85 16 3d 18 66 0d b9 b6 2f 42 3e
       0.15366147 0.036748387 -0.00013484841 0.18963513
000050 92 b9 2f 3e 54 aa 94 bc 7d ea 06 3e f5 10 56 3c
       0.17160633 -0.018147625 0.13175388 0.013065566
000060 dd 5f d8 3d c6 48 8a bd 06 61 7c 3d 1b 19 1d 3e
       0.105651595 -0.06752162 0.061615966 0.15341608
000070 33 e6 0d 3e 29 4b 72 bd 7f 04 82 bd 0d 66 03 3e
       0.13857345 -0.05915371 -0.06348514 0.12831898
000080 1e 1e c1 3d e2 3d a0 be f3 41 96 be 70 4a 12 be
       0.094295725 -0.31297213 -0.2934719 -0.14286208
000090 fe 8c 8d 3e 71 e0 01 be 7f 37 86 bd 5a 82 18 bd
       0.2764663 -0.12683274 -0.06553554 -0.037233688
0000a0 27 9f 3a 3d b4 6f 1e bd 14 fe cc 3d cc e7 4d bd
       0.045561936 -0.038680747 0.10009399 -0.050269887
0000b0 0e 48 a8 3c fb 86 cd 3c 0b 26 93 3c cd 9c 0c bb
       0.02054217 0.025088778 0.017962476 -0.0021455765
0000c0 c9 3d d8 bc 3f 53 db 3d 58 9d 08 be 18 8d f9 3c
       -0.026396649 0.10709237 -0.13341272 0.030462787
0000d0 c7 68 75 3c 34 53 80 3c 61 ff a6 3e 51 17 bc bd
       0.014978594 0.015664674 0.32616714 -0.09184135
0000e0 8f ee 07 3e c6 7a 58 3d 3a 3e b8 bd 8b a3 74 3e
       0.13274597 0.05285146 -0.08996244 0.23890512
0000f0 1d 77 78 be 1b a0 07 3e 1c b0 5c 3e 51 34 22 bd
       -0.24264188 0.13244669 0.21551555 -0.039600674
000100 ae 88 c6 3d 0e 56 35 3e 2c 89 4d be d1 aa 15 3e
       0.09694038 0.17708609 -0.20071858 0.14615943
000110 dc 82 8a 3e 0a c6 a7 3d c8 96 c0 bc 68 61 8a 3d
       0.27052963 0.0819207 -0.023509398 0.0675686
000120 15 cc 27 be 8d e2 22 be e7 c3 41 3d c4 37 07 bd
       -0.16386445 -0.15906735 0.047305968 -0.033012167
000130 29 c9 46 be cb bd 9f bd 6f fc 8c bd 25 8a 0e 3e
       -0.19412674 -0.07799872 -0.068840854 0.13919885

fc1.weight f4 [32, 20]
000000 8c dd e3 3e f0 9b 8e be 52 4d ae be 45 b7 e6 be
       0.44504964 -0.27853346 -0.34043366 -0.450617
000010 44 f0 00 bf 62 10 e0 3d ef cb 68 3e 12 eb bf be
       -0.50366616 0.10940625 0.22734044 -0.37484032
000020 66 e6 4d 3e 18 dd 26 3e a3 3d d0 3e 6e 09 5e be
       0.20107421 0.16295278 0.40672025 -0.21683285
000030 5e e7 c7 3e e2 9c b7 be d2 18 02 bf 7c 55 8e 3e
       0.39043707 -0.3586188 -0.5081912 0.27799594
000040 29 4a e7 3e 34 2f ad 3e 63 88 94 3e 0b a0 e2 3e
       0.45173767 0.33825076 0.29010305 0.44262728
000050 7d a7 da 3e c0 44 ef be f4 87 07 bf 54 4b d1 be
       0.42705908 -0.4673214 -0.52941823 -0.40877783
000060 43 5f cc be de c0 0e 3f 9e c7 0e 3e 7b 8d 86 be
       -0.3991643 0.5576304 0.13943335 -0.26279816
000070 40 bd 6e 3e be 65 08 3f e2 f6 be 3e 66 4c e7 be
       0.2331438 0.53280246 0.37297732 -0.45175475
000080 9e fe 82 3e d8 b4 ab be a9 44 de be 67 73 4c 3e
       0.25584882 -0.3353641 -0.4341176 0.19965898
000090 d6 00 0b 3f 97 22 c8 3e 1e 7a 41 3e 0a c4 a7 3e
       0.5429815 0.3908889 0.1889424 0.32766753
0000a0 ff d8 bf 3e fe 98 c9 be 76 71 6a be f7 83 b3 be
       0.37470242 -0.39374536 -0.22894844 -0.3506162
0000b0 d5 11 a0 be a0 aa 4c 3e b9 1b 95 3e 9d 2a e0 be
       -0.31263605 0.19986963 0.29122713 -0.4378251
0000c0 f8 19 02 3f 6b dd 28 3e e4 cf 8b 3e 9c ef 0a bf
       0.50820875 0.16490714 0.27307045 -0.54271865
0000d0 e9 27 85 3e bf 32 fa be 51 dc ae be de 43 c9 3e
       0.26007012 -0.4886684 -0.34152463 0.3930959
0000e0 1d b1 95 3e 1b 8a 02 3f f0 d0 a0 3e 8f 0c b5 3e
       0.2923669 0.5099198 0.31409407 0.35361144
0000f0 70 7d a5 3e 99 4c 8c be 27 f5 5a be 4a 24 b8 be
       0.32322264 -0.2740219 -0.2138258 -0.35965186
000100 db ee b2 be 49 f7 bf 3e 16 13 36 3e d4 b5 8d be
       -0.34947857 0.3749335 0.17780718 -0.27677786
000110 98 e7 97 3e 96 93 26 3e 67 90 9c 3e 18 fd e9 be
       0.2966888 0.16267237 0.3057892 -0.45700908
000120 6a 1a 55 3e 54 d7 dd be 8b ca 78 be 28 9d 95 3e
       0.20810857 -0.43328345 -0.24296014 0.29221463
000130 90 2c 86 3e 72 49 99 3e 36 4a d6 3e ed 5b 8f 3e
       0.26205873 0.29938847 0.41853493 0.2799982
000140 b7 79 05 3f a1 85 44 be b1 fd 01 be 99 c9 d2 be
       0.5213885 -0.191916 -0.12694432 -0.41169432
000150 8a 9e e6 be c3 eb fa 3e 58 20 cd 3e a1 e6 08 be
       -0.4504283 0.49007997 0.4006374 -0.13369228
000160 c7 17 36 3e eb a0 9d 3e ab d6 83 3e 3c 5b e8 be
       0.17782508 0.30786833 0.25749716 -0.45382106
000170 fa da dd 3e 26 72 5b be 24 5f d6 be d3 5c 7b 3e
       0.43331128 -0.21430263 -0.41869462 0.24547128
000180 d1 5b 62 3e 58 7e bf 3e 48 18 32 3e e2 97 c9 3e
       0.22105338 0.3740108 0.17392075 0.3937369
000190 1f 0c 05 3f 86 0d 0d bf 71 0b 42 be 59 f4 ea be
       0.5197162 -0.5509876 -0.18949677 -0.45889547
0001a0 57 b5 07 bf 8c 15 cc 3e 0d b5 52 3e f7 d5 31 be
       -0.5301108 0.3986019 0.20576878 -0.17366777
0001b0 a9 ff 8f 3e c1 4d b1 3e 95 b6 a2 3e 3f 23 81 be
       0.2812474 0.34629634 0.31779924 -0.25222203
0001c0 fe b2 09 3f 16 d8 e2 be 1a ed 90 be 1b 1b 03 3f
       0.53788745 -0.44305485 -0.28305894 0.51213235
0001d0 77 fb fe 3e 3d fa c2 3e 4f cc 1b 3f 83 3d e2 3e
       0.49801227 0.38081542 0.60858625 0.44187555
0001e0 89 84 49 3e 4a 08 b2 be ee 3e 06 bf fa 73 58 be
       0.19679464 -0.3477195 -0.52439773 -0.21137992
0001f0 da 7b 00 bf da 07 e1 3e 0b a5 04 3f 3b 95 06 be
       -0.5018898 0.43951303 0.51814336 -0.13142864
000200 50 24 04 3f c0 b5 dd 3e 8b 76 af 3e a9 9e f8 be
       0.5161791 0.43302727 0.3427013 -0.48558548
000210 c8 44 91 3e a7 ab 39 be 20 5a 8d be 47 ff f1 3e
       0.28372788 -0.18131886 -0.27607822 0.47265074
000220 fb c9 b7 3e 44 2e e0 3e e2 85 50 3e 95 8c ad 3e
       0.35896286 0.43785298 0.20363572 0.33896318
000230 88 4a 30 3e 16 2b 07 bf c2 8c 68 be f2 88 07 bf
       0.17215931 -0.5280012 -0.22709945 -0.52943337
000240 31 4c 6d be 6f cb 11 3f e7 35 aa 3e 89 1c e9 be
       -0.23173596 0.5695104 0.3324425 -0.45529583
000250 e7 ea 49 3e 17 87 0d 3f e4 b9 04 3f 82 e9 af be
       0.19718514 0.55284256 0.51846147 -0.3435784
000260 1c a5 07 3f 9c 53 a1 be 00 5d 9b be 0c 4a ab 3e
       0.5298631 -0.315091 -0.3034439 0.3345493
000270 10 0a a2 3e ca 4f e7 3e 85 23 99 3e 05 2a 6c 3e
       0.31648302 0.45178062 0.29909912 0.23062904
000280 6c 3c e8 3e 9a 6f f0 be b7 c4 d7 be 25 52 94 be
       0.45358598 -0.46960145 -0.4214227 -0.2896892
000290 6f 19 88 be 6f e4 13 3f d9 e0 02 3f 66 7d ca be
       -0.26581904 0.57770437 0.5112434 -0.39548796
0002a0 0b 72 d7 3e 33 96 ab 3e 6c be be 3e 41 26 29 be
       0.42079195 0.3351303 0.37254655 -0.16518499
0002b0 bb 2a 32 3e 90 af 6e be 8d c9 09 be 51 31 ef 3e
       0.17399113 -0.2330916 -0.13455792 0.46717313
0002c0 17 4c 09 3f 5f 1a 71 3e e2 67 16 3f 13 d3 03 3e
       0.5363173 0.23545216 0.5875226 0.12873487
0002d0 a9 c2 2c be 84 ce 1f 3e ae 61 4a bd e5 dc 30 3d
       -0.16871132 0.15606123 -0.04940956 0.04317941
0002e0 5e e7 9b bd d2 bc 81 bd f7 c8 da bc 15 48 43 be
       -0.07612489 -0.06334843 -0.026707156 -0.19070466
0002f0 77 2b 29 3e 5d 74 13 be 86 bc e9 bd 54 f8 0b be
       0.16520487 -0.14399858 -0.11412911 -0.13668948
000300 13 e9 93 bd e4 5a 40 be da 62 26 be f5 b9 2c 3d
       -0.0722219 -0.18784672 -0.16248646 0.04216953
000310 50 da 70 be 72 fe 0d be 9a 36 76 bc 37 d2 52 be
       -0.2352078 -0.13866594 -0.015027666 -0.20588003
000320 d9 72 03 3f e5 2a 92 be 28 66 91 be c2 ea a0 be
       0.5134712 -0.2854835 -0.28398252 -0.31429106
000330 84 7c af be a3 05 f5 3e 76 7d 7b 3e ee 83 42 be
       -0.34274685 0.47855863 0.24559578 -0.1899564
000340 13 e0 c8 3e f5 39 23 3e e9 e8 f4 3e 3b 82 a4 be
       0.39233455 0.15940078 0.47833946 -0.32130608
000350 da 41 cc 3e 17 0b 8c be 19 de 7b be bb 6e ee 3e
       0.3989399 -0.2735221 -0.24596442 0.46568856
000360 80 85 e7 3e a9 e3 43 3e 33 a4 0a 3f 92 57 aa 3e
       0.4521904 0.19129814 0.541568 0.33269936
000370 60 38 a0 bb bb e4 36 3d 1d 17 9e 3d 72 24 6e 3d
       -0.004889533 0.044651728 0.07719252 0.058140226
000380 37 ef 0c 3e 57 a7 da 3c c2 6c f8 bc 9d cb bd 3d
       0.13763128 0.026691122 -0.030325297 0.09267352
000390 16 91 ff 3d bc a6 d1 3d 22 4f 73 3d 58 20 30 bd
       0.12478845 0.1023688 0.05940164 -0.042999595
0003a0 ca ee 5f 3d e7 58 fe 3c 8f bf 7e 3e 14 e6 08 be
       0.054671086 0.031048251 0.24877761 -0.13369018
0003b0 f9 fb 76 be 36 e7 56 be a4 93 56 bd b1 c8 a2 3d
       -0.24119557 -0.20986637 -0.052386895 0.07948435
0003c0 1b 5e d4 3e 7f 10 0f bf 7d 0f 0e bf c0 e1 b6 be
       0.41478047 -0.55884546 -0.55492383 -0.3571911
0003d0 26 ed 83 be d5 27 c7 3e 4b aa 43 3e 25 f0 30 be
       -0.25766867 0.38897577 0.1910793 -0.17279108
0003e0 7f 3f d8 3e 16 3f fe 3e 7a 75 14 3f 03 ad 15 bf
       0.42235944 0.49657506 0.57991755 -0.5846712
0003f0 9f 07 d7 3e 6b 21 a2 be b2 61 ab be 0a 31 12 3f
       0.41998002 -0.3166612 -0.33472973 0.5710608

fc1.bias f4 [32]
000000 f1 98 eb 3e 11 74 4d 3e 9d b7 c5 3e ec fd 46 3e
       0.46015123 0.20063807 0.38616648 0.19432801
000010 27 1a e7 3e 35 43 8c 3e fd d8 ad 3e f0 60 04 3f
       0.4513714 0.27395025 0.3395461 0.51710415
000020 fe 49 86 3e b0 89 1a bc d2 b6 12 3e 32 ca f6 3c
       0.26228327 -0.009432241 0.14327553 0.030125711
000030 f2 34 97 3e 40 ca 86 bc de d5 6c 3e 01 0a 43 3e
       0.29532582 -0.016453862 0.23128459 0.19046785
000040 26 59 b2 3e 9d 68 01 3f 8d 6c e1 3e aa 3c a7 3e
       0.3483364 0.5055025 0.4402813 0.3266347
000050 81 29 6f 3e 8c 10 75 3e 0c 95 b5 3e eb 95 6a 3e
       0.23355676 0.23932093 0.35465276 0.22908752
000060 5b 7b 86 bc a5 03 f2 3e 4b c8 c9 bd 08 ed 2e 3e
       -0.016416242 0.47268406 -0.09852656 0.17082608
000070 e4 65 73 3e f4 2e 10 3e 75 6e 03 3f 5a 0f 0d bd
       0.23769337 0.14080411 0.5134042 -0.03443847

fc2.weight f4 [64, 32]
000000 5c 93 91 3e c5 38 f0 3e 6b 93 cb 3e 71 47 b7 3e
       0.2843274 0.46918312 0.39760908 0.35796693
000010 f9 87 bf 3e cb a0 c6 3e 81 e9 6e 3e 9d 26 ad 3e
       0.37408426 0.3879455 0.23331262 0.33818522
000020 59 bf 43 3e f6 08 4e 3d ea f3 b8 3e 67 a6 13 3d
       0.19115962 0.050301515 0.36123592 0.036047366
000030 be 41 8f 3e 31 67 05 00 7d 74 a8 3e 6f 2a 1d bd
       0.27979845 4.96196e-40 0.32901374 -0.038370546
000040 5a 40 a5 3e ed 54 d9 3e b1 93 e4 3e 61 ee e4 3e
       0.3227566 0.42447606 0.4464393 0.4471312
000050 75 06 c2 3e 3d ca ad 3e 59 9e ae 3e dc bd c2 3e
       0.3789555 0.33943358 0.34105185 0.38035476
000060 70 a2 80 3c 4b bf c9 3e 48 dd 0c bd d1 56 c6 3e
       0.015702456 0.39403757 -0.034390718 0.3873811
000070 ba a4 aa 3e 53 98 91 3e 58 1b d6 3e 2e 22 f4 3c
       0.333288 0.28436527 0.41817737 0.029801454
000080 7d 1b e3 bd c2 06 a1 3d ea f8 a2 3d 4a 9e 9f bd
       -0.11089227 0.07862617 0.07957633 -0.07793863
000090 ec 9c 11 be a9 82 a8 bd 4d a9 96 bd b3 d7 01 3e
       -0.14220017 -0.082280464 -0.0735651 0.12679939
0000a0 6b 3f 2b bc e2 5f dc bd 6b 50 3e bd 0f 8c fc 3d
       -0.010452132 -0.10760476 -0.04646341 0.123314016
0000b0 d7 7f b9 bc 08 73 05 80 f9 95 d7 3c be 35 9b 3d
       -0.022643967 -5.00443e-40 0.02631663 0.0757861
0000c0 60 98 6a be 52 ac 78 bd 6d 1b 1f 3e c1 dd 38 3b
       -0.22909689 -0.060711212 0.15537806 0.0028208348
0000d0 a7 73 46 3c ba e7 b3 3c 9d 45 9f 3c 66 e5 b3 bd
       0.012112535 0.021961082 0.019442374 -0.08783989
0000e0 65 60 05 80 7d 15 f7 bc b3 3c 8d bc 55 61 3b be
       -4.93757e-40 -0.030161614 -0.017240858 -0.18298848
0000f0 c8 17 03 3d 40 e2 3d be b0 24 81 bd 3c 5e 05 80
       0.0320051 -0.18543339 -0.06305826 -4.92982e-40
000100 80 26 f0 3e 80 52 b2 3e 67 a0 b9 3e d8 80 8e 3e
       0.46904373 0.34828568 0.3625519 0.27832675
000110 ef 4d e1 3e 79 92 de 3e 2a ba d4 3e 25 2a 44 3e
       0.4400477 0.43471125 0.41548282 0.19156702
000120 17 b9 ce 3e 71 09 b2 3d a1 34 6d 3e 62 cc 02 3e
       0.40375587 0.08693207 0.23164608 0.12773278
000130 93 d4 e2 3e a5 67 05 80 06 fa a8 3e 01 83 98 be
       0.44302806 -4.96358e-40 0.33003253 -0.29787448
000140 80 67 69 3e 80 f5 d0 3e be 50 50 3e 3a b2 88 3e
       0.22793388 0.40812302 0.203433 0.26698476
000150 a9 1a eb 3e 46 2a ae 3e b8 dc d0 3e 67 21 ac 3e
       0.45918778 0.34016627 0.40793395 0.33619234
000160 07 3f 46 3c c3 32 af 3e 91 75 f6 bd 4e 9a ba 3e
       0.012099988 0.34218416 -0.12034143 0.3644585
000170 e4 29 ab 3e 53 0a 8a 3e e2 2a d3 3e 4d 8c f4 3c
       0.33430398 0.26961002 0.41243654 0.029852057
000180 8e 8f 7c 3e b2 23 83 3e 9b 73 84 3e a6 39 89 3e
       0.24664137 0.2561317 0.2586945 0.26801795
000190 6d fc 83 3e fc 44 85 3e b1 af 87 3e 73 25 83 3e
       0.25778523 0.26029193 0.2650123 0.2561451
0001a0 07 9f 86 3e cd 6e 05 00 32 d5 8b 3e 23 d4 0f 3c
       0.26293203 4.98925e-40 0.27311093 0.008778605
0001b0 28 0a 89 3e ee 79 05 80 54 06 87 3e 18 6d ad be
       0.2676556 -5.02918e-40 0.26372015 -0.33872294
0001c0 43 08 86 3e 92 90 85 3e bb 99 82 3e 26 4a 82 3e
       0.26178178 0.2608686 0.25507912 0.25447196
0001d0 c5 b2 89 3e 46 e2 82 3e 55 b3 85 3e 0e 7c 83 3e
       0.26894203 0.25563258 0.26113382 0.25680584
0001e0 19 74 05 80 4c f3 82 3e 22 89 05 80 cb 03 87 3e
       -5.00825e-40 0.25576246 -5.08371e-40 0.2637008
0001f0 86 0c 86 3e 1a 89 86 3e d2 98 85 3e cb 60 05 00
       0.2618143 0.26276475 0.26093155 4.939e-40
000200 3e 8e 3b bd 36 41 1f 3d e4 1b a5 3d 05 b2 91 bb
       -0.04578995 0.03888055 0.0806196 -0.0044462704
000210 ac 5d 41 be 57 1e 28 be 21 a7 19 bc fb fb 46 be
       -0.18883389 -0.16417824 -0.009378226 -0.1943206
000220 6f 05 33 bd 6f 08 69 bc 2b 60 05 80 f0 59 85 bd
       -0.043706354 -0.014223202 -4.93676e-40 -0.06511295
000230 af 19 ea bd 85 5e 05 00 9a f2 f4 bc e5 bb b2 bb
       -0.1143068 4.93085e-40 -0.029900838 -0.0054545277
000240 b4 a8 03 bd 58 9d a5 3d 8e c5 d3 3d 95 40 b7 bd
       -0.03214331 0.080866516 0.10340415 -0.08947865
000250 a5 67 05 00 61 84 f4 bc 40 c0 2c bd 61 6b 72 bb
       4.96358e-40 -0.02984828 -0.04217553 -0.0036990272
000260 25 5c 05 00 64 b1 1c 3d 62 5b 27 be e8 b4 05 80
       4.92233e-40 0.03825511 -0.16343454 -5.24074e-40
000270 d4 31 f9 bc d2 87 05 00 ed 20 db bc 7e 77 06 00
       -0.030419268 5.079e-40 -0.026749099 5.93879e-40
000280 37 db 5b 3d f4 75 9d bc 5b 1d d7 3d e7 61 2f bd
       0.053675856 -0.019221283 0.10503646 -0.042817976
000290 c1 9e 8e bc ca 6b 27 be 10 5a 15 be 36 14 b6 3d
       -0.017409684 -0.16349712 -0.14585137 0.08890574
0002a0 72 8f 1c be 07 e0 08 be c5 62 05 00 86 af f8 3d
       -0.15289095 -0.1336671 4.9461e-40 0.121428534
0002b0 31 f1 cd 3d 21 5d 05 00 96 60 34 bd 7c 83 3e bc
       0.10055769 4.92586e-40 -0.044037424 -0.011628028
0002c0 a4 ca a5 3d 63 d4 97 3b e6 ca ab bd 4e e1 7a 3d
       0.08095291 0.0046334728 -0.08388309 0.061250024
0002d0 ac 53 bd 3c 7a 66 34 bd 51 8d a9 bd 87 39 32 bd
       0.023111187 -0.04404304 -0.08278907 -0.043511894
0002e0 e7 5f 05 00 f0 36 6a be b9 88 e5 bd d6 59 05 00
       4.93581e-40 -0.2287252 -0.112077184 4.91405e-40
0002f0 78 91 34 bd 58 30 26 bc e4 72 43 3d c4 58 05 00
       -0.044084042 -0.010143362 0.04771699 4.9102e-40
000300 f3 6b 8d 3e b2 45 e0 3e ba 44 a2 3e 03 7f be 3e
       0.2762142 0.43803173 0.3169306 0.37206277
000310 0c b5 07 3f 1a bf 91 3e d0 e8 62 3e 34 71 d2 3e
       0.5301063 0.2846611 0.22159123 0.41101992
000320 4d b7 02 3f f9 7b 3f bd 16 39 cf 3e a5 db 65 bd
       0.51060945 -0.04674909 0.4047324 -0.056117672
000330 a1 3a e7 3e ac 5a 05 80 e9 ea a8 3e 49 6d a6 3d
       0.45161918 -4.91704e-40 0.32991722 0.08126313
000340 59 10 64 3e fd 4c e5 3e 49 de 48 3e 9a cd 30 3e
       0.22271861 0.447853 0.19616045 0.17265931
000350 4f ae ac 3e a5 1d ae 3e 2e a6 c1 3e 40 2a e3 3e
       0.33726737 0.34006992 0.37822098 0.44368172
000360 40 88 67 3c 0b d4 fb 3e e5 99 bf bd 9f c3 a9 3e
       0.014131606 0.49185213 -0.09355525 0.3315706
000370 01 19 ab 3e df 69 9f 3e fb 3b 94 3e a1 5b f4 3c
       0.33417514 0.3113546 0.2895201 0.029828848
000380 97 2a 88 bd 83 b0 79 3d 07 a0 86 3d 77 70 05 80
       -0.06648748 0.06095935 0.065734915 -4.99522e-40
000390 c6 ce cd 3d 28 c8 41 be 53 fd 75 3d bd 66 35 bc
       0.100492045 -0.1892401 0.060056042 -0.011071858
0003a0 6e c5 da bb 5f 67 3f 3d 1a 58 05 00 c3 60 71 3d
       -0.0066763675 0.04672944 4.90782e-40 0.05893017
0003b0 e5 fc 99 bd ef 58 05 80 05 7e 05 80 a3 0c 5e bd
       -0.07518939 -4.91081e-40 -5.04385e-40 -0.05421127
0003c0 5f 83 cb bd 03 0d 4d be e9 b4 27 3d a0 84 36 3c
       -0.099371664 -0.20024495 0.040944014 0.011140019
0003d0 32 ac 1f bd dd 7b 05 00 11 21 ef 3b c7 31 06 80
       -0.038982578 5.03611e-40 0.007297643 -5.6887e-40
0003e0 a2 64 05 80 95 c7 c4 3d 2b 73 50 3d 3f 66 05 00
       -4.95278e-40 0.0960838 0.050891083 4.95856e-40
0003f0 76 a1 05 80 db 67 05 00 71 55 b9 bd 03 60 05 80
       -5.17099e-40 4.96434e-40 -0.090495 -4.9362e-40

fc2.bias f4 [64]
000000 31 90 af 3e 75 60 30 3d 4a 88 ad 3e 50 99 dd 3d
       0.34289697 0.04306074 0.33893043 0.10820258
000010 af 3c 9a 3d 9c 66 11 3d cc f0 dd 3e 20 45 55 3c
       0.07531106 0.035498247 0.43347776 0.013016969
000020 d9 4e 6e 3e 2f 3b b5 3e 47 ce 27 bc 55 ad eb 3e
       0.23272265 0.35396716 -0.010242051 0.4603068
000030 5c d5 fa bd 6a bc 16 be a8 79 83 3e 13 58 bc 3e
       -0.12247726 -0.14720312 0.25678754 0.36785945
000040 a2 8c 31 bb 68 2a 62 3e 6f 31 e9 3e 80 62 6a bd
       -0.002709188 0.22086489 0.45545527 -0.057222843
000050 0b 1b 37 bd a8 76 cb 3e 12 3d d2 bc bf 55 90 bd
       -0.044703525 0.39738965 -0.025663886 -0.07047605
000060 d0 ad 05 3e 20 f1 d1 3e 18 33 8c 3e c2 29 bf 3e
       0.13054585 0.41004276 0.2738273 0.37336546
000070 34 9e e0 3d 5b f9 82 3e b5 5d c0 3e 5e 0c 9b 3e
       0.10967675 0.25580868 0.37571493 0.30282873
000080 c0 ba c4 bb eb ec 69 3e 76 4f 10 3e 4d 1b ae bb
       -0.0060037076 0.22844283 0.14092812 -0.005313313
000090 83 49 84 bd c6 c6 51 3e 1f 18 bc 3e 02 77 32 3e
       -0.06459334 0.20485982 0.36737153 0.1742821
0000a0 ec d1 96 b1 62 12 c6 3e 44 ec e6 3e 57 37 62 3e
       -4.38944e-09 0.386859 0.4510213 0.22091423
0000b0 ba 1d 0c 3d 2e ca c4 3e 02 03 34 3e 10 23 40 3e
       0.034208037 0.384355 0.17579272 0.18763375
0000c0 72 dc 5e 3e 40 17 19 bc 7c 28 b6 3e 98 ef 96 3e
       0.2176378 -0.009343922 0.35577762 0.2947967
0000d0 d6 07 45 3d 29 f6 b4 bd b0 2d 89 3e 02 5a a1 3d
       0.048103176 -0.08836014 0.2679267 0.07878496
0000e0 6c 52 c5 3e 69 cd 70 3d e7 8e 46 bd db 7d a3 bc
       0.38539445 0.058789644 -0.048476126 -0.019957474
0000f0 76 fc 09 3d 6b eb a6 3d e8 93 36 3c 83 42 04 3e
       0.03368803 0.08150371 0.011143662 0.12915997

fc3.weight f4 [1, 64]
000000 60 2b dd 3e 0b 79 7f 3c d9 8a b7 3e a6 68 85 3e
       0.43197155 0.015592824 0.3584812 0.26056403
000010 ab 16 54 bb a3 45 05 bd 8a a1 ba 3e a6 bd 54 bc
       -0.0032362144 -0.032537114 0.3645137 -0.012984669
000020 37 66 c8 3e ad ba fc 3e 52 ff 41 3c d0 d8 c8 3e
       0.39140484 0.49361172 0.011840658 0.39227915
000030 ee be 31 bd 41 0c 63 bc 0f 8e b1 3e d0 f2 eb 3e
       -0.043394975 -0.013857902 0.34678695 0.4608369
000040 c1 c6 b8 3c c5 07 a8 3e be 04 da 3e d2 42 a2 bc
       0.02255571 0.32818428 0.42581743 -0.019807253
000050 ed 77 8b bc f5 d7 c1 3e 6f 31 aa 3c 75 46 1d 3c
       -0.017024959 0.37860075 0.020775525 0.009599318
000060 ed e7 52 bd 60 d9 e9 3e c6 d9 bf 3e 89 bd e0 3e
       -0.051490713 0.45673656 0.37470835 0.43894604
000070 22 62 16 bd 6a 17 99 3e 5f d6 f8 3e 41 6c d9 3e
       -0.03671468 0.29900676 0.48601052 0.42465404
000080 82 29 d7 3c 06 1d e3 3e f6 9f 88 3e e3 b7 6e bd
       0.02626491 0.4435808 0.2668454 -0.058280837
000090 f9 73 2d bc 39 b8 a6 3e cd a3 d9 3e 12 11 72 3e
       -0.010586732 0.32562426 0.42507783 0.23639324
0000a0 31 dc 56 3c ce 3d d7 3e 61 f6 f1 3e 63 4a e2 3e
       0.013114021 0.4203934 0.47258285 0.44197378
0000b0 0e 64 b4 bd cb ae b6 3e 1c 8b 76 3e 9e f7 c1 3e
       -0.088081464 0.3568023 0.24076504 0.3788423
0000c0 d5 09 a6 3e 70 1b 51 3c e3 68 d9 3e 94 4f b8 3e
       0.32429376 0.012762889 0.42462835 0.35998213
0000d0 ba 2d 79 bd 2e 76 43 bd 22 36 af 3e 3d e4 22 3c
       -0.060834624 -0.047720127 0.34220988 0.009942112
0000e0 61 51 d1 3e ca c1 3c 3e 5a 1c 8a bd 8a 2c cd 39
       0.408824 0.184333 -0.06743689 0.0003913383
0000f0 0d 62 05 80 55 15 8c bd ae e3 9f 3c 8e 43 91 3e
       -4.94351e-40 -0.06840006 0.019517746 0.28371853
