Cheyi Wu/Garch/LSTM-Garch/TSLA/lstm_garch_model.pth (torch, 229302 bytes, 13 tensors)

lstm.weight_ih_l0 f4 [256, 7]
00000000: 8ae5 d93d 53c6 073e cbf4 6d3c b327 733d
00000010: 576f 113c f51f d33d 6245 f43b 8d1d c43d
00000020: bd8c 143e 4e61 54bd cf11 e93c 58b9 b93b
00000030: 2cc6 243e 35bf 8f3d a9b9 b43d 6b74 af3c
00000040: 7060 093e 9f24 41bd 8379 22be cbbe 8c3d
00000050: f150 8bbb 5ea5 b83b 9708 8cbc 935f ec3d
00000060: 0f4f fcbd 0a74 45bd 9888 d43c 34f8 c4bc
00000070: c63a c43c 0a48 aabd a4dd 183e 1dde 12be
00000080: 4382 a13d 4ee5 7d3d e4a9 d83c 3c4d af3d
00000090: d8c3 1c3d 4211 e83d c0db 113e 758a c53a
000000a0: e115 ae3d f2bd d6ba 6e93 983d dfae 1a3e
000000b0: 57c0 e83d 4dc8 943c eeb5 b33d bb2f 1f3d
000000c0: add3 083e 7f25 d6bc fd21 56bd 3be6 d93c
000000d0: ee1e b2bd de97 2d3e 74d8 f63d 17c8 143e
000000e0: 549d f73c afd9 8bbb f408 c73d b216 87bd
000000f0: 7c67 233d 65e2 383c 64c8 443d 256a 1abd
00000100: 9f7e 9b3d de1f c63c 86a9 e53d fb86 c1bd
00000110: 1831 f1bd 90a5 763c a9cd 183d 7247 f3bc
00000120: 7278 3a3d d089 9fbd d560 68be 94a5 92be
00000130: 81a5 19be 305a c33d 9fb3 e03d 0204 213e
00000140: e407 143d 7f7f fabd d66f f5bd 1ca6 223d
00000150: c978 a53d 8aa5 c2ba edad c83d d912 42bd
00000160: 8232 b3bd 8f3b 4ebd 0b2f a23d 0154 ccbd
00000170: 27b7 123c 5072 833c a1d7 15bd f2e4 42bc
00000180: 29ba cc3d 4f63 94bd 2140 1bbe 2469 68be
00000190: bd5d 37be c597 083e 8243 543d 4d55 e13c
000001a0: 7383 e8bd e1e2 13bd 85ba 2bbd 67e3 80bb
000001b0: b156 c0bd 5da1 abbd 5c69 2a3e 0057 d43d
000001c0: f69f 103d 60f7 d7bd a018 8ebd 0058 cebc
000001d0: 366a dbbc 2a19 7ebd fbdf 0cbd a2e2 a1bd
000001e0: 0f95 e2ba 33ab 37bd a5a4 b43b 3449 c6bd
000001f0: f14a 6abe 1979 90bd 1e5b b4bb 22d5 3ebd
00000200: 04d8 1c3e bd9e 8d3d 2ace 203e 2366 f73d
00000210: 7801 0bbd 68c1 c63d 519b 06bc 0532 8ebc
00000220: 19c9 0bbe 6f2a 06be b3e8 83bd 90d1 8d3c
00000230: 3dcb 793d 59a6 90bd cdb0 ff3d 78fb e0bd
00000240: 14f6 70bc d013 bbbc 2e65 ea3d 23cb 133e
00000250: 89cb 343e 0116 bfbc b0da 023e c033 853d
00000260: 5b1c 943d 96ef fa3b 1890 8b3d ef24 d2bd
00000270: aa80 6d3d da63 913d 4ea6 b537 4cf9 2bbe
00000280: 3462 043e f8a2 6c3d 47df 6d3d 1889 7ebd
00000290: b9be b8ba 10fa d73c e5be 243d 405b 283e
000002a0: 6efd be3d df45 6a3c 49f2 c03c cc19 2bbd
000002b0: b969 d43b f29d 80bc db0d 133d 34c3 98bc
000002c0: c912 5abd c30f ae3d cc5f fd3d 8c00 03be
000002d0: 3229 9c3b 9899 f93d 288c 5b3d 5d3b e43b
000002e0: ad24 eb3d 1a1b b13d 52b6 bc3b 97a0 75bd
000002f0: 0d4d 293d ee81 6a3d d9dd 113d 5184 c93c
00000300: 1b3b 203e 8d14 493e 6d15 8b3d 4a75 4e3d
00000310: 1d3a 433d 4193 5d3d 8014 b93d 16e4 2a3d
00000320: 1537 bcbd 11ae 9abd 279c 373e 8197 fd3c
00000330: 1980 d9bb d5c7 92bd 8a11 8cbd 266e 0fbe
00000340: 7f8a 00be 5810 723d 2fc8 dc3d 70ec c23d
00000350: 1e5d 8bbd 52ec 49be 5af9 97bd c538 8e3e
00000360: aa98 913d 66a4 8cbc f236 923d e1b6 cfbc
00000370: a933 1dbd b428 db3c 21c0 103d 5eed a43b
00000380: 0311 12be b987 8e3d 62d6 ab3d bc84 443c
00000390: b28c fdbd db9a 14be 916e c2bd f9ad b43d
000003a0: 440c 803d 2d37 da3d be9f f23d 8a4a 12be
000003b0: 4eed d0bd 84c4 a1bd da33 b7bd 9b7c a6bd
000003c0: ee19 a13d bdbe a0bc 6b42 1cbd 24ee 76bc
000003d0: a69c f43c e1c3 27bd 1e71 98bc d0f6 d33d
000003e0: 0239 5b3d 74b1 943d 8333 6ebd 5558 f7bb
000003f0: 58eb 05bd 0085 93bd 2215 4dbd 1c36 c7bd
0.10639484 0.13259248 0.014523695 0.059364032 0.008876643 0.1030883 0.00745456 0.09575949
0.14506812 -0.05185061 0.028450875 0.0056678466 0.16091222 0.07018892 0.08824474 0.021417817
0.13415694 -0.047154065 -0.15866666 0.06872328 -0.0042515923 0.0056349477 -0.01709394 0.11541667
-0.12319767 -0.048206367 0.02594404 -0.024044134 0.023953807 -0.083145216 0.14928299 -0.14342542
0.078861736 0.06198626 0.026448198 0.08559653 0.03827271 0.11331417 0.14243984 0.0015071171
0.08500267 -0.0016383512 0.07449995 0.1510577 0.11364811 0.018161917 0.08774935 0.03886388
0.13361998 -0.026140926 -0.052278508 0.02659904 -0.086973056 0.16952464 0.12053004 0.14529453
0.030226387 -0.0042678933 0.097185045 -0.06596126 0.039893612 0.011284445 0.04804267 -0.037698884
0.075925104 0.024185117 0.11213975 -0.094495736 -0.11776942 0.015054122 0.037305508 -0.029697154
0.04552502 -0.077899575 -0.22693188 -0.2864195 -0.15004541 0.09538686 0.1097176 0.15724185
0.036140338 -0.12231349 -0.11984222 0.039709195 0.080796786 -0.001485036 0.09798799 -0.047381256
-0.08749868 -0.05034977 0.07919129 -0.0997696 0.0089548 0.01604572 -0.036582593 -0.011895405
0.09996445 -0.07245504 -0.15161182 -0.22696358 -0.17906852 0.13339145 0.051822193 0.027506495
-0.11353197 -0.03610504 -0.041925926 -0.0039333585 -0.09391535 -0.08380387 0.16641754 0.103681564
0.0353088 -0.1054523 -0.069382906 -0.025188446 -0.026784044 -0.062035717 -0.034393292 -0.07904555
-0.0017286855 -0.044841003 0.005512791 -0.09681931 -0.2288015 -0.070543475 -0.005504026 -0.046589978
0.15316778 0.069150425 0.15703645 0.12080028 -0.033936948 0.09704858 -0.008215741 -0.017357836
-0.13650931 -0.13102125 -0.06440868 0.017311841 0.06098484 -0.07062978 0.12484894 -0.10985464
-0.014707107 -0.022836596 0.1144508 0.1443296 0.17655768 -0.023325922 0.12778735 0.06504011
0.07231971 0.0076579554 0.06814593 -0.10260951 0.05798403 0.07099123 2.1654323e-05 -0.16794318
0.12928087 0.057772607 0.058074262 -0.06214246 -0.0014094926 0.026364356 0.040221114 0.16441059
0.093256816 0.014298885 0.02355303 -0.04177265 0.0064823297 -0.015700314 0.035901885 -0.018647768
-0.05324057 0.084991 0.123717874 -0.12793177 0.004765653 0.12187499 0.05360046 0.0069650845
0.11481605 0.08647747 0.005759039 -0.059967604 0.041333247 0.057252817 0.03561196 0.024599226
0.15647547 0.19636746 0.06791196 0.050404824 0.047662843 0.05409551 0.09037113 0.041721426
-0.091901936 -0.07552732 0.17930661 0.030956032 -0.006637585 -0.07167021 -0.06839283 -0.14006862
-0.12552832 0.059097618 0.107803695 0.09517753 -0.0680487 -0.19719055 -0.07420607 0.27777687
0.071091965 -0.017168235 0.07139386 -0.025355758 -0.038379345 0.026752807 0.03533948 0.005033179
-0.14264302 0.06959481 0.083905 0.011994537 -0.12380351 -0.14512198 -0.09493745 0.08822245
0.062523395 0.10655055 0.11846875 -0.14286247 -0.10201512 -0.078988105 -0.08945437 -0.08129235
0.07866274 -0.019622201 -0.03814928 -0.015071426 0.029859852 -0.04095829 -0.018608626 0.1034981
0.053521164 0.07260409 -0.058154594 -0.007548372 -0.032695144 -0.07203102 -0.050068982 -0.097271174

lstm.weight_hh_l0 f4 [256, 64]
00000000: 4932 1bbd 2432 c63d 9e4a bcbc 2250 20bd
00000010: c8a3 60bd d8ab 55bd b3cc 8a3d 0262 f53a
00000020: 64ff 6abd ceee aabc 40d2 833d 8a65 91bc
00000030: 9a22 693b af77 3d3d 7c7c a23d e37b d23c
00000040: 9218 8e3d fa81 09be c327 a03c 5c29 72bd
00000050: 2ae4 5dbc a4d3 c83d c76b b8bc dc12 fe3d
00000060: ab20 e5bc 6e6a 69bd 352b 14bd e3be 7e3d
00000070: bdd1 b6bd 06fc ba3c 146f 563b 636b 113d
00000080: 7dfc 7a3d 7601 363b e9f3 a9bb e824 84bd
00000090: e913 9cbc 7c18 773d 07a4 f63c 1a5d e7bc
000000a0: b5b6 27bd c126 19bd 5f67 3c3d 6a89 853c
000000b0: f0c1 f0bc 4ea6 343c 615d 7c3d eeb9 89bd
000000c0: a0ce 5ebd f234 b23d 92ea 6a3d 720a ea3c
000000d0: d0b3 94bd b96b 313d 63fd 99bd 558a 463d
000000e0: 9167 0e3d 01a3 9bbd e78c ea3c ef86 8ebd
000000f0: 429b 323d f125 9c3d c573 a4bd 31af 7b3d
00000100: d7c9 64bd 4a8e 6cbd fb3d edbd ceb9 973d
00000110: c7d5 283c cd70 a8bd 643f 5c3d 9a68 e83d
00000120: d012 bdbd 6c44 e83d e305 2a3d a47e 44bc
00000130: 5c3e dc3d 8829 9d3d 6c04 a53d e3c3 b03d
00000140: 9faa 213d fee1 40bd 273d 97bd db66 213d
00000150: e082 50bd 92dc 403d 7e05 abbb 5afd 923c
00000160: 4afd b1bd 0dd2 82bd bb70 ab3d 055f 8b3d
00000170: 81ac 283d c246 2ebd b71f f4bc 1b33 04bd
00000180: f150 af3d a1c6 33bd 5973 773b 97db 893d
00000190: 55d5 95bd 068a 663b 8595 85bc b0e6 80bd
000001a0: 8a18 193d 12c6 f53b d367 b53d bef1 57bd
000001b0: e577 e93c 8821 bdbd 4ac7 38bd af52 b8bb
000001c0: 511f 903d 4bda b03d 871a 9fbd a9b2 ec3c
000001d0: 3033 82bd 99eb 533c d686 09be 9153 edbb
000001e0: f718 463d e7b9 bdbd 8990 e2bd 9bdb 8f3c
000001f0: 765b 9d3c 7183 67bc 027d 0cbd 2be7 94bd
00000200: c3de 5bbd 0556 86bd 7ace 48bd 5f7c 3cbc
00000210: a177 f03c b512 c0bc 5269 573d 38ed cabc
00000220: e06c e63d a148 073e e680 45ba c42b 27bd
00000230: 2d67 87bd a682 ec3d 2f5b f13d b489 a1bc
00000240: bea1 fe3d 2c2d 42be 964e c73d 7ccc 223d
00000250: 1c89 ce3d d94f 60bd fbb1 143d d11a 1a3d
00000260: ef50 2fbc df57 803d dc5d abbd eaf0 97bd
00000270: 8ef1 b03d 09ff a8bd a245 babd aa98 9cbc
00000280: dfc8 debc d1a1 96bc 115b 2cbe 24b0 693d
00000290: 9028 18be 4ff7 fd3b 2e60 893d 5d6a d03b
000002a0: a6f0 993b 2f89 0c3d 823a 66bc 6061 8ebc
000002b0: 382e 8bbd c3e1 c5bd 0548 c3bd c81d d13d
000002c0: 0b5e 1bbd 7013 803d ac07 913d 2a03 f53a
000002d0: fcdf 85bd 92be 8fbd 6258 5fbe fdde 613d
000002e0: 9f70 dabd 5880 0bbd 391c 093d c54a 9e3d
000002f0: f7ee 1e3d 6e5b ad3c 97bd 01be 2338 4f3d
00000300: 9c6b 643d ce59 8ebb 1eea d4bd 5a31 2e3c
00000310: f719 05bd 8309 07bd a6c8 173c 8c69 693d
00000320: dc0e 853d d0e2 4bbc d3aa d4ba 16f4 4cbd
00000330: 70b3 a3bc a426 fa3c 8fe4 733d a258 f5bb
00000340: 58c9 c5bc 8480 b6bd fc5e 653d 514b f7bc
00000350: 6771 7f3c 8a91 a1bd b94e fdbc 58e3 2c3d
00000360: d630 8cbc 5fdb 33bd 0554 4a3d 65c0 0fbd
00000370: 6ec8 a5bd 2338 a7bd 5527 38bd 541f eabd
00000380: 6ce7 e93d 0f0a 4dbd ed95 65bd 3a9b e43c
00000390: 52ff b43c 6be0 73bc 2c0b a63d 191a 9abd
000003a0: f9f1 db3c 1655 903c 3061 bfbd 15a5 f4bc
000003b0: 0ad7 593c 19d9 943b dd1d ad3d 01f0 813d
000003c0: 7f68 57bd e43e 7fbc f5b8 26bc 0552 3abd
000003d0: 8331 1fbd af8a a0bd 0722 2dbd d770 a83d
000003e0: d03e 6abc 087f 8abd b28d bdbd a112 97bd
000003f0: 8b1a c03b 38b6 143c 90e3 74bd 1b07 a03d
-0.037889753 0.09677532 -0.022984799 -0.03913892 -0.054843694 -0.052165836 0.067773245 0.0018721225
-0.057372466 -0.020865824 0.064365864 -0.017748613 0.0035573603 0.046256717 0.079339 0.02569384
0.0693828 -0.13428488 0.01955021 -0.059121475 -0.013543168 0.09805992 -0.02251233 0.12405941
-0.027969679 -0.056986265 -0.036174018 0.062193763 -0.08926723 0.022825252 0.0032720016 0.035502803
0.061275948 0.0027771867 -0.005186547 -0.06452352 -0.019052463 0.060326084 0.030107511 -0.028242636
-0.040945727 -0.037390474 0.04599702 0.016300876 -0.029389352 0.011025978 0.06161249 -0.067249164
-0.05439627 0.08701505 0.05735261 0.028569434 -0.07260859 0.043315623 -0.07519033 0.048471767
0.034766737 -0.0759945 0.02863164 -0.0695933 0.043605097 0.07624424 -0.08029894 0.061446372
-0.055856552 -0.057752885 -0.115840875 0.07408486 0.010304875 -0.0822464 0.05377139 0.11348076
-0.09232104 0.113411754 0.04150952 -0.011993084 0.107540816 0.07673937 0.08057484 0.086311124
0.039469358 -0.047090523 -0.07384711 0.03940473 -0.050906062 0.047085352 -0.0052191606 0.017943073
-0.08690889 -0.0638772 0.08371111 0.06805233 0.041180138 -0.04254795 -0.029800279 -0.0322753
0.0856036 -0.0438906 0.0037757962 0.067313366 -0.073160805 0.0035177483 -0.016306648 -0.06294
0.037376918 0.0075004185 0.088576935 -0.052720778 0.028499553 -0.09234911 -0.04511193 -0.005625091
0.07037223 0.08635386 -0.077687316 0.028893786 -0.063574195 0.012934589 -0.13430342 -0.007242628
0.048363652 -0.09263974 -0.11062724 0.01756077 0.019208651 -0.014130459 -0.034298904 -0.07270654
-0.05367924 -0.06559376 -0.049025036 -0.011504262 0.029353919 -0.02344642 0.052590676 -0.024771318
0.11251235 0.132113 -0.0007534161 -0.040813223 -0.06611476 0.11548357 0.1178497 -0.019718982
0.124331936 -0.18962544 0.09731786 0.039745793 0.10084745 -0.05476365 0.036302548 0.03762323
-0.010700448 0.0626676 -0.08367512 -0.074189976 0.08639823 -0.08251769 -0.09095313 -0.019115765
-0.027195392 -0.018387707 -0.16831614 0.057052746 -0.14859223 0.0077504287 0.06707798 0.0063603357
0.004697877 0.034310516 -0.014052035 -0.017380416 -0.06795925 -0.09662201 -0.09535221 0.102107584
-0.037931483 0.062537074 0.070815414 0.001869296 -0.06536862 -0.0701877 -0.21811059 0.0551443
-0.10666012 -0.034057945 0.03347418 0.07729105 0.038802113 0.021161761 -0.12669979 0.050590646
0.055766687 -0.0043442016 -0.10396217 0.0106318835 -0.032495465 -0.032968055 0.009264147 0.056985423
0.06496975 -0.012444213 -0.0016225226 -0.050037466 -0.019983023 0.030536003 0.059544142 -0.0074873725
-0.02414386 -0.08911231 0.055998787 -0.03018728 0.015591002 -0.078890875 -0.030921327 0.042209
-0.01711313 -0.04391038 0.049396534 -0.03509559 -0.080948696 -0.08165004 -0.044959385 -0.114317566
0.11421093 -0.05005842 -0.056051183 0.027906049 0.022094402 -0.014885048 0.081075996 -0.07524509
0.02684878 0.017618697 -0.09344709 -0.029863873 0.013295898 0.0045424816 0.084529616 0.06344605
-0.05258989 -0.015578959 -0.010175933 -0.045488376 -0.038865577 -0.07838952 -0.04226878 0.082246475
-0.014297202 -0.067625105 -0.09255542 -0.073766 0.005862539 0.009076647 -0.059787333 0.07813855

lstm.bias_ih_l0 f4 [256]
00000000: 4dad 1a3d 9fcb 2c3c 4bb4 2b3c 410f cf3d
00000010: 2a0b f13d dfae 2b3e ca6e 813c 52b1 5ebd
00000020: ce5c 0f3e 200f 213e 2941 073d 7355 303e
00000030: ca47 9b3d 37a7 a63d 19b1 d63c 2808 b83c
00000040: 67dc a63d bbcd 80bd 23dd 1dbd 1135 a43d
00000050: 430d 463d 79bc e83d 1256 de3d f28f d5bc
00000060: b701 063d 3e9b f43d 1f93 c63d f808 a93d
00000070: 30ac edbd 32c6 e03d 65e4 c8bd f40c 9abd
00000080: 48c9 bebc 0b02 103d 2add 263c 756e 073d
00000090: 6f28 a4bd b959 003e c46c 5a3d e8b2 ba3d
000000a0: 5dc8 103e 33e2 5abd 128c 243d c485 2b3d
000000b0: d764 fa3c c1fe ce3c 8e4e d8bd 25cc 7a3c
000000c0: 5f01 a4bc 9cee 09bd 6f79 94bd 9b7b e03d
000000d0: 3430 3dbd f52f 833d 330d 393e 3040 cabd
000000e0: 6fa0 663b 6124 f63d 4c61 47bd 72a2 1d3e
000000f0: 197b 6cbc 8900 2e3e 3260 a63d d590 7fbd
00000100: a0d0 51bd 08cd ac3c 0243 2cbc 444f 45bd
00000110: 5df7 0bbe 5e2a b6bd 1813 3cbe 2029 883c
00000120: ca17 2cbd f766 6abd 017c babd fd97 44be
00000130: 99d8 05be 51a5 863b 4618 1e3e 6243 cebd
00000140: a91a 5fbc 3ce4 c7bc cbec 02be efb6 283e
00000150: 9bbc 2bbd 77f7 40bd 79d7 39be 8f51 e3bc
00000160: ef07 aabd bd52 b93c 695f eabc 8894 b1bd
00000170: ad52 15bd af7b 15be dc46 cfbd 9139 73bc
00000180: 7c51 10be b889 c5bc 713f 9bbd c247 4dbe
00000190: 75bd 7ebd ced7 4dbe 8b23 59be 498e b7bd
000001a0: 770a 20bd 2498 89bb 0a15 ae3c 6e91 a6bd
000001b0: 0103 38be 5e28 5cbe 97d2 653d 6ac2 4abd
000001c0: 1622 34bd 024e 62be ef33 16be 4024 0bbe
000001d0: 3fb6 383d af98 24be 1e62 b73c c037 26be
000001e0: 9d41 68bd 2f37 59bd 9f7e f9bd 39d3 65bb
000001f0: 91b0 1ebe 8897 bfbd fb9b b8bd 455e babd
00000200: f3cd a33d 2d48 d23c 6075 363d 1eb2 a33c
00000210: ecf3 d2bd 7c19 c53c dfad 473c 2964 113e
00000220: d30b 33bc c6be b43d ba74 403d 7988 b5bd
00000230: 3039 f13d 6bb8 10bd 3cf5 623c aa13 8c3d
00000240: 117a 273d db46 423d bd67 61bb 9564 173e
00000250: 93c5 303e c633 b13d 8bce 24bd 3975 7dbd
00000260: e444 2dbd d74b 26be a6f8 22bd 978e cdbc
00000270: 929c 4ebd 875c a03d d6e5 12be 63d1 b9bd
00000280: 1d2f 173c 11c1 3d3c 88a5 f5bd b248 16bb
00000290: 5873 9cbc ffca debd 52ce 1f3e ebb8 243d
000002a0: eb99 1bbe ca1a e73b 2fdd 36bd 5c84 35bc
000002b0: a006 06be 64ba 4a3d d845 8bbd 6a82 123a
000002c0: 1080 98bd a136 71bd 222b bcba 6253 e7bc
000002d0: 9558 e8bd e39a f0bb 970c 1c3d a502 373c
000002e0: 9d56 123c e59d a1bd ac3e ecbd 329d 38bd
000002f0: 68f8 d7bc 4460 48bc 912b 5abd be5b 14be
00000300: 2e95 0c3d 3598 493c d70c 27bc 33e1 ac3d
00000310: 7ab1 f23c 8686 bebc 5719 44bd c1b2 483d
00000320: a0a4 3bbc e738 283e bfef 0dbd 5f3f 593e
00000330: cd37 dc3d 5d48 e9bb b255 9abd c835 1d3e
00000340: 446a 12be d76a cb3d c993 d93b 1dfb 70bd
00000350: 0825 35bd 2501 853e e034 003e 2fc3 1abe
00000360: a0eb dbbd 101b c03d 3609 c43d 3295 ef3c
00000370: 076b ad3c a010 bd3b cb2e 20be 8701 2f3d
00000380: cf46 08be cb55 01bd 6c5c 093c 7a2f 103d
00000390: f2e6 3fbb e438 6cbc 628c 033e 9823 d2bd
000003a0: 6581 953d d412 a03a 8ccb 02bd 717b 65bd
000003b0: ab60 f9bb 69d1 533d 9f70 263d 5967 2dbd
000003c0: a3eb e93d 47f8 82bd 92bd 123b 4481 183e
000003d0: 1c31 51bb a9c6 acbd 885c 5abc f415 9c3d
000003e0: 7fd2 3e3d 8817 a33d e98d 46be ed0b 8f3d
000003f0: 7eb0 7bbc 3f49 ed3d 8f76 0a3c baff aa3c
0.03776293 0.010546594 0.010479997 0.10110331 0.117697075 0.16765927 0.015799899 -0.054368325
0.14000246 0.15728426 0.033021126 0.17220096 0.07582052 0.081373625 0.026207494 0.022464827
0.08147507 -0.0628924 -0.03854097 0.08017934 0.04835249 0.11364073 0.1085626 -0.026069615
0.03271648 0.119436726 0.0969603 0.08253664 -0.11605108 0.10975303 -0.09809188 -0.07522002
-0.023289338 0.0351582 0.010184566 0.033064324 -0.080155246 0.12534226 0.053326383 0.09116155
0.14138933 -0.053438377 0.040172644 0.041875616 0.030565662 0.02526796 -0.10561858 0.015307461
-0.020020185 -0.03367482 -0.07249724 0.10961076 -0.04618855 0.064056315 0.18071441 -0.09875524
0.003519084 0.120186575 -0.048676774 0.15393999 -0.014433646 0.16992392 0.081238165 -0.062393982
-0.05122435 0.02109386 -0.010514023 -0.048171297 -0.1366858 -0.088948 -0.18366659 0.016621172
-0.042014875 -0.0572271 -0.09105683 -0.19198604 -0.13070907 0.0041090627 0.15438947 -0.10071446
-0.013617196 -0.024400823 -0.12785642 0.16476034 -0.041927915 -0.047111 -0.18148603 -0.027748851
-0.083022945 0.02262246 -0.028609948 -0.08670908 -0.0364558 -0.14597963 -0.10120937 -0.014845268
-0.14093584 -0.024113521 -0.0758046 -0.20046905 -0.0621924 -0.20101854 -0.21204965 -0.089626856
-0.03907248 -0.004199045 0.021250267 -0.08133207 -0.17969896 -0.21499774 0.056109037 -0.049501814
-0.04397782 -0.2210007 -0.14668249 -0.13588047 0.04509568 -0.16073869 0.022385653 -0.16232204
-0.0567032 -0.053031143 -0.12182354 -0.0035068525 -0.15497042 -0.09355074 -0.09014126 -0.09100012
0.07998266 0.025669182 0.04454553 0.019982394 -0.10300431 0.024060003 0.01218745 0.14198364
-0.010928112 0.0882545 0.04698632 -0.08863921 0.11778486 -0.035332125 0.013852414 0.06839688
0.040887896 0.047430854 -0.0034394108 0.14784463 0.17262869 0.08652453 -0.040236037 -0.06187937
-0.042302027 -0.16239868 -0.03978791 -0.025092406 -0.050442286 0.07830148 -0.14345488 -0.090731405
0.009227541 0.011581675 -0.11994463 -0.0022931513 -0.019097969 -0.10878562 0.15606049 0.040215414
-0.15195434 0.007052754 -0.04464453 -0.01107892 -0.13088465 0.049494162 -0.06800431 0.0005588891
-0.07446301 -0.05888999 -0.0014356116 -0.028238002 -0.11345021 -0.0073426827 0.038097944 0.011170064
0.008931783 -0.07891444 -0.11535391 -0.045071788 -0.026363567 -0.012229983 -0.053264204 -0.14488122
0.034321956 0.012304355 -0.010195932 0.08441391 0.029625643 -0.023257505 -0.04787573 0.048998598
-0.011452824 0.16427957 -0.034652468 0.2121558 0.10752831 -0.007119222 -0.07535876 0.15352547
-0.1429835 0.099324875 0.006639932 -0.05883323 -0.04422477 0.25977436 0.1252017 -0.15113519
-0.10738301 0.09380162 0.09572069 0.029245947 0.021169199 0.005769804 -0.1564285 0.042726066
-0.13308261 -0.03157596 0.0083838515 0.035201527 -0.0029281941 -0.014417861 0.1284652 -0.10260695
0.07300071 0.0012212642 -0.0319324 -0.056025926 -0.0076104007 0.05171338 0.040634748 -0.042334888
0.11421897 -0.063950114 0.0022390825 0.14893061 -0.003192014 -0.08436329 -0.013327725 0.07621375
0.046587463 0.079634726 -0.19390072 0.069846965 -0.015361903 0.11586236 0.008451118 0.020873893

lstm.bias_hh_l0 f4 [256]
00000000: 990e 4fbd 2c8e 853b 577b f9bd e8fa 9fbd
00000010: 2456 b63d d011 833c 2bc8 ee3d 0680 8c3c
00000020: c29c f73d e1e6 da3c 3c31 603d 08bd fe3d
00000030: e40f 203d 41ad 813d 19e4 2f3c 37cd 623d
00000040: 312c 92bd d80d e53c 8390 153d 1381 703d
00000050: 86c8 e2bd 32c3 373e a3f8 053e 6ad0 133d
00000060: d7e5 f1bc fd1b 793d 59d2 893d 5203 253e
00000070: 69ff 8b3d 85d0 58bd 70b8 b3bd 3b2c b53d
00000080: f259 4bbd 164e e0bd aea4 79bd b883 2a3d
00000090: f34c acbd dbaf 48bb b263 ff3d 5f6d 303c
000000a0: 3af1 d33d 8095 c6bd 3c10 6f3d 5354 bcbc
000000b0: 7e55 94bd 5332 233d 3665 0d3c 7707 a1bd
000000c0: 2c03 ab3d 0c8c d73d 58c3 8abd f884 873c
000000d0: e91f 523d 0cad 543b d296 3b3d b59c 453d
000000e0: 0188 50bd aad0 603d c7df c2bd 9bc4 f43d
000000f0: f1e9 cb3c 942c cd3c 6fa6 96bc a4d6 953d
00000100: 26e7 3cbe 31a2 8d3c f2c5 52bc a571 1cbe
00000110: 49e9 52bc 1964 1f3d 3a66 30be ffc0 b2bd
00000120: 9db2 0ebd 6418 c5bd d165 5e3d d62a 04be
00000130: 7e12 20be cf23 bcbc bd50 043e 6af8 843b
00000140: 5229 30be d4cf 06bd 9681 14be 7970 8f3a
00000150: 7a55 d1bd 6195 66be da8d 0dbe 55a6 d2bd
00000160: 5c28 fbbd c210 b5bc 44fd bcbc a405 25be
00000170: 1e0a b43a d7cc 11bd 3925 25be 106c 99bc
00000180: 81c7 80bd 76f1 4c3d b90d f9bd efb5 19be
00000190: f960 cd3d 2d93 62be 9203 55bd a9cd 15be
000001a0: a4c4 d5bd a370 75bd 4900 20be 7e0f 20be
000001b0: 9075 1bbe 3deb f6bd 4565 a3bc e752 1dbe
000001c0: c753 1cbd bbd7 d2bd 5bd4 8cbd bc95 dcbd
000001d0: f532 04be 3824 85bd a929 9ebc 923d 2a3d
000001e0: 371f 25be 76b9 32be 1245 89bd 62ab 2abe
000001f0: 80a8 2cbe 42dd 29be b30d 5fbd 331e b8bc
00000200: 794d 37bd abb4 233c 4eda dabd 242d 993d
00000210: 40a7 dd39 fd8b f73d d60d a23d dd24 a6bc
00000220: 7fb0 12bd cf88 76bd f169 53bd 4ce3 40bc
00000230: 392c 413c 2ecc c13d 5c5f 403d 2ef1 af3d
00000240: d2d6 a2bc a567 06bd 358e c13d 3aa4 7a3d
00000250: a85c 03bd c35a 2d3c 1146 2fbb 74bd a23d
00000260: 12d8 f8bc 3940 ad3c 8947 ea3d e2ce 10bd
00000270: 89e3 5c3c 7ecf f6bd 5f75 a03d b5cb a4bd
00000280: 8487 13bd 4806 49bd 915f e0bd ea8d e83d
00000290: 0b43 b33c 7200 d0bb 2cc0 0cbd 22dc 233d
000002a0: 7f60 c23c 4464 933d f83a 913c 0fc5 90bb
000002b0: 682d 7d3c d52c 09be afba f3bc d420 c1bd
000002c0: 957f 21bd 1509 163e ddcc 953d a965 1b3e
000002d0: 9065 a4b8 275d f33c 0722 4d3b 66c4 833d
000002e0: 4429 32be 25b1 b43d 7958 733c 33d7 62bd
000002f0: 26fd 063e e93c 0c3e f962 823d b481 05bd
00000300: 4f83 79bd 7d15 efbd 8e64 d1bd 3382 3abc
00000310: 481f 51bd b906 d4bb 9aba af3d eb0b 0dbd
00000320: a54b 25bd 6c79 a6bc b327 c33c 8819 033e
00000330: 3202 903c 3612 3fbd f621 b63d 153d 1b3e
00000340: a136 c5bc 9e47 993d 5471 3a3d 3fe3 a63d
00000350: e88a 603d 92ae 163e 1f2f c53d a125 aabd
00000360: c2ac b63c 9f23 5ebd aaa8 c0bc a447 123d
00000370: 8747 8dbd c16b 013e dd80 e2bd 7cd8 fc3b
00000380: 0827 44bd 35fc bdbb 1bdc 91bc 03e7 af3c
00000390: 33c4 a3bd 7b8c ca3d 65a4 93bd 2f42 fdbd
000003a0: e31f d63d 9943 3b3d 573d 39bd 712e ccbd
000003b0: 54b4 143e 5442 8a3d a3f2 08be b53c c43d
000003c0: 48ab 2d3e b63b 3c3d a014 133e bfbb bbbc
000003d0: 6c20 2dbd ea35 093e 232b 44bd 2420 e8bd
000003e0: f89d 853d 5380 b13b 4f02 59bd e956 d83b
000003f0: dcb4 423e 2d19 1b3e 7e6f 86bd deb8 9ebd
-0.05055103 0.004075786 -0.12181728 -0.078115284 0.08903149 0.015999705 0.11659273 0.01715089
0.12090446 0.02672142 0.054734454 0.124383986 0.039077654 0.06331874 0.010735535 0.05537149
-0.07137335 0.027960703 0.03651477 0.058716845 -0.11073403 0.17945555 0.13083129 0.03608743
-0.029528541 0.060817707 0.06729574 0.16114548 0.06835825 -0.052933235 -0.08775413 0.08846327
-0.049646325 -0.10952394 -0.060948066 0.041629523 -0.084131144 -0.0030622396 0.12470187 0.010768264
0.10348745 -0.096964836 0.05836509 -0.022989428 -0.07242869 0.039842915 0.008630088 -0.07862752
0.08350214 0.10524759 -0.0677554 0.016542897 0.051299963 0.0032451777 0.04579813 0.04824515
-0.050910953 0.054886498 -0.095153384 0.11951562 0.024891825 0.02504567 -0.018389909 0.0731633
-0.18447551 0.017289253 -0.012864577 -0.15277727 -0.012873002 0.03891382 -0.17226496 -0.08728217
-0.034838308 -0.09623793 0.05429632 -0.12906966 -0.15632054 -0.022966294 0.12921424 0.0040579336
-0.17203262 -0.032913044 -0.14502558 0.0010943554 -0.102213815 -0.22517921 -0.13823643 -0.102856316
-0.12263557 -0.022102717 -0.023069985 -0.16115433 0.0013735925 -0.03559574 -0.1612748 -0.018728286
-0.06288052 0.050034963 -0.121608205 -0.15010808 0.10028262 -0.22126456 -0.052005358 -0.14629234
-0.10437897 -0.059921872 -0.15625109 -0.1563091 -0.15181565 -0.12056587 -0.01994575 -0.15363656
-0.038165834 -0.102950536 -0.06876441 -0.10770747 -0.12910064 -0.06501049 -0.019306974 0.041562624
-0.16125189 -0.1745356 -0.06702627 -0.1666694 -0.16861153 -0.1658831 -0.054456424 -0.022475338
-0.044751618 0.009991805 -0.106861696 0.07479313 0.00042277016 0.120872475 0.07912795 -0.02028125
-0.03581285 -0.060189065 -0.051614705 -0.011772942 0.011790329 0.09462772 0.04696594 0.08590923
-0.019877825 -0.032813687 0.09450952 0.061191775 -0.032070786 0.010580721 -0.0026744644 0.079462916
-0.030376468 0.021148788 0.114394255 -0.03535355 0.013481983 -0.12051295 0.07834887 -0.080466665
-0.03601791 -0.049078256 -0.10955728 0.11355193 0.021882555 -0.0063477093 -0.034362957 0.040004857
0.023727654 0.071968585 0.017728314 -0.0044180225 0.01545272 -0.13396008 -0.029752104 -0.094300896
-0.039428312 0.14651902 0.07314465 0.15175499 -7.839047e-05 0.029707504 0.00313008 0.064339444
-0.17398554 0.0882285 0.0148526365 -0.05538101 0.13182506 0.1369511 0.06366534 -0.032594398
-0.06091624 -0.116740204 -0.102242574 -0.011383581 -0.051055223 -0.006470528 0.08580513 -0.034435194
-0.040355343 -0.02032157 0.023822641 0.12802708 0.017579172 -0.046648227 0.08893196 0.1516002
-0.0240739 0.07484363 0.045518234 0.081488125 0.05481997 0.14715031 0.09628128 -0.083079584
0.022299174 -0.05423319 -0.023517925 0.035712853 -0.068984084 0.12638761 -0.11059735 0.0077162366
-0.047888786 -0.0057978877 -0.01780515 0.02147246 -0.079964064 0.09890076 -0.0720909 -0.12366139
0.10455301 0.045718763 -0.045224514 -0.099697955 0.14521915 0.06750932 -0.13373809 0.095818914
0.1695987 0.045955382 0.14363337 -0.022916673 -0.042267248 0.13399473 -0.0478927 -0.11334255
0.06524271 0.0054169088 -0.052980717 0.0066021574 0.19014305 0.15146323 -0.06564234 -0.07750104

lstm.weight_ih_l1 f4 [256, 64]
00000000: eade 613d a48f 4ebd 1074 6f3d dbfb 853c
00000010: e9c6 b73c 960c 59bd d0de aabd f188 c0bd
00000020: e6bc c63d c60a 6bbc cf55 89bc acbd 84bd
00000030: b2eb e93c 573f 17bb 1295 2d3d 1a40 4cbd
00000040: 9dc7 943c 7c98 e9bc 23ae 403c 8d23 d63c
00000050: c0bc f2bd 446f 79bd 9027 323d afaa 10bd
00000060: 2084 e73d 24c9 e63d 193b ae3c df7e 173e
00000070: 715c 883d d964 36bd aac5 083e bbbf 61bc
00000080: f99f d6bd 2da8 9ebd 9ddc 4d3d 41e7 6f3d
00000090: 7364 15bd 3e14 8e3c 1716 743c 8b1a 8d3d
000000a0: bdfc 063e 5943 f0ba 9df9 d9bb aa47 17bd
000000b0: 42f4 82bd 758d 85bd e3f3 9fbd 1a10 fe3d
000000c0: 76e4 1a3d 158a e1bc a201 613d 5870 acbd
000000d0: 42de c73d 063e 913d 4840 88bd 8d58 653d
000000e0: f1fe d43d 5929 05bd dfdc 9e3d 069a 9fbd
000000f0: d902 58bd 8b4f 9ebd 2876 1dbd 2334 553d
00000100: 1fa3 9bbd 30b4 943b 5f1f 803d a099 08bd
00000110: d075 82bd 9480 723b 3e87 f9bc 6c1b 213d
00000120: dba9 92bd 6b38 733d cef9 2b3d da54 e3bb
00000130: d057 eb3d a457 a8bc 66dd 68bd 9991 1fbd
00000140: 3346 943d 376d b5bd a3c5 833c e005 bfbd
00000150: 2982 c53c a8d0 cfbd e65a d0bd 3cae 59bd
00000160: ddb5 64bd 2acb 8b3d 35bc 7c3d c62d 9abd
00000170: b1d7 a93d ec7d f8bb 3a01 673d 3fd3 4ebd
00000180: 0951 44bd e87d 98bd 2367 30bd 3053 14bd
00000190: b695 cd3c 8d85 48bd 4006 c1bd 8db1 123b
000001a0: e13b cabc f4c7 b9bd 6b82 bb3d 8020 c3bd
000001b0: 94f9 afbd f5fc 843d 4f08 893d 3493 adbc
000001c0: fc69 893d 8f92 a2bc 6b38 c6bc 9d56 d4bc
000001d0: 9b44 1cbd 616a 8d3d b418 85bd bca6 b93d
000001e0: 7c4c 733d d217 3abd a8bc 4abd 62ee f8bb
000001f0: 6597 6cbc 0dd9 94bd f5ce 563c f9ec a23d
00000200: 4f4a 503d 99b6 4b3d f82f 35bd dd8c c3bd
00000210: e4c0 fdbc b19c 76bb 8c9d 243d 9173 92bc
00000220: da58 5ebd 4ee9 37bd 22dc 86bc 0edb 33bd
00000230: 8a55 ed3c e0ed 023d 9573 40bd 67f1 b3bd
00000240: f642 c3bc bcdd d1bd e6db de3c 0cd7 b0bd
00000250: e21e e6bd d4b3 9ebd 56da 69bb ead9 f0bd
00000260: e36d 8d3d 0f44 243d 2bef 0b3c f80c ee3d
00000270: 7a6d a5bc 5d7c abbd 606d 013e a1f5 0c3e
00000280: ee90 9e3d 1628 ba3d 36d7 f83d f6e3 32ba
00000290: e0ce bebd 93c5 4c3d bbd2 03be 3968 a4bd
000002a0: 90b3 ab3d a9b3 d1bd 6e97 a8bc 3a6b 8e3d
000002b0: 8dab 803d 0988 9e3d b227 99bd a678 e63d
000002c0: 9f33 293d a88a eebc 441c 1bbd 7bce 2f3c
000002d0: 094a 43bd e972 a3bd 44d5 933c 615c bebc
000002e0: a53f ab3d 2444 a8bd f032 f23d ef2b 93bd
000002f0: 46ef afbd 4fc6 0cbe 4562 dbbd ad70 f23d
00000300: 7b17 233d e2be 183d a0a0 c93d fe66 fd3c
00000310: f21b d93d efba e73b dee6 c8bd c6fb 8f3d
00000320: 73b6 053e 7658 403d 315f 853c 5b10 153e
00000330: 53a3 88bd b37a 20bd a92b 313c 3056 05bd
00000340: 30ca fd3d 1b64 24bc e2ca 08bd f0eb b83d
00000350: cbc0 573d 5dac 15be a92f c2bc eeac 39bd
00000360: e274 c23c 49c4 46bd bc35 4bbd 89b2 133e
00000370: 736a 88bd 550a cf3c 99a5 b23d fc0c 6db8
00000380: d9fb acbd fae9 ddbc 621c 97bd fd0c 16be
00000390: 32fe 403c f720 dd3c ccb0 46bd 287f 0c3c
000003a0: 7013 79bd 1401 5ebd ba55 34bd cf21 5a3c
000003b0: 6f42 ce3a 8de3 84bb 634b adbc 2057 9fbc
000003c0: e1a7 52bc 637a c0bd dba9 79bd 55c3 21be
000003d0: c9fb 9abd c36c d8bb 65b7 68bd 42d1 b3bd
000003e0: bba4 ffbc bc2d 903c d3d9 17bd 825b 38bd
000003f0: 8026 15be bd45 e6bc e0c4 7cbd d394 2a3e
0.055144228 -0.050429955 0.058460295 0.016355446 0.022433715 -0.05299052 -0.08343279 -0.094011195
0.09703998 -0.01434583 -0.01676455 -0.064814895 0.028554771 -0.0023078525 0.042378493 -0.04986582
0.01816159 -0.028515093 0.011760267 0.026139999 -0.118524075 -0.060897127 0.04349476 -0.035319027
0.11304498 0.11268833 0.021268414 0.14794491 0.06658257 -0.04452977 0.13356653 -0.013778622
-0.10479731 -0.07746921 0.05025922 0.05857015 -0.03647275 0.017343637 0.014897845 0.06889828
0.1318235 -0.0018330618 -0.0066520707 -0.03693358 -0.06394245 -0.065211214 -0.078101896 0.12405415
0.037815534 -0.027531663 0.054933198 -0.08419865 0.09759189 0.07091908 -0.06652886 0.05599265
0.10400189 -0.032510135 0.077569716 -0.077930495 -0.05273709 -0.07730015 -0.03844276 0.052051675
-0.07599472 0.0045380816 0.062559836 -0.033349633 -0.06370127 0.0037002908 -0.030459996 0.039332792
-0.071613036 0.059379976 0.04198628 -0.0069376053 0.11491358 -0.020549603 -0.056851767 -0.038957212
0.07239952 -0.08858722 0.016085451 -0.093272924 0.024109917 -0.1014722 -0.101735875 -0.05314468
-0.0558375 0.0682586 0.061702926 -0.07528262 0.08293093 -0.0075833704 0.056397654 -0.05049443
-0.047928844 -0.0744589 -0.04306711 -0.036212146 0.025095802 -0.04895549 -0.0942502 0.002238366
-0.024686756 -0.09071341 0.09155735 -0.09527683 -0.08592525 0.0649356 0.06691038 -0.021188356
0.06709668 -0.019845275 -0.024196824 -0.025920207 -0.038151365 0.06905056 -0.06498852 0.09065005
0.059399113 -0.045432873 -0.049496323 -0.007596777 -0.014440392 -0.07267962 0.013110866 0.07955355
0.050852116 0.049734686 -0.0442352 -0.09548352 -0.030975766 -0.0037630016 0.04018931 -0.017877372
-0.054283954 -0.04490023 -0.01646239 -0.04391008 0.028971452 0.031965137 -0.046985228 -0.08786278
-0.02383564 -0.102473706 0.027204465 -0.08634767 -0.11236359 -0.07749143 -0.0035683117 -0.11760314
0.06905725 0.04010397 0.008540909 0.11623567 -0.020193804 -0.0837333 0.1263938 0.13765575
0.07742487 0.09089677 0.12150423 -0.000682413 -0.09316802 0.04999311 -0.12873356 -0.080276914
0.08383858 -0.102393456 -0.02058002 0.069540456 0.06282721 0.077407904 -0.074782744 0.112534806
0.041308995 -0.02911885 -0.037868753 0.010730381 -0.047678027 -0.07980902 0.018046029 -0.02323741
0.083617486 -0.08216122 0.11826122 -0.07186114 -0.0859056 -0.13747524 -0.10712103 0.118378974
0.039817315 0.037291415 0.0984509 0.0309329 0.10601033 0.007071845 -0.098096594 0.07030444
0.1305788 0.046959363 0.016280742 0.1455702 -0.066717766 -0.039179515 0.010813632 -0.032552898
0.1239208 -0.010033633 -0.03339661 0.090293765 0.052674096 -0.14616533 -0.023704367 -0.045330934
0.023737375 -0.048527036 -0.049611792 0.14423575 -0.066609286 0.025273481 0.087229915 -5.6517296e-05
-0.08446474 -0.027089108 -0.073784605 -0.14653392 0.011779355 0.026993258 -0.04850845 0.008575238
-0.060809553 -0.054200247 -0.044027068 0.013313725 0.0015736351 -0.0040554465 -0.021154111 -0.019450724
-0.012857408 -0.093983434 -0.060953002 -0.1579717 -0.075675555 -0.0066047623 -0.056815524 -0.08780147
-0.03120648 0.017599933 -0.037072968 -0.045009144 -0.14565468 -0.028109426 -0.061711192 0.16658334

lstm.weight_hh_l1 f4 [256, 64]
00000000: 33f8 36bd f348 ac3c 0a93 f53b 6042 0d3c
00000010: 0830 dc3c 8856 123d 4f43 c1bb bc5c f5bd
00000020: 2638 923d 5462 75bd 2c03 04bd 4348 1abc
00000030: f610 cc3d 0616 d8bb 69dd 81bc 38aa 823d
00000040: 3b9a 983c be85 7fbb 561c 933d 8b26 443d
00000050: 58f3 523d a382 f23d c0b3 7a3c 99af f53d
00000060: d766 5e3b 3a1b 353d 5ff6 193d 7e8e 83bd
00000070: 9414 bcbc 7535 543b 3d09 8e3c 21f8 f7bb
00000080: 6c64 863d 08f2 913d fab5 ae3b 9455 debc
00000090: 05f6 653d 1e41 843c 5510 19bc 1d29 12bd
000000a0: 4299 e73d ace3 9b3c 48cd 19bd a441 69bc
000000b0: 2c93 963d f09d ab3c 9b20 ad3d c651 80bd
000000c0: 3636 d6bc ae46 2a3b c9da 043e 4d00 b4bd
000000d0: 7b10 3f3c e0e2 bcbc 1398 343c c59b 42bd
000000e0: 6a2a 3d3d 927e 00bc 922a 7abd 3ce4 783d
000000f0: c3cb c4bc ec6c 233c 9f81 bbbd 9164 d13c
00000100: a367 673d 563a 9cbd 1e6c f03d 9d87 803d
00000110: 9e66 ec3b a492 413c 62ea 803b 9007 473d
00000120: 9818 243d e2bf d3bd 88d5 e33d 9ca7 a23d
00000130: 34a1 ddbc 056b 3fbd 6e84 8d3d c4b1 333c
00000140: 3f9e 48bd f2bf ff3d 4c0b c9bc 9c15 06bc
00000150: 693b 2fbd 3da9 f8bd 6c4d b4bd ca15 ec3c
00000160: 4db7 95bd fe8d f1bc 2347 e0bc e298 be3d
00000170: 0261 f2bd 3066 42bc 6efc 2dbd 9e96 a83c
00000180: cdfc cfbd c5f9 1fbd ac4b 0c3d 9a45 e2bd
00000190: d08c 083e c67b 4b3d cdfa 5cbd 2fe7 0dbd
000001a0: 1925 fc3c a246 07bd 3571 21bd 2f17 58bd
000001b0: 08ef 4cbd c4d9 d2bd 3eee dcbc d1cc a43c
000001c0: d868 233d 9d5b 4cbd 777e 54bb a4ab 93bd
000001d0: 4fbd 68bc 0da1 98bd f23f 4fbd b105 93bc
000001e0: ea0f d53c dfaa a33d ba34 e53c 985b c03d
000001f0: fddf 14bb 081e 45bd 4e81 d13d 8628 83bc
00000200: 7aa4 883d fade 01bd 305c 173c c71e 783d
00000210: 5355 a93d b758 493c 0648 823d 99f1 ae3d
00000220: dcf8 a13d cc61 4a3d cf65 98bd 9764 cd3d
00000230: 550b b8bd 15a2 5e3b db35 9c3d 3eaa 1f3b
00000240: 3860 bb3d 173f 0abd 9f55 963d f2dd 9c3d
00000250: 433f a83c 399e 07bd e3e0 89b8 17c6 e9bd
00000260: 3575 7d3d 168c e63c 3135 68bc b5f5 9ebb
00000270: b5be c8bd fd99 5c3d c1ba 8c3c 0085 0c3d
00000280: 394a 99bc a3f9 fb3b 2c50 b73a f3db 093d
00000290: f13c 49bd 28b8 983d 939c 9f3d c82d a239
000002a0: 827f a5bc ce7f e63d 9949 b83c 1516 e13b
000002b0: e420 003e 300c cfbb ce6b 99ba c92c cabc
000002c0: 4541 d13d 735a c93b 8dd5 b53d 6908 efbc
000002d0: 6fa2 d6bd 3422 043d b4dc 82bd e984 363d
000002e0: ccc1 babc 95b0 ca3d 8f6b aa3d bb02 4ebd
000002f0: 5f48 dfbd d216 d9bd 3a1b a2bd 056d 68bd
00000300: 13dc aebd 893b 7a3d 0512 4f3d bd65 893c
00000310: 5142 053d 1199 68bc d30e edbc 8b6b f43c
00000320: 36f6 55bd 7165 26bd 1387 44bc 1e9c 1f3d
00000330: 0601 bdbd 4650 903c 0271 0d3d c5fd 8b3c
00000340: 1d20 6ebd dcfd b8bd aa0c c33d 67f8 e9bd
00000350: ac84 7dbd 0f56 d7bc 877c b03d 87ca 0f3c
00000360: 2f8a f2bb 10d8 da3c f3a9 923d fcb0 5f3c
00000370: 4ddb 9cbd 9b14 6b3b 9e4a efbc 0519 7fbd
00000380: e9d5 103e 09ff 313d e273 453d 2855 8abd
00000390: 3d19 43bd a8de 60bd 16d9 23bd a89e a2bd
000003a0: 4d61 a9bc 8190 c63b 410b 3f3d 59ac 2e3d
000003b0: 9e3a 9ebc dce8 633d 9664 703d fea1 9fbd
000003c0: ffe2 803d ca25 a83d ccdb 04bd dab1 ca3c
000003d0: 8392 173d 30a2 bebd 68aa c2bd 4e0c d5bd
000003e0: 71ac 783d 055e 9a3b 2fd3 a73d e622 103d
000003f0: c706 7fbd 0a30 4cbc 4499 4cbc 7629 d4bb
-0.044670295 0.021030879 0.007494335 0.008621782 0.026878372 0.035727054 -0.0058979164 -0.11980578
0.07139616 -0.059908226 -0.032229587 -0.009416643 0.099641725 -0.0065944223 -0.015852647 0.06380123
0.01862823 -0.0038989629 0.07183139 0.04788832 0.051501602 0.11841323 0.015301645 0.11996383
0.003393581 0.04421542 0.037588473 -0.064236626 -0.022959031 0.0032380496 0.01733839 -0.007567421
0.06562123 0.07126242 0.005331752 -0.027140416 0.056142826 0.016144332 -0.009342273 -0.03568374
0.113085285 0.01902946 -0.037549287 -0.014236841 0.073522896 0.020949334 0.084534846 -0.06265597
-0.026148897 0.002598207 0.12974085 -0.0878912 0.011661644 -0.023057401 0.011022585 -0.047511835
0.046183027 -0.007842677 -0.061075754 0.060764536 -0.024022942 0.0099746995 -0.09155583 0.02556065
0.05649532 -0.07628314 0.11739372 0.06275866 0.0072143814 0.011814747 0.0039341906 0.048591197
0.040062517 -0.10339333 0.11124712 0.07942125 -0.027054407 -0.04673292 0.069100246 0.010967676
-0.04897904 0.124877825 -0.02454152 -0.008183863 -0.042781267 -0.12141655 -0.088038296 0.028818984
-0.073103525 -0.029486652 -0.02737767 0.09306504 -0.11834909 -0.011865184 -0.042477064 0.020579632
-0.1015564 -0.03905656 0.034251854 -0.11048432 0.13334966 0.049678586 -0.05395012 -0.034644302
0.030779408 -0.033026345 -0.039414603 -0.052756485 -0.050032645 -0.10295442 -0.026969071 0.020117195
0.03989491 -0.049892057 -0.0032424012 -0.07210472 -0.014205291 -0.07452593 -0.050598092 -0.01794705
0.026008565 0.079915754 0.027979244 0.0939247 -0.0022716515 -0.048124343 0.10229741 -0.016010534
0.066719964 -0.031706788 0.009238288 0.060576227 0.082682274 0.012289218 0.06361394 0.08542175
0.07908794 0.049409673 -0.074412934 0.100289516 -0.089865364 0.003397112 0.076274596 0.0024362947
0.09149212 -0.033751573 0.0734055 0.0765952 0.020537978 -0.033109877 -6.5745575e-05 -0.11414736
0.061879355 0.02814297 -0.014172838 -0.004851068 -0.098019995 0.053857792 0.017178895 0.034306526
-0.01871215 0.007689671 0.0013985685 0.033657026 -0.049130384 0.07457 0.07793536 0.00030933158
-0.020202402 0.112548456 0.022496032 0.0068690875 0.12512547 -0.0063185915 -0.0011705102 -0.024679558
0.10217527 0.0061448156 0.08878622 -0.029178815 -0.104802005 0.03225918 -0.06389752 0.044560347
-0.022797488 0.098969616 0.083212964 -0.050295573 -0.109024756 -0.10600056 -0.07915349 -0.056744594
-0.085380696 0.061091933 0.050554294 0.016772145 0.032533947 -0.01419665 -0.028937733 0.029836437
-0.05223676 -0.040624086 -0.011995095 0.038967244 -0.09228711 0.017616402 0.0345316 0.01708878
-0.058136094 -0.09032795 0.095239 -0.11424332 -0.061894104 -0.026286153 0.08617502 0.008776314
-0.0074017267 0.026714355 0.071613215 0.013653036 -0.07659016 0.0035870436 -0.029210385 -0.06227972
0.141441 0.04345611 0.048206218 -0.067545235 -0.04763149 -0.05489984 -0.04000195 -0.079404175
-0.02067628 0.0060597067 0.046641592 0.042644832 -0.01931506 0.055641994 0.058689676 -0.077945694
0.06293296 0.08210333 -0.032436177 0.02474301 0.03700496 -0.093082786 -0.09505159 -0.104027376
0.060711328 0.004710915 0.08194577 0.03518953 -0.062262323 -0.012462625 -0.012487713 -0.006474669

lstm.bias_ih_l1 f4 [256]
00000000: 0b45 9b3d fe38 86ba 0e78 aabd c75e a33d
00000010: 188b df3d e550 c1bd 21d0 243c 28ff 253b
00000020: 558a 843d 7369 443c 7968 293d 35bd d83d
00000030: 68ad 063e def9 85bd f478 543d c7dc 5bbd
00000040: b3d8 593d 6feb 85bd 2d6c dcbb c1b7 8abd
00000050: ad66 b4bd a777 b1bd fd05 27be e477 4d3c
00000060: 2ffe 963d 773e bdbd 6132 ab3c fd30 173d
00000070: 7b6c e7bc fd1c d43b 8eee 86bd adf6 80bb
00000080: 6ffc 7dbd 0b01 d53d e66e bfbd ebcd a23d
00000090: aa2a 4e3d ea57 943d 0972 153b 03fb e23d
000000a0: c0ca 84bd ab2a febc b751 9b3c 6595 6abd
000000b0: b800 40bd 879a d73d 5a36 c53d 6860 aa3d
000000c0: c4b8 613d 7dc3 9b3d 6cd9 3ebe d8bc a339
000000d0: 0473 923d 3f4b 763c 6830 3bbd 8cb0 adbb
000000e0: 9149 1ebe 3ae5 623d 801a 0e3d dd04 9dbd
000000f0: 996e ac3d 949b 27bd 120d 833d 5dd7 8ebd
00000100: f526 27be 35a8 d2bb 9e35 63bc 654a c73d
00000110: 1a65 53bd 6289 e13d f123 ae3c 4052 bc3c
00000120: 5744 18bb ccc7 9dbc 84be 333d 91e0 3a3d
00000130: 5f05 b73d 4cce 9dbd c090 90bd 4ac8 77bd
00000140: 2036 0dbe c86c c9bd 8906 c4bd a236 663b
00000150: a5a9 15bd 234a 05be d23b 58bc 2d5d c63d
00000160: 7f4b cc3c a5ab e4bd fe14 b43d 8ecd 2dbd
00000170: 8e25 56bc dbf5 34bb ab5e b53d 4444 83bd
00000180: c644 cdbd 06e8 b23c fa8b e4bd cd79 79bd
00000190: 71d0 aabc 2bd4 db3d b91b bfbc ca80 293c
000001a0: 3a3c 00be 6a5f 773d 4849 f2bd e7ce f8bc
000001b0: f7c2 e83c fb0e 47bd 44ef 543d a444 b73c
000001c0: 0187 71bd 75ee b2bd b35f 113d 06c8 e9bd
000001d0: e801 5fbd a0b9 443d 6823 f0bb c236 5dbd
000001e0: 5bfb 3cbd 3ceb 0a3c 6cad 403d 4852 2fbd
000001f0: 5301 e73c 562b d5bd e75d 04bd 78ea 293e
00000200: 6b1f 103d 9fd9 86bc 614c e93b 0bbd 7f3d
00000210: 742f 13bd 12a3 cc3d 8f07 a43d ed86 19bd
00000220: a175 983d e0fc 413d c25f 90bd 3f36 8abd
00000230: 4e95 94bc 5c28 0e3e aaf6 513d ecba b63d
00000240: 9dc1 1cbd 28b2 04be eb75 ffbb cba9 cfbd
00000250: be6b 953d a943 36bc 66eb 26bd c8f6 efbb
00000260: 1945 84bc b3bc 87bc f7f4 893d 8558 86bd
00000270: a5a5 2b3d 0c82 d5bc b226 c73d c74b 983c
00000280: 3f25 823d f807 acbd 4141 cc3c 2c8b 533d
00000290: 34cd d23d 1a3b 943c e4ed cb3c e37a f43d
000002a0: 5e7d 9bbd f496 84bc 7b90 973a 7894 383c
000002b0: ea80 e43d d0a2 fa3d 8750 b53d 2b8f 843d
000002c0: 7187 f93c 975c 683d 5b23 713d ce7d 0e3c
000002d0: 48ab a9bc afe8 b83c 4e4b 26bc 907b 99bd
000002e0: 866b 173d c9bf e33d 377f e43c 6153 5d3c
000002f0: af5e b3bb e66c b4bd 844f 03be 80fa d3bc
00000300: e761 b9bd 6813 e3bd 02e8 803d f516 183e
00000310: 2f44 95bc 56ba d93d 4661 863d 39f4 0c3e
00000320: 4376 123d 5a97 983d ea87 b93d a082 31bd
00000330: 3cb4 8d3d a643 973d 7200 0dbe 790a b4bd
00000340: 5169 033d 15d9 f4bc 33b2 70bd 1893 8839
00000350: ff4d dd3c 3ed5 9dbc 6a8b debd 3ef7 54bd
00000360: a07e 78bd 9c7f 063e 3406 013c 63a9 96bd
00000370: 6285 c93d b8a8 3c3d 773f 24bc e30d 05bb
00000380: 3fd1 92bd dbf9 28bc 1755 493d bcd9 c0bd
00000390: 81bd f33c 324b 833d be7f a3bd 17b5 dd3c
000003a0: 749d 953d 379b e83d 299a 00bd ac18 78bd
000003b0: 26c1 933d 1592 1a3d 8963 3e3e 5607 973d
000003c0: 887d 193e b8a8 0b3e 5dbe 12bd ccd0 7c3d
000003d0: 44f0 c93d a034 93bc d621 1cbd 88a8 373d
000003e0: 087e 123b 61ce 2c3d 7fb1 8cbd 47b7 82bd
000003f0: 8a3f 413d 85a6 ecbb a22b 113d e04c 603c
0.07581528 -0.0010240374 -0.0832368 0.07977062 0.10915202 -0.094392575 0.010059387 0.0025329087
0.06471697 0.011988032 0.0413594 0.105829634 0.13152087 -0.06541799 0.051873162 -0.053677347
0.053185176 -0.06539046 -0.0067267627 -0.067733295 -0.08808646 -0.086654 -0.16310878 0.012540791
0.073727004 -0.0924043 0.020898046 0.036911953 -0.02824997 0.0064731822 -0.065884694 -0.003935656
-0.062008318 0.104005896 -0.09347324 0.07949432 0.050333656 0.07243331 0.0022803566 0.11083033
-0.06483984 -0.031026205 0.018959863 -0.05727138 -0.046875685 0.105275206 0.09629507 0.08319169
0.055107847 0.07605646 -0.18637627 0.00031230482 0.07150844 0.0150325885 -0.04570046 -0.005300587
-0.15457751 0.05539439 0.03469324 -0.07666943 0.08419532 -0.040919855 0.06398977 -0.06974671
-0.16323455 -0.0064287432 -0.013867764 0.097309865 -0.05161009 0.11012532 0.021257373 0.022988439
-0.0023234093 -0.01926031 0.04388286 0.04562432 0.08936571 -0.07705364 -0.07058859 -0.060493745
-0.13790178 -0.098352015 -0.09571559 0.0035127779 -0.03653874 -0.13016562 -0.013197856 0.096857406
0.024938343 -0.11165551 0.087930664 -0.04243236 -0.013070477 -0.0027612362 0.08855947 -0.06409505
-0.10022883 0.021839153 -0.11159511 -0.060907174 -0.020851346 0.10733827 -0.023328649 0.010345647
-0.12522975 0.06039373 -0.118303835 -0.030372096 0.028413279 -0.04859827 0.051985994 0.022371598
-0.05896664 -0.08736888 0.035491657 -0.114151046 -0.054445177 0.04802859 -0.0073284395 -0.0540073
-0.04613815 0.008478936 0.047040388 -0.04280308 0.028198874 -0.10408656 -0.032316115 0.16593349
0.035186213 -0.016461192 0.007119701 0.062436145 -0.035933927 0.09992041 0.08009254 -0.03748219
0.07444311 0.0473603 -0.07049514 -0.06748628 -0.0181376 0.13882583 0.051260628 0.08922371
-0.03827058 -0.12958586 -0.0077960393 -0.10139807 0.07295941 -0.01112453 -0.040751837 -0.00732312
-0.01614623 -0.016569471 0.067361765 -0.065598525 0.041906018 -0.026062988 0.097241774 0.018590821
0.063547604 -0.083999574 0.02493346 0.051646397 0.10293046 0.018094588 0.024893709 0.11937501
-0.07592271 -0.016185261 0.0011563444 0.011265866 0.11157401 0.12238085 0.0885325 0.064726196
0.030460091 0.056728926 0.05887161 0.008696986 -0.020711556 0.02257189 -0.01014979 -0.07494271
0.036967777 0.111205645 0.027892692 0.013508649 -0.0054739336 -0.08809833 -0.12823302 -0.025876284
-0.090518765 -0.11087686 0.06294252 0.14852507 -0.018220989 0.10631244 0.06561522 0.13765039
0.035757314 0.07450743 0.09059127 -0.043337464 0.069191426 0.0738595 -0.13769701 -0.0879106
0.03208286 -0.029888669 -0.058763694 0.00026049535 0.02701473 -0.01926672 -0.10866435 -0.0519936
-0.060667634 0.13134617 0.007875014 -0.07356527 0.09839894 0.04605934 -0.010024897 -0.0020302467
-0.07168817 -0.010313476 0.049153414 -0.094165295 0.029753448 0.06410827 -0.07983349 0.02706389
0.073054224 0.1135773 -0.03139702 -0.060570404 0.072145745 0.03773697 0.18592657 0.07374446
0.14989293 0.1363858 -0.035826076 0.06172256 0.0986028 -0.01796943 -0.038118206 0.04483846
0.0022352953 0.042189006 -0.06869792 -0.06382614 0.047179736 -0.007221999 0.035442002 0.013690203
