Cheyi Wu/FinalProject/Garch/LSTM-Garch/NVDA/lstm_garch_model.pth (torch, 229302 bytes, 13 tensors)

lstm.weight_ih_l0 f4 [256, 7]
0	0x3dcc1d3c	0.099665135
1	0x3ddadc71	0.10686577
2	0xbcb3fb29	-0.021970348
3	0x3e06619c	0.13123173
4	0xbcb97698	-0.022639558
5	0x3ded3b8c	0.11583623
6	0xbd5a1078	-0.053238362
7	0x3dbcd2f8	0.092199266
8	0x3e001d68	0.12511218
9	0xbd805d44	-0.06267789
10	0x3d70d123	0.0587932
11	0xbcd23c4e	-0.025663521
12	0x3d14c78b	0.03632311
13	0x3d2836b3	0.04106779
14	0x3d976148	0.07391602
15	0xbb0ba37c	-0.002130716
16	0x3df105b5	0.11768667
17	0xbd1450cf	-0.036209878
18	0xbdd120a4	-0.10211304
19	0xbc055044	-0.008136813
20	0xbd026cdb	-0.031842094
21	0x3b2858ca	0.0025687688
22	0xbd1aacc7	-0.03776243
23	0x3dc97226	0.09836225
24	0xbe551100	-0.20807266
25	0xbdb43b83	-0.088004135
26	0xbd1a16f6	-0.037619554
27	0xbd6c3d56	-0.057675682
28	0xbc94a1c6	-0.018143546
29	0xbe1568f6	-0.1459082
30	0x3d9cc918	0.07655543
31	0x3d1457b3	0.03621645
32	0x3d47fc4e	0.0488246
33	0x3cf00b27	0.029302193
34	0xbd8e95a4	-0.069621354
35	0x3dc61310	0.09671605
36	0x3d40b2b4	0.047045425
37	0x3dfea5c2	0.124339595
38	0x3e553a39	0.20822991
39	0x3d764951	0.060128514
40	0xbcb187de	-0.021671232
41	0xb9560795	-0.00020411455
42	0x3d38a787	0.04508164
43	0x3dcb5aa0	0.09929395
44	0x3d98ae3a	0.07455106
45	0x3e1b34cb	0.15156858
46	0x3dd80c1d	0.105491854
47	0xbcefb5b0	-0.02926144
48	0x3d8598b1	0.06523264
49	0xbd1cd583	-0.03828956
50	0xbdb828c8	-0.089921534
51	0xbb4a9a27	-0.0030914636
52	0xbd4783c1	-0.048709635
53	0x3e01197b	0.12607376
54	0x3d3359bc	0.04378675
55	0x3db71a73	0.08940592
56	0x3d1f50fa	0.038895585
57	0xbb6e09f2	-0.0036321846
58	0x3dd45156	0.10367076
59	0xbd830831	-0.06398047
60	0x3cf53c2b	0.029935917
61	0xbc967ba2	-0.0183695
62	0x3d34ee9d	0.04417287
63	0xb9f7324b	-0.00047148982
64	0x3d8f223f	0.06988954
65	0xbc5afb44	-0.01336557
66	0x3e3808d3	0.17972116
67	0xbd58f202	-0.05296517
68	0xbd4ff615	-0.05077179
69	0xbd7f2b37	-0.062297072
70	0x3d337746	0.04381492
71	0xbc671d6f	-0.014106139
72	0x3d3d3802	0.04619599
73	0x3e535540	0.20637989
74	0xbd9866ce	-0.074414834
75	0xbd3ef822	-0.046623357
76	0xbde91a9d	-0.11382029
77	0x3d8b520e	0.0680276
78	0x3d7d4655	0.061834652
79	0x3e02bb33	0.12766723
80	0x3d0932ce	0.033495717
81	0xbdba16f6	-0.09086411
82	0xbd2122bd	-0.03933977
83	0xbcba6f22	-0.02275807
84	0x3db92a1d	0.090412356
85	0xbc91b0b5	-0.017784456
86	0x3db53c40	0.088493824
87	0xbc48a260	-0.0122457445
88	0xbdeec4fd	-0.11658666
89	0xbd12776c	-0.03575842
90	0x3d245992	0.040124483
91	0xbd0dbf44	-0.034606233
92	0x3d5ffae8	0.054682642
93	0x3da1edbd	0.07906673
94	0xbd97cac3	-0.074117206
95	0xbd9f231e	-0.0777037
96	0x3de92996	0.11384885
97	0xbd48617d	-0.048921097
98	0xbde19c42	-0.11016132
99	0xbe34b35b	-0.17646544
100	0xbe0f2735	-0.139798
101	0x3d49fcb5	0.049313266
102	0xbd7602a3	-0.06006111
103	0xbd88464a	-0.066540316
104	0xbdbd0b68	-0.09230691
105	0xbd6d11be	-0.05787825
106	0xbdb03dfb	-0.08605572
107	0xbd2d7241	-0.04234529
108	0xbbc14458	-0.00589804
109	0xbd9139b8	-0.07091087
110	0x3d944522	0.072397485
111	0x3d257117	0.040391054
112	0x3dce81a8	0.10083324
113	0xbd620d0e	-0.05518823
114	0xbc8ae575	-0.016955117
115	0xbdc3a027	-0.09552031
116	0xbc7b96c0	-0.015355766
117	0xbe23caa2	-0.15995267
118	0x3bc00c98	0.0058608763
119	0xbdc2abbd	-0.09505413
120	0xbccfa768	-0.02534838
121	0xbdb019d4	-0.08598676
122	0x3d5e1de6	0.054227732
123	0xbdb72c84	-0.089440376
124	0xbdc577a7	-0.096419625
125	0xbdebf073	-0.115204714
126	0x3c3a39dc	0.011366334
127	0xbd412f04	-0.04716398
128	0x3e28dbfa	0.16490164
129	0x3bba8487	0.005692068
130	0x3dfe688c	0.124222845
131	0x3d4d7f46	0.050170206
132	0xbd3423a9	-0.04397932
133	0x3db61d61	0.08892322
134	0xbcfcadf1	-0.03084466
135	0xbd72f69a	-0.05931721
136	0xbd922474	-0.07135859
137	0xbe2712d6	-0.16315779
138	0x3daf1a5c	0.085499495
139	0xbd3c2c0a	-0.045940436
140	0x3d9dd445	0.07706503
141	0xbd96cc44	-0.07363179
142	0x3dff3ece	0.12463151
143	0xbd2e58cc	-0.042565152
144	0xbd0afc2a	-0.03393189
145	0xbb93d250	-0.004511155
146	0x3dbfa085	0.093567885
147	0x3df7cd35	0.12099687
148	0x3df79a22	0.120899454
149	0xbd8e2ac6	-0.06941752
150	0x3e493dfa	0.19652548
151	0x3ad1af72	0.0015997721
152	0xbc9a891d	-0.018864209
153	0xbd96b507	-0.07358747
154	0x3de7969a	0.11308022
155	0xbdc42f9b	-0.095793925
156	0x3d876d16	0.06612603
157	0x3d66fd93	0.05639417
158	0xbd30444b	-0.04303388
159	0xbdf749ba	-0.12074609
160	0x3dcc0d1f	0.0996344
161	0x3d8242af	0.06360375
162	0x3d5796ad	0.05263393
163	0xbd7e7949	-0.062127385
164	0x3c1beceb	0.009516935
165	0xbcef371f	-0.029201088
166	0xbd5c54a8	-0.053791672
167	0x3e1b7c5c	0.15184158
168	0x3da500c7	0.08056789
169	0xbc8b92ff	-0.017037867
170	0xbb93cb0f	-0.0045102905
171	0xbd271c2b	-0.040798347
172	0x3cb78051	0.022400053
173	0xbdb1cdd4	-0.08681837
174	0xbc826b85	-0.01592041
175	0xbc1f7a70	-0.009733781
176	0xbd846268	-0.06464082
177	0x3da6e5cd	0.081493
178	0x3db8a06b	0.09014972
179	0xbdc84ff1	-0.097808726
180	0x3d52abe2	0.05143345
181	0x3dc59aae	0.096486434
182	0x3daf6a41	0.08565188
183	0x3c894020	0.01675421
184	0x3e05c782	0.13064387
185	0x3da57a69	0.080799885
186	0x3d505e6d	0.0508713
187	0xbb806222	-0.0039179483
188	0x3d0664c5	0.032810945
189	0x3d697a8f	0.057001647
190	0x3c95c81d	0.018283898
191	0x3c97941e	0.018503245
192	0x3e48a4e7	0.19594155
193	0x3e1bca8e	0.15213987
194	0x3da935f8	0.08262247
195	0x3cb6b213	0.02230171
196	0x3c964459	0.018343138
197	0x3c0a5251	0.008442477
198	0x3d5dfd7f	0.05419683
199	0x3dfbf4fa	0.12302585
200	0xbdefd96c	-0.11711392
201	0xbdc1162b	-0.09428056
202	0x3dfff68d	0.12498198
203	0x3d250184	0.04028465
204	0xbc8ee259	-0.017441915
205	0xbd9f55a5	-0.07780007
206	0xbd2f0d25	-0.042737145
207	0xbdf0419a	-0.117312625
208	0xbca37a7c	-0.019955866
209	0x3cfdd555	0.030985514
210	0x3dd6373e	0.10459755
211	0x3da49595	0.08036343
212	0xbd97ac51	-0.074059136
213	0xbdd7683d	-0.10517929
214	0xbcce2853	-0.025165712
215	0x3df97ada	0.12181635
216	0x3d47d708	0.048789054
217	0x3c2b16f1	0.010442481
218	0x3db7dc7c	0.08977601
219	0x3b17dc82	0.0023172204
220	0xbe040993	-0.12894277
221	0x3d9c1d34	0.076227576
222	0xbd95f354	-0.07321802
223	0x3cb40d08	0.02197887
224	0xbdb203c8	-0.086921275
225	0x3dd1e0b8	0.1024794
226	0x3df33809	0.11875922
227	0xbdcbe7de	-0.099563345
228	0xbe004436	-0.1252602
229	0xbddeb6a9	-0.108746834
230	0xbd9e77b8	-0.07737678
231	0x3ded5e0a	0.11590202
232	0x3da89299	0.08231086
233	0x3e0a3020	0.1349492
234	0x3cd1bff2	0.025604222
235	0x3ba4a3a6	0.005024391
236	0xbca069b0	-0.019581646
237	0xbd78b400	-0.060718536
238	0xbdf164c9	-0.11786801
239	0xbe033c5b	-0.12815993
240	0x3bdf9adc	0.0068238806
241	0x3dea2498	0.11432761
242	0x3d7436bf	0.059622522
243	0xbd461b56	-0.048365913
244	0xbd796220	-0.060884595
245	0xbd2d4f70	-0.042312086
246	0xbd256a0f	-0.04038435
247	0x3db23aba	0.087026075
248	0x3c24e534	0.010064412
249	0x3dba36aa	0.090924576
250	0xbd703cb0	-0.058651626
251	0xbd38304d	-0.04496794
252	0x3c4dde40	0.012565196
253	0xbcd83d4a	-0.026396412
254	0xbbeaccd4	-0.0071655307
255	0xbe2810a3	-0.16412596

lstm.weight_hh_l0 f4 [256, 64]
0	0xbd1ebe4d	-0.038755704
1	0x3dfa782c	0.12229952
2	0xbcc37912	-0.023861442
3	0xbc9dbf87	-0.019256366
4	0xbd5f78dc	-0.05455862
5	0xbd21af18	-0.039473623
6	0x3d851dc1	0.06499816
7	0x3b1a2a3f	0.0023523716
8	0xbd88f3ca	-0.06687124
9	0xbbdffecb	-0.0068357936
10	0xbbd2d134	-0.0064336304
11	0xbcef59d7	-0.029217644
12	0x3c9ce866	0.019153785
13	0x3d2674f5	0.040638883
14	0xbb2498fe	-0.0025115605
15	0x3d007bb6	0.03136798
16	0x3d307395	0.043078978
17	0xbdd69240	-0.10477114
18	0x3c99d13d	0.01877653
19	0xbd33dfde	-0.04391467
20	0xbb97bac7	-0.00463042
21	0x3dcc4a7a	0.09975143
22	0xbcc00f78	-0.023444876
23	0x3e083d59	0.13304652
24	0xbd1ce283	-0.038301956
25	0xbd9901b2	-0.074710265
26	0xbd5aba43	-0.05340029
27	0x3daec5e2	0.08533837
28	0xbdc270fb	-0.094942056
29	0x3caab6d6	0.020839136
30	0xbcb7b333	-0.022424316
31	0x3bebaebc	0.007192461
32	0x3d3c79b8	0.046014518
33	0xbcb75f8d	-0.02238443
34	0xbcb0feb0	-0.02160582
35	0xbd4fa51b	-0.050694566
36	0xbb1c3bfe	-0.002383947
37	0x3d25cc7f	0.040478226
38	0x3d501eeb	0.050810736
39	0xbd28f30a	-0.041247405
40	0xbd0ef28c	-0.03489928
41	0xbc3b7bed	-0.01144312
42	0x3c9cc6e4	0.019137807
43	0x3c2a7ace	0.0104052555
44	0xbccf079c	-0.025272183
45	0x3c829cb1	0.015943857
46	0x3db85258	0.09000081
47	0xbd976d4f	-0.07393896
48	0xbd887f27	-0.066648774
49	0x3da935a2	0.08262183
50	0x3d800b33	0.06252136
51	0xbd87f329	-0.06638176
52	0xbdf38f5c	-0.11892578
53	0x3d1a7097	0.03770503
54	0x3c5c07bb	0.013429577
55	0x3d82c022	0.06384303
56	0x3d15aa80	0.036539555
57	0xbd5918af	-0.053002056
58	0x3cac4ebf	0.021033643
59	0xbd983cb3	-0.074334525
60	0x3d79468e	0.0608583
61	0x3dcb7bac	0.09935698
62	0xbc7971ca	-0.015224883
63	0x3d63ae85	0.055586357
64	0xbd76a8f1	-0.06021971
65	0xbd3dbf3d	-0.046324957
66	0xbddeba51	-0.10875381
67	0x3d875751	0.06608451
68	0xbc9407c1	-0.018070104
69	0xbdac3e29	-0.084102936
70	0x3d4bfd91	0.049802367
71	0x3da76239	0.08173031
72	0xbdc04a35	-0.09389154
73	0x3e0e94aa	0.13923898
74	0x3a5c5f1f	0.0008406508
75	0x3b1008b0	0.0021977834
76	0x3dda07cf	0.106460206
77	0x3da2f6d3	0.07957234
78	0x3d6fa811	0.05850989
79	0x3dd705bc	0.104991406
80	0x3d81f2f9	0.063451715
81	0xbd97050c	-0.073740095
82	0xbd68498b	-0.05671076
83	0x3d4ab875	0.04949232
84	0xbd5acf07	-0.053420093
85	0x3d1c047b	0.03809021
86	0x34010e81	1.2019338e-07
87	0x3a657a62	0.0008753893
88	0xbdca36c9	-0.09873731
89	0xbd792499	-0.060825918
90	0x3da06840	0.07832384
91	0x3d7ecba4	0.062205926
92	0x3d5b44cb	0.053532403
93	0xbd4b7e0b	-0.04968075
94	0xbc9c8b17	-0.019109292
95	0xbcc02233	-0.023453807
96	0x3d427723	0.0474769
97	0xbd19dd7f	-0.03756475
98	0xbca4a143	-0.020096427
99	0x3da34b6b	0.07973369
100	0xbd720bf8	-0.059093446
101	0xbb6638bd	-0.0035129033
102	0xbb6a19df	-0.0035720987
103	0xbd8f2418	-0.06989306
104	0x3cdafd06	0.02673198
105	0xbbaadf32	-0.0052145952
106	0x3dc3690c	0.095415205
107	0xbd6f3588	-0.05840066
108	0x3d000547	0.031255033
109	0xbda4b9d5	-0.08043257
110	0xbd80affa	-0.06283565
111	0xbad8fc63	-0.0016554709
112	0x3d2dd5ab	0.042440098
113	0x3dcd0cc5	0.10012201
114	0xbd96d9dc	-0.07365772
115	0x3bc1d762	0.005915568
116	0xbd92030b	-0.07129487
117	0x3bc4d338	0.0060066245
118	0xbe0a8ee2	-0.13531068
119	0xbc30f644	-0.010800902
120	0x3da38651	0.07984603
121	0xbddf1e88	-0.10894495
122	0xbdc42db0	-0.09579027
123	0x3ce6a780	0.028156042
124	0x3d98ce80	0.07461262
125	0xbcd645cc	-0.026156329
126	0x3d2d06ee	0.042242937
127	0xbd8644db	-0.06556102
128	0xbd26bc2e	-0.040706806
129	0xbcce1dce	-0.025160696
130	0xbd6b6999	-0.057473753
131	0x3ae75c8d	0.0017651484
132	0x3befec7e	0.0073218932
133	0xbcc641d8	-0.024201319
134	0x3cee04cf	0.029055027
135	0xbc94c240	-0.018159032
136	0x3d69d999	0.057092283
137	0x3e15ce09	0.14629377
138	0xbd77b4eb	-0.06047527
139	0xbd3c0448	-0.04590252
140	0xbd8cf993	-0.0688354
141	0x3d924ed6	0.07143943
142	0xbcb24d51	-0.021765383
143	0xbca059df	-0.019574104
144	0x3dc2cd7b	0.095118485
145	0xbe28e594	-0.16493827
146	0x3dc0a7dd	0.094070174
147	0x3d45511a	0.048173048
148	0x3de631b3	0.11239948
149	0xbd0a6347	-0.033786085
150	0x3cb02154	0.021500267
151	0x3d08da5d	0.033411372
152	0xbcc87492	-0.024469648
153	0x3d38583a	0.045006014
154	0xbdaa2273	-0.08307352
155	0xbd94506d	-0.072419025
156	0x3db8a8d8	0.090165794
157	0xbdb7bc82	-0.08971502
158	0xbdd20336	-0.10254519
159	0xbc9f0b6f	-0.019414632
160	0xbce03210	-0.027367622
161	0xbcdedee3	-0.02720589
162	0xbdbf6d82	-0.09347059
163	0x3d50f5ec	0.05101578
164	0xbd847bfd	-0.064689614
165	0xbc58f7b9	-0.013242655
166	0x3dc729ce	0.097247705
167	0xbc918624	-0.017764159
168	0xbc5b31e4	-0.013378594
169	0x3d132e65	0.035932917
170	0xbd09d7db	-0.03365312
171	0xbb765bba	-0.0037591294
172	0xbd9f7b6b	-0.07787212
173	0xbdad156c	-0.084513515
174	0xbd24c0ff	-0.040223118
175	0x3d9b7f3e	0.07592629
176	0xbd0c8b41	-0.03431249
177	0x3dc38034	0.09545937
178	0x3dc5c675	0.09656993
179	0xbd204038	-0.039123744
180	0xbdc1a3b3	-0.09455051
181	0xbd4efff5	-0.05053707
182	0xbdf02854	-0.11726442
183	0x3d72a37e	0.05923795
184	0xbd879599	-0.0662033
185	0xba1312e4	-0.000561042
186	0x3cb43a8c	0.022000574
187	0x3d85a8c2	0.065263286
188	0x3dc83647	0.097759776
189	0x3cf6d3ab	0.030130228
190	0x3bf6c706	0.0075310497
191	0x3d297c45	0.04137828
192	0x3d656743	0.05600668
193	0xbc4ac49b	-0.012375976
194	0xbd9dd4db	-0.077066146
195	0x3d387a8a	0.045038737
196	0xbd22de1f	-0.039762612
197	0xbde188cb	-0.11012419
198	0xbbba6cc2	-0.0056892345
199	0x3d0a17a7	0.033713963
200	0x3d4822ad	0.048861194
201	0x3c959a95	0.018262187
202	0xbc0552dc	-0.008137431
203	0xbd12c277	-0.035829987
204	0xbd43db3c	-0.0478165
205	0xbbb46fab	-0.005506476
206	0xbc0ba631	-0.00852351
207	0x3d0254a9	0.03181902
208	0xbb0a4e29	-0.0021103716
209	0xbd773abe	-0.060358755
210	0x3c993b3e	0.018705007
211	0xbc1426e8	-0.009042479
212	0x3b3ae239	0.0028516187
213	0xbce995db	-0.02851384
214	0xbcb1c395	-0.021699706
215	0x3ca63388	0.020288244
216	0xbd03f5a0	-0.032216668
217	0xbc320c77	-0.01086723
218	0x3d85b8ba	0.065293744
219	0xbd7df070	-0.061996877
220	0xbd42ec7d	-0.047588814
221	0xbd7f3f6c	-0.062316343
222	0xbcdb69ef	-0.026783912
223	0xbd95d377	-0.07315724
224	0x3daa1c68	0.08306199
225	0xbd2dab12	-0.042399473
226	0xbd613696	-0.054983698
227	0x3ccb7b40	0.024839044
228	0xbcfcaca5	-0.030844042
229	0xbc6d0c5f	-0.0144682815
230	0x3d7970fe	0.060898773
231	0xbd43f86c	-0.047844335
232	0x3cb6c17e	0.022309061
233	0x3c4c5ebd	0.012473759
234	0xbda2d9e6	-0.07951717
235	0x3b26b36e	0.0025436538
236	0x3c450d77	0.012027136
237	0x3c14437f	0.009049295
238	0x3db49c43	0.08818867
239	0x3d659b88	0.05605653
240	0xbd03d520	-0.032185674
241	0x3cc471d4	0.023980059
242	0xbb25347c	-0.0025208285
243	0xbdb73905	-0.089464225
244	0xbd08344c	-0.033253
245	0xbd8ab587	-0.06772905
246	0xbd1d0b73	-0.038340997
247	0x3d946015	0.07244889
248	0x3cc552e5	0.024087379
249	0xbd4bfc6d	-0.04980128
250	0xbd9ddc53	-0.07708039
251	0xbd296ea7	-0.041365292
252	0x3cf77f96	0.030212205
253	0xbc8a4101	-0.0168767
254	0x3cbfe017	0.023422284
255	0x3dc5f7d9	0.09666414

lstm.bias_ih_l0 f4 [256]
0	0x3d751bb0	0.059840858
1	0x3c2dd8f4	0.010610808
2	0x3c8f2aee	0.017476525
3	0x3d730426	0.059330128
4	0x3db247be	0.0870509
5	0x3e4dce3b	0.20098202
6	0xbcafd7e5	-0.021465251
7	0xbd82857a	-0.06373115
8	0x3de0323c	0.109470814
9	0x3e1a301d	0.15057416
10	0x3d248940	0.040169954
11	0x3d9b8c41	0.07595111
12	0xbd09dafa	-0.033656098
13	0x3d51f1e1	0.051256064
14	0xbdb6afb0	-0.089202285
15	0x3c192ef0	0.00934957
16	0x3daa5647	0.08317237
17	0xbbce87c3	-0.006302805
18	0xbd4ea423	-0.0504495
19	0x3d3bcb75	0.04584833
20	0x3d722886	0.059120677
21	0xbd1c1d78	-0.03811404
22	0x3d29fb1c	0.041499242
23	0xbc96771a	-0.018367339
24	0xbcb1b695	-0.021693507
25	0x3daf840a	0.08570106
26	0x3d974f88	0.07388216
27	0x3c0b7069	0.008510687
28	0xbe018ee3	-0.12652163
29	0x3ddac4f7	0.10682099
30	0xbd65eff0	-0.056137025
31	0xbd8dd528	-0.06925422
32	0x3c72b3b3	0.014813351
33	0x3d2e988f	0.04262596
34	0x3d1781f9	0.036989186
35	0xbcc33ba6	-0.023832154
36	0xbd9a11d8	-0.07522935
37	0x3d8f3e7c	0.0699434
38	0x3bebcfea	0.007196416
39	0x3d680bee	0.056652002
40	0x3e14e90f	0.1454203
41	0xbd8ff11e	-0.07028411
42	0x3c86f13c	0.016472451
43	0x3deac80d	0.11463938
44	0xbcfa4430	-0.030550092
45	0xbd19aae9	-0.03751651
46	0xbdf0ab6e	-0.117514476
47	0x3c497d8e	0.012298001
48	0xbce177ec	-0.027523004
49	0xbd8d240f	-0.06891643
50	0xbde8363f	-0.113384716
51	0x3bfae5be	0.007656782
52	0xbda7cdce	-0.08193551
53	0x3c8ccbfa	0.017187107
54	0x3e0d867a	0.1382083
55	0xbdc52e74	-0.09628001
56	0xbc5bece3	-0.013423177
57	0x3da3c880	0.07997227
58	0xbd27d32b	-0.04097287
59	0x3d9a8843	0.07545521
60	0xbd036c5a	-0.032085754
61	0x3dd5bec9	0.1043678
62	0x3db99e54	0.09063402
63	0xbdd39725	-0.10331563
64	0xbcb4302d	-0.021995628
65	0x3c8a99ea	0.016919095
66	0x3b164fa9	0.0022935665
67	0xbd8edd7f	-0.06975841
68	0xbda7144a	-0.08158167
69	0xbdb03b79	-0.086050935
70	0xbe3371c0	-0.17523861
71	0x3c336694	0.0109497495
72	0xbd4f8c6d	-0.05067103
73	0x3c1a3bfe	0.009413717
74	0xbe32a8ea	-0.17447248
75	0xbe19c05a	-0.15014783
76	0xbd9449f2	-0.072406664
77	0xbc8b0fb4	-0.016975261
78	0x3d0b1a5b	0.03396068
79	0xbdf9f940	-0.12205744
80	0xbd2294c5	-0.03969266
81	0x3cf2fc8e	0.029661443
82	0xbdbe96ae	-0.093060836
83	0x3dbbb9b2	0.09166278
84	0xbd4c0476	-0.04980894
85	0xbc1eae81	-0.00968516
86	0xbe47c996	-0.19510493
87	0xbd2b2f90	-0.041793406
88	0xbdcf1fad	-0.101134636
89	0x3b4cab69	0.0031230098
90	0xbcbd6db3	-0.023123598
91	0xbdf91c43	-0.121635936
92	0xbc3368e6	-0.010950303
93	0xbde2572a	-0.110517815
94	0xbdaf4ad1	-0.08559192
95	0xbb9a01a9	-0.004699905
96	0xbdfa95fe	-0.1223564
97	0xbcfaffce	-0.030639555
98	0xbc3911bf	-0.011295735
99	0xbe301694	-0.17196113
100	0xbdba5d19	-0.09099788
101	0xbe5ab8e1	-0.21359588
102	0xbe30267a	-0.17202178
103	0xbda96325	-0.082708634
104	0xbb400104	-0.002929748
105	0xbcbaa569	-0.022783952
106	0xbc9ba7ac	-0.01900085
107	0x3cc9f9ec	0.024655305
108	0xbe073ce5	-0.13206823
109	0xbe476650	-0.19472623
110	0x3d349bdf	0.044093963
111	0xbcc1e0ad	-0.023666704
112	0xbc9c25e2	-0.019061033
113	0xbdf94455	-0.121712364
114	0xbe0f93f1	-0.14021279
115	0xbd976b66	-0.073935315
116	0x3d174947	0.036935117
117	0xbe2b1774	-0.16708165
118	0x3cc9dcc0	0.024641395
119	0xbe1a3ad1	-0.15061499
120	0xbc372079	-0.011177176
121	0xbda6c327	-0.08142691
122	0xbdce6852	-0.10078491
123	0xbb30a457	-0.0026953423
124	0xbdbc83b4	-0.09204808
125	0xbdcbf2ec	-0.09958443
126	0xbdff4530	-0.12464368
127	0xbdb54c30	-0.08852422
128	0x3d8039ff	0.06261062
129	0x3d1d1712	0.03835208
130	0x3cc5091c	0.024052195
131	0xbc9a7a8d	-0.018857265
132	0xbd8bb35f	-0.06821322
133	0x3cd778b5	0.026302675
134	0x3c8bee8d	0.017081523
135	0x3e1799e9	0.14804806
136	0xbd1985ee	-0.03748124
137	0x3d864f03	0.06558039
138	0x3c362b0f	0.011118664
139	0xbdc5a27f	-0.09650134
140	0x3df8aeef	0.12142741
141	0xbafa678f	-0.0019104349
142	0x3da54bdd	0.080711104
143	0x3d8386ef	0.06422221
144	0x3b233839	0.0024905337
145	0x3dad05eb	0.084483944
146	0x39a4ebe5	0.00031456273
147	0x3dcef388	0.10105044
148	0x3e2a0cfa	0.16606513
149	0x3d92549c	0.07145044
150	0xbdb31f86	-0.08746247
151	0xbd484fcd	-0.04890423
152	0xbd0838bc	-0.03325723
153	0xbe304f53	-0.1721776
154	0xbcf898f4	-0.030346371
155	0xbce0202d	-0.027359093
156	0xbd669fac	-0.05630462
157	0x3d176af6	0.03696724
158	0xbe0fc58a	-0.14040199
159	0xbdca91cb	-0.09891089
160	0x3d1649c6	0.03669145
161	0xbaa52267	-0.0012598754
162	0xbd939368	-0.0720585
163	0x3bc8fd2a	0.006133695
164	0xbc8be720	-0.017077982
165	0xbe1084bc	-0.14113134
166	0x3e2424a1	0.16029598
167	0x3cb20866	0.02173252
168	0xbe135bf0	-0.1439054
169	0x3c54b279	0.012982004
170	0xbda09644	-0.07841161
171	0xbd43da22	-0.04781545
172	0xbdfde833	-0.12397804
173	0x3ce7b2ed	0.02828356
174	0xbd0ff95a	-0.03514991
175	0x3c3d9dc2	0.011573257
176	0xbdaf689f	-0.08564877
177	0xbddd6c96	-0.10811727
178	0x3c3cd0e1	0.01152441
179	0xbdeb34e8	-0.114847004
180	0xbdfd3daa	-0.12365277
181	0x3c5ce6d4	0.013482768
182	0x3ce310e7	0.02771802
183	0x3c93afd9	0.018028187
184	0x3cc8a8f5	0.024494627
185	0xbd312c4a	-0.043255128
186	0xbdc48671	-0.09595955
187	0xbc792446	-0.015206402
188	0xbdb64ebf	-0.089017384
189	0xbbbd5c30	-0.005778812
190	0xbe00f4c4	-0.1259337
191	0xbe1f2fcf	-0.15545581
192	0x3d4a6478	0.04941222
193	0x3cd81e1b	0.026381543
194	0xbc9213f5	-0.017831782
195	0x3d37002a	0.04467789
196	0x3c0edfef	0.008720382
197	0xbbc06a9f	-0.005872085
198	0xbda0c5e4	-0.07850245
199	0x3cf081af	0.029358713
200	0xbd2b78a0	-0.041863084
201	0x3e492dc5	0.19646366
202	0xbd05918a	-0.0326095
203	0x3df8fd4b	0.12157687
204	0xbc4dc56a	-0.012559274
205	0xbd139748	-0.036032945
206	0xbe1736f2	-0.14767054
207	0x3e06d8ea	0.13168684
208	0xbe34efe7	-0.1766964
209	0x3e44c267	0.19214784
210	0xbc6701ee	-0.014099581
211	0xbd33fdc0	-0.043943167
212	0xbd419e8a	-0.047270335
213	0x3e03eaac	0.12882489
214	0x3d4bf221	0.04979146
215	0xbe0bdb8c	-0.13657969
216	0xbe124bf5	-0.14286788
217	0x3d32d831	0.043663207
218	0x3d607d6d	0.054807115
219	0xbd383cc8	-0.04497984
220	0x3c03a9fc	0.008036133
221	0xbb66650b	-0.003515544
222	0xbe08d35c	-0.13361877
223	0x3d21f936	0.039544307
224	0xbdf2ef32	-0.11862029
225	0xbd21f582	-0.039540775
226	0x3c4830da	0.012218678
227	0xbccdc6e2	-0.025119249
228	0x3c6f1ed6	0.014594754
229	0xbda3e5a0	-0.08002782
230	0x3d9e2e03	0.0772362
231	0xbd9c1644	-0.07621434
232	0x3da29082	0.07937719
233	0xbc23697b	-0.009973879
234	0xbd40b374	-0.04704614
235	0x3c707fac	0.014678877
236	0xbd8dc0e0	-0.069215536
237	0xbc30c5a6	-0.010789311
238	0x3d6b91aa	0.057511963
239	0xbd62acc4	-0.055340543
240	0x3dbe5d97	0.092951946
241	0xbd292aca	-0.041300572
242	0xbd2b146a	-0.041767515
243	0xbc7ca5da	-0.0154204015
244	0xbcb01dbf	-0.021498559
245	0xbded7b49	-0.115957804
246	0xbc4a42e6	-0.012345051
247	0x3db81070	0.0898751
248	0x3c9876c4	0.01861132
249	0x3d359a3a	0.044336535
250	0xbe2e05de	-0.16994426
251	0x3c0f7c56	0.008757671
252	0xbcda2812	-0.026630435
253	0x3d294ba3	0.0413319
254	0xbc03d371	-0.008046017
255	0xbceff6bd	-0.029292459

lstm.bias_hh_l0 f4 [256]
0	0xbcf11ea9	-0.029433565
1	0x3b8974e9	0.004194845
2	0xbde74bf1	-0.112937815
3	0xbde71b3c	-0.112844914
4	0x3d715969	0.05892316
5	0x3d4aed68	0.049542814
6	0x3d9d2bad	0.07674346
7	0x3bf1e3c9	0.0073818904
8	0x3db9332c	0.090429634
9	0x3cc02e40	0.023459554
10	0x3d5b4a8b	0.053537887
11	0x3cdbcf8d	0.026832366
12	0xbd905d90	-0.07049096
13	0x3d071971	0.032983247
14	0xbdd43fc3	-0.10363724
15	0x3d2a6a4a	0.04160527
16	0xbd9b1c26	-0.07573728
17	0x3daa9f79	0.08331198
18	0x3cd71f3c	0.02626001
19	0x3cd68886	0.026188146
20	0xbdcaf295	-0.0990955
21	0x3cef1d5a	0.0291888
22	0x3d819faf	0.06329285
23	0x3d32a037	0.043609824
24	0xbda937e3	-0.08262613
25	0x3cdecf6b	0.027198514
26	0x3d37d987	0.044885185
27	0x3dad6c42	0.08467914
28	0x3d676d89	0.056500945
29	0xbd655efb	-0.055998784
30	0xbd3cdc99	-0.046108816
31	0x3dc0712a	0.09396584
32	0xbc2ece69	-0.010669329
33	0xbdcf9cb1	-0.101373084
34	0xbd0aa7ea	-0.03385154
35	0xbc7b471d	-0.015336779
36	0xbda193d4	-0.07889524
37	0xbd6ed794	-0.05831106
38	0x3da4d7d9	0.08048982
39	0xbc727ca9	-0.014800229
40	0x3dda744c	0.10666713
41	0xbde7eff3	-0.113250636
42	0x3d0ce88c	0.03440146
43	0x3d4771aa	0.048692383
44	0xbe0bce17	-0.13652836
45	0xbcbafe38	-0.0228263
46	0xbb71c571	-0.0036891366
47	0xbda76515	-0.08173577
48	0x3d9d0e72	0.07668771
49	0x3d9687ca	0.073501185
50	0xbdde8436	-0.10865061
51	0xbd9a9914	-0.075487286
52	0x3c83af62	0.01607484
53	0xbd2c33a1	-0.042041425
54	0x3bd66025	0.006542223
55	0x3d496073	0.049164247
56	0xbd88bb8d	-0.066763975
57	0x3c83fa6b	0.01611062
58	0xbdb49e41	-0.08819247
59	0x3d283ffe	0.041076653
60	0x3b9e6bcf	0.004834629
61	0xbd1956a7	-0.037436154
62	0xbc57a062	-0.013160797
63	0x3d0b7a06	0.034051917
64	0xbe2023f0	-0.15638709
65	0x3c572159	0.013130509
66	0xb7c23ec0	-2.3155822e-05
67	0xbe2f7f3e	-0.17138383
68	0x3d2af1d4	0.04173453
69	0x3d2caa2a	0.04215447
70	0xbe27b6ee	-0.16378376
71	0xbdbef309	-0.09323699
72	0xbd325262	-0.043535598
73	0xbcf71578	-0.030161604
74	0xbd9ebc94	-0.07750812
75	0xbdb1d260	-0.08682704
76	0xbdcad262	-0.099034086
77	0xbd32d024	-0.04365553
78	0x3c28abb9	0.010294848
79	0xbc9866ca	-0.018603701
80	0xbe51192a	-0.20419756
81	0x3caf19f6	0.021374684
82	0xbde20b40	-0.11037302
83	0xbd6aea55	-0.057352383
84	0xbde10cf3	-0.10988798
85	0xbe381bdb	-0.17979376
86	0xbe1b5ba5	-0.15171678
87	0xbdef88b9	-0.11696
88	0xbe0eeb1b	-0.13956873
89	0xbd29b667	-0.041433718
90	0xbc903ca6	-0.017607044
91	0xbe47d294	-0.19513923
92	0x3cded3c7	0.027200593
93	0xb9b5a2ce	-0.0003464431
94	0xbe13be0c	-0.14427966
95	0xbc0cc844	-0.008592669
96	0xbd3cc72c	-0.046088383
97	0x3d307021	0.043075684
98	0xbd6a759c	-0.057241067
99	0xbdf9d0c4	-0.12198022
100	0x3d76c6b3	0.060248088
101	0xbe6edcc0	-0.23326397
102	0xbc3ec9df	-0.0116448095
103	0xbe04ad58	-0.1295675
104	0xbd8ccd97	-0.06875151
105	0xbd9fdd8e	-0.0780593
106	0xbe4755af	-0.1946628
107	0xbd589649	-0.052877698
108	0xbdd4eee5	-0.10397128
109	0xbdd057e4	-0.10173014
110	0xbd00a714	-0.031409338
111	0xbe02678e	-0.12734815
112	0xbc5a6659	-0.013330066
113	0x3b8976a6	0.004195052
114	0xbd7f1c3f	-0.062282797
115	0xbd3bde08	-0.045866042
116	0xbe0d7076	-0.13812432
117	0xbd935f20	-0.07195878
118	0xbc7fd6a7	-0.015615142
119	0x3d50c58d	0.05096965
120	0xbdeb209e	-0.114808306
121	0xbe4dfa45	-0.20115001
122	0xbd3a8a7b	-0.04554222
123	0xbe2ac446	-0.16676435
124	0xbdd778d5	-0.10521094
125	0xbe309d4a	-0.17247501
126	0xbdb47a5a	-0.08812399
127	0xbca2386f	-0.0198023
128	0xbd7ee316	-0.062228285
129	0x3cb9bb10	0.022672206
130	0xbe0223cd	-0.1270897
131	0x3d122784	0.035682216
132	0x3d10031b	0.03515921
133	0x3dfc5da9	0.12322552
134	0x3dac4cf1	0.08413113
135	0xbc6fc9cd	-0.014635515
136	0xbd7f3abd	-0.062311877
137	0xbdaa1c89	-0.08306224
138	0xbdb05c9e	-0.08611415
139	0xbca1a172	-0.019730303
140	0x3c825eb9	0.015914308
141	0x3e033381	0.12812616
142	0x3de931a7	0.113864236
143	0x3da75540	0.08170557
144	0xbd6f65bc	-0.05844663
145	0x3b8ae46f	0.004238657
146	0x3dc97571	0.09836853
147	0x3c7ecca6	0.015551722
148	0xbd1edcfb	-0.038784962
149	0xbb88e394	-0.00417752
150	0xbd4c7f04	-0.04992582
151	0x3dbdae44	0.09261754
152	0xbcaf35a2	-0.021387879
153	0x3c3ac82f	0.011400267
154	0x3dfd1f1d	0.1235945
155	0xbd1a0f84	-0.037612453
156	0x3bfbddc0	0.007686347
157	0xbe252fac	-0.16131467
158	0x3da5556c	0.080729336
159	0xbdb583b4	-0.08863011
160	0xbc06332a	-0.008190909
161	0xbd7d58a9	-0.06185213
162	0xbd7c93ae	-0.061664276
163	0x3df98f6c	0.12185559
164	0x3cc2d723	0.023784226
165	0xbd1f9f2f	-0.03897017
166	0xbcf3e107	-0.029770387
167	0x3cb05318	0.021523997
168	0x3d01da59	0.031702373
169	0x3d9facec	0.07796654
170	0xbc833279	-0.016015278
171	0xbd288341	-0.0411408
172	0x3cb65dab	0.022261461
173	0xbe1e60cc	-0.15466613
174	0x3b2fa60a	0.0026801848
175	0xbdaaa209	-0.08331687
176	0xbd4f635b	-0.050631862
177	0x3dc7f27a	0.097630456
178	0x3daff000	0.08590698
179	0x3d801dda	0.06255694
180	0xbc2668e8	-0.010156848
181	0x3d4ea2f5	0.050448377
182	0xbbf3a24c	-0.007435119
183	0x3d91b128	0.07113868
184	0xbe224c74	-0.15849477
185	0x3dfc57a4	0.123214036
186	0x3d0eb4dd	0.034840453
187	0xbcd12eb6	-0.025534969
188	0x3d8c0561	0.068369634
189	0x3e12f0af	0.14349626
190	0xbc0bf3e0	-0.008542031
191	0xbd30a0e7	-0.0431222
192	0xbd3e3d92	-0.046445437
193	0xbdd1c0a3	-0.10241821
194	0xbdde699a	-0.10859986
195	0xbd3d8a1b	-0.046274286
196	0xbd908b2c	-0.07057795
197	0x3c33e0b7	0.010978869
198	0x3d583e6f	0.052793916
199	0xbd5656ab	-0.052328747
200	0xbd90c0af	-0.070680015
201	0x3c8e2b9a	0.017354775
202	0x3c147864	0.0090619065
203	0x3d12176a	0.03566686
204	0xbdd23fd7	-0.10266083
205	0xbd9b4fc1	-0.07583571
206	0x3ba49332	0.00502243
207	0x3e04e078	0.12976253
208	0xbd4c2010	-0.049835265
209	0x3e2bcbe8	0.16777003
210	0x3ccf5dc2	0.025313262
211	0x3dac5507	0.08414655
212	0x3d4f8015	0.050659258
213	0x3c5d14a7	0.013493693
214	0x3cb02ddb	0.02150624
215	0xbd8dab84	-0.0691748
216	0xbc875cac	-0.016523682
217	0xbdd68ee6	-0.104764745
218	0xbd7a04b8	-0.061039656
219	0xbd1e197d	-0.038598526
220	0xbda78eb1	-0.08181513
221	0x3dee7f29	0.116453476
222	0xbdb65cbc	-0.089044064
223	0x3b9a7e3f	0.0047147567
224	0xbd179891	-0.037010733
225	0xbc650ae8	-0.013979651
226	0xbc6339f2	-0.013868796
227	0xbd1ea0fe	-0.038727753
228	0xbd6ae942	-0.05735136
229	0x3d0839b9	0.033258174
230	0xbe052ac0	-0.13004589
231	0xbdc2345e	-0.094826445
232	0x3de41dcb	0.11138495
233	0x3d08c956	0.033395134
234	0xbd772942	-0.06034208
235	0xbcf3f811	-0.029781373
236	0x3db18321	0.08667589
237	0x3ba3de2d	0.0050008507
238	0xbde03d47	-0.10949188
239	0x3dac9c32	0.084282294
240	0x3e182fde	0.1486201
241	0x3d92d481	0.07169438
242	0x3dcd89d3	0.100360535
243	0xbe29bce6	-0.16575965
244	0xbd79e7ac	-0.061011955
245	0x3dc819e7	0.097705655
246	0xbd3e402b	-0.046447914
247	0xbdc5ef2b	-0.09664758
248	0x3d1682b2	0.036745735
249	0xbcef29a6	-0.029194664
250	0xbcf1653f	-0.029467223
251	0xbd5a30a8	-0.05326906
252	0x3e36ccc7	0.17851554
253	0x3d9e3b27	0.07726126
254	0xbdad9543	-0.08475735
255	0xbe02c07c	-0.1276874

lstm.weight_ih_l1 f4 [256, 64]
0	0x3dffdb83	0.124930404
1	0x3c864aeb	0.016393146
2	0xbc8efae0	-0.01745361
3	0x3c2bce3e	0.010486184
4	0xbd8704ac	-0.06592688
5	0x3d87f7c5	0.06639055
6	0xbc8332b4	-0.016015388
7	0xbc94a540	-0.018145204
8	0xbbd40275	-0.0064700195
9	0x3d25871c	0.040412053
10	0xbd0d48ec	-0.03449337
11	0xbdb0f4b0	-0.086404204
12	0x3d896190	0.06708062
13	0x3d31328f	0.043261107
14	0xbbcbb205	-0.00621629
15	0x3d54a523	0.0519153
16	0x3d0fe260	0.035127997
17	0xbd98b05b	-0.07455512
18	0xba976150	-0.0011549387
19	0x3db64b5f	0.08901095
20	0xbd269c71	-0.040676538
21	0x3d5a1219	0.053239916
22	0x3c92c503	0.017916208
23	0xbca03e7c	-0.019561045
24	0x3c6e026a	0.014526943
25	0x3d10fb6b	0.03539602
26	0x3d48d067	0.049026873
27	0x3d4cfa7d	0.05004357
28	0x3caba2c5	0.020951638
29	0xbda249c6	-0.079242274
30	0x3cfbbeb5	0.030730585
31	0xbca876b4	-0.020564415
32	0xbdcbb5c5	-0.09946779
33	0xbd6090db	-0.054825645
34	0xbd5c70cb	-0.053818505
35	0x3d6520be	0.05593943
36	0xbc0f4607	-0.008744723
37	0xbd4088b4	-0.04700537
38	0x3d73781c	0.059440717
39	0xbcd071a7	-0.025444819
40	0x3c9e8b12	0.019353423
41	0x3ce26db4	0.027640201
42	0xbcc2bd03	-0.023771768
43	0x3c160987	0.009157545
44	0xbd8fb924	-0.07017735
45	0xbdbfd65e	-0.09367059
46	0xbd015607	-0.031576183
47	0xbc019075	-0.007907976
48	0xbcc607a2	-0.024173561
49	0x3d84c56b	0.06482967
50	0x3d6dad0b	0.058026355
51	0xbc52c78e	-0.01286496
52	0x3da8dfa3	0.0824578
53	0x3d5f5116	0.05452069
54	0xbd2f9c4d	-0.04287367
55	0x3d7b9d92	0.061429568
56	0xbcbbca31	-0.02292356
57	0xbb9027a5	-0.0043992572
58	0xbc593dc1	-0.013259352
59	0xbd423fbe	-0.04742407
60	0x3d581d9b	0.05276261
61	0xbc790e67	-0.015201188
62	0xbd871ead	-0.06597648
63	0x3d2563d9	0.040378425
64	0xbcd4478d	-0.025913024
65	0x3cc60d4d	0.024176264
66	0xbbe577ee	-0.007002822
67	0xbc13ec02	-0.009028437
68	0xbd80a4a3	-0.06281402
69	0x3c78eb4b	0.015192817
70	0xbbb10b9b	-0.005402995
71	0x3cb9353e	0.022608396
72	0xbd8ce58d	-0.06879721
73	0x3d611cd5	0.054959137
74	0xbcf80fb9	-0.030280935
75	0xbd43ddd6	-0.04781898
76	0x3daf52a9	0.08560688
77	0xbcf13e97	-0.02944879
78	0xbc0be545	-0.008538549
79	0xbacf2982	-0.0015805217
80	0x3da3187c	0.079636544
81	0xbdb57d2f	-0.088617675
82	0x3c50d8c2	0.012746992
83	0xbd050467	-0.0324749
84	0x3cf5d00d	0.030006433
85	0x3b776098	0.0037746783
86	0xbd8a9795	-0.06767193
87	0xbce3cd99	-0.027807998
88	0xbd88e0ff	-0.066835396
89	0x3bfa91eb	0.0076467893
90	0x3d225905	0.039635677
91	0xbd5e79fd	-0.054315556
92	0x3d0ad776	0.033896886
93	0xbcd874a6	-0.02642281
94	0x3c6b9e55	0.014381011
95	0xbcdd468b	-0.027011177
96	0xbd736009	-0.059417758
97	0xbd5efd3d	-0.054440726
98	0xbd2e8a4d	-0.042612363
99	0xbafd0efd	-0.0019306835
100	0xbc24a796	-0.010049721
101	0xbd30c3bc	-0.043155417
102	0xbd0c4c05	-0.034252185
103	0xbd0648c6	-0.032784246
104	0xbd3c65bf	-0.04599547
105	0xbc4c82c5	-0.01248235
106	0x3d524a81	0.051340584
107	0xbd4b8455	-0.04968675
108	0xbda6d37b	-0.081458054
109	0x3ba70f5a	0.0050982656
110	0x3d2c8918	0.04212293
111	0xbd2a7942	-0.041619547
112	0x3c1e5e8e	0.009666098
113	0xbc8e3508	-0.017359272
114	0x3bd7d962	0.0065871933
115	0xbcd8c759	-0.026462244
116	0xbcfdf8e4	-0.03100247
117	0x3d440fb5	0.047866542
118	0xbd99a4bd	-0.075021245
119	0x3d777081	0.060410026
120	0xbbaa081a	-0.005188954
121	0xbd1d4780	-0.038398266
122	0xbd3d49f4	-0.046213105
123	0xbc8cbaa2	-0.017178837
124	0x3cb0c70d	0.02157929
125	0xbd3d4232	-0.046205707
126	0x3c562ee1	0.0130727
127	0x3d7a195f	0.061059352
128	0x3dc8a23b	0.09796568
129	0x3d83b4bc	0.06430957
130	0xbdadab42	-0.084799305
131	0xbd8a2a79	-0.06746382
132	0xbdbea453	-0.09308686
133	0x3d1c3ccb	0.038143914
134	0x3d5135e4	0.051076785
135	0xbb1bfddf	-0.0023802442
136	0xbdec137d	-0.115271546
137	0x3c5d8a4e	0.013521744
138	0xbd439950	-0.047753632
139	0xbdc4835d	-0.09595368
140	0x3d4cd004	0.050003067
141	0x3d1f75ca	0.03893069
142	0xbc4e3340	-0.012585461
143	0xbd1c87f8	-0.038215607
144	0xba8c6e12	-0.0010713956
145	0xbe29c57a	-0.16579238
146	0x3d0fbaa3	0.0350901
147	0xbcce5dac	-0.02519115
148	0xbda2c355	-0.07947413
149	0x3cbb9f75	0.022903183
150	0xbc04142f	-0.008061453
151	0xbdc8a246	-0.09796576
152	0x3d395e25	0.0452558
153	0xbb6d89a2	-0.0036245366
154	0x3b8867fb	0.004162786
155	0x3d8f367f	0.06992816
156	0xbccee70d	-0.025256658
157	0xbdea626b	-0.11444553
158	0x3d92490e	0.0714284
159	0x3e062918	0.13101614
160	0x3d1c6592	0.038182802
161	0x3d51f165	0.051255602
162	0x3addb066	0.0016913533
163	0x3d0ed7b2	0.03487367
164	0xbd4207f6	-0.047370873
165	0xbae79c7b	-0.0017670536
166	0xbd9b6faf	-0.07589661
167	0xbd59e4b6	-0.05319663
168	0x3cdb18b7	0.026745183
169	0xbd661cc0	-0.056179762
170	0xbd410b45	-0.047129888
171	0x3dc5c201	0.09656144
172	0x3d29cb3e	0.041453592
173	0x3cf43bec	0.02981373
174	0xbd6fdca7	-0.05856004
175	0x3d0f0930	0.03492087
176	0xbd027de3	-0.031858336
177	0x3d9cd673	0.076580904
178	0xbc6113da	-0.013737643
179	0x3dca67c4	0.09883073
180	0xbd4751b4	-0.048661903
181	0xbd70b07f	-0.05876207
182	0x3b84a940	0.0040484965
183	0x3c368996	0.0111412015
184	0xba92e1a6	-0.0011206164
185	0xbda1d220	-0.07901406
186	0x3d89591a	0.06706448
187	0xbd8f22d4	-0.06989065
188	0x3db8dfba	0.090270475
189	0xbdeb898e	-0.11500846
190	0xbd9662f4	-0.073430926
191	0x3de4c84d	0.11171017
192	0x3d809eb1	0.06280268
193	0x3d333b21	0.04375756
194	0x3d8cacb9	0.06868882
195	0x3d517181	0.051133636
196	0x3d5b8cb9	0.053601
197	0x3c8fb88e	0.017544057
198	0xbda1c659	-0.0789916
199	0x3d6462d6	0.05575832
200	0x3dcb9825	0.09941129
201	0x3d174be5	0.036937613
202	0xbc0a6619	-0.008447194
203	0x3db6e20a	0.08929832
204	0xbd137d57	-0.036008205
205	0xbde2ec48	-0.11080223
206	0x3c546806	0.012964254
207	0xbcc2fef5	-0.023803214
208	0x3e09186e	0.13388225
209	0xbd606d3d	-0.054791678
210	0xbc8b97e0	-0.017040193
211	0x3dd7145d	0.10501931
212	0x3d4d4881	0.050117973
213	0xbda65724	-0.081220895
214	0xbc6df530	-0.014523789
215	0xbd1e6dad	-0.038678814
216	0x3c483a41	0.01222092
217	0xbd62f978	-0.055413693
218	0xbd5f53b8	-0.0545232
219	0x3e1486ac	0.14504498
220	0xbd8f5ec6	-0.070004985
221	0x3ccd6a07	0.025074972
222	0x3d5200b4	0.0512702
223	0x3c53bf1b	0.012923981
224	0xbdbf35af	-0.09336411
225	0xbd06af6a	-0.03288213
226	0xbda5f155	-0.08102671
227	0xbe01a425	-0.12660272
228	0xba32a47d	-0.0006814672
229	0x3ccc72c0	0.02495706
230	0xbd0e09d8	-0.034677356
231	0x3cba5fdb	0.022750786
232	0xbdac8347	-0.08423477
233	0xbd37ab48	-0.04484108
234	0xbd59dc8c	-0.053188846
235	0x3d121a40	0.035669565
236	0xbc2c04a4	-0.010499153
237	0xbc903202	-0.01760197
238	0x3be2e5e8	0.0069243796
239	0xbd660f54	-0.05616696
240	0xbd149d82	-0.036283024
241	0x3cd42efe	0.025901314
242	0xbd4258a8	-0.04744783
243	0xbd3fa838	-0.046791285
244	0xbda83134	-0.0821251
245	0x3c1e96ca	0.009679506
246	0xbcf6033a	-0.030030835
247	0xbd8eb191	-0.06967462
248	0xbd5b2a29	-0.053507004
249	0x3d0e8163	0.03479136
250	0xbd274685	-0.040838737
251	0xbd81f08f	-0.06344711
252	0x3d02c452	0.031925507
253	0xbcaea8d8	-0.021320745
254	0x3d91e117	0.071230106
255	0x3e2c0b78	0.1680125

lstm.weight_hh_l1 f4 [256, 64]
0	0x3cab8d8c	0.020941518
1	0xbca9f9bb	-0.020748964
2	0x3d2e3f7a	0.042541005
3	0x3d7ac050	0.06121856
4	0x3ccd7ec1	0.025084855
5	0x3b3e61a9	0.002904991
6	0x3ca364b8	0.019945487
7	0xbd2611a2	-0.04054416
8	0x3db279d0	0.0871464
9	0xbc91806c	-0.017761432
10	0xbc697c9c	-0.014250901
11	0x3d0dd9fb	0.03463171
12	0x3d35c0f3	0.044373464
13	0xbc6699c9	-0.014074751
14	0xbd7bc251	-0.06146461
15	0x3ca26136	0.019821744
16	0x3b911808	0.0044279136
17	0xbc8f2364	-0.01747293
18	0x3d0794ac	0.03310077
19	0x3cb68b27	0.02228315
20	0x3d001121	0.031266335
21	0x3dd91095	0.10598866
22	0xbd28be9d	-0.041197408
23	0x3d8bda42	0.06828739
24	0x3b7653a5	0.0037586477
25	0xbc7d4308	-0.015457876
26	0x3d7cfffd	0.061767567
27	0xbda9af60	-0.08285403
28	0x3ba4613f	0.0050164755
29	0xbd85e1f8	-0.06537241
30	0x3d453774	0.048148587
31	0x3cdba577	0.026812298
32	0x3cc72334	0.024308778
33	0xbc13e683	-0.009027126
34	0xbc2d9c60	-0.010596365
35	0xbd1c8569	-0.038213167
36	0x3d1364c5	0.035984773
37	0xbbc58894	-0.0060282443
38	0x3d039bfd	0.032131184
39	0xbd854eec	-0.06509194
40	0x3d0512d2	0.03248865
41	0xbca99c28	-0.020704344
42	0x3c5f68a8	0.013635792
43	0xbc40b677	-0.011762253
44	0x3d4b39f1	0.049615804
45	0x3cbb9db7	0.022902353
46	0x3d3b79ec	0.04577057
47	0xbda00b13	-0.07814612
48	0xbcbe43b8	-0.02322565
49	0xbcc83898	-0.024441049
50	0x3dee77fe	0.116439804
51	0xbd92a34b	-0.07160052
52	0x3ccb3e8f	0.024810104
53	0xbb46baa1	-0.0030323642
54	0xbca3e7dd	-0.020008022
55	0xbd07f160	-0.033189178
56	0x3d5722bd	0.052523363
57	0x3d26f194	0.04075773
58	0xbd95b26e	-0.073094234
59	0x3d8b2c05	0.067955054
60	0xbc49b4a1	-0.012311132
61	0xbcd637b5	-0.02614961
62	0xbd884a2c	-0.06654772
63	0x3d91258c	0.070872396
64	0x3d38065f	0.04492795
65	0xbd8401c6	-0.06445651
66	0x3da4fecc	0.08056411
67	0x3d75badb	0.059992652
68	0x3cc51c5a	0.02406137
69	0xbc23f921	-0.010008127
70	0x3b685f3a	0.003545715
71	0x3d710ac0	0.058848143
72	0x3d113452	0.035450287
73	0xbd9b3d17	-0.07580011
74	0x3da384b5	0.07984296
75	0x3d88cec7	0.06680065
76	0xbc9e0195	-0.019287864
77	0xbd8caf06	-0.068693206
78	0x3cd2302a	0.025657732
79	0x3b6458cc	0.0034842966
80	0xbce5e564	-0.028063484
81	0x3dc2daea	0.09514411
82	0xbd08845d	-0.033329356
83	0x3c03cbd1	0.008044199
84	0xbcecf641	-0.028926017
85	0xbd8afef9	-0.067869134
86	0xbca7b16e	-0.020470347
87	0x3c9fe028	0.019516066
88	0xbd8e6d63	-0.069544576
89	0xbcbca360	-0.023027122
90	0xbbe6afd4	-0.0070400033
91	0x3d55d9a3	0.052209508
92	0xbd776bd4	-0.060405567
93	0xba9419fe	-0.001129925
94	0xbcc5ff72	-0.024169657
95	0x3ca64e24	0.020300932
96	0xbdbf9976	-0.09355442
97	0xbc3d14e9	-0.01154063
98	0x3cc7189a	0.024303723
99	0xbdb078c9	-0.08616788
100	0x3de6137e	0.112341866
101	0x3dc73325	0.09726552
102	0xbd216372	-0.03940148
103	0xbd48ec7c	-0.049053654
104	0x3b8aa070	0.0042305514
105	0xbc606068	-0.01369486
106	0xbbfc0df4	-0.007692093
107	0xbcaff952	-0.02148119
108	0xbd50aae5	-0.050944228
109	0xbda3ec50	-0.080040574
110	0xbd186931	-0.037209693
111	0x3a859441	0.0010191278
112	0x3d03979e	0.032127015
113	0xbd5a59ec	-0.053308412
114	0x3ca62641	0.020281913
115	0xbd8a15df	-0.06742453
116	0x3c5ff599	0.013669395
117	0xbd308d7d	-0.043103684
118	0xbd60f1d6	-0.054918133
119	0x3b283447	0.0025665925
120	0x3ca69c2c	0.02033814
121	0x3d921d88	0.07134539
122	0x39047eb3	0.000126357
123	0x3d6e5a2e	0.05819147
124	0xbc62c08b	-0.013839851
125	0xbd1afa0c	-0.03783612
126	0x3d940ed7	0.07229393
127	0xbc934b01	-0.0179801
128	0x3dd5289c	0.10408136
129	0xbd214328	-0.039370686
130	0x3d039982	0.03212882
131	0x3db2e574	0.08735171
132	0x3dd33c2b	0.103142105
133	0xbb97a33a	-0.0046276124
134	0x3d99e11e	0.07513641
135	0x3dd686e0	0.10474944
136	0x3d8181ec	0.06323609
137	0x3d844b7f	0.06459712
138	0xbd5bbd9b	-0.05364762
139	0x3dadde5b	0.084896766
140	0xbdb90da7	-0.09035807
141	0xbcc96b1f	-0.024587212
142	0x3d7048ca	0.058663167
143	0xbb87a966	-0.004140067
144	0x3dbb6d7c	0.09151742
145	0xbc872744	-0.016498215
146	0x3d5d86cc	0.05408363
147	0x3da72600	0.08161545
148	0x3caa2fd7	0.020774765
149	0xbcf179ad	-0.029476965
150	0xbcc7677f	-0.024341343
151	0xbdff39a9	-0.1246217
152	0x3d230c38	0.039806575
153	0x3cbfb54e	0.023401882
154	0x3caae847	0.020862712
155	0x3c717b62	0.014738889
156	0xbd968628	-0.07349807
157	0x3d491658	0.049093574
158	0x3ccbc761	0.024875345
159	0x3d00cc18	0.03144464
160	0xbd19a4ac	-0.03751056
161	0xbc83cbc9	-0.016088383
162	0x3d085d05	0.033291835
163	0x3c81d1b6	0.015847068
164	0xbcfa9f8b	-0.030593654
165	0x3dda0e49	0.10647256
166	0x3daefc3b	0.08544203
167	0xbcee3dc5	-0.029082188
168	0xbd53fb33	-0.051753234
169	0x3d965a31	0.073414214
170	0x3d499060	0.049209952
171	0xbbeebde4	-0.0072858203
172	0x3dca9681	0.098919876
173	0xbbfff548	-0.007811222
174	0xbca83a96	-0.020535748
175	0xbd4390c1	-0.04774547
176	0x3dd31b54	0.10307947
177	0xbc0b0602	-0.008485319
178	0x3da93ba1	0.082633264
179	0xbd0f811e	-0.035035245
180	0xbda12133	-0.078676604
181	0x3cfe2ea8	0.031028107
182	0xbd6c9208	-0.057756454
183	0x3c9c4cc1	0.019079568
184	0xb9bfaa46	-0.00036557222
185	0x3dc1b515	0.09458367
186	0x3d5b54ea	0.053547777
187	0xbceb9568	-0.028757766
188	0xbde73a8f	-0.11290466
189	0xbdeb63a7	-0.114936166
190	0xbd8811bb	-0.06644007
191	0x3c033887	0.008009083
192	0xbd08f5e7	-0.033437636
193	0x3cc64a39	0.024205314
194	0x3d6be095	0.057587225
195	0x3d2717aa	0.040794052
196	0x3d55f0e6	0.05223169
197	0xbd118e96	-0.03553637
198	0xbcf2536e	-0.029580798
199	0x3d5ac215	0.053407747
200	0xbd79ffe4	-0.061035052
201	0xbd2f48e8	-0.04279414
202	0x3c2d3407	0.010571486
203	0x3c5efc84	0.013610009
204	0xbdc4dd07	-0.0961247
205	0xbc9f9a82	-0.019482855
206	0x3d33d43a	0.043903567
207	0x3c123d58	0.008925758
208	0xbd3abc22	-0.045589574
209	0xbd818976	-0.06325047
210	0x3d941574	0.07230654
211	0xbdb6c4a3	-0.08924224
212	0xbd5afff0	-0.053466737
213	0xbd4d257e	-0.050084583
214	0x3d446f32	0.047957607
215	0xbbebae49	-0.0071924073
216	0xbce37182	-0.027764086
217	0x3d39cf1a	0.045363523
218	0x3da6153c	0.08109519
219	0x3d468c88	0.048473865
220	0xbd9716f2	-0.07377423
221	0x3ad10a6f	0.0015948544
222	0xbd4ae187	-0.049531486
223	0xbc78619c	-0.015159991
224	0x3deeb685	0.116559066
225	0xbae5daf6	-0.0017536569
226	0x3d9b66e1	0.07587982
227	0xbdb2f008	-0.087371886
228	0xbce787d6	-0.028263014
229	0xbd7714cc	-0.060322568
230	0x3b06425c	0.002048633
231	0xbdcdd649	-0.10050637
232	0xbd21559d	-0.039388288
233	0x3a092ca4	0.0005232787
234	0x3d817ef0	0.063230395
235	0xbbe4131c	-0.006960286
236	0xbd2a9bf4	-0.041652635
237	0x3d2a8b51	0.04163677
238	0x3d12f7d4	0.03588088
239	0xbdb9f99f	-0.090808146
240	0x3d282b1f	0.04105675
241	0x3d999503	0.07499125
242	0xbd28a6f0	-0.04117483
243	0x3c3bac30	0.011454627
244	0x3d44ac2a	0.04801575
245	0xbdb67f2c	-0.08910975
246	0xbd903287	-0.07040887
247	0xbdeae85d	-0.11470101
248	0x3d3f76ba	0.046744086
249	0x3c357767	0.011075831
250	0x3d7a3a93	0.061091017
251	0x3d34c82b	0.044136208
252	0xbd9945da	-0.07484026
253	0xbcf9b10c	-0.03047993
254	0xb9731409	-0.0002318175
255	0x3cc88934	0.024479486

lstm.bias_ih_l1 f4 [256]
0	0x3d5b25e7	0.053502943
1	0xbca229fc	-0.01979541
2	0xbddae97c	-0.10689065
3	0x3d96250a	0.073312834
4	0x3dcacd2c	0.09902415
5	0xbdd720b0	-0.105042815
6	0xbbf950ab	-0.0076084933
7	0x3b452cdc	0.0030086553
8	0x3d5e72e7	0.0543088
9	0x3bd70d36	0.006562854
10	0x3d220e0d	0.03956418
11	0x3da3355c	0.07969162
12	0x3debf7f2	0.11521901
13	0xbdc9d566	-0.09855156
14	0xbb0ec36a	-0.0021783956
15	0xbd4ddc6a	-0.05025903
16	0x3d151677	0.036398377
17	0xbd56e076	-0.052460156
18	0xbc41321b	-0.011791731
19	0xbd944c3a	-0.072411016
20	0xbddd6ad0	-0.108113885
21	0xbdd516fe	-0.10404776
22	0xbdbc35c9	-0.09189946
23	0x3a94064f	0.0011293384
24	0x3de5e938	0.112261236
25	0xbe032291	-0.12806155
26	0x3cca3e23	0.024687832
27	0xbba4c062	-0.0050278166
28	0xbd38c85e	-0.04511296
29	0xbba25e22	-0.004955069
30	0xbd2ca5eb	-0.04215042
31	0xbd22bdd8	-0.03973183
32	0xbd50d6b7	-0.050986018
33	0x3d93807e	0.07202242
34	0xbdb43009	-0.087982245
35	0x3da4e228	0.080509484
36	0x3d262319	0.040560815
37	0x3dbad683	0.09122946
38	0xbc694b26	-0.014239108
39	0x3e015617	0.12630497
40	0xbda2faa3	-0.079579614
41	0xbcac80a2	-0.02105743
42	0x3cdd4abe	0.027013179
43	0xbdb369fa	-0.08760448
44	0xbd694d24	-0.056958333
45	0x3dedfea5	0.11620835
46	0x3dacafb6	0.08431952
47	0x3dc71664	0.097210675
48	0x3cf3b919	0.029751347
49	0x3d971c32	0.07378425
50	0xbe0a48e8	-0.13504374
51	0xba81a67d	-0.0009891536
52	0x3de58a5a	0.11208029
53	0xbc8cd74f	-0.01719251
54	0xbcd8d63b	-0.02646934
55	0xbc6ff84a	-0.014646599
56	0xbe0194dc	-0.12654442
57	0x3c8af2ba	0.016961444
58	0x3d4f4ca6	0.050610207
59	0xbdb83847	-0.08995109
60	0x3d36c796	0.044623934
61	0xbd7ea56e	-0.062169485
62	0x3d66c892	0.056343623
63	0xbd691266	-0.05690231
64	0xbd9198ed	-0.071092464
65	0x3b4d9031	0.0031366462
66	0xbc329ca5	-0.010901605
67	0x3dc2a247	0.09503608
68	0xbd840702	-0.06446649
69	0x3dda38eb	0.106553875
70	0x3c8e6ba8	0.017385319
71	0x3cb42a94	0.02199296
72	0xbbf4610e	-0.007457859
73	0x3bab4e55	0.0052278438
74	0x3d05abfc	0.03263472
75	0x3c284d18	0.010272287
76	0x3dd5458a	0.10413654
77	0xbde6ad8f	-0.112635724
78	0xbdd31082	-0.10305883
79	0xbd5d3d77	-0.054013696
80	0xbe039f51	-0.12853743
81	0xbe01bc4d	-0.12669487
82	0xbdc094cd	-0.094033815
83	0x3b21ceee	0.002468999
84	0xbd375394	-0.04475744
85	0xbdd3623c	-0.10321471
86	0x3c68228a	0.014168391
87	0x3df13571	0.11777771
88	0x3d728b6b	0.05921499
89	0xbdd117de	-0.102096304
90	0x3d8bedd6	0.06832473
91	0xbd8ef0e0	-0.06979537
92	0xbcc00922	-0.023441855
93	0xbcebcb8a	-0.028783578
94	0x3dca97f8	0.09892267
95	0xbd6f14c9	-0.05836943
96	0xbdc6619d	-0.09686587
97	0x3d526de8	0.051374346
98	0xbdc5c48d	-0.0965663
99	0xbd8117af	-0.063033454
100	0xbcc63d47	-0.024199141
101	0x3da7fc74	0.082024485
102	0xbd12965d	-0.03578793
103	0x3cac9cf5	0.021070937
104	0xbdffd710	-0.12492192
105	0x3d473d8b	0.048642676
106	0xbda834b7	-0.082131796
107	0xbd2aa1bf	-0.04165816
108	0x3d19cedd	0.037550796
109	0xbd1efef3	-0.038817357
110	0x3d5fbbd3	0.054622483
111	0x3c8d2748	0.017230645
112	0xbd846314	-0.0646421
113	0xbdc7f185	-0.09762863
114	0x3cbb6c52	0.0228788
115	0xbdde5744	-0.10856488
116	0xbd2953e4	-0.04133977
117	0x3d174218	0.036928266
118	0xbcd24b7a	-0.025670756
119	0xbcc9b5ab	-0.024622759
120	0xbd06065b	-0.032720905
121	0xbc58afe1	-0.013225527
122	0x3db1405e	0.08654855
123	0xbd2d3589	-0.042287383
124	0x3acec886	0.0015776313
125	0xbde9f695	-0.11423985
126	0xbd0ddf8a	-0.03463701
127	0x3d9b8323	0.07593372
128	0x3d60adc2	0.05485321
129	0xbcaefc1f	-0.021360455
130	0x3c856d87	0.016287578
131	0x3d371cc6	0.044705175
132	0xbd6fc211	-0.058534686
133	0x3da99566	0.082804486
134	0x3d8d3ed0	0.06896746
135	0xbd200bb1	-0.03907365
136	0x3db58c5c	0.08864662
137	0x3d1cb6b2	0.03826017
138	0xbd5dd552	-0.054158516
139	0xbda40842	-0.080093876
140	0xbcdaed43	-0.026724463
141	0x3de7ee03	0.11324694
142	0x3d4826c3	0.04886509
143	0x3dc8eb0b	0.09810456
144	0xbce34eda	-0.02774756
145	0xbdbf9e4c	-0.093563646
146	0xbc97062f	-0.018435566
147	0xbdc547e5	-0.096328534
148	0x3d8b0f4e	0.067900285
149	0xbca1af66	-0.019736957
150	0xbd0711df	-0.032976028
151	0xbc563e0c	-0.013076317
152	0xbc92bb49	-0.01791157
153	0xbbf25e2d	-0.0073964805
154	0x3d6965c3	0.056981813
155	0xbd3634eb	-0.04448406
156	0x3d308111	0.043091837
157	0xbbc1a94f	-0.0059100757
158	0x3db2178b	0.08695897
159	0x3cc59372	0.024118159
160	0x3da20c54	0.07912508
161	0xbda4cfbb	-0.08047434
162	0x3d3f969f	0.046774503
163	0x3d7c45ba	0.061589934
164	0x3df06d84	0.117396384
165	0x3d0703a6	0.032962464
166	0x3c1fbdff	0.009749888
167	0x3dd71bd5	0.105033554
168	0xbd9d2d48	-0.07674652
169	0xbd12b138	-0.03581354
170	0x3d25906d	0.04042094
171	0xbc107e25	-0.008819138
172	0x3e063a88	0.13108265
173	0x3dcf6795	0.101271786
174	0x3dc45239	0.09585995
175	0x3d86d723	0.06584003
176	0x3ce534ed	0.027979339
177	0x3d436566	0.047704123
178	0x3d832cec	0.064050525
179	0x3bf328fe	0.007420658
180	0xbcca14de	-0.024668153
181	0x3cf91564	0.030405708
182	0xbb7a10b3	-0.0038156926
183	0xbdc04abd	-0.09389255
184	0x3d01d21b	0.031694513
185	0x3dc0f946	0.09422545
186	0x3af11f1a	0.001839611
187	0x3c778236	0.015106728
188	0x3c1a960a	0.009435186
189	0xbdad29fc	-0.084552735
190	0xbdce8371	-0.10083664
191	0xbd4a98d4	-0.049462155
192	0xbd9615f7	-0.07328408
193	0xbdd9f456	-0.106423065
194	0x3d57fb20	0.052729726
195	0x3e00b649	0.12569536
196	0xbd1d8cd4	-0.038464382
197	0x3dbea75a	0.093092635
198	0x3d43ff7c	0.04785107
199	0x3df487ca	0.11939962
200	0x3c7ad684	0.015309934
201	0x3d81e83f	0.063431256
202	0x3d8bf21c	0.06833288
203	0xbd640b78	-0.055675
204	0x3d870f69	0.06594736
205	0x3c979ace	0.018506434
206	0xbe150ef4	-0.14556485
207	0xbdaad653	-0.0834166
208	0x37abf15b	2.0497178e-05
209	0xbd23c158	-0.03997931
210	0xbda22b8b	-0.079184614
211	0xbc30e59f	-0.010796933
212	0x3c439ca2	0.0119392
213	0xbd2b75c7	-0.041860368
214	0xbdd536eb	-0.104108654
215	0xbd64a014	-0.055816725
216	0xbd28f31d	-0.041247476
217	0x3db79041	0.08963061
218	0x3bbd224d	0.0057719112
219	0xbdce851b	-0.100839816
220	0x3dcfed2d	0.101526596
221	0x3d645395	0.055743773
222	0xbbbdc36e	-0.0057911193
223	0xbc075bfe	-0.008261679
224	0xbdb1a550	-0.08674109
225	0xbc742fc4	-0.014903966
226	0x3da7b582	0.08188917
227	0xbdc79c24	-0.09746578
228	0x3c84278e	0.016132142
229	0x3d54ca75	0.05195089
230	0xbd954534	-0.0728859
231	0x3d24243e	0.040073626
232	0x3d395e92	0.045256205
233	0x3de9384f	0.11387693
234	0xbd15f2f7	-0.036608662
235	0xbdb189c8	-0.08668858
236	0x3d60736f	0.054797586
237	0x3d5a095c	0.053231582
238	0x3e2e6a88	0.17032826
239	0x3dabdbb7	0.08391517
240	0x3e0f5476	0.13997063
241	0x3e05068f	0.12990783
242	0xbd67fb9c	-0.056636438
243	0x3d708d11	0.05872828
244	0x3de649b1	0.11244524
245	0xbd83124e	-0.06399976
246	0x3bb176f5	0.005415792
247	0x3cde83a5	0.027162382
248	0x3c960482	0.018312696
249	0x3c790b3c	0.015200432
250	0xbd4274a7	-0.04747453
251	0xbd9f58b5	-0.077805914
252	0x3c620014	0.013793964
253	0xbbc28a98	-0.005936932
254	0x3cd978d5	0.026546875
255	0x3d09be76	0.033628903
