Cheyi Wu/Garch/GRU-Garch/best_model.pth (torch, 161250 bytes, 13 tensors)

batch_norm.weight f4 [7]
1.0129046 1.0143965 1.0118421 1.0049621 0.99975336 1.021373 1.0139815
00000000: dca6 813f bfd7 813f 0b84 813f 99a2 803f
00000010: d6ef 7f3f 5abc 823f 25ca 813f

batch_norm.bias f4 [7]
-0.009049481 0.00041367492 -0.008911336 0.007952955 0.0017436624 0.0018368862 -0.004435337
00000000: 4644 14bc 82e2 d839 da00 12bc 1c4d 023c
00000010: 9a8b e43a acc3 f03a 4e56 91bb

batch_norm.running_mean f4 [7]
-0.014610593 -0.014738337 -0.014830378 0.020155583 -0.023380402 -0.03669787 -0.014852953
00000000: 4561 6fbc 1179 71bc 1dfb 72bc 521d a53c
00000010: 4288 bfbc 8150 16bd cd59 73bc

batch_norm.running_var f4 [7]
0.98309875 0.9825649 0.98329544 1.0358574 1.0159123 0.9035633 0.9828951
00000000: 5cac 7b3f 6089 7b3f 40b9 7b3f fa96 843f
00000010: 6a09 823f ed4f 673f 039f 7b3f

gru.weight_ih_l0 f4 [192, 7]
0.14200054 0.14969411 0.017624525 0.011098198 -0.0161595 0.09166922 -0.014480969 0.10053659
0.13722718 -0.06428504 0.042555008 0.030967727 0.15305243 0.044243563 0.06402225 -0.013862584
0.100591816 0.007274085 -0.06074826 0.04478516 -0.0533129 -0.017291613 -0.05309876 0.080886155
-0.06258424 -0.04467634 -0.047088757 -0.07710123 0.06563322 -0.069715776 0.1671984 -0.14903335
0.1131925 0.09797324 0.013582778 0.050156675 -0.007345731 0.07289019 0.10592376 -0.04247898
-0.020934831 -0.06171112 0.019885639 0.07861652 0.03904668 -0.03416177 0.06956487 0.043779045
0.030123103 -0.09464886 -0.14176998 -0.06634686 -0.0890354 0.06852366 0.037517913 0.034094937
0.058238056 0.016600162 0.11673633 -0.059036393 0.039751265 -0.08691571 0.05751593 -0.017566428
0.06325838 0.00020408345 0.037379622 -0.070379585 -0.010256438 -0.0487761 0.075736664 0.0048899087
0.08295931 -0.017974213 -0.13734584 -0.156557 -0.121354386 0.062988386 0.056957692 0.11674474
-0.10750421 -0.09737658 0.11412303 -0.037826773 0.032947935 -0.07244751 0.028164558 -0.034963027
-0.09651297 0.011733108 -0.016805952 -0.032678477 0.07338045 0.08444427 -0.12229431 -0.0859922
0.1313264 -0.042985987 -0.01734256 -0.09418377 -0.044176918 -0.021595972 -0.005910037 -0.058387414
0.030120816 -0.09791905 -0.11864738 -0.0810716 -0.13198476 -0.103631474 0.16415939 0.011345442
0.08358479 -0.07173436 -0.037162516 -0.09491863 0.042493366 -0.058237847 -0.00916136 -0.07680081
-0.0016454059 -0.04924452 0.04318654 -0.084435195 -0.124559306 -0.07563351 -0.0014914824 -0.05776744
0.14660788 -0.103252925 0.12861815 0.12240423 -0.0644481 0.07153649 -0.049395878 -0.06318272
-0.08294008 -0.14779517 -0.032517157 -0.042605054 0.05005612 -0.10163158 0.09456125 -0.14423423
-0.036384497 0.07194836 0.065961175 0.0691162 0.082424425 -0.1316926 0.12572336 -0.0706067
-0.06975472 -0.12576143 0.15832233 -0.047673605 0.11154074 -0.03673797 0.045667388 -0.03490298
0.1579466 0.06138661 0.050096538 -0.07577921 0.0593277 -0.006832039 -0.057106502 0.14183246
0.07458625 -0.022889055 -0.016104389 -0.052032497 0.098645024 -0.005220913 -0.024524594 -0.010118944
-0.061042894 0.077766836 0.036227424 -0.094600156 0.08646033 0.09744298 0.05730171 -0.010312521
0.10032518 0.032487545 0.07140754 0.013434774 0.0015883696 0.032520577 -0.0028801486 -0.017859839
0.03200539 0.103457 -0.0031435525 -0.008572114 -0.021777231 -0.030836422 0.005598986 0.13144885
-0.12223439 -0.10700587 0.08105771 0.07377735 0.018164815 -0.050047107 -0.10441371 -0.08698645
0.021081263 0.06693302 0.11057933 0.08830234 -0.0792135 -0.1116915 0.0083279945 0.16668953
0.049105715 0.002860975 0.0866029 -0.0117049785 -0.16513358 0.09195532 0.013250161 0.010468718
-0.15734906 0.05079882 0.06103476 0.13648304 -0.1041257 -0.19107965 -0.1350051 0.05040939
0.018550023 0.062547475 0.08713902 0.014546146 -0.052137863 -0.13644 -0.07286028 -0.083040856
0.08563433 -0.13524462 -0.027467232 -0.036953207 0.011347703 -0.081929214 -0.0759287 0.04701471
-0.03386478 0.10510478 -0.0048096664 -0.08642005 -0.018228067 -0.056880362 -0.034010794 -0.16268526
00000000: 9768 113e 6a49 193e 4f61 903c 37d5 353c
00000010: ee60 84bc 12bd bb3d 9641 6dbc 21e6 cd3d
00000020: 4885 0c3e e0a7 83bd 294e 2e3d 08b0 fd3c
00000030: c7b9 1c3e bd38 353d 191e 833d e41f 63bc
00000040: 1503 ce3d 735b ee3b 2bd3 78bd a570 373d
00000050: a15e 5abd 24a7 8dbc 167e 59bd a4a7 a53d
00000060: 2b2c 80bd 8afe 36bd 24e0 40bd 40e7 9dbd
00000070: b66a 863d 25c7 8ebd 0f36 2b3e 339c 18be
00000080: 78d1 e73d 32a6 c83d 4d8a 5e3c 1671 4d3d
00000090: 75b4 f0bb 7447 953d 8eee d83d 70fe 2dbd
000000a0: 867f abbc cdc4 7cbd 35e7 a23c b301 a13d
000000b0: 69ef 1f3d 36ed 0bbd 0778 8e3d a851 333d
000000c0: bac4 f63c 43d7 c1bd 262c 11be dde0 87bd
000000d0: 3158 b6bd 2256 8c3d 62ac 193d 22a7 0b3d
000000e0: 078b 6e3d 10fd 873c 7513 ef3d 25d0 71bd
000000f0: 39d2 223d dd00 b2bd d395 6b3d 78e7 8fbc
00000100: 9c8d 813d 3cff 5539 601b 193d 2c23 90bd
00000110: 9e0a 28bc 73c9 47bd d31b 9b3d 873b a03b
00000120: 92e6 a93d a83e 93bc 63a4 0cbe 7a50 20be
00000130: a688 f8bd 0e00 813d 784c 693d de17 ef3d
00000140: 2b2b dcbd 5f6d c7bd 56b9 e93d 3ff0 1abd
00000150: 6af4 063d 5c5f 94bd 5cb9 e63c 6435 0fbd
00000160: 98a8 c5bd 393c 403c a3ac 89bc ded9 05bd
00000170: 7d48 963d 1ef1 ac3d 7075 fabd ae1c b0bd
00000180: 6e7a 063e 1312 30bd fc11 8ebc 6ce3 c0bd
00000190: dbf2 34bd 09ea b0bc fca8 c1bb a427 6fbd
000001a0: eebf f63c c889 c8bd 66fd f2bd de08 a6bd
000001b0: 0327 07be bd3c d4bd 6619 283e 3ce2 393c
000001c0: 812e ab3d 77e9 92bd b937 18bd b364 c2bd
000001d0: 860d 2e3d cf8a 6ebd 8719 16bc be49 9dbd
000001e0: a9aa d7ba 9fb4 49bd 5fe4 303d 5cec acbd
000001f0: f318 ffbd bee5 9abd d87d c3ba 8d9d 6cbd
00000200: 6020 163e 4576 d3bd 7ab4 033e 12af fa3d
00000210: 5efd 83bd b981 923d 5553 4abd f165 81bd
00000220: 7ddc a9bd 9e57 17be b630 05bd a382 2ebd
00000230: a507 4d3d 3824 d0bd 54a9 c13d 23b2 13be
00000240: e907 15bd a959 933d a716 873d cb8c 8d3d
00000250: 23ce a83d 6dda 06be a0bd 003e 3f9a 90bd
00000260: 90db 8ebd 9bc7 00be 401f 223e 6645 43bd
00000270: 796f e43d 8e7a 16bd ba0d 3b3d 6df6 0ebd
00000280: c1bc 213e 8770 7b3d 0732 4d3d 2132 9bbd
00000290: 9a01 733d 4cdf dfbb 82e8 69bd 873c 113e
000002a0: adc0 983d d481 bbbc 5aed 83bc 0720 55bd
000002b0: 6706 ca3d 3114 abbb cde7 c8bc edc9 25bc
000002c0: 1d08 7abd 3844 9f3d 3563 143d babd c1bd
000002d0: 1d12 b13d 2f90 c73d 33b5 6a3d d9f5 28bc
000002e0: 4a77 cd3d a911 053d 1e3e 923d 871d 5c3c
000002f0: d730 d03a 4c34 053d e0c0 3cbb cc4e 92bc
00000300: 1518 033d 43e1 d33d 0f04 4ebb 0d72 0cbc
00000310: 2a66 b2bc aa9c fcbc b377 b73b 879a 063e
00000320: 0656 fabd e525 dbbd 9601 a63d 9418 973d
00000330: 61ce 943c 32fe 4cbd dbd6 d5bd f425 b2bd
00000340: 9db2 ac3c 2e14 893d 6a77 e23d dbd7 b43d
00000350: b03a a2bd 83be e4bd 2472 083c a9b0 2a3e
00000360: 1323 493d 327f 3b3b dc5c b13d 3dc6 3fbc
00000370: c718 29be 1253 bc3d 3417 593c fc84 2b3c
00000380: 1d20 21be 6c12 503d 96ff 793d 36c2 0b3e
00000390: db3f d5bd 62aa 43be c73e 0abe 147a 4e3d
000003a0: 38f6 973c e418 803d f175 b23d f552 6e3c
000003b0: 838e 55bd edb6 0bbe c537 95bd 5311 aabd
000003c0: 0d61 af3d 917d 0abe f602 e1bc 3f5c 17bd
000003d0: b7eb 393c 81ca a7bd 8280 9bbd 7f92 403d
000003e0: ccb5 0abd 2d41 d73d 689a 9dbb fffc b0bd
000003f0: 0753 95bc 62fb 68bd e74e 0bbd f796 26be

gru.weight_hh_l0 f4 [192, 64]
0.008897369 -0.08164345 -0.05474622 0.02460147 -0.08411982 -0.036893733 -0.025975741 -0.07400186
0.088949695 0.05706821 0.13624063 0.019338394 -0.11065108 0.07166859 0.022439977 -0.057253744
-0.100164555 -0.05521486 -0.1574939 0.04535214 0.059489995 -0.15199067 -0.048164904 -0.075708166
0.12578322 0.13573755 -0.024698805 0.15846002 -0.007954617 -0.09037787 0.023301179 0.078679696
0.074496694 0.031375103 0.0947357 0.04126497 0.03187167 -0.08676149 0.059115265 -0.113677524
0.13688013 -0.027852653 -0.12916455 0.0709383 0.006094695 -0.0694543 -0.08553089 0.050605774
0.16060527 -0.014027779 0.030981118 0.053561047 0.0417247 -0.0021560595 -0.059835784 -0.11869577
-0.02512681 -0.18027192 -0.11452498 0.07971545 -0.1153835 -0.12459961 0.0045102234 0.0078017535
-0.060666412 -0.0022367227 -0.014623231 0.03219261 0.027251694 -0.07488222 -0.05464498 -0.022839395
-0.05929168 0.046074666 0.02558221 0.0630467 0.01843067 0.07698014 -0.0052788216 -0.10713266
0.046290815 -0.13240598 -0.04737386 -0.020163707 -0.036287382 -0.073866986 0.13384402 0.07759158
0.06857131 0.12934828 -0.13738944 0.04057992 0.11846967 0.09569383 -0.12359762 0.06489066
-0.11949579 0.0067788027 -0.026842127 -0.12263871 -0.1636677 -0.06366982 0.021189751 0.055033613
-0.097271346 -0.0550053 -0.009170913 -0.08898177 0.08691696 0.13543381 0.004833134 -0.06556573
0.06899955 0.07827531 0.069222495 -0.040221624 -0.08301409 0.041173063 0.038228113 -0.04841905
-0.047242817 -0.11511735 0.062089372 0.02845717 0.07158494 0.047242217 0.050035022 0.03624968
-0.023630902 0.08958241 -0.12399809 0.043178085 -0.020386258 0.06753963 0.0010529292 -0.044595152
-0.012716919 0.08616705 -0.08264489 -0.08292141 -0.06413198 -0.027699906 0.0402831 0.08289857
-0.011433438 0.095116615 -0.05855812 -0.09537911 -0.093677446 -0.09418129 -0.08641057 -0.095055856
-0.076393865 0.030105509 0.07594954 0.117738016 0.08877524 -0.008143888 0.03828335 -0.07373071
0.033023268 -0.121117495 0.05082663 0.022644319 0.019255565 0.04699328 -0.0996767 0.11402283
0.052849963 0.08634315 0.0226999 0.0629931 0.08341542 0.055114515 0.0865604 -0.015476302
0.08747191 0.014034981 0.072018996 0.15751407 0.039346598 -0.040424045 0.0026988685 0.039449915
0.014087465 -0.02391131 0.08504445 0.077936016 -0.07746689 -0.028908806 0.030301431 -0.08629742
0.025119439 -0.03471786 -0.06221613 -0.028966414 -0.054162763 0.1248727 0.04958894 0.12561919
0.025142848 0.023941785 0.038589135 0.014088179 -0.114366494 -0.041514717 -0.035053536 0.001131578
0.047062103 0.07753778 0.111257166 -0.01037672 -0.066128045 -0.08541376 -0.09884973 -0.07124438
0.0509264 0.061822023 0.116595946 -0.04954153 -0.042783435 -0.041703153 0.0045286217 0.03327903
0.009349567 0.0036688372 0.014363549 0.051817995 -0.031399067 -0.080056556 0.021710113 -0.008070608
-0.06361108 0.056920115 0.0072866287 -0.05282721 -0.066628955 -0.02604784 -0.09622298 0.019606367
-0.013585207 0.047972757 0.019102942 0.012678287 0.042483527 0.109625965 -0.051104624 0.0791991
0.032108564 -0.04421944 0.060686667 -0.10286461 -0.033829637 -0.0390741 -0.07538757 0.08606612
00000000: 45c6 113c ae34 a7bd 933d 60bd 0689 c93c
00000010: 0347 acbd e21d 17bd 14cb d4bc 4a8e 97bd
00000020: 422b b63d 5bc0 693d aa82 0b3e 8d6b 9e3c
00000030: 099d e2bd fbc6 923d 0bd4 b73c e782 6abd
00000040: 1323 cdbd fa28 62bd 1546 21be 2ac3 393d
00000050: c8ab 733d 71a3 1bbe 9048 45bd e20c 9bbd
00000060: 51cd 003e c9fe 0a3e 2655 cabc 5843 223e
00000070: 1554 02bc 0818 b9bd 1de2 be3c d222 a13d
00000080: b991 983d 2e83 003d ca04 c23d 7505 293d
00000090: de8b 023d 02b0 b1bd d922 723d c3cf e8bd
000000a0: 4e2a 0c3e 3f2b e4bc b643 04be 1948 913d
000000b0: 02b6 c73b 0e3e 8ebd d22a afbd 0048 4f3d
000000c0: b575 243e c5d4 65bc 1dcc fd3c d462 5b3d
000000d0: 85e7 2a3d ad4c 0dbb 5e16 75bd c516 f3bd
000000e0: bdd6 cdbc 3499 38be 138c eabd db41 a33d
000000f0: 2f4e ecbd 152e ffbd 7fca 933b daa5 ff3b
00000100: 587d 78bd fb95 12bb 4796 6fbc 66dc 033d
00000110: f23e df3c d95b 99bd 6ad3 5fbd af19 bbbc
00000120: d5db 72bd cab8 3c3d c891 d13c a11e 813d
00000130: ebfb 963c c3a7 9d3d f7f9 acbb 5e68 dbbd
00000140: 709b 3d3d 6f95 07be 180b 42bd 5c2e a5bc
00000150: 14a2 14bd 9347 97bd 680e 093e 56e8 9e3d
00000160: 1d6f 8c3d e073 043e d1af 0cbe 2137 263d
00000170: 3aa0 f23d 20fb c33d c020 fdbd 65e5 843d
00000180: 35ba f4bd b820 de3b 05e4 dbbc 012a fbbd
00000190: 8198 27be 5365 82bd 2196 ad3c ed6a 613d
000001a0: 3336 c7bd 3d4d 61bd 9941 16bc 133c b6bd
000001b0: 8501 b23d 29af 0a3e 445f 9e3b 5347 86bd
000001c0: a34f 8d3d ce4e a03d 86c4 8d3d 6ebf 24bd
000001d0: 4b03 aabd 16a5 283d 1595 1c3d 0e53 46bd
000001e0: af81 41bd a5c2 ebbd 6d51 7e3d 031f e93c
000001f0: 209b 923d 0e81 413d 86f1 4c3d 8b7a 143d
00000200: 9895 c1bc fc76 b73d b6f2 fdbd 81db 303d
00000210: 1501 a7bc 3852 8a3d 7102 8a3a 68a9 36bd
00000220: a05a 50bc 5a78 b03d b941 a9bd b3d2 a9bd
00000230: a157 83bd eaea e2bc e4ff 243d bac6 a93d
00000240: 5153 3bbc 80cc c23d a4da 6fbd 1f56 c3bd
00000250: f6d9 bfbd 1fe2 c0bd 06f8 b0bd a5ac c2bd
00000260: 6374 9cbd d49f f63c 6f8b 9b3d a120 f13d
00000270: cbcf b53d f16d 05bc 01cf 1c3d 2000 97bd
00000280: 6843 073d 730c f8bd 962f 503d 9480 b93c
00000290: d9bd 9d3c 077c 403d 4c23 ccbd cd84 e93d
000002a0: 3479 583d add4 b03d 24f5 b93c 8702 813d
000002b0: b4d5 aa3d c2bf 613d 9446 b13d 5190 7dbc
000002c0: 7924 b33d faf2 653c b27e 933d 5e4b 213e
000002d0: e629 213d af93 25bd 80df 303b 3c96 213d
000002e0: 1ccf 663c a7e1 c3bc c92b ae3d eb9c 9f3d
000002f0: f6a6 9ebd 29d2 ecbc b53a f83c b4bc b0bd
00000300: 48c7 cd3c 5134 0ebd 57d6 7ebd f94a edbc
00000310: c6d9 5dbd 42bd ff3d c61d 4b3d 51a2 003e
00000320: 60f8 cd3c 9021 c43c a40f 1e3d 1bd2 663c
00000330: fb38 eabd 560b 2abd 4c94 0fbd 7551 943a
00000340: 31c4 403d 21cc 9e3d ccda e33d 1e03 2abc
00000350: 246e 87bd 69ed aebd ba71 cabd 93e8 91bd
00000360: 3398 503d 1739 7d3d dbc9 ee3d 0fec 4abd
00000370: af3d 2fbd edd0 2abd d564 943b 984f 083d
00000380: ed2e 193c e070 703b 1755 6b3c 1b3f 543d
00000390: 4f9c 00bd b1f4 a3bd 68d9 b13c 953a 04bc
000003a0: 8746 82bd 1125 693d acc4 ee3b 5861 58bd
000003b0: c374 88bd 4862 d5bc 8e10 c5bd 889d a03c
000003c0: 7d94 5ebc 157f 443d c67d 9c3c 97b8 4f3c
000003d0: 3503 2e3d 9483 e03d 1553 51bd 2333 a23d
000003e0: 4584 033d 721f 35bd 9592 783d aeaa d2bd
000003f0: f290 0abd 2a0c 20bd cc64 9abd 6f43 b03d

gru.bias_ih_l0 f4 [192]
-0.05783836 -0.10938447 0.02903794 0.003446761 -0.14963773 0.11794119 0.044966675 -0.09747148
-0.037516743 0.082103126 -0.084380575 0.01670662 0.028846469 -0.10657632 -0.093398966 -0.033848003
-0.10242695 0.11773997 0.025376465 -0.05037468 -0.018528594 -0.027563808 0.013568568 0.06764938
-0.11559404 -0.059383478 0.037272427 -0.08202397 -0.010254754 -0.036582172 0.070032194 -0.08298616
0.095318474 0.032979116 -0.09227078 -0.021091595 -0.026845833 -0.12531523 -0.14027467 0.08890749
0.059243064 -0.107097976 0.0059043965 0.053752873 0.06669909 0.11438458 0.07511238 0.090072334
-0.114999175 -0.03291219 0.059506763 -0.12751374 -0.12690718 0.052451488 0.07684406 0.03414912
0.062133554 0.04930013 0.018173827 -0.023417916 0.009860973 -0.052015036 0.081105225 0.07478022
-0.0690342 0.011293671 -0.03253816 0.10981851 -0.12995622 0.012750756 -0.059883438 0.07991966
-0.024992188 -0.002077942 -0.16928647 -0.09937854 0.116268456 -0.009921719 0.020216508 -0.14285874
0.06585782 -0.020909786 -0.038360246 0.12789881 0.07418112 -0.145417 -0.09878233 0.047687784
-0.017483918 0.085907154 0.054882586 -0.045862548 -0.071629606 -0.025508711 0.08281669 0.09320898
-0.08433118 -0.08062268 0.009536291 -0.13873859 -0.028862884 0.0020750517 0.09067098 -0.03581752
0.12034284 0.09371199 -0.062459048 0.0070444006 0.057914004 -0.038512364 -0.07824598 -0.013217987
0.02779404 -0.093259886 -0.13741258 -0.06526092 -0.1333322 0.08528352 -0.08661207 -0.06611244
-0.069267355 -0.07586189 0.065607086 -0.058151606 0.06385621 -0.07989228 0.088132404 -0.0052000782
-0.015207275 0.0038119846 0.044035077 -0.04878545 -0.012276581 -0.08568344 -0.07775619 0.066419795
-0.022607941 -0.060568992 0.003537844 0.06242283 0.107998595 -0.025160428 0.045851726 0.010471401
-0.0707529 0.03611652 0.016495386 0.049312633 0.09296322 0.056615964 0.02171371 -0.08080527
-0.09470661 0.050034706 -0.06464429 -0.010779573 0.07411209 0.056700267 -0.011083691 0.0128995925
0.0017203899 0.0016815225 0.10021222 -0.06415204 0.101740465 -0.0038623908 0.113621436 -0.053305756
0.06593237 -0.06848077 -0.09448149 0.061645586 0.034218784 0.11135415 0.054016724 -0.050100923
-0.0776234 0.074433364 -0.022304391 -0.06709064 -0.09208269 -0.06935078 -0.04838876 -0.09460491
0.1069135 0.025325054 0.041603293 -0.06374546 0.005077366 0.08481964 -0.03208261 0.089153476
00000000: ebe7 6cbd f704 e0bd f9e0 ed3c 0ee3 613b
00000010: a23a 19be 278b f13d fa2e 383d 219f c7bd
00000020: 28ab 19bd af25 a83d b9cf acbd 52dc 883c
00000030: 6e4f ec3c b044 dabd f547 bfbd 34a4 0abd
00000040: 39c5 d1bd a721 f13d 4ee2 cf3c ae55 4ebd
00000050: 47c9 97bc 7fcd e1bc b34e 5e3c c28b 8a3d
00000060: 91bc ecbd 173c 73bd f9aa 183d 2ffc a7bd
00000070: 8e03 28bc 30d7 15bd 0a6d 8f3d a6f4 a9bd
00000080: 5536 c33d 1c15 073d 76f8 bcbd 48c8 acbc
00000090: cbeb dbbc a352 00be 2aa4 0fbe 2115 b63d
000000a0: dba8 723d 2f56 dbbd ab79 c13b f92b 5c3d
000000b0: 8899 883d 7642 ea3d 85d4 993d d877 b83d
000000c0: b084 ebbd efce 06bd 5dbd 733d f692 02be
000000d0: f5f3 01be 5fd7 563d 6b60 9d3d f3df 0b3d
000000e0: c17f 7e3d efee 493d 47e1 943c eed6 bfbc
000000f0: eb8f 213c b80d 55bd 7f1a a63d 5f26 993d
00000100: cd61 8dbd 1709 393c bc46 05bd 87e8 e03d
00000110: 3e13 05be 8ce8 503c 5648 75bd ebac a33d
00000120: 6bbc ccbc 152e 08bb 6f59 2dbe fa86 cbbd
00000130: 281e ee3d b58e 22bc 179d a53c 9049 12be
00000140: 77e0 863d 004b abbc a21f 1dbd e8f7 023e
00000150: 45ec 973d 32e8 14be 644e cabd 4454 433d
00000160: 6f3a 8fbc 17f0 af3d 90cc 603d 5eda 3bbd
00000170: 8bb2 92bd a5f7 d0bc cc9b a93d 5ae4 be3d
00000180: d3b5 acbd 811d a5bd 1a3e 1c3c 7d11 0ebe
00000190: db71 ecbc 97fd 073b b5b1 b93d 64b5 12bd
000001a0: 4f76 f63d 12ec bf3d 0fd5 7fbd b7d4 e63b
000001b0: 3c37 6d3d 24bf 1dbd 6e3f a0bd 4190 58bc
000001c0: 54b0 e33c 0aff bebd e2b5 0cbe 84a7 85bd
000001d0: 3c88 08be 20a9 ae3d ab61 b1bd f565 87bd
000001e0: 0bdc 8dbd 7b5d 9bbd 025d 863d 6130 6ebd
000001f0: 0bc7 823d 909e a3bd c37e b43d 6b65 aabb
00000200: ef27 79bc 7dd2 793b 205e 343d 41d3 47bd
00000210: b623 49bc cd7a afbd a33e 9fbd 1a07 883d
00000220: 4a34 b9bc 3117 78bd 2cdb 673b 15af 7f3d
00000230: 5e2e dd3d 3e1d cebc 05cf 3b3d 3d90 2b3c
00000240: e5e6 90bd ebee 133d 5521 873c 0bfc 493d
00000250: 8063 be3d 24e6 673d f3e0 b13c 3c7d a5bd
00000260: 8af5 c1bd 31f1 4c3d 3a64 84bd ce9c 30bc
00000270: 14c8 973d 8a3e 683d 5f98 35bc d058 533c
00000280: b57e e13a 8866 dc3a 103c cd3d 2562 83bd
00000290: 4e5d d03d 2a20 7dbb 5bb2 e83d 2357 5abd
000002a0: 8d07 873d a53f 8cbd 837f c1bd 1580 7c3d
000002b0: ff28 0c3d a50d e43d a440 5d3d a036 4dbd
000002c0: 04f9 9ebd 8570 983d b3b7 b6bc d166 89bd
000002d0: d995 bcbd c807 8ebd 4b33 46bd 38c0 c1bd
000002e0: 77f5 da3d 7d76 cf3c 3768 2a3d fb8c 82bd
000002f0: 0860 a63b ebb5 ad3d 0e69 03bd 1996 b63d

gru.bias_hh_l0 f4 [192]
-0.04792006 -0.051234454 -0.11822108 -0.13339132 0.021671116 -0.08494379 -0.074808106 -0.07696418
-0.1205334 -0.09875084 -0.09170168 0.10731161 -0.004541726 -0.07332321 -0.038128506 0.09281247
-0.07735523 0.060653966 -0.03360475 -0.116788514 0.06561631 0.02881582 0.06404051 0.036088157
0.009819729 0.023511956 -0.10111775 0.1082501 -0.08461617 0.088176824 -0.08073704 -0.10629692
0.034192126 0.055468727 -0.036694597 0.038769804 -0.12407399 -0.016996438 0.07714341 0.10228021
-0.07037303 0.024213782 0.12241895 0.06652371 0.013340492 -0.09706304 0.03262898 0.019777874
-0.10436898 0.057995055 -0.081843965 0.08837351 -0.012146788 0.06710031 -0.04712125 -0.07930309
0.073674686 0.06670797 0.12398755 0.04146981 -0.059851404 -0.08182126 -0.13965884 -0.022880537
0.0889234 -0.085306495 -0.022725753 0.097847335 0.09368523 0.028922433 -0.0403403 0.1168091
0.066447675 -0.10533371 -0.13409801 -0.059286658 0.049125277 -0.075215824 -0.08672608 -0.030285899
-0.030082813 0.11733155 0.053644113 0.09619819 0.052119344 -0.108131945 -0.13891466 -0.1100632
-0.01051366 0.08545707 -0.0242309 0.08302594 0.09959756 -0.15132083 0.04194533 -0.05557742
-0.1496291 -0.002264643 -0.07372695 -0.14354919 -0.13353167 0.06211244 -0.06195198 0.07763372
-0.044648807 0.09424634 -0.029426152 0.10592439 0.034755602 -0.11792024 0.044843126 0.0126153575
-0.13222894 -0.10004935 -0.029433476 0.09676901 0.06896191 -0.058821693 -0.1480706 0.0058319946
-0.027286075 -0.008422687 0.03876433 0.0014082574 0.096305184 0.07383314 -0.0024678754 0.056319438
0.044149138 -0.11941762 0.10466299 0.032791164 0.006001441 0.11514841 0.109093055 -0.09558685
0.04126 -0.07169245 -0.032912146 0.021711387 -0.05793314 -0.0045449687 0.0550409 -0.020622475
0.048168488 0.13103527 0.03320195 0.0053652925 0.09875453 -0.052262947 0.0039854115 -0.10349234
-0.04897694 -0.022769056 0.12710874 0.05635347 -0.045981403 -0.04048191 0.037681952 -0.05894769
-0.018436132 0.029332735 -0.054379147 0.108588144 0.045987953 -0.021661108 -0.027207987 0.013189318
0.049182847 0.034836646 -0.023810936 0.012723026 -0.010063568 -0.09720106 -0.09470634 0.002171298
0.10627185 -0.068064265 0.07991593 -0.03011381 0.078585275 -0.013830525 -0.046555918 0.047848392
0.054775678 -0.08722817 -0.0051430822 0.024517167 0.02499329 0.12432719 -0.10216978 0.09968981
00000000: d347 44bd 38db 51bd e51d f2bd bc97 08be
00000010: a087 b13c 03f7 adbd fe34 99bd 659f 9dbd
00000020: 37da f6bd e13d cabd 17ce bbbd 30c6 db3d
00000030: c2d2 94bb 7b2a 96bd a32c 1cbd 7714 be3d
00000040: 6b6c 9ebd 4b70 783d 22a5 09bd d12e efbd
00000050: d861 863d 280f ec3c ac27 833d 2dd1 133d
00000060: eee2 203c 259c c03c d316 cfbd 3ab2 dd3d
00000070: 3e4b adbd 0d96 b43d 7659 a5bd 33b2 d9bd
00000080: 0b0d 0c3d 2d33 633d 134d 16bd 16cd 1e3d
00000090: 811a febd 1d3c 8bbc 5dfd 9d3d 4978 d13d
000000a0: bc1f 90bd fb5b c63c c9b6 fa3d 953d 883d
000000b0: 1492 5a3c fdc8 c6bd f7a5 053d 3505 a23c
000000c0: 67bf d5bd 398c 6d3d cf9d a7bd 2cfd b43d
000000d0: 5203 47bc e36b 893d 3602 41bd a969 a2bd
000000e0: c1e2 963d 309e 883d 2fed fd3d 3fdc 293d
000000f0: bf26 75bd e891 a7bd ba02 0fbe f76f bbbc
00000100: 791d b63d 2cb5 aebd 5c2b babc 2f64 c83d
00000110: 0bde bf3d bdee ec3c df3b 25bd 9c39 ef3d
00000120: b815 883d 33b9 d7bd fd50 09be 91d6 72bd
00000130: 9637 493d c10a 9abd 719d b1bd 221a f8bc
00000140: 3b70 f6bc 864b f03d eeb9 5b3d 8e03 c53d
00000150: 187b 553d 4874 ddbd a53f 0ebe d168 e1bd
00000160: 7c41 2cbc 1e04 af3d e17f c6bc 8109 aa3d
00000170: cef9 cb3d d9f3 1abe dece 2b3d 26a5 63bd
00000180: 5f38 19be 686a 14bb 28fe 96bd 8ffe 12be
00000190: 87bc 08be 9d69 7e3d 5cc1 7dbd 6efe 9e3d
000001a0: abe1 36bd 3a04 c13d 1d0f f1bc e3ee d83d
000001b0: e45b 0e3d 2b80 f1bd 6dad 373d a5b0 4e3c
000001c0: 0667 07be ace6 ccbd 791e f1bc d52e c63d
000001d0: e73b 8d3d 04ef 70bd d29f 17be 511a bf3b
000001e0: 0c87 dfbc 4fff 09bc 59c7 1e3d 4795 b83a
000001f0: a73b c53d d435 973d 14bc 21bb 36af 663d
00000200: bad5 343d 3a91 f4bd 8d59 d63d 0750 063d
00000210: bca7 c43b eed2 eb3d 2e6c df3d 0ac3 c3bd
00000220: 3f00 293d 7ed3 92bd e3ce 06bd 14dc b13c
00000230: 4d4b 6dbd f6ed 94bb 9172 613d 77f0 a8bc
00000240: 524c 453d 1c2e 063e c5fe 073d 56cf af3b
00000250: d13f ca3d ac11 56bd 0e98 823b cbf3 d3bd
00000260: 0b9c 48bd 2c86 babc cb28 023e e5d2 663d
00000270: ff56 3cbd 5cd0 25bd 6458 1a3d 2273 71bd
00000280: 5f07 97bc 344b f03c abbc 5ebd 7663 de3d
00000290: dd5d 3c3d a372 b1bc 49e3 debc 0218 583c
000002a0: f473 493d dfb0 0e3d 270f c3bc 3d74 503c
000002b0: aae1 24bc 5911 c7bd 66f5 c1bd 564c 0e3b
000002c0: 0ea5 d93d 4765 8bbd f7aa a33d 3db1 f6bc
000002d0: 51f1 a03d 6d99 62bc 6bb1 3ebd adfc 433d
000002e0: 765c 603d afa4 b2bd 4d87 a8bb 3ad8 c83c
000002f0: babe cc3c 419f fe3d 643e d1bd 2c2a cc3d

gru.weight_ih_l1 f4 [192, 64]
0.056840558 -0.12418075 -0.04268454 0.034320276 -0.06872398 0.10484246 -0.061531592 0.019803869
0.049683925 -0.022964628 -0.075287774 0.030447748 -0.1133521 -0.039251577 0.034856018 -0.057579294
0.0593076 -0.17652564 -0.13232511 0.08580386 -0.062010195 0.07140426 -0.0018620604 -0.016500833
0.124688625 0.003512299 -0.12725656 -0.022962812 0.06860587 0.104915425 0.0866667 -0.02165028
-0.026606774 0.11461797 -0.049104452 -0.018994981 -0.09211521 0.04500862 0.09846639 0.09798685
-0.06341832 0.04677836 0.106259674 0.0051133605 0.06755068 -0.0814913 0.052248932 0.010302644
0.15993819 0.10096022 -0.109039806 -0.034286954 -0.07290195 -0.13986439 -0.09786938 0.04752529
0.08674308 -0.12778495 0.044825613 0.0063403435 0.011488541 0.039737985 0.117812544 -0.08053128
0.022764642 -0.08016425 -0.090537794 -0.02412621 0.013160233 0.005335549 -0.012305959 0.032406654
0.10603045 -0.048606325 -0.054708436 -0.047495767 0.03147703 0.09328468 -0.055756237 -0.0040524304
-0.014485968 -0.017173652 0.004813675 0.039146844 0.06624137 -0.0872986 0.15034148 -0.010916932
-0.08851543 0.09029128 0.04952109 0.12331596 0.05015154 0.0743362 0.039413903 -0.017916145
-0.060542017 0.037583128 -0.054972745 -0.08358423 -0.112886794 0.01705729 -0.13169822 0.05256564
0.025751974 0.07286054 -0.09622858 0.071657486 -0.0105081955 0.10606032 -0.04827231 -0.016175402
0.06629162 -0.04568273 0.037947312 0.020276941 0.10573166 -0.07068685 0.007027722 -0.14530967
0.05082896 -0.027448578 0.030941632 0.08253192 -0.04919375 -0.0946749 0.098418556 0.14957346
-0.007670193 -0.1179804 -0.09725582 0.053600136 0.14027886 -0.08135948 0.04506265 0.07232699
0.13634667 0.12824686 -0.04523209 0.106645934 -0.03006698 -0.08418753 -0.11053197 -0.06848052
0.09092471 0.09934779 0.059604865 -0.0845233 0.03950737 0.032771736 0.13197652 -0.07568977
0.12660283 0.0010074849 0.024098968 -0.08019861 0.003615906 -0.05777586 -0.0325254 0.009679984
-0.08351241 0.07680116 0.1285488 0.004855716 -0.10237574 -0.0017085483 -0.083415404 -0.0042653405
0.005566876 0.05831904 0.00897179 -0.09829725 -0.026880296 -0.033613503 0.051614515 0.14679664
0.14259376 0.04339338 -0.11484587 0.021844594 0.040036965 -0.016424794 0.09867385 0.039917357
-0.027250314 -0.09447088 -0.015014966 0.046066754 -0.023114707 -0.1842084 -0.067440175 0.12819271
0.1435708 -0.0850689 -0.10734903 0.009417229 -0.11457243 -0.09461115 0.06940617 -0.036800984
-0.0035019512 -0.13977121 -0.068316676 -0.07657792 0.007847492 -0.021441858 -0.1272565 0.13167818
0.018062072 -0.0007893365 0.16402084 -0.007526392 -0.02190539 0.08431905 -0.04696072 0.04598834
0.07532281 0.011614057 0.1328869 0.021330316 -0.09615528 -0.047651373 -0.021731893 0.082922004
0.013329684 0.0478097 -0.05339436 0.14781548 0.11569578 0.026169296 -0.04148213 0.01789306
0.08072795 -0.07096245 0.002350139 -0.1758581 -0.15288098 0.04595372 -0.07029512 -0.03737837
-0.16771644 -0.1300132 0.16794577 -0.00048824825 -0.07532374 0.0085480185 0.08074415 0.12029312
0.069198385 0.19048458 0.060069475 -0.050859757 0.048888266 0.032155335 -0.15592612 0.074642934
00000000: a5d1 683d 7a52 febd fcd5 2ebd 6b93 0c3d
00000010: 28bf 8cbd a5b7 d63d 8d08 7cbd b93b a23c
00000020: 5f81 4b3d 5120 bcbc 7a30 9abd 8e6d f93c
00000030: 2525 e8bd 43c6 20bd 2fc5 0e3d 44d8 6bbd
00000040: 87ec 723d 23c3 34be 3c80 07be efb9 af3d
00000050: 67fe 7dbd 663c 923d 6110 f4ba c12c 87bc
00000060: c05c ff3d 992e 663b 8b4f 02be 821c bcbc
00000070: 3c81 8c3d e6dd d63d 507e b13d ee5b b1bc
00000080: 73f6 d9bc d4bc ea3d c021 49bd 5d9b 9bbc
00000090: e6a6 bcbd f55a 383d bfa8 c93d 54ad c83d
000000a0: 77e1 81bd aa9a 3f3d ac9e d93d fa8d a73b
000000b0: 0358 8a3d e9e4 a6bd fa02 563d 6ccc 283c
000000c0: d6c6 233e 3bc4 ce3d 4350 dfbd 7a70 0cbd
000000d0: 9e4d 95bd 9c38 0fbe be6f c8bd e1a9 423d
000000e0: 5ba6 b13d 0fda 02be 109b 373d a8c2 cf3b
000000f0: 6f3a 3c3c 4cc4 223d b447 f13d 95ed a4bd
00000100: ea7c ba3c 282d a4bd e16b b9bd 54a4 c5bc
00000110: 059e 573c d4d5 ae3b ef9e 49bc d7bc 043d
00000120: 7e26 d93d 6d17 47bd f415 60bd ec8a 42bd
00000130: 0fee 003d 0a0c bf3d a760 64bd 40ca 84bb
00000140: 8e56 6dbc c2af 8cbc 08bc 9d3b 7158 203d
00000150: 8ea9 873d 9cc9 b2bd 1ef3 193e eedc 32bc
00000160: 9447 b5bd a2ea b83d a0d6 4a3d 148d fc3d
00000170: b46b 4d3d 943d 983d 7970 213d e1c4 92bc
00000180: e8fa 77bd c4f0 193d 1a2b 61bd 352e abbd
00000190: 3131 e7bd bbbb 8b3c e6db 06be 124f 573d
000001a0: cef5 d23c e837 953d 7d13 c5bd 29c1 923d
000001b0: 912a 2cbc 2736 d93d 30b9 45bd 4782 84bc
000001c0: e7c3 873d d01d 3bbd a46e 1b3d d41b a63c
000001d0: d789 d83d 44c4 90bd ce48 e63b 0fcc 14be
000001e0: 0732 503d d7db e0bc 4e79 fd3c 7f06 a93d
000001f0: 637f 49bd eae4 c1bd ab8f c93d c929 193e
00000200: 3e56 fbbb b59f f1bd 0f2e c7bd d18b 5b3d
00000210: 43a5 0f3e cd9f a6bd 9d93 383d 2c20 943d
00000220: 769e 0b3e 2553 033e 4945 39bd 2f69 da3d
00000230: 074f f6bc 836a acbd 965e e2bd 843f 8cbd
00000240: bc36 ba3d db76 cb3d 3b24 743d 8d1a adbd
00000250: 7bd2 213d a83b 063d da24 073e 3d03 9bbd
00000260: 2ca4 013e 950d 843a 336b c53c 2b3f a4bd
00000270: d6f8 6c3b 61a6 6cbd 5b39 05bd cc98 1e3c
00000280: 8e08 abbd ed49 9d3d 4ca2 033e b31c 9f3b
00000290: 5faa d1bd 5ef1 dfba b2d5 aabd 45c4 8bbb
000002a0: 576a b63b f2df 6e3d 6afe 123c 1250 c9bd
000002b0: 1134 dcbc 50ae 09bd be69 533d dc51 163e
000002c0: 1904 123e 42bd 313d 5034 ebbd 6ff3 b23c
000002d0: cdfd 233d 4a8d 86bc 8415 ca3d 6280 233d
000002e0: 0d3c dfbc f379 c1bd 5501 76bc 7eb0 3c3d
000002f0: 0e5b bdbc 20a1 3cbe 131e 8abd f344 033e
00000300: 3904 133e 9a38 aebd cfd9 dbbd b94a 1a3c
00000310: f3a4 eabd 7ec3 c1bd d224 8e3d a1bc 16bd
00000320: fe80 65bb 2f20 0fbe 9de9 8bbd e2d4 9cbd
00000330: c492 003c d6a6 afbc 874f 02be a5d6 063e
00000340: e9f6 933c 7aeb 4eba 14f5 273e f49f f6bb
00000350: ef72 b3bc 77af ac3d e259 40bd 455e 3c3d
00000360: d842 9a3d e348 3e3c 8113 083e eabc ae3c
00000370: 0fed c4bd 162e 43bd 1507 b2bc 03d3 a93d
00000380: bf64 5a3c 1bd4 433d 0bb4 5abd f15c 173e
00000390: e9f1 ec3d fe60 d63c 2ae9 29bd 7794 923c
000003a0: b254 a53d c354 91bd ca04 1a3b 2514 34be
000003b0: d58c 1cbe f839 3c3d e3f6 8fbd 101a 19bd
000003c0: dcbd 2bbe 2e22 05be faf9 2b3e 92fb ffb9
000003d0: 5543 9abd fd0c 0c3c 305d a53d 3d5c f63d
000003e0: e2b7 8d3d 640e 433e 690b 763d 5252 50bd
000003f0: 103f 483d 50b5 033d 19ab 1fbe 65de 983d

gru.weight_hh_l1 f4 [192, 64]
0.0070732078 -0.088709906 0.059580132 -0.05816021 0.04163661 -0.05483597 0.120957255 -0.046582524
0.13779247 0.08936818 0.105514765 0.037265852 -0.074477814 4.823871e-05 0.085235804 -0.104127675
0.020957215 0.0068577137 0.074984774 -0.095524155 -0.09349857 0.04666271 -0.048504483 -0.04994812
0.024883177 0.082741894 -0.1150867 -0.017925732 -0.04184622 -0.003566284 -0.04056486 0.08822342
0.060854316 0.021552548 -0.038940392 0.07821535 -0.049544096 -0.072064415 -0.06663952 -0.03232552
-0.0834299 0.06781104 -0.024958882 -0.048661113 -0.07333301 0.14610219 0.13433696 -0.079998374
0.07084953 -0.022709774 -0.03447509 0.033631306 -0.10752615 -0.09765478 0.005452445 0.0694349
0.07189557 0.103512116 0.05649412 0.017662138 0.0083116805 -0.06367837 0.08943792 0.12886763
-0.08782362 -0.08978339 -0.045036413 -0.06309227 -0.07949543 0.15059309 -0.027114835 0.08903082
0.023336634 0.050991956 0.016612295 -0.013552005 -0.030323142 -0.08005553 -0.11586657 0.021887783
0.005746198 0.02992081 0.012858786 -0.043604374 -0.14811037 0.08088214 0.0003967776 -0.118383825
0.09827156 -0.05530097 -0.13609476 -0.096723884 -0.002541024 -0.077631615 0.044552516 -0.10521263
-0.083608806 0.09023434 -0.05637426 0.020445807 -0.04072449 0.029815968 -0.053921483 -0.042391006
-0.09284603 -0.06995751 0.0026589923 0.07350764 0.078769594 -0.026590148 -0.06580641 -0.042495042
0.077529415 -0.01651637 0.13621219 0.07791879 0.061069548 0.013093521 0.04448449 -0.0914127
-0.006084145 0.017578434 -0.09683265 -0.11889076 -0.08018621 0.03113419 -0.04598261 0.085236676
-0.053750966 0.13607654 -0.054124344 0.08238538 0.08140735 0.13724688 -0.04715619 -0.082180865
-0.05035863 -0.059609324 -0.024221063 -0.033900216 0.054699942 0.09984098 0.03965222 -0.0014552833
-0.047226757 -0.041549794 0.10244509 -0.11197244 -0.032760315 -0.11259167 -0.056093406 -0.09065053
-0.1356099 0.037045132 -0.08073833 0.018409858 0.12643373 -0.016179483 0.050180085 -0.068421796
0.07307273 0.10728387 -0.050699413 -0.07651973 0.11109205 0.11742925 0.05898963 0.028101128
0.04233597 0.021733057 0.011427182 -0.033765525 0.018546898 0.1388111 -0.027964985 -0.11927819
-0.12336991 -0.00792446 0.05412707 0.012255686 0.10723559 0.044972345 0.062732816 -0.11771708
0.063768536 0.053818267 0.018229501 0.032594487 -0.11269809 0.13260783 -0.014797984 -0.10416209
0.018332202 0.041591164 0.10440011 0.0895944 0.048842818 0.026153792 0.12555814 0.08641613
0.0027642543 -0.05803795 -0.11863016 0.011466273 -0.07351944 0.028341224 -0.08566993 -0.14040023
-0.028424654 -0.1244206 0.09892849 0.025991766 -0.0017953614 0.08765449 0.08301814 0.08868988
-0.059308644 -0.076035604 -0.00803996 0.109333195 -0.13350138 -0.1122188 -0.02309374 0.08864226
0.09339272 0.047194995 -0.002967589 -0.070272975 -0.037199564 0.03974074 -0.1343195 -0.14254878
-0.0008871645 0.038742464 0.09269118 0.025144242 0.10210831 -0.073550366 0.008003424 -0.05976421
-0.04316166 -0.03917147 0.081586085 -0.057846688 -0.022221237 0.005677582 -0.11367156 0.05533106
-0.06197625 0.1262001 0.11806606 0.08842139 0.11745083 0.039862413 0.05762087 -0.000108257474
00000000: 5ec6 e73b 8aad b5bd 4c0a 743d 6639 6ebd
00000010: 268b 2a3d af9b 60bd 70b8 f73d 51cd 3ebd
00000020: 7819 0d3e aa06 b73d 2018 d83d 14a4 183d
00000030: d387 98bd ec53 4a38 1c90 ae3d e440 d5bd
00000040: 77ae ab3c acb6 e03b 9e91 993d 2ba2 c3bd
00000050: 2e7c bfbd 6621 3f3d a3ac 46bd 6696 4cbd
00000060: ced7 cb3c 9574 a93d 93b2 ebbd fcd8 92bc
00000070: f166 2bbd 51b8 69bb 5727 26bd 7bae b43d
00000080: 6042 793d f88e b03c f67f 1fbd 5f2f a03d
00000090: c0ee 4abd 8296 93bd 4d7a 88bd c467 04bd
000000a0: 4cdd aabd 84e0 8a3d 9276 ccbc e050 47bd
000000b0: 9e2f 96bd d09b 153e a18f 093e 30d6 a3bd
000000c0: 8f19 913d d909 babc c135 0dbd fbc0 093d
000000d0: ac36 dcbd 3bff c7bd 6caa b23b e333 8e3d
000000e0: fc3d 933d 29fe d33d 6166 673d 30b0 903c
000000f0: b72d 083c ce69 82bd 3a2b b73d e0f5 033e
00000100: dfdc b3bd 5be0 b7bd 1a78 38bd 8536 81bd
00000110: 80ce a2bd 1335 1a3e ee1f debc ca55 b63d
00000120: 782c bf3c f1dc 503d 8216 883c 3b09 5ebc
00000130: 3d68 f8bc 27f4 a3bd 744b edbd 024e b33c
00000140: 9a4a bc3b 7d1c f53c a8ad 523c 809a 32bd
00000150: 3faa 17be 89a5 a53d 9706 d039 3873 f2bd
00000160: 9a42 c93d 4583 62bd 6d5c 0bbe 2c17 c6bd
00000170: 4f87 26bb 53fd 9ebd b37c 363d b879 d7bd
00000180: 183b abbd c8cc b83d b2e8 66bd f77d a73c
00000190: b9ce 26bd 9e40 f43c c6dc 5cbd 31a2 2dbd
000001a0: 0f26 bebd e245 8fbd 7d42 2e3b 2c8b 963d
000001b0: f451 a13d 95d3 d9bc 83c5 86bd 480f 2ebd
000001c0: bec7 9e3d 574d 87bc 357b 0b3e e393 9f3d
000001d0: 1024 7a3d 3586 563c 5e35 363d 9536 bbbd
000001e0: 825d c7bb a600 903c 3250 c6bd 007d f3bd
000001f0: ab38 a4bd 210d ff3c 4358 3cbd 9190 ae3d
00000200: f929 5cbd a657 0b3e 7db1 5dbd abb9 a83d
00000210: e6b8 a63d 728a 0c3e d926 41bd 714e a8bd
00000220: da44 4ebd e828 74bd 406b c6bc f4da 0abd
00000230: 0c0d 603d 6d79 cc3d 5e6a 223d 34bf beba
00000240: d870 41bd 1e30 2abd bbce d13d ce51 e5bd
00000250: ae2f 06bd 7696 e6bd 33c2 65bd fca6 b9bd
00000260: 52dd 0abe a3bc 173d 235a a5bd 45d0 963c
00000270: d877 013e d68a 84bc a289 4d3d ba20 8cbd
00000280: 28a7 953d a5b7 db3d 30aa 4fbd 60b6 9cbd
00000290: 3b84 e33d bf7e f03d 1c9f 713d 5634 e63c
000002a0: 7b68 2d3d 8609 b23c 1339 3b3c b84d 0abd
000002b0: aaef 973c 7f24 0e3e d316 e5bc 2048 f4bd
000002c0: 5da9 fcbd 98d5 01bc 59b4 5d3d 13cc 483c
000002d0: 559e db3d ec34 383d 107a 803d a715 f1bd
000002e0: 1499 823d 8b70 5c3d 0956 953c cc81 053d
000002f0: 42ce e6bd 59ca 073e 3e73 72bc ef52 d5bd
00000300: 6a2d 963c 7f5b 2a3d bacf d53d 457d b73d
00000310: 680f 483d 7a40 d63c 5092 003e f1fa b03d
00000320: 7e28 353b 34b9 6dbd 5ff4 f2bd 09dd 3b3c
00000330: 5c91 96bd db2b e83c b773 afbd 14c5 0fbe
00000340: d2da e8bc 3ad0 febd 059b ca3d afec d43c
00000350: 5552 ebba 3284 b33d 6a05 aa3d 0aa3 b53d
00000360: 9fed 72bd 8eb8 9bbd 09ba 03bc 15ea df3d
00000370: 96b4 08be f8d2 e5bd 152f bdbc 138a b53d
00000380: af44 bf3d 8a4f 413d e27b 42bb 47eb 8fbd
00000390: 925e 18bd 30c7 223d 0d8b 09be 4ff8 11be
000003a0: 9a90 68ba 6bb0 1e3d e0d4 bd3d 4cfb cd3c
000003b0: 291e d13d 93a1 96bd cb20 033c 51cb 74bd
000003c0: 48ca 30bd 4372 20bd 9b16 a73d a6f0 6cbd
000003d0: 5009 b6bc 030b ba3b a3cc e8bd d2a2 623d
000003e0: cfda 7dbd 993a 013e 9ecc f13d 4616 b53d
000003f0: 108a f03d c546 233d dd03 6c3d 4a08 e3b8

gru.bias_ih_l1 f4 [192]
-0.022322813 -0.032301962 0.020348283 0.032468073 -0.05136142 -0.12167436 0.09312918 -0.018200586
-0.06568777 -0.055919178 0.010908393 -0.13809432 -0.054906882 0.09304924 -0.0515756 0.06612187
-0.093942955 -0.042229973 -0.08810472 0.021042027 -0.12054327 -0.005145401 -0.114968814 -0.035227526
-0.05011327 0.056987274 -0.027932392 0.045534924 -0.10737243 -0.08103032 0.025567412 0.011092284
-0.051336918 -0.07007097 -0.04196257 0.013688298 0.014666551 0.03802455 -0.109727435 0.061862964
-0.007295738 -0.037485976 -0.06739963 -0.041726835 0.12800933 -0.07216559 -0.13715197 0.030868212
-0.11820566 0.11231246 0.052956954 0.094936594 -0.0583556 0.086556725 0.044557318 0.09782175
-0.034909066 -0.05358306 0.11869044 -0.064242266 -0.015142476 0.031328417 0.06027831 0.0040333197
-0.047115237 0.019700803 -0.057648856 -0.077239804 -0.0015424005 0.0023144973 -0.10808382 -0.073589146
-0.066221245 -0.009652444 0.100489825 -0.07417161 -0.07061569 0.10625048 0.022265622 -0.0662173
0.0049806023 -0.057326525 -0.01797153 -0.05178726 -0.016245373 0.009046556 0.10389987 0.055919494
0.02723271 0.09418631 0.118369736 -0.08795443 -0.11942196 0.009026735 -0.067011796 0.03325498
0.1000087 0.011175514 -0.00011412069 0.0539232 -0.10604855 0.059920155 -0.052831706 -0.095223404
-0.030363742 0.10727945 -0.06697954 -0.08151886 0.09792656 -0.02425274 -0.017659394 0.084648
0.062390126 0.026932688 0.10865109 -0.116664745 -0.044206955 0.08790638 -0.11497875 0.01214443
0.042497355 0.01227874 -0.00066561333 -0.085328534 0.045148216 -0.093146056 -0.0025366698 -0.022033777
0.09381567 -0.11129619 -0.089305796 0.11047026 0.12696329 -0.00369674 0.06394873 -0.018717958
0.1000899 -0.06671178 -0.05822577 0.018895129 -0.05843994 0.08138719 -0.041325904 0.0901937
-0.10722969 -0.040027246 -0.062091537 0.03846868 0.11767684 0.055560376 -0.099507384 -0.11483677
0.044510797 0.06320934 0.094306365 -0.10343243 -0.046538528 0.10275319 0.10258724 0.000763396
-0.112916194 0.11846898 0.05398631 -0.04353182 -0.03424274 -0.0049532293 0.110047005 0.009332096
0.052895386 0.050794076 -0.05933189 -0.122175045 0.07129878 -0.07189638 0.049377184 0.071573496
-0.02530819 -0.07676394 0.119532436 -0.061703082 0.080515474 0.09478722 0.11514657 0.10481149
-0.017774705 0.09066359 -0.11098231 0.006855759 -0.09226194 -0.08906345 0.034066062 -0.06629522
00000000: 55de b6bc 104f 04bd 71b1 a63c 3efd 043d
00000010: 5a60 52bd 6830 f9bd 83ba be3d 6519 95bc
00000020: 4f87 86bd 820b 65bd 1eb9 323c 9968 0dbe
00000030: 0ae6 60bd 9a90 be3d f040 53bd e76a 873d
00000040: 2a65 c0bd 56f9 2cbd 3f70 b4bd 5460 ac3c
00000050: 64df f6bd c19a a8bb c574 ebbd bd4a 10bd
00000060: 9243 4dbd 7d6b 693d 79d2 e4bc d482 3a3d
00000070: 14e6 dbbd 39f3 a5bd c072 d13c 69bc 353c
00000080: a946 52bd 5e81 8fbd f2e0 2bbd e244 603c
00000090: f94b 703c a1bf 1b3d c7b8 e0bd 0564 7d3d
000000a0: 1611 efbb e58a 19bd d108 8abd c2e9 2abd
000000b0: e114 033e 8ecb 93bd 9171 0cbe 55df fc3c
000000c0: cf15 f2bd 1304 e63d 64e9 583d 1e6e c23d
000000d0: 4806 6fbd a744 b13d bc81 363d c556 c83d
000000e0: cffc 0ebd e979 5bbd f913 f33d 7391 83bd
000000f0: 2618 78bc 3a52 003d 64e6 763d f029 843b
00000100: e8fb 40bd 9463 a13c 3521 6cbd e72f 9ebd
00000110: 5f2a caba d2ae 173b 0d5b ddbd e8b5 96bd
00000120: 019f 87bd 4925 1ebc 9ccd cd3d 49e7 97bd
00000130: f59e 90bd da99 d93d 6566 b63c f09c 87bd
00000140: 5234 a33b 38cf 6abd 0839 93bc e11e 54bd
00000150: 0415 85bc 0238 143c 74c9 d43d d70b 653d
00000160: 2217 df3c c1e4 c03d d56b f23d 7421 b4bd
00000170: 8093 f4bd dfe4 133c 7b3d 89bd 6036 083d
00000180: 5cd1 cc3d 8119 373c 1454 efb8 93de 5c3d
00000190: fb2f d9bd d66e 753d 0f66 58bd 7d04 c3bd
000001a0: 62bd f8bc 54b5 db3d 922c 89bd 5cf3 a6bd
000001b0: b88d c83d afad c6bc 6faa 90bc ee5b ad3d
000001c0: ca8c 7f3d f1a1 dc3c 7684 de3d eded eebd
000001d0: 5a12 35bd 4308 b43d fb79 ebbd 6ef9 463c
000001e0: b511 2e3d c52c 493c 8e7c 2eba bac0 aebd
000001f0: 56ed 383d 5cc3 bebd 423e 26bb 2e80 b4bc
00000200: 6e22 c03d 42ef e3bd f5e5 b6bd 3b3e e23d
00000210: aa02 023e 0145 72bb 8df7 823d 6756 99bc
00000220: effb cc3d 30a0 88bd 257e 6ebd f5c9 9a3c
00000230: b85e 6fbd 54ae a63d 5a45 29bd 79b7 b83d
00000240: 3d9b dbbd 9cf3 23bd b253 7ebd 5691 1d3d
00000250: 8e00 f13d 4793 633d 87ca cbbd 8a2f ebbd
00000260: f450 363d e673 813d b223 c13d 62d4 d3bd
00000270: 2f9f 3ebd 4470 d23d 4219 d23d a31e 483a
00000280: 9b40 e7bd dd9f f23d c020 5d3d 6c4e 32bd
00000290: 1e42 0cbd b34e a2bb 5360 e13d a6e5 183c
000002a0: d5a8 583d 730d 503d ff05 73bd e936 fabd
000002b0: 1805 923d 693e 93bd bb3f 4a3d 2095 923d
000002c0: 1f53 cfbc 6a36 9dbd 6ccd f43d 5fbc 7cbd
000002d0: 4ce5 a43d cd1f c23d f7d1 eb3d 68a7 d63d
000002e0: 429c 91bc d5ad b93d b14a e3bd 46a6 e03b
000002f0: d4f3 bcbd e666 b6bd db88 0b3d cac5 87bd

gru.bias_hh_l1 f4 [192]
-0.02923167 -0.11728591 -0.0762432 0.033529706 0.11301694 0.031456545 -0.013439474 -0.071298786
-0.06475898 -0.09658174 0.094326176 -0.071334854 0.047850497 0.045521602 -0.103627756 -0.08726462
-0.07231605 -0.1072142 0.120955326 -0.0940511 -0.13532512 -0.09000185 -0.016557956 0.111179866
-0.12187714 0.0048450646 -0.01002215 0.008123082 -0.008337703 -0.06570965 0.048345644 0.015082605
0.102582544 0.09695327 0.0019578857 -0.07305471 -0.028602524 -0.08763106 0.04425104 0.028341973
0.0062011513 -0.1147516 -0.098991245 0.05911018 0.09713709 -0.08422665 -0.09866829 0.0081765065
0.07060499 -0.04569112 -0.017911643 0.108845375 -0.05174425 0.028919755 -0.030889876 0.100594856
0.0341328 0.035302553 0.09460828 -0.01644046 -0.05593951 -0.12736519 0.1071479 0.06149951
-0.03313578 -0.12020509 0.11258794 0.078986384 -0.11988143 0.02724271 0.00055466086 0.06380579
-0.026842222 -0.05225952 -0.017205782 0.023989651 -0.07211461 0.059902314 0.11703089 0.109185286
0.081299506 -0.06846567 0.02469452 -0.032867722 -0.018145416 -0.08051187 -0.050945427 -0.103575446
0.013155171 0.006227007 0.10708434 0.024202421 0.043255523 -0.053063076 -0.015202925 -0.02848982
0.0130198775 -0.06369117 0.08036513 0.11767183 0.044410557 0.017404053 -0.014002182 -0.101082765
-0.08528806 -0.07318681 -0.072537675 -0.108093314 0.044533793 -0.019841177 0.037052494 0.063149504
-0.073069334 -0.08294758 -0.10685585 -0.035300434 -0.048900336 0.077762455 0.003990151 -0.014670328
0.03792525 -0.0050829947 -0.03440252 0.05487933 0.024741627 0.023555547 0.083005376 0.085196294
-0.07770389 -0.026104476 -0.063279025 0.05788378 -0.034296107 -0.049474757 -0.033898085 0.07452731
-0.11694154 -0.10303433 0.09323172 0.029546391 -0.0335117 -0.12349071 -0.027147029 0.07452993
-0.06407281 -0.007428943 -0.078770384 -0.01170958 0.0080901 0.05644452 -0.07362918 -0.09629527
0.022725642 -0.0938903 0.06989687 -0.07588257 -0.0608195 -0.020722007 0.05861985 -0.09724943
-0.0008655252 -0.06138893 -0.068292424 -0.08698781 0.056461375 -0.06276308 -0.09315185 -0.107026234
0.09511517 -0.00201813 -0.004098602 0.11690485 0.0812475 -0.025386445 0.09379341 -0.01354135
0.10139984 -0.0699475 0.042113315 -0.09320208 -0.06681914 -0.010700643 -0.09335558 -0.0072330097
-0.005546963 0.11547627 0.017942118 0.0805791 0.06650221 0.078909874 0.038262367 0.033810098
00000000: 4177 efbc 9833 f0bd 6525 9cbd 7256 093d
00000010: 6d75 e73d 94d8 003d 3d31 5cbc 1905 92bd
00000020: 5ba0 84bd a6cc c5bd 152e c13d 0218 92bd
00000030: e2fe 433d dc74 3a3d ca3a d4bd cbb7 b2bd
00000040: 701a 94bd 1e93 dbbd 6db7 f73d dd9d c0bd
00000050: ab92 0abe e452 b8bd 8da4 87bc 45b2 e33d
00000060: b99a f9bd 59c3 9e3b f233 24bc ad16 053c
00000070: dc9a 08bc c892 86bd 1506 463d 081d 773c
00000080: cc16 d23d 708f c63d df4f 003b b59d 95bd
00000090: d74f eabc ea77 b3bd 9440 353d 6d2d e83c
000000a0: 0733 cb3b e302 ebbd ecbb cabd 841d 723d
000000b0: d0ef c63d 067f acbd 9a12 cabd c1f6 053c
000000c0: 5999 903d 9d26 3bbd 70bb 92bc 53ea de3d
000000d0: c7f1 53bd 1fe9 ec3c c40c fdbc ad04 ce3d
000000e0: d6ce 0b3d 6999 103d fcc1 c13d 25ae 86bc
000000f0: d420 65bd 056c 02be 5c70 db3d e9e6 7b3d
00000100: 62b9 07bd 162e f6bd 8294 e63d 9dc3 a13d
00000110: 6584 f5bd 1b2c df3c a966 113a 9cac 823d
00000120: 38e4 dbbc 140e 56bd 24f3 8cbc f285 c43c
00000130: d3b0 93bd 215c 753d e4ad ef3d 899c df3d
00000140: 5b80 a63d bb37 8cbd 294c ca3c 4ea0 06bd
00000150: b2a5 94bc 68e3 a4bd 27ac 50bd 5d1f d4bd
00000160: c988 573c ec0b cc3b 094f db3d 2844 c63c
00000170: b42c 313d ab58 59bd b015 79bc 7c63 e9bc
00000180: 5351 553c 8470 82bd 7996 a43d eefd f03d
00000190: d8e7 353d f292 8e3c 6869 65bc 7b04 cfbd
000001a0: 82ab aebd f7e2 95bd a28e 94bd 0760 ddbd
000001b0: 1169 363d f789 a2bc 5bc4 173d 8754 813d
000001c0: 60a5 95bd 6ce0 a9bd 3dd7 dabd 3097 10bd
000001d0: b84b 48bd ec41 9f3d d0bf 823b d15b 70bc
000001e0: 8257 1b3d 408f a6bb a8e9 0cbd 26c9 603d
000001f0: f4ae ca3c 90f7 c03c b9fe a93d 657b ae3d
00000200: 3823 9fbd 0ed9 d5bc 6f98 81bd 8b17 6d3d
00000210: 137a 0cbd 0ba6 4abd b8d8 0abd c6a1 983d
00000220: 0c7f efbd aa03 d3bd 46f0 be3d 460b f23c
00000230: 9043 09bd b3e8 fcbd 7263 debc 26a3 983d
00000240: 9b38 83bd 7e6e f3bb 5e52 a1bd 8ad9 3fbc
00000250: 578c 043c 5e32 673d e5ca 96bd 7436 c5bd
00000260: 202b ba3c 8f49 c0bd 1726 8f3d 5268 9bbd
00000270: de1d 79bd 33c1 a9bc 5e1b 703d b62a c7bd
00000280: 6ae4 62ba f572 7bbd e6dc 8bbd aa26 b2bd
00000290: 0b44 673d ee89 80bd 66c6 bebd 9230 dbbd
000002a0: becb c23d 9a42 04bb 914d 86bb cf6b ef3d
000002b0: 1765 a63d 3cf7 cfbc c216 c03d 8adc 5dbc
000002c0: b8aa cf3d a340 8fbd 037f 2c3d bbe0 bebd
000002d0: 79d8 88bd c051 2fbc 3631 bfbd e202 edbb
000002e0: 4cc3 b5bb d37e ec3d 59fb 923c a806 a53d
000002f0: 5032 883d 809b a13d 00b9 1c3d 757c 0a3d

fc.weight f4 [1, 64]
0.10861741 0.12098095 -0.04300232 0.081518725 0.03637094 0.093682185 -0.042274844 -0.018942907
0.01915927 0.06018083 0.036866788 0.08604078 -0.05506584 -0.038546577 -0.1299032 0.099735595
-0.12740599 0.032443352 -0.105453156 0.034883015 -0.086200446 0.09068234 -0.12389111 0.06728916
-0.042679314 -0.12119522 -0.054339062 -0.060509358 0.046502694 0.1171397 0.053799566 -0.017316224
-0.0080381455 -0.10969323 -0.057408515 0.12209529 0.116618045 0.009241302 0.054027464 0.10969467
-0.06938385 -0.0059813648 -0.10328461 0.03057188 -0.012900608 -0.013188764 0.12399525 -0.097297646
0.057410084 -0.04195899 0.13750054 -0.0082892245 -0.026412213 0.031003885 0.06180288 0.0064684516
-0.044498928 -0.068467334 -0.02413402 -0.10560526 -0.034770176 0.025551174 -0.027256276 0.10330932
00000000: ce72 de3d dcc4 f73d 3323 30bd 4af3 a63d
00000010: b2f9 143d 72dc bf3d 6328 2dbd 282e 9bbc
00000020: e7f3 9c3c 2d80 763d a101 173d 2636 b03d
00000030: b88c 61bd 04e3 1dbd 5805 05be 2d42 cc3d
00000040: b776 02be 52e3 043d d3f7 d7bd 7ee1 0e3d
00000050: dc89 b0bd aab7 b93d 9fba fdbd e6ce 893d
00000060: 81d0 2ebd 3335 f8bd a392 5ebd a9d8 77bd
00000070: 9c79 3e3d f0e6 ef3d ef5c 5c3d c1da 8dbc
00000080: 6db2 03bc d8a6 e0bd 3125 6bbd 180d fa3d
00000090: 71d5 ee3d d468 173c e74b 5d3d 99a7 e03d
000000a0: 1f19 8ebd 53ff c3bb e286 d3bd e171 fa3c
000000b0: 125d 53bc b015 58bc 39f1 fd3d fd43 c7bd
000000c0: d626 6b3d 31dd 2bbd f1cc 0c3e 87cf 07bc
000000d0: 6d5e d8bc dcfb fd3c 0425 7d3d 4ef5 d33b
000000e0: 8244 36bd 9a38 8cbd b5b4 c5bc 9247 d8bd
000000f0: 2c6b 0ebd b250 d13c 8e48 dfbc d693 d33d
