Cheyi Wu/Garch/LSTM-Garch/VZ/lstm_garch_model.pth (torch, 229302 bytes, 13 tensors)

lstm.weight_ih_l0 f4 [256, 7]
00000000: 01d1 7a3d 5b14 a33d b201 7fbd bee6 ad3d
00000010: b2ef 88bc cf20 65bc 3ddd 8cbd de16 283d
00000020: 8154 bb3d 083c 93bd ea70 a93c 5353 9d3c
00000030: 3417 acba 37f7 5c3d 3751 9c3d 0fad 923c
00000040: 5e7e 003e 30dc b8bc ee11 fdbd be7e 303d
00000050: 6a7c e8bb 5c28 40bc a485 10bd ddba b63d
00000060: 0e2f f6bd a2c0 de3c a2f5 b3bd 6739 1bbd
00000070: 36f9 1fbd bacf 23be 9e44 703d 59be f7bd
00000080: 2318 a83d 2eb2 1f3b 0ff0 9fbd 7c42 143e
00000090: b55d e13d a07b 283e c4d2 113e 8935 89bd
000000a0: 6181 e03c d86c a53d 95ac 2f3d 794e b43d
000000b0: be86 603d 154c b1bd 53bf fc3c 4997 68bc
000000c0: b120 4a3d e431 84bc 66eb 6cbd 7034 9f3c
000000d0: 4adb 5cbe 6c57 b4bc b841 52bb 6526 e83d
000000e0: 360c 00bd 23aa cebd 2b86 493a 51cd 16bc
000000f0: 6fa5 1f3d 3acb 1d3b b4e7 84bd 38a8 fdbd
00000100: 0091 a0bd c718 15be fe4c dd3d 75f8 173d
00000110: 9a80 44bd 93a5 35be 18af 48bc ae5a c6bd
00000120: ce5b 66bd ae78 afbc e86b e7bd 0665 b1bd
00000130: 44d1 63be 3960 0a3e cd70 d13d c881 1c3e
00000140: 93e5 efbc c48c 93bd c425 af3d 80fe 55bb
00000150: 1a2d 91bc 605d 20be 9861 7fbd c32a a0bd
00000160: f249 4c3d 7db4 a73d 562a f8bd a70a c0bd
00000170: ee91 8ebc 1a74 c5bb fbc2 203d 079e 00bd
00000180: 634f 963d 496b 0fbe fab5 9cbd d7b6 53be
00000190: 17c6 1fbe 441f 54bd 119e 7dbc 2b3a 6ebd
000001a0: 6690 17be dd3f 07be e4d2 1ebe 1b3f e4bd
000001b0: a97e 31be 93e7 5bbd 8f06 e63d 7f5b b0bc
000001c0: ab47 fd3d d577 95bc 994b f6ba 0e42 dabd
000001d0: 8488 20bd 3408 09be 81a6 e53c d51c 11bc
000001e0: 3195 af3d 6a7e cf3c 0373 a8bd 22a1 9ebd
000001f0: b04f fabd 7660 483d 8e32 debd 1761 37be
00000200: 066c 823c 9f92 8b3d f33f e73d eaa6 b53d
00000210: 777d 44be 6d4f ba3d 0247 8bbc 58e7 17bd
00000220: 2da4 113d ad94 c23c f8b0 a6bc 0c88 3bbc
00000230: e43b 773d cc1f 9bbd c720 d03d 51be 46be
00000240: f5ac 95bd 547c d23c 85de a43d fdfd 833d
00000250: ea33 b13d 6119 fbbd a95b e43d e189 903b
00000260: 02ae 18bd 4f13 c6bd 7837 1d3e 2901 d2bc
00000270: 4ca3 e63d 937a 02bd fd38 8d3c 77d9 3fbe
00000280: 5910 283e 6a84 633c 655f e83c e29b c3bd
00000290: d4f9 21bc babd 8dbd fe87 84bd f105 033e
000002a0: d313 203c d0d9 e0bd 2e49 ddbd d1ce 10bd
000002b0: cb20 313d 91b0 fdbc fe79 0dbe 8d22 8bbd
000002c0: cfb2 02be 1936 673b 4e5c 933d a1e0 4fbd
000002d0: 6f98 4c3d 4ef7 ca3c 38af 043d f224 2ebd
000002e0: 0c1b 823d 9259 10bd 9d9c 543d bf19 06bd
000002f0: b3fc d9bc 16e5 2c3d 4862 71bc 185a c8bc
00000300: 536b 163e f0d9 f73d 07a6 2e3b 3d8b a9bc
00000310: 24cb 763d 020e 943d 2e2e bf3d 1595 b93d
00000320: 4d08 133e 91ee 54be 2734 403e 1d7a 843d
00000330: 29c6 68bb c07a 9cbd 0abb 25bd 43da 2fbc
00000340: a15d a0bd 09fa 003d 7686 f43d 64f7 d53d
00000350: e956 45bd 9877 13be 5a19 fabd b83b aa3d
00000360: 1666 983d ebad 363c 49a5 aa3c 2f63 7fbd
00000370: 70b5 fcbd 1c17 513e 5be0 e1bb 4871 afbd
00000380: e7df 08be b205 9f3d f01b b23d f056 d6bb
00000390: 105b 80bc b04a 26be 8e8b a6bd f965 113e
000003a0: 9d17 fa3d f8a5 1f3e 2e0f d43d 126b 8e3d
000003b0: 420a 8ebd f400 51bc cf07 fbbd 3045 10be
000003c0: 9c81 663c d470 86bd d9c1 9cbd 3d94 23be
000003d0: b50e 90bd c4c8 8fbd 98ee a9bd 7377 ff3c
000003e0: aa93 2cbd 95e5 f53c a177 223c 418b b4bd
000003f0: 1f19 79bd 73c2 0abe 8e78 eebd 6194 b9bc
0.061234478 0.07962867 -0.062257476 0.08491276 -0.016715858 -0.013984873 -0.06878135 0.041037433
0.09146977 -0.071891844 0.020683724 0.019204771 -0.0013129474 0.0539467 0.07632678 0.017904786
0.12548205 -0.022565931 -0.123569354 0.04308962 -0.0070949094 -0.011728372 -0.0352837 0.0892236
-0.12020694 0.027191464 -0.08787085 -0.03789654 -0.039056025 -0.1599721 0.05865919 -0.12096853
0.08207729 0.0024367678 -0.078094594 0.14478487 0.11004201 0.16453409 0.14240557 -0.06699664
0.027405443 0.08077401 0.042889196 0.0880403 0.054816 -0.086570896 0.03085295 -0.014196225
0.049347583 -0.016137071 -0.05784168 0.019434184 -0.21568027 -0.022014342 -0.0032082628 0.11335448
-0.031261645 -0.10091045 0.0007687534 -0.009204225 0.03897613 0.0024077431 -0.06489506 -0.12385601
-0.078401566 -0.14560233 0.10805701 0.03710218 -0.047974207 -0.17738943 -0.012248777 -0.096852645
-0.056239896 -0.02141985 -0.11299878 -0.08661847 -0.22247797 0.13513269 0.10226593 0.15283883
-0.029284274 -0.07204583 0.08552125 -0.0032652915 -0.017721701 -0.1566062 -0.062348932 -0.07820656
0.049875207 0.08188722 -0.1211745 -0.09377032 -0.01740357 -0.0060258033 0.039248448 -0.031400707
0.073393606 -0.1400577 -0.07651897 -0.20675217 -0.15602909 -0.05178763 -0.0154795805 -0.058160942
-0.14801177 -0.13207956 -0.15510136 -0.11144849 -0.17333473 -0.053687643 0.1123172 -0.021528004
0.12367185 -0.018245617 -0.001879084 -0.1065713 -0.03919269 -0.13382035 0.028033497 -0.008856972
0.08573378 0.025328834 -0.08225062 -0.077455774 -0.122222304 0.048920117 -0.10849486 -0.1790813
0.01592065 0.06815075 0.11291494 0.08869727 -0.19188486 0.090971805 -0.017001633 -0.03708586
0.03555696 0.023752535 -0.020348057 -0.01144601 0.06035985 -0.07574424 0.10162502 -0.19408537
-0.073083796 0.02569405 0.08050255 0.06444929 0.0865248 -0.122607 0.11150295 0.0044109677
-0.03727532 -0.096716516 0.15353191 -0.025635319 0.11261615 -0.031855177 0.017239088 -0.187353
0.16412486 0.01388655 0.0283658 -0.09551217 -0.009886224 -0.06920953 -0.06471251 0.12795235
0.009770351 -0.109790444 -0.108049735 -0.035353485 0.043244164 -0.030967982 -0.13816068 -0.067936994
-0.12763523 0.0035280047 0.0719534 -0.050751332 0.04995006 0.024776127 0.032393664 -0.042515703
0.06352815 -0.03524167 0.05190717 -0.032739397 -0.026609754 0.04221066 -0.014732905 -0.024457023
0.14689378 0.12102115 0.0026649253 -0.020696277 0.060252324 0.07229234 0.0933498 0.09061638
0.14358635 -0.20794131 0.18769895 0.06468604 -0.0035518503 -0.076406 -0.040461577 -0.01073319
-0.07830358 0.031488452 0.11939709 0.10447577 -0.048178587 -0.1440109 -0.12211867 0.08312172
0.07441346 0.011149864 0.020830767 -0.06235045 -0.12339294 0.20418972 -0.0068932003 -0.085665286
-0.13366662 0.07764758 0.08696735 -0.0065411255 -0.015668422 -0.16239429 -0.08132087 0.14199056
0.12211535 0.15590656 0.10354458 0.06954016 -0.0693555 -0.012756575 -0.12257349 -0.14088893
0.014068987 -0.06564489 -0.07654161 -0.15974517 -0.07034055 -0.07020715 -0.08297461 0.031184888
-0.04213301 0.0300167 0.009916217 -0.08815623 -0.060814973 -0.13550739 -0.11644088 -0.02265376

lstm.weight_hh_l0 f4 [256, 64]
00000000: d8f6 8ebd f271 ac3d 27b8 7fbc 66b0 b3bc
00000010: b061 66bd 403b a7bd 3590 763d 047a d23b
00000020: 305b 4bbd 1fbc 403b 623a 933d f416 ac3b
00000030: 6a95 783d 2509 913c 2d54 fc3c 7527 823d
00000040: 5e57 873d 3ff2 a7bd c3eb 5d3d 4989 16bd
00000050: 06ee 12bd c89d a03d 0c34 173b 18ad d63d
00000060: 3f38 2d3c e914 88bd aa45 29bc 3070 6a3d
00000070: 9a92 87bd 5d64 2c3d 874e d73c f312 febc
00000080: 75dc 8f3d f002 1fbc 4105 25bc b2c1 54bd
00000090: db38 01bc 0df0 623d 36e7 b9bc 32ba 2dbd
000000a0: 21c6 0ebd 3a63 1fbd 13c9 863d b7ed fbbc
000000b0: 5b69 e43b dde2 9b3c 9075 913d 4613 53bd
000000c0: ef4d 89bd 95f3 833d ad1e 623d c93a e7bb
000000d0: 042b ebbd 77d7 de3c 5d8f 6a3d 9b09 fe3c
000000e0: 0f48 35ba 7d71 a6bd 960a 0c3d 186b 95bd
000000f0: 4242 8dbd 43c1 603d 2b14 35bd 66ec 213d
00000100: 9724 a3bd b7d7 37bd 5f3b b03c da90 3d3c
00000110: d665 30bd c4e1 f63d 797c 04bc 3929 003c
00000120: 8b3f 0ebd 713d 0f3e 341c 7b3d 397c c93c
00000130: b59e 013e 2de1 cb3d 609b 8c3e 78b2 cf3d
00000140: 3712 b43d 62ac 4b3d c9be 953d cc23 c63c
00000150: 4ac4 4abd 0453 a33c 0b15 3cbd 286f c9bd
00000160: bc31 0e3e 0217 87bd 16a3 3a3d e68e b63b
00000170: e528 aa3d 6a5b 43bc 086c 8d3d 837b d6bd
00000180: d83c c33c 2b51 f33d 5767 22be 680b 723b
00000190: 3abd e03c b217 843c 17bf b6bd a5d6 45bd
000001a0: e5be e5bc 56c3 c1bd 1cdb df3d e8e4 13be
000001b0: cd7b 44bc bc19 a9bc d972 6ebe 8235 223c
000001c0: 5b9e 23bd 3623 583d da56 40bd 3d49 433d
000001d0: 2716 ef3c fceb 003c 8a29 fabb 928b 00bc
000001e0: d49a 0c3d f838 08be 075c cd3c c9fc 0e3d
000001f0: a12d a4be 4505 493d 3ad3 2ebd 6f16 6dbd
00000200: 9653 92bd 1585 06bd 0a93 c1bc 0a01 5abc
00000210: d1ea 4f3d 63c6 303c 4b8f 053d fe9e 0cbd
00000220: 25a4 883d 7261 8a3d b9ca 5ebd 56f7 3abd
00000230: 9a44 f2bc fc70 143b 3dcf 91bd fad9 08bd
00000240: bace cc3d 0153 cdbd 7f35 2b3d 013f e93c
00000250: 9e40 983d c473 14bd 3867 1b3d 77af 9a3b
00000260: 6dbd 053c 462d 0b3d 2e11 8dbd 2785 b6bd
00000270: 477b c63d b306 8cbd bf12 67bd 8a3e 81bc
00000280: dc6c 2dbd 835e 56bc 479b d3bc f349 2e3d
00000290: 0e7b 10bd 53ea c8bb 1f3a 803d a64e 873c
000002a0: c33b 613c 3451 4c3a 9c6b cbbc caf3 23bd
000002b0: 8fe2 96bd d3bc b0bd 4487 9abd 2b1c a13d
000002c0: 8c3c 5fbb c74b f23c fd2b 823d 560f aa3a
000002d0: 2fad 96bd 7530 59bd 2b32 86bc 67aa 1e3d
000002e0: e743 75bd 374e 00bd 04f8 123d 47d4 a73d
000002f0: 678d 4fbd 71bd 303c e205 203d b54b fe3c
00000300: 9a8f 863c 2894 f5bb bc0c cebc 5e44 42bc
00000310: c245 4abd e00b 103d 3230 4bbc bebe 833c
00000320: 5c81 053d a724 673d 913d 493b 844e 10bc
00000330: f1e2 543d 9b15 8e3d 035d 9c3d 4d13 193d
00000340: 46df c3ba f90d 12bd 332e a63d 8da2 b1bc
00000350: ecdc 94bc 6545 0abd 7d6c 6ebc 884a 29bc
00000360: 64cb 8a3d ae46 3abd 2574 f33c b97a 0cbd
00000370: 8bea b1bc 1948 4abd a6ea 003c 83e2 bdbd
00000380: 4e46 913d ca92 ed3a 9a62 dcbd 44f4 173b
00000390: ddc7 193d 0a59 b33b 9fb9 05bd 3d45 77bd
000003a0: 832c 41bc 4095 e9bc 8b9f 65bd 23ac a7bd
000003b0: 5cc9 da3c ed5e a33c 89b5 443d 7612 473d
000003c0: f942 a3bd 48f6 ae3b 49c8 8fbc e16b afbc
000003d0: 93e0 a5bc be2b 7abd 4c00 403d 5141 753d
000003e0: 309f 5a3c a878 95bd a21e 1dbd c27f babc
000003f0: b4ec 49be f9ee 103d bcac 22bd 75e9 183c
-0.069806755 0.08420171 -0.01560787 -0.0219347 -0.056245506 -0.08165598 0.06019612 0.006423237
-0.04964751 0.0029409004 0.0718887 0.0052517597 0.060689367 0.017704556 0.030801857 0.06355182
0.06608461 -0.08200502 0.054179918 -0.03675202 -0.035871528 0.078425944 0.0023071794 0.10482234
0.010572492 -0.06644613 -0.010331551 0.057235897 -0.06619759 0.0420879 0.026282562 -0.031014895
0.07024471 -0.00970529 -0.010072053 -0.051942535 -0.007887091 0.05540471 -0.022693258 -0.042413898
-0.03485692 -0.03891299 0.065813206 -0.030753 0.006970567 0.019029075 0.071025014 -0.051532052
-0.06704318 0.06442944 0.055205036 -0.0070565683 -0.11482814 0.027202351 0.057265628 0.03101044
-0.00069153396 -0.08127115 0.034189783 -0.07295817 -0.06897403 0.05487181 -0.044208687 0.039532088
-0.07965963 -0.044883456 0.021512685 0.01157018 -0.04306587 0.1205478 -0.008086317 0.007822328
-0.034728568 0.13988282 0.061306193 0.024595367 0.12658198 0.09955058 0.27462292 0.10141462
0.08792537 0.049724944 0.0731178 0.024186991 -0.049503602 0.019937046 -0.045918506 -0.098356545
0.1388616 -0.06596185 0.045565687 0.005571234 0.08308581 -0.01192365 0.06905371 -0.10472777
0.023832723 0.11880716 -0.15859734 0.0036933068 0.02743398 0.01612458 -0.08923166 -0.048300404
-0.028045127 -0.094610855 0.10930464 -0.1444279 -0.011992407 -0.020642154 -0.23285998 0.009900453
-0.03994594 0.052767955 -0.046957828 0.047677267 0.029185368 0.007868763 -0.0076343464 -0.007845776
0.034327343 -0.13302982 0.025068296 0.034909043 -0.32066062 0.04907729 -0.04268191 -0.057882722
-0.07144849 -0.03284176 -0.023629684 -0.013305912 0.050761048 0.010789487 0.032607358 -0.034331314
0.06671933 0.067568675 -0.05439255 -0.045646034 -0.029573727 0.0022650352 -0.07119606 -0.033411004
0.100003675 -0.10025597 0.041799065 0.028472425 0.074342 -0.036243215 0.037940234 0.004720624
0.008162838 0.033978723 -0.068880424 -0.089121155 0.09691482 -0.06837215 -0.056414362 -0.015776891
-0.042340145 -0.013084057 -0.025830878 0.042550992 -0.035273604 -0.0061314492 0.06261086 0.016516995
0.013747158 0.00077940826 -0.024831586 -0.040027417 -0.07367431 -0.08629765 -0.07545331 0.07866701
-0.0034063188 0.02957715 0.06356046 0.0012974541 -0.07357251 -0.053024728 -0.016381344 0.038736727
-0.05987921 -0.03132459 0.035881057 0.081947856 -0.05067196 0.010787354 0.03906811 0.03104196
0.016425896 -0.0074944682 -0.025152557 -0.01185712 -0.049382932 0.035167575 -0.012401627 0.016082164
0.03259407 0.05643144 0.0030706862 -0.008807782 0.05197424 0.06937715 0.07634928 0.037371922
-0.001494386 -0.035657857 0.081142806 -0.021683956 -0.01817175 -0.033757586 -0.014552233 -0.010332711
0.06777075 -0.04547756 0.029718468 -0.034296725 -0.021718284 -0.049385164 0.007868445 -0.09271719
0.07093488 0.0018125412 -0.10760994 0.0023186365 0.03754412 0.005473261 -0.032647725 -0.060368765
-0.011790398 -0.02851355 -0.056060355 -0.08187129 0.026707344 0.019942725 0.048024688 0.04860159
-0.079717584 0.0053394176 -0.017551558 -0.021413745 -0.020248687 -0.061076872 0.046875283 0.059876744
0.013343617 -0.07298404 -0.03835929 -0.022765998 -0.19719201 0.035384152 -0.039715514 0.009333004

lstm.bias_ih_l0 f4 [256]
00000000: faa7 9c3d 4296 a33e 8947 223d 98d4 343e
00000010: 91db c13d 3235 f93d ad12 453e cf53 90bd
00000020: 2b63 243e b649 883e 7279 663e a5a3 913e
00000030: 93be 7b3d aad5 c83d 9b49 7abd ab0c 393d
00000040: 83ac 1c3e aae1 92bd 16d1 aebd b9ad 603d
00000050: 3381 7e3d 3f45 e4bc eeab 1a3e 7760 92bc
00000060: 5156 84bd 8ce2 d63d 7c87 a73d dd71 1d3e
00000070: db5b dbbd ea0a fe3d 764e 4bbd 9afb 77bd
00000080: 0929 373c 1529 103d 2543 cdbc e88c ff3d
00000090: 9bba 72bc 8e30 b53d 157a 9abb a4f7 193e
000000a0: 6861 123e bb26 a2bd 2fcb 7f3d 6d1b 2a3e
000000b0: 6cfa be3c fd36 e83d 6fce 90bd 2ebf 693e
000000c0: 9c0f 58bd 911f 62bd 96f0 12bd a895 b03d
000000d0: 2723 c73c 495d 5f3e ca15 643e 8f1a 6ebd
000000e0: 3dff 733d 6419 e33d 592f b9bc 49a2 ee3d
000000f0: c7ae 62bc 1ba8 ef3d b654 c83d 2115 05bc
00000100: a426 e6ba b835 11be 2be8 b93c b330 87bd
00000110: c095 e8bd 3083 c3bc edbd 6cbe 746c 093d
00000120: 38ca a0bd 4395 20be 800c 5dbe fd14 69be
00000130: 05dd bdbd f733 90bc 9c56 713d 607c 8fbd
00000140: 6a16 7a3c 47e6 03be 6651 a9bd 3ac3 453d
00000150: b480 0abc 5b11 d63c 46f1 34be ef98 81bc
00000160: e506 dbbd e408 ef3c 60ba 85bc 62b7 bdbd
00000170: f63f 28bd cd4a 0fbe 4fde 37bd 55ac 1fbd
00000180: b6c1 febd 34fc 41bc 132e 6a3b a810 61be
00000190: 279e 2bbe 3c99 52be 4970 0bbe 2048 c3bc
000001a0: 988f dcbc cd81 ae3c 6a66 353d be43 71bd
000001b0: a93c acbd b447 73be c60f 353e cda6 e1bd
000001c0: a593 123d 8da8 3bbe cabc 1fbe d041 aabd
000001d0: 9776 f53d 1332 55be 2f2f 40be db47 2ebe
000001e0: a925 b9bd 55a7 62bd bc41 b8bd be99 4b3c
000001f0: 0004 48bd 55d7 6dbd 1ac8 f8bd 6749 d9bd
00000200: 66fc 0d3d 111a ddbb d8af c43d c7ef 2bbd
00000210: c9d4 2ebd ff94 f9bc 547a 07bd d557 d23d
00000220: 1fcf 443d e44a 333d 436d 113d 0d20 edbc
00000230: b7ac db3c 6664 65bd d697 db3c 2d14 c0bc
00000240: b6fb a13b e83b 7f3c 7e3b a3bd 049e 803d
00000250: 72e7 0b3e fd78 f03b c283 0f3d 89b7 d3bd
00000260: 5550 bf3c 74fa aabd b0e0 8fbd b5ce 343d
00000270: 54b7 84bc a55a ba3d 8cde 02be 85d2 ccbc
00000280: b56f 48bc 734c 173d f4c1 35bd 6fc6 abbd
00000290: 86ba 53bd 4c83 a0bd ac89 0e3e 81df 833c
000002a0: 595e 8ebd 0d9a 10bc b81d cbbb 58cf c43c
000002b0: c382 09bd 3db3 c63d c85f 11bd c894 733d
000002c0: 5dbf 24bc d9eb f4bd 0b25 18bd c771 b2bd
000002d0: ba25 d0bd c996 37bd d8dc 6f3a ae6d 43bd
000002e0: 9ccb bd3d 8209 b2bd 335c 36bd 67f6 85bb
000002f0: e267 d9bd a6c7 adbd 5725 89bd bda1 95bd
00000300: fdd4 663d 9f02 9d3e 4027 bcbb 6184 213e
00000310: b960 9f3c 736b a0bd 8cda ff3d 8feb 053d
00000320: 2ef8 a93b e5f6 813e 89d4 0f3e a45d a83e
00000330: ef17 063d bc51 ce3b 3a4e 2bbe a0c1 183e
00000340: 2520 9fbd 7413 723d a940 19bd 14d7 28bd
00000350: 61c1 eebc c63d 0a3e f160 0b3e 92d2 fcbd
00000360: f831 10be 8e55 a53d 2e0e b03d acbb b33d
00000370: b277 eb3c 500b 623b 37dc f5bd 46b5 a43d
00000380: 4087 febd d9c0 10bd 1e60 68bd d7f4 133e
00000390: deb4 853d 3090 81bd 667f 6a3d 22c4 e7bc
000003a0: 7c83 e93d d0c4 3ebc 4843 0b3d 8ae1 303d
000003b0: 0803 24bd 5d9a 0a3e 9e3b f03d c8dc 2f3e
000003c0: d79f 873d 8d6d 47bd 30e3 833c 3b95 003e
000003d0: e8f5 753d 3040 973d b56b d93d 812f 0f3e
000003e0: 14b7 cf3d d6ab ba3d 9183 00be 8a68 403d
000003f0: 4232 88bb acc3 373d bf29 fa3b 9cbf 9a3d
0.076492265 0.31950575 0.039619002 0.17659223 0.09465707 0.12168349 0.19245405 -0.07047235
0.16053455 0.26618737 0.22507265 0.28445163 0.061461043 0.09806378 -0.061105352 0.045178097
0.15300183 -0.07171948 -0.08535974 0.054853175 0.062134933 -0.02786505 0.15104648 -0.017868264
-0.06461776 0.10492429 0.081801385 0.15375467 -0.107108794 0.124044254 -0.049635373 -0.06054268
0.011179217 0.03519543 -0.025056431 0.124780476 -0.014814998 0.08847152 -0.0047142603 0.15035874
0.1429497 -0.079175435 0.06244963 0.16612025 0.02331277 0.11338613 -0.07070624 0.22826836
-0.05274926 -0.055205885 -0.035873972 0.08622295 0.024308754 0.21812929 0.22273937 -0.058130797
0.059569586 0.11088827 -0.022605585 0.11652047 -0.0138356155 0.117019854 0.09781782 -0.008122713
-0.0017559123 -0.14180648 0.022693714 -0.066010855 -0.113566875 -0.023866266 -0.23119326 0.033550695
-0.0785107 -0.15681939 -0.215868 -0.22761913 -0.09270672 -0.017602904 0.058920488 -0.070061445
0.015264133 -0.12880813 -0.08267479 0.048281886 -0.008453537 0.026131323 -0.17670164 -0.015819995
-0.106946744 0.029179044 -0.016324222 -0.09263493 -0.041076623 -0.13993378 -0.044889744 -0.038982708
-0.12439291 -0.011839915 0.0035733029 -0.2197901 -0.16759549 -0.20566267 -0.13617052 -0.023838103
-0.02692394 0.021302128 0.044287123 -0.058902495 -0.084100075 -0.23757821 0.17681798 -0.11018143
0.035785336 -0.18326016 -0.15599361 -0.08313334 0.1198551 -0.20819883 -0.18767999 -0.17019598
-0.09040386 -0.05533536 -0.08996913 0.012426792 -0.04883194 -0.058066685 -0.12147541 -0.106097035
0.034664534 -0.006747492 0.09603852 -0.041976716 -0.042683396 -0.030466555 -0.033075646 0.10270659
0.04804909 0.043772593 0.03550459 -0.028945947 0.026815755 -0.05600395 0.0268058 -0.02344712
0.0049433364 0.015578248 -0.079703316 0.06280139 0.13662508 0.0073386417 0.035037763 -0.10337741
0.023353735 -0.083485514 -0.070252776 0.044142444 -0.016200699 0.0909932 -0.12780207 -0.025002727
-0.012233664 0.036938142 -0.04437442 -0.083874576 -0.051691554 -0.07837543 0.13919705 0.016097786
-0.06951589 -0.008825791 -0.006198611 0.02402465 -0.03357197 0.09702156 -0.035491735 0.05946806
-0.01005539 -0.11959047 -0.037144702 -0.087131076 -0.10163446 -0.044821534 0.0009150035 -0.04771202
0.09267351 -0.0869322 -0.04452152 -0.0040882113 -0.10615517 -0.084853455 -0.06696575 -0.0730624
0.056355465 0.30666062 -0.0057419837 0.15773155 0.0194553 -0.07832994 0.124928564 0.03269535
0.005187056 0.25383678 0.1404592 0.32883942 0.03273767 0.0062963646 -0.1672906 0.14917612
-0.07769803 0.059100583 -0.03741518 -0.04122074 -0.029144945 0.13500127 0.13611199 -0.123448506
-0.14081562 0.08072959 0.085964546 0.0877603 0.028743599 0.0034491606 -0.12004893 0.08042388
-0.12428141 -0.035340164 -0.05673229 0.14448868 0.06528638 -0.0632633 0.057250403 -0.028291766
0.11402032 -0.011643603 0.03399971 0.04318384 -0.040041953 0.13535447 0.11730121 0.17174065
0.06622284 -0.04868846 0.016099542 0.12556927 0.060048968 0.0738529 0.106162466 0.13982965
0.10142341 0.09114806 -0.12550189 0.046974696 -0.004156382 0.04486434 0.007634371 0.07556078

lstm.bias_hh_l0 f4 [256]
00000000: 5956 59bc f787 a03e 1265 babd d125 803a
00000010: de62 873d 98aa c9bc f55c 983e 3073 fc3a
00000020: 0239 113e dfe8 123e c1f1 7a3e f42c 713e
00000030: a7e3 cb3c 275d a33d ae7b 9bbd f8f4 9f3d
00000040: f171 d8bb 256b 063c 81af 1fbc 42bf 093d
00000050: 4307 c9bd d7bb 273d a276 313e 82f2 313d
00000060: d7a9 fabd c731 443d 15a4 593d 710c 6d3e
00000070: 5caf 9f3d 252b 21bd 9b52 21bd 7aa6 c63d
00000080: a935 80bc 9ba2 d1bd 6ed6 cdbd 3383 083e
00000090: 4c92 99bc 8e2e 21bd 9b63 8a3d 008e 8a3d
000000a0: e543 d93d d3ee fbbd f80b a63d 62ae c73d
000000b0: 9210 a9bd 3404 033e d0ac 383d 0c7d 0c3e
000000c0: 7f64 563d fefb b23d dc9f ffbc 38b9 e0bb
000000d0: bf2b fd3d 430f 253e c176 cd3d e27f b23d
000000e0: 1bfa a23b 5a7b 3c3d 0bf0 8cbd c25d a73d
000000f0: b3a6 d63c 4c04 d2bc 0c30 66bb 3fd0 073e
00000100: 02cb 0bbe 56d5 14be 66e0 a63c 348d 2dbe
00000110: 744d 543c cd08 c53d 6d43 61be 2ebb 91bd
00000120: ca7e 92bd c96b 48be c331 a0bd 4d3c 29be
00000130: 5b51 f2bd 8a26 38bd 66c2 0c3d dfcf 143d
00000140: 547f 17be 3aab 0bbe 3294 ccbd 4398 e9bd
00000150: 149d 8dbd ce7b 1ebe 3718 07be 7e3d b8bd
00000160: 619a 13be 2943 77bc 60d1 32bc f083 29be
00000170: de1d 70bb c39b e5bc f297 d5bd 64e6 2ebd
00000180: b91e 3cbd 64e1 713d e09d 3abd d7d9 2dbe
00000190: 1250 3bbc 6ece 67be 1a72 aa3c 62ae a7bd
000001a0: 5ebd b9bd 43c8 09bd 34f3 07be 575c 0dbe
000001b0: c80d 67bd 8dce 14be 5b43 cb3d 23f1 56be
000001c0: 0cc7 2a3d 219b 6ebd 3a1f a2bd 838a 5bbd
000001d0: 7eae 50bd f1b4 f2bd 2677 67be fb74 063d
000001e0: 1eec 45be 507d 33be 6169 14bd f755 19be
000001f0: d93e 80bd 1fec 05be 72da aebd b15e 22bd
00000200: 1410 b9bd 92f3 b7bc 4125 63bd 4117 5a3c
00000210: 2d96 793d 7491 833d 68aa 0b3d f0ee 75bd
00000220: 840d be3c 84fb d6bd bd86 80bd 83b4 443d
00000230: 3c22 a1bd 8812 983d c282 763d 555d bfbb
00000240: 6b71 66bd 5545 83bd 1780 963c aa6f ccbc
00000250: 6df4 8dbd 49aa 8cbd b484 943d 0c9f 1b3d
00000260: aa5c 103d 5c29 cd3d c71c ab3d d3c3 0a3d
00000270: a22c 443d 10e0 ddbd eaea c03d 2eb8 71bc
00000280: 07e3 6bbd 2b18 c0bc 8cde 0abd 710b 053d
00000290: 467b 30bc f468 c63c 8157 54bd 0c21 823c
000002a0: d07a da3d f0ce 653d 288f 673d 0145 fc3c
000002b0: 510f e53d e4f3 b1bd e1b4 2b3b 7809 12bd
000002c0: 427f cc3c 7760 b23d daa2 193d da88 be3d
000002d0: b2db 3b3c 267f febb 20ed 0cbd 429e b63b
000002e0: dce6 b8bd 4c68 a43d 90ce af3d 2849 6cbc
000002f0: 2cbe 543d 8a3a 843d ee45 4e3d 1863 203d
00000300: ab56 1ebd 558c 3e3e 115d c6bd 04d0 7c3d
00000310: 44ed 73bd 45d1 7bbd 7d72 833e 1baa 50bd
00000320: 6be0 bcbc c147 a53d b3f0 453e 69fb 7a3e
00000330: 85f4 6abd d813 09bd 2413 2bbc 64bd 163e
00000340: 466f 763d dbff 183d 7984 0c3b dccf c23d
00000350: bb11 8f3d 409c 8c3c d99e da3d 9571 64bd
00000360: 58d8 abbc b88d 88bd 7633 ffbc f207 c13d
00000370: ee80 83bd b1f9 003e 9fdf 98bd 9e8a 3e3d
00000380: 0e8f 17bd 3ba6 32bc 780e acbd 69ba 053e
00000390: 4ab6 0fbc 3fe3 4e3d 614d 16be 3727 4bbd
000003a0: 2b18 153e 48ae 033d a640 a43c 0165 04bb
000003b0: d330 e83d 18bb 1a3e c1a0 84bd ee25 9d3e
000003c0: 4d77 f93d baef 843d 9157 1d3e 7ee7 44bd
000003d0: 0536 a33c 9f07 923e 4172 993d 8d74 40bd
000003e0: 3423 f53d ecf1 6c3c 92ac 793c 639a 81bc
000003f0: 87a6 5d3e aabd a53d 49ce 89bd a6e4 b6bc
-0.013265216 0.31353733 -0.09101309 0.0009776895 0.06610654 -0.024617478 0.2975842 0.0019260403
0.14181903 0.14346646 0.24506284 0.23552305 0.024888827 0.07976752 -0.075919494 0.07810396
-0.0066053797 0.008204256 -0.009746433 0.033629663 -0.09815838 0.040950622 0.17330411 0.043444164
-0.12239426 0.047899034 0.053134996 0.23149277 0.07797119 -0.039347786 -0.03938542 0.09699722
-0.015650587 -0.10236093 -0.10050665 0.13331299 -0.018746518 -0.03935104 0.067572795 0.067653656
0.10608653 -0.123014115 0.081077516 0.09750058 -0.08255114 0.12794572 0.04508668 0.13719577
0.052341934 0.0873947 -0.031204157 -0.0068580173 0.123618595 0.16119103 0.10032416 0.08715798
0.0049736626 0.046016075 -0.06881722 0.0817218 0.026202535 -0.025636815 -0.0035123853 0.13263033
-0.1365166 -0.14534506 0.020370673 -0.16948396 0.012957919 0.09620819 -0.21998377 -0.0711578
-0.07153089 -0.19572367 -0.07821991 -0.16526909 -0.118319236 -0.04495863 0.03436508 0.036331054
-0.14794666 -0.13639536 -0.099892035 -0.11405995 -0.06914726 -0.15476915 -0.13192831 -0.08996104
-0.1441436 -0.015091696 -0.010914177 -0.16554236 -0.0036638896 -0.028028375 -0.10429372 -0.042700186
-0.045927737 0.05905284 -0.045560718 -0.1697763 -0.0114326645 -0.2263734 0.020806361 -0.08187558
-0.09069322 -0.03363825 -0.13276368 -0.13804756 -0.056409627 -0.14531918 0.099249564 -0.20990424
0.041693732 -0.05825341 -0.07916112 -0.053598892 -0.05094766 -0.11850918 -0.22604045 0.032826405
-0.19328353 -0.17528272 -0.03623331 -0.14974199 -0.06261987 -0.13078354 -0.08537759 -0.039641086
-0.0903627 -0.02245501 -0.05545545 0.013311208 0.060934234 0.06424227 0.03409806 -0.06004232
0.023199804 -0.104971915 -0.06275699 0.048023712 -0.07867858 0.074254096 0.060183294 -0.0058399835
-0.056260508 -0.064097084 0.018371625 -0.02495559 -0.06931386 -0.06868417 0.072518736 0.037993476
0.03524462 0.10017654 0.08355098 0.03387816 0.047894128 -0.10833752 0.09419806 -0.0147533845
-0.057589557 -0.023449024 -0.033903643 0.032481615 -0.010771578 0.024219967 -0.051841263 0.015884899
0.10667956 0.056105554 0.05653301 0.030794622 0.11184562 -0.086890966 0.0026200342 -0.03565356
0.024963025 0.087098055 0.037508823 0.09303446 0.011465954 -0.007766622 -0.034405828 0.005573065
-0.09028408 0.080277056 0.085843205 -0.014421739 0.051939175 0.06456478 0.05035966 0.039157003
-0.03865687 0.1860822 -0.0968572 0.061721817 -0.059552446 -0.06147887 0.25673285 -0.050943475
-0.02305623 0.080703266 0.193301 0.24509968 -0.0573621 -0.03346619 -0.010441575 0.14720684
0.060164712 0.037353378 0.0021441265 0.09512302 0.06985804 0.01716435 0.10674829 -0.055772383
-0.020977184 -0.06667656 -0.031152468 0.094253436 -0.06421076 0.1259525 -0.07464527 0.046518914
-0.037001662 -0.01090389 -0.08401197 0.13059391 -0.008771488 0.050509688 -0.14677955 -0.049597945
0.1456 0.03214863 0.020050358 -0.0020201805 0.113374375 0.15110433 -0.06475974 0.30693
0.12180958 0.06491037 0.15365435 -0.04807233 0.01992322 0.2852144 0.07492495 -0.04698615
0.11969605 0.014461976 0.015238898 -0.015820688 0.21645556 0.08092816 -0.06728799 -0.022325825

lstm.weight_ih_l1 f4 [256, 64]
00000000: 950d ab3d 25f9 83bc babc da3b 76cb 1a3d
00000010: acfc 88b9 b056 8cbd 3d73 f0bc 8a53 21bd
00000020: 5a9b ee3b 2627 5c3c a1f6 f9bc 3800 8dbc
00000030: 5248 973d 82f8 993c b2b4 99bd ccff 763c
00000040: f0a7 38bc be42 bcbc 5860 363d 3902 10bb
00000050: 30e0 8cbd f491 db3c 652f e63c 6832 61bb
00000060: 7f3a a63d f648 6f3d 6f7d 0b3d 3f35 483d
00000070: dbbd 033c cfa7 2ebd 14da 4a3d 370e 39bd
00000080: 3bf8 23bd 14fb 55bd ea00 f6bb ac2d a03d
00000090: b2d4 0d3c 370b c13c cc0a 5e3c af09 113d
000000a0: 3a5a 463d b1c1 473d e607 4abd faec febc
000000b0: 75be 2fbd d14e 19bd 0556 96bc 79f0 1e3d
000000c0: c7cd 8fbc 4602 c43c b20c df3c fb59 5c3c
000000d0: 5d7f ca3c 9504 8f3d f303 ffbc 0579 b13d
000000e0: 6799 903c 41f3 8dbb 004f c43b c06c 60bd
000000f0: 1b32 1dbd d45a 99bc 829e 9abd 33f1 bfbc
00000100: cb05 093d 7cde 753c 3477 1abd 0ad6 193c
00000110: f726 75bc 8129 6ebc 25df a73b 2359 5a3c
00000120: 593d f6bc 7f20 ab3c 667e 0d3d 560b 0abc
00000130: e895 1c3d 9a24 fcbb 70c9 bfbb 2a2f 2e3b
00000140: a7c6 18bd fa8a 2cbc 019b 553c a29b edbc
00000150: 89fb 333d 9e77 bc3b 013e 0e3d f803 073d
00000160: 84a7 6a3c 06da c7bb 3e6f 813c 3c61 22bd
00000170: ed94 7ebc 1a1a e5bc a52f e6bc 9ef5 9fbc
00000180: c599 183b 67b0 08bd ba16 30bd efc0 c03c
00000190: 725e 373d 0168 a4bc 6dad 6abc 3ca7 36bc
000001a0: 75af cbbc 19c3 d93c a931 2ebd b4b1 1dbd
000001b0: 4aad 5d3d 2bf6 f6bb 324e 8f3b a584 91bc
000001c0: 7ab1 bebb 97ab 983c d7c2 cc3a 68ad a23c
000001d0: b8b4 6cbc a419 c83c 9830 a53c 3fef 403d
000001e0: cfa9 1cbc c152 ed3c 784b 10bd 8949 9f3b
000001f0: dc41 dcbc 3c94 39bb 491d 42bc 5a35 dabb
00000200: b0bc 8e3d 60a4 ce3c 78ee 8fbd 7e73 7cbd
00000210: 7910 69bd c29b 833d eb9e d83c 850b dcbc
00000220: 0664 b7bd b87b a6bc 290d a0bc 9998 f9bc
00000230: f603 a83d e250 283c ebe7 85bd e227 fcbc
00000240: a651 10bc 3faa a8bd c9c4 913d 65c3 88bc
00000250: 6f6c b8bd 7e91 003c 4166 8ebd 16b4 afbd
00000260: f9e7 8e3c 5999 d1bb c1c3 e73b cc45 e53c
00000270: 0518 98bb 10c3 80bd 4bc2 b03d 4885 b33d
00000280: d2f1 933d f081 b13d 0e42 a33d de6a b93c
00000290: 773d 35bd 4b39 763d 4c15 a8bd 0d66 9dbd
000002a0: 7167 173d 4c7c 7fbd fa26 81bd fad1 7a3d
000002b0: 8bca 35bb 2e27 4e3d 5815 04bd a715 713d
000002c0: 7721 52bc 194a 3dbb e722 52bd 4a05 803d
000002d0: ab3a 89bd 5131 14bd b0b1 8a3d 2c3c 953c
000002e0: 7fcb 473c e7c5 a4bd 80c1 803d 911f 09bd
000002f0: 0612 96bd 1726 89bd c480 a9bd 441d 8c3d
00000300: 446b 953d 11a6 a4bb c42f 753d b995 433d
00000310: 2507 4b3d e493 9a3d 7055 9abd 2265 4d3d
00000320: 5c83 263d e211 723d d8d6 b5ba aece fe3d
00000330: 49bd f73c 29bb 82bd 188a d5bc 9fae 543b
00000340: 1570 943d 36b4 f53c 83e3 7f3d ce30 8d3d
00000350: ab2d 4b3d 18ec 4fbd 3d9a a3bd 7f13 88bc
00000360: 1fdb 6a3c 292e 98bd 6c8f 19bd ee2e 7f3d
00000370: dfca 85bd c277 b43c 4891 253d 7f87 06bd
00000380: bb82 4abd 9df6 18bd 83c8 b4bd 3ea3 acbd
00000390: f151 a13d acfe 163d 6bc7 e8bb 1f3a c53b
000003a0: 44f0 b7bd ed88 8abc c5b1 d3bd 091b 6f3c
000003b0: a646 24bd f074 923b 67d0 0e3d 8ced 2ebd
000003c0: 0d8e a6bd 4eeb a7bc b0f8 55bd ea61 4dbd
000003d0: 3df7 eabd 487c bc3c a085 5b3d 26f3 8dbc
000003e0: 26e5 23bd be79 583d f01f 5bbd a48f 39bd
000003f0: f24e fbbd 849d 773d 89b1 37bb d973 b23d
0.083522 -0.016110012 0.00667533 0.03779169 -0.00026128197 -0.06852472 -0.029351825 -0.03938631
0.007281703 0.013437068 -0.03051311 -0.017212018 0.07386841 0.018795256 -0.07505168 0.015075635
-0.011270508 -0.022981044 0.044525474 -0.002197398 -0.06878698 0.026802994 0.028098771 -0.003436232
0.08116626 0.05841919 0.03405517 0.048878904 0.008040871 -0.042640503 0.04952438 -0.045179572
-0.040031653 -0.0522414 -0.007507433 0.07821211 0.008656668 0.023564918 0.013552379 0.035409626
0.04842589 0.048768703 -0.04932394 -0.031118859 -0.042906243 -0.03742868 -0.018351564 0.03880355
-0.017554177 0.023926865 0.027227733 0.013449187 0.024718935 0.06983296 -0.031129813 0.08665661
0.017651273 -0.0043319766 0.005990863 -0.054791212 -0.038377862 -0.018720068 -0.07549764 -0.023430442
0.03345279 0.015006658 -0.037711337 0.00938941 -0.014962903 -0.0145362625 0.0051230364 0.013326916
-0.03005855 0.020889519 0.03454437 -0.008425554 0.0382289 -0.007694793 -0.0058528706 0.0026578405
-0.037298825 -0.0105311815 0.013037444 -0.029004876 0.043941054 0.005751564 0.0347271 0.03296277
0.014322165 -0.0060989885 0.015800115 -0.03964351 -0.015538436 -0.027966548 -0.02809889 -0.0195263
0.0023285013 -0.033371355 -0.042990424 0.023529498 0.044767804 -0.020069124 -0.0143235745 -0.01114827
-0.024863938 0.026582288 -0.04252783 -0.03849955 0.05412034 -0.0075366697 0.0043733353 -0.017763445
-0.0058194967 0.018636508 0.0015622032 0.019858077 -0.014447384 0.024426289 0.020164773 0.047103163
-0.00956197 0.028970124 -0.035228223 0.004861061 -0.026886873 -0.0028317114 -0.011847802 -0.006659192
0.06969583 0.025224864 -0.07027906 -0.06163358 -0.056900475 0.06426193 0.026442965 -0.026860962
-0.08954625 -0.020322666 -0.019537525 -0.030468272 0.082038805 0.01027319 -0.065383755 -0.030780736
-0.008808529 -0.08235597 0.07117612 -0.016694734 -0.09005057 0.007847188 -0.06953097 -0.085792705
0.017444598 -0.0063964543 0.007072896 0.027987383 -0.004641535 -0.06287205 0.086308084 0.08765656
0.07223858 0.08667362 0.07971583 0.022633966 -0.04424807 0.060113233 -0.08207187 -0.0768548
0.036963884 -0.062374398 -0.06306262 0.061235406 -0.0027739133 0.050330333 -0.032246917 0.05885854
-0.012825361 -0.0028883277 -0.051302817 0.06251009 -0.06700643 -0.036179844 0.067721725 0.018217169
0.012194513 -0.080455594 0.06286907 -0.03347737 -0.073276564 -0.06696718 -0.08276513 0.068415195
0.0729585 -0.0050246795 0.059860006 0.04775021 0.04956736 0.07547739 -0.07535827 0.050145276
0.040652618 0.059099086 -0.0013873233 0.12441765 0.030241625 -0.06383354 -0.026066825 0.0032452715
0.072479405 0.029993158 0.06247283 0.068940744 0.0496041 -0.050762266 -0.07988403 -0.016610859
0.014334469 -0.07430679 -0.037490293 0.062300615 -0.06532835 0.022029761 0.040421754 -0.032844063
-0.04944108 -0.037344564 -0.08827307 -0.084295735 0.07876957 0.036863968 -0.0071038506 0.0060188915
-0.08981374 -0.016910994 -0.10336641 0.014593848 -0.040106438 0.0044695064 0.034866717 -0.04270701
-0.08132563 -0.020497944 -0.05223912 -0.050142206 -0.11472938 0.02300848 0.05359423 -0.017327856
-0.040013455 0.052850477 -0.053497255 -0.045303002 -0.12270917 0.060452953 -0.0028029403 0.087135024

lstm.weight_hh_l1 f4 [256, 64]
00000000: eec5 18bc a51a f93c c35c 1f3d ccc2 823d
00000010: 65f5 533d 23fb ed3a 2073 903b 27b5 89bd
00000020: dd10 293d 44fa a6bd 399a b73c 5cb3 093c
00000030: ffc3 7b3d 2719 84bc 3384 03bd f747 193d
00000040: b8b1 413d 4265 913c 402d c23c 8315 523d
00000050: 241e ac3d c277 9b3d ba2e 72bb 9ade 9e3d
00000060: b56b 31bd d3c1 8e3d d2b6 8e3d 5a01 7fbb
00000070: 2af7 92bc 3b01 dcbc 6b28 9839 10ce 163b
00000080: f052 9c3c c041 433d cb90 873d b283 01bd
00000090: 9b15 8f3d c519 f4bc d04f 15bc cde6 8ebd
000000a0: d7dd 6e3d b03c e4ba 2538 413c 26fe fabc
000000b0: 5aa6 fc3c 1ca2 5e3c 1d99 5e3d 9a80 c8bd
000000c0: 001c 9ebd 5cad d0bc 815a 293d c0a7 80bd
000000d0: cf38 413d 177d 13bd dab2 973c 7297 aebd
000000e0: 9709 a03c 3301 5e3c d319 a5bd 8cba a63d
000000f0: 99c7 bfbc aebf cdbc 6f70 24bd b28a a53c
00000100: 1374 1d3c e15a 02bb 5965 523d 67a4 503c
00000110: 28c0 cebb 36fe 953c 3b2a 6d3b 5cce ab3c
00000120: 4b12 293c a7ec 2cbd 7b9a 54bb 9b23 863d
00000130: 30ed 5ebc 19bf 623c 547a 04bc ddc5 513c
00000140: 6619 01bc bd28 30bb 2131 d83b 86bf 993b
00000150: 15d5 5f3c 7e95 f5bc 7ddc 5ebc 4883 afbb
00000160: 9ef2 073c 2ee1 893b c206 173d 50d5 073c
00000170: 58ee 9abd 3c8f 723b 6815 663c 983c 053d
00000180: 6d83 a93b da26 cabc 4b9a 86bc 4ff9 e6bc
00000190: 36a9 bfba 86f1 04bd cd0a 91b9 c7da 263c
000001a0: c967 84ba 79cd c03b 5f59 c93b 0521 d7bb
000001b0: 512c bf39 e9f0 2d3b e8d0 45b9 479c 35bc
000001c0: 62cf 683d 6852 e4bc 3b0a 9a3a 886e 89bb
000001d0: c3db 08bc 1906 2abd f500 28bd 6770 d4bc
000001e0: 0e5a 94bb 6a92 523d d56a cb3b fd1b c43c
000001f0: 459c b63b fe77 a7bc 786b ecbb 3feb 16bd
00000200: 4d8d 123d fe60 5c3c 8276 083c 7076 2e3d
00000210: 75ab 863d 9333 db3c 0282 2d3d 3135 873d
00000220: 64d7 583d 3299 ac3d 06f3 73bd 874d 9b3d
00000230: bdea 71bd 507d a4bc 8025 7c3d 7c98 b3bc
00000240: e8b9 ac3d bde6 31bc 3c61 973d 8b1f 6c3d
00000250: ab2d cc3c 9619 b7bc e53d 613c abea adbd
00000260: ce57 493d 33b7 163d 012e 33bc 8c0e de3b
00000270: 21b6 89bd 635d 1d3d 13e4 5a3b c0f2 a53c
00000280: 16ae 88bc e124 bb3c bed7 75ba dbf2 233d
00000290: 499c 8fbc e6c2 af3d ee43 993d 63e7 0bbc
000002a0: e044 48bc bad2 9a3d 1dca f43c a599 b5bb
000002b0: 0f5c d93d 3663 99bc 4d99 bbbb 1548 cfbc
000002c0: 7bfa c63d ddee 4f3c faa3 813c 9255 20bc
000002d0: 06b9 a7bd b1e9 2d3d cfda 17bd bfb4 313d
000002e0: d824 a4bc 77e9 a13d eff4 4e3d 8b4e 45bd
000002f0: be23 8cbd 6892 b8bd 36fa 9abd cfd8 22bd
00000300: 2619 37bd 579c 2d3d d84f 7e3d 9f08 133d
00000310: 33f6 1d3d b560 8fbc d59c 11bd 5ad1 f43c
00000320: 2178 9bbd 5d8b f0bc 1be4 2e3c a81d 7b3c
00000330: c10a c5bd 6c58 b2bc f002 fe3c e1cb a0bb
00000340: 00af 2ebd b117 6fbd a6f5 a43d 7e86 c0bd
00000350: ff46 afbc 8e36 23bd d561 6d3d c455 d0ba
00000360: 8104 d9bc 00ae 6b3d b1b1 8d3d c986 183d
00000370: 3bac 71bd 5cdb b63b e216 4abd 722f a1bd
00000380: e12d eb3d 4dbd cf3c a841 223d fbf8 82bd
00000390: df3f 95bc 3cf7 99bd 54fa 65bd a80b aebd
000003a0: d3f1 f8bc 1be8 47bb df06 733d 9695 9e3c
000003b0: 9aa7 19bd c5dc 213d 305b 303d 4da5 b9bd
000003c0: ddbf 453d 0a76 753d 6d59 f2bc 4aa4 e73c
000003d0: 9ec7 6d3d 4cb6 b5bd 6d9a a9bd eeb6 dfbd
000003e0: 975e 053d ecf0 cabc c29e 403d 9ffc 023d
000003f0: 5355 56bd 6837 c0bc c282 4bbb c43a 84bc
-0.009324534 0.030408213 0.038906824 0.06384811 0.0517477 0.001815651 0.004408255 -0.06724005
0.041275848 -0.08153203 0.022412406 0.008404579 0.061466213 -0.016125275 -0.032108497 0.037422147
0.047288626 0.017748479 0.023703218 0.051290046 0.08404186 0.07591201 -0.003695412 0.07757302
-0.043315608 0.06970563 0.06968464 -0.0038910718 -0.017940123 -0.026856055 0.00029021813 0.0023011006
0.019082516 0.047670126 0.06619414 -0.031619735 0.06986543 -0.029797444 -0.009113267 -0.069776155
0.05831703 -0.0017413106 0.011793171 -0.030638766 0.030841041 0.013588455 0.05434524 -0.09790154
-0.07720184 -0.02547329 0.041346077 -0.06281996 0.047173318 -0.036007967 0.0185179 -0.0852498
0.019535823 0.013550091 -0.08061566 0.0814105 -0.023410605 -0.025115814 -0.040146288 0.020207737
0.009610194 -0.0019890594 0.051366184 0.012734509 -0.006309528 0.018309694 0.0036188501 0.020972423
0.010319303 -0.042217877 -0.003244071 0.0654976 -0.013606355 0.013839507 -0.008085806 0.012803522
-0.007879591 -0.002687975 0.0065976535 0.004692021 0.013661643 -0.02997851 -0.013602373 -0.005356226
0.008297591 0.0042077517 0.03687168 0.008290604 -0.07564992 0.0037011644 0.01404319 0.03252849
0.005173138 -0.024676729 -0.016430994 -0.028195051 -0.0014622572 -0.032456897 -0.00027664602 0.0101839965
-0.0010101731 0.0058838692 0.006144687 -0.0065652155 0.00036463377 0.0026541299 -0.00018865208 -0.011084623
0.0568384 -0.027871326 0.0011752316 -0.0041940846 -0.0083531765 -0.04150972 -0.041016538 -0.025932504
-0.004527337 0.051409163 0.0062078037 0.023939127 0.005572828 -0.020442959 -0.0072149597 -0.036845442
0.035779286 0.013450859 0.008329036 0.04259342 0.065756716 0.026757991 0.042360313 0.06601942
0.052939788 0.08427657 -0.059557937 0.075831465 -0.059061754 -0.020079285 0.0615592 -0.021923296
0.08433896 -0.010858235 0.07391593 0.05764727 0.02492412 -0.022351068 0.013747667 -0.08492025
0.049156003 0.036795806 -0.010936261 0.0067766365 -0.067241915 0.03841914 0.0033400103 0.020257354
-0.016684573 0.022844734 -0.00093781564 0.040026527 -0.017530577 0.08582096 0.0748366 -0.008539054
-0.012223452 0.07559724 0.029881531 -0.0055419975 0.10613262 -0.018724065 -0.005725062 -0.025302926
0.09715744 0.012691227 0.01582526 -0.009786027 -0.08189587 0.042459194 -0.037073907 0.043385264
-0.0200371 0.07905858 0.050526556 -0.048170608 -0.06842755 -0.090123 -0.07567255 -0.039757546
-0.044701718 0.042385425 0.062087864 0.035896894 0.038564872 -0.017502168 -0.035549957 0.029884983
-0.07591272 -0.029363329 0.010674502 0.015326895 -0.09621192 -0.021770678 0.03100726 -0.0049071168
-0.04264736 -0.058372203 0.08054666 -0.09400652 -0.021396158 -0.03984695 0.057954628 -0.0015894701
-0.026491405 0.057538986 0.069186576 0.037237916 -0.059002142 0.005580349 -0.04933823 -0.078703776
0.1148336 0.02535882 0.039613396 -0.063951455 -0.018218933 -0.07517859 -0.056146935 -0.08498317
-0.030388748 -0.0030503336 0.059332725 0.019358438 -0.037513353 0.039517183 0.043055713 -0.09064732
0.04827868 0.059927024 -0.029583657 0.028276581 0.058051698 -0.08872661 -0.082814075 -0.10923563
0.03256091 -0.024773084 0.047026403 0.0319792 -0.052327465 -0.02346392 -0.003105328 -0.016141303

lstm.bias_ih_l1 f4 [256]
00000000: dd61 953d d0dd d03d 0b1d bbbd 79df ac3d
00000010: 1290 ca3d c40c c4bd ff37 a5bb 4b16 473b
00000020: 4801 1b3e 52d0 9f3d de85 8a3d c83e ce3d
00000030: 2ec1 e53d 7292 363e 802a e33d e6ef abbc
00000040: d727 c63d 706e b1bd 7342 493c af50 01bd
00000050: cd73 d1bd 95b5 91bd d836 3abd a12e 68bb
00000060: a651 af3d 6b47 99bd a347 a53d 695e c53d
00000070: c8d7 35bc 96ef fcba 9fa1 4bbd 4ded c73b
00000080: a1bc a1bc 7bb9 b93d 5edb 6bbd 34fc ea3d
00000090: c8c4 433c d5bd 043e caf9 f93c f5c6 043e
000000a0: a5e3 9bbd d3f1 febb c5c3 17bd 4bf7 b3bd
000000b0: 062f 68bd 3b2a ff3d 1602 b33d 80a8 e73d
000000c0: 07b0 843d 3b22 823d 853d b1bd 30c3 84bc
000000d0: 5ccf ee3d 1b84 533c aaf7 2cbd 78ee c03b
000000e0: 7a76 dcbd 8a01 103d 5d55 793c 0ccc a0bd
000000f0: 8772 a13d ac60 90bd 6cca 943d 5f0c b7bd
00000100: efa3 0bbe a8c1 3a3d 8226 acbb 7be7 b23d
00000110: e811 91bd 0f55 f73d 0d15 5b3b 30a2 b63c
00000120: 0c14 143d f053 263d 42a1 a33d 9de4 443c
00000130: 6e85 d43d a2cb 2dbe 789d 66bd 285b 69bd
00000140: 583c a8bd d00b c3bd 00a0 86bd 3c1d d53c
00000150: 8f18 02bd 45a3 c9bd 6195 e83c 6064 d83d
00000160: b675 963d 19a7 0bbd 0223 003e 3172 c03c
00000170: 148e 793b f2c5 f2bc 752f b63d ece2 66bd
00000180: b636 9cbd 936f 373d 7e23 82bd 6bc1 fabc
00000190: c626 42bd 0ac8 053e 6dba 99bd 38b8 1a3d
000001a0: 561f dfbd 3ecb af3c 68ac bebd 3650 fdbc
000001b0: 695d 2c3d 3413 bbbc 1672 c1bb 3def 993d
000001c0: e4fb 9fbd 45d0 c1bd 89ba a73c 146a 01be
000001d0: f442 3dbd 7347 5c3d cb20 00bd 4d11 65bc
000001e0: b5a2 f0bc 0231 c9bc 51fd 3d3d 4b7e 9abd
000001f0: d6f7 60bc 47de cabd 8d5a 95bc fddb b93d
00000200: 9c9b 533d 5920 cdbc 8cad aa3c b7e7 a13d
00000210: fccd 2cbd e649 8f3d 6f93 a63d 216e c9bc
00000220: 8307 973d 8b0d 2b3d d386 85bd b32a 9cbd
00000230: 3395 e3bc c865 e83d e512 813d 3eb6 c73d
00000240: 4aa9 55bd 6a8a 11be 48b4 86bc 81f9 a4bd
00000250: 7cb5 ae3d 1ff2 3ebd d595 60bd 57a9 98bc
00000260: 4b84 5fbc 2b5d 60bb 4824 b73d 10f9 7abd
00000270: 36ff 8d3c aeee ce3b 9c48 c53d 58c9 e23c
00000280: a85d 153d 85a8 c2bd ff0d b23c d62e 603d
00000290: 7eaf c63d b411 dbbb 8d73 45ba 656e d73d
000002a0: 1520 c3bd 524c babc 5163 973c f82c b4bc
000002b0: 94b9 ce3d a0ca e43d 2cd7 c13d 2cad 693d
000002c0: c0b6 3e3d 2114 153d 1124 913d 7d66 70ba
000002d0: 8856 2bbc f788 4f3c ef02 b7ba 50f0 b8bd
000002e0: 2e00 a13c 0c4a d33d 410a c73c 49b5 003c
000002f0: b346 05bc 9919 cabd 67a6 d0bd a5fa b8bd
00000300: 78a8 9bbd b3a1 40bd 3a23 1d3d 3ed5 133e
00000310: c008 00bc 616f df3d 5c34 3d3d 7c11 073e
00000320: 4889 e83d 28fc e93d c5c3 d33d 668b 65bd
00000330: a9bd 803d 39db 8b3e 6903 0abd e514 8bbd
00000340: 5d10 4d3d e8d9 74bd 4a1e 68bd d55d ed3c
00000350: b32a dd3c 549b fb3a 7966 85bd f524 76bd
00000360: c78f 4ebd 2a1a 243e a512 563d eacd 53bd
00000370: ee27 fd3d 25fc 4f3d 706e 9bbc a841 cc3c
00000380: 8370 70bd b1b0 b1bc 948c 583d 2013 5dbd
00000390: 9771 8abc f503 d93d 13b2 4abd da84 5b3d
000003a0: 6dce 4e3d 5fd0 e43d 0547 94bd a102 74bd
000003b0: 5772 803d f29d 8c3d 9690 353e 30df e33d
000003c0: 9a9b 0e3e 9d35 fa3d ffb2 32bd e787 523d
000003d0: e7bd 003e 2ef9 01bd d05d eabc b9a6 253d
000003e0: c98b 0d39 4033 ba3c e88d b9bd bcb4 8fbd
000003f0: b824 5e3d 2329 e5bc 32bb 2d3d dc1a a23c
0.072940566 0.101985574 -0.09136399 0.084410615 0.098907605 -0.09572747 -0.0050420756 0.0030378278
0.15137208 0.07803406 0.067638144 0.10070568 0.11218487 0.17829302 0.110920906 -0.020988416
0.096755676 -0.086636424 0.012283909 -0.031571086 -0.10227165 -0.07114712 -0.04546246 -0.0035428184
0.08560495 -0.07484325 0.08070304 0.09637148 -0.01109881 -0.0019297476 -0.04971468 0.0061012865
-0.019743266 0.09068581 -0.05758225 0.11473885 0.011948772 0.1296304 0.030514617 0.12966521
-0.07611779 -0.0077802925 -0.037051935 -0.08787402 -0.05668547 0.12459227 0.08740632 0.11311436
0.06478887 0.06354185 -0.08654312 -0.016206354 0.116606444 0.012909914 -0.04222838 0.0058878027
-0.10764785 0.035157718 0.015218106 -0.07851419 0.078831725 -0.07049689 0.072651714 -0.089379065
-0.13636754 0.04559484 -0.005253614 0.08735558 -0.070834935 0.120767705 0.0033429295 0.022294134
0.03615193 0.040607393 0.07989742 0.012017396 0.10377012 -0.16972211 -0.056302518 -0.0569717
-0.08214635 -0.095237374 -0.06573486 0.026014917 -0.031761702 -0.09845594 0.028391542 0.1056602
0.0734667 -0.034094904 0.12513354 0.02349195 0.003807907 -0.029635403 0.088957705 -0.056368753
-0.07627623 0.04478414 -0.06354426 -0.030609807 -0.04740026 0.1306459 -0.07506261 0.03777334
-0.10894649 0.021459218 -0.09310228 -0.030922037 0.04208127 -0.022836305 -0.0059034927 0.07516334
-0.07811716 -0.094635524 0.02047469 -0.12638122 -0.04620643 0.053779077 -0.031281274 -0.013981176
-0.02937446 -0.024559502 0.04638416 -0.0754362 -0.013730964 -0.09905677 -0.018231655 0.090751626
0.051662073 -0.025039839 0.020834707 0.07905524 -0.04218863 0.06996517 0.081335895 -0.024588646
0.073744796 0.041760962 -0.06519856 -0.07625332 -0.027781105 0.11347538 0.06302432 0.09751557
-0.0521634 -0.14212957 -0.016443387 -0.080554016 0.08530709 -0.046617623 -0.05483039 -0.018635435
-0.013642381 -0.003423522 0.08942467 -0.06127268 0.017333608 0.006315074 0.0963299 0.027683899
0.03646627 -0.09504799 0.02173519 0.054732166 0.09701441 -0.00668546 -0.0007532172 0.10519103
-0.095276035 -0.02274147 0.018479975 -0.021994099 0.1009399 0.1117146 0.09464869 0.057049915
0.046561003 0.03639615 0.07086957 -0.00091705454 -0.010457642 0.012666932 -0.0013962666 -0.09030211
0.019653406 0.10316858 0.024296882 0.007855722 -0.008134532 -0.098681636 -0.10187989 -0.09032182
-0.07600492 -0.04702921 0.038363673 0.14436814 -0.007814586 0.10909916 0.046192512 0.13190264
0.11354309 0.11425048 0.103400744 -0.056041144 0.06286175 0.2731569 -0.03369466 -0.06791095
0.050064433 -0.059778124 -0.05666951 0.028975407 0.0269979 0.0019196072 -0.06513686 -0.06009384
-0.050430086 0.16025606 0.052263875 -0.051710047 0.123611316 0.050777573 -0.01897356 0.024933651
-0.05870105 -0.021690698 0.05286844 -0.053973317 -0.016899867 0.10596458 -0.04948623 0.053593494
0.05048983 0.11172556 -0.072401084 -0.05957282 0.062718086 0.06866063 0.17730936 0.11126554
0.13926545 0.12217257 -0.043627735 0.051399138 0.12572442 -0.031731777 -0.028609186 0.040442202
0.00013498882 0.022729516 -0.090602696 -0.07016894 0.054234236 -0.027973717 0.04241485 0.019788198
