Cheyi Wu/LSTM/VZ/stock_lstm_model.pth (torch, 23975 bytes, 9 tensors)

lstm.weight_ih_l0 f4 [80, 7]
0.2629348 0.43667847 0.36084527 0.25750396 -0.28668034 -0.04483778 0.29099694 -0.032225136
0.10309838 -0.008105307 -0.07555299 -0.14944048 -0.15775749 0.2966072 -0.05807077 0.240552
-0.07775858 0.110792115 0.024230061 0.22026703 0.019210575 0.48693222 0.14115348 0.45655686
0.49171394 -0.67692506 -0.45991325 0.23305188 0.002645696 0.12844653 0.142533 0.15495679
0.12251885 0.3458046 0.04017424 0.013118332 0.23162195 0.18693763 0.14248435 0.056963034
-0.08035501 0.26032814 0.53950346 0.40855962 0.29700434 0.26090097 -0.15300465 0.035164315
-0.054876503 0.15425873 0.2901375 -0.041793104 -0.022486776 0.24863248 0.0652482 0.068441376
-0.13822605 0.10582176 0.29543498 0.22337362 0.12063318 -0.021425499 0.2771102 0.43203056
0.32408053 0.35965827 0.12179454 -0.36234033 -0.23859534 0.30291256 0.23234434 0.28120038
0.05044087 -0.004357981 0.08765373 -0.056939773 -0.04270915 0.28377312 0.014238995 0.29885447
0.14783148 -0.118211925 0.26729944 0.31638184 -0.029419206 0.12155999 0.0213127 0.12945239
-0.09637244 -0.07704753 0.3181307 0.17134874 0.5107373 0.39727417 0.47694975 -0.4225583
-0.37482795 0.04525822 0.103930876 0.074153036 -0.021205127 0.043359563 0.07285967 0.10926736
-0.14275883 -0.029118868 0.13436246 0.17235057 0.13717593 -0.020546634 0.3111418 0.08518954
0.1197849 0.071894795 0.3434943 0.24244842 -0.07626796 -0.3058355 0.020151976 -0.08387625
0.17032057 0.10216044 0.101289794 0.20930411 0.1157491 0.12532575 0.07413779 0.111376934
0.25421914 0.318546 0.17421308 0.05886421 0.3581127 -0.07637879 0.14428835 0.2786164
0.14955743 0.14447808 0.0009971788 0.018071663 0.18257895 0.45029154 0.4887496 0.2947303
-0.46419472 -0.15398252 -0.029203786 0.3320088 0.06234091 0.1416974 0.19989266 0.0549541
-0.10095306 0.3443336 0.090793595 0.20999072 0.28177315 0.23908174 0.10178495 -0.09587122
0.05298054 0.53378713 0.5004451 0.5278748 0.56294835 -0.46415576 -0.29932073 0.12092502
-0.02771726 0.02562417 0.3606139 0.35521173 -0.10881569 0.25865105 0.2847627 0.012383946
0.23262635 0.1269087 -0.035972606 -0.086164005 -0.20327495 0.17195569 0.51274943 0.36483103
0.34158382 0.29084438 -0.37918782 -0.30605987 0.034929115 0.18837115 0.26143876 0.25381744
-0.014543027 0.18291369 -0.026281413 0.06267332 0.030463135 0.17876421 0.03636418 0.15658519
-0.08217811 0.12943073 0.10714594 0.5130033 0.47728145 0.120041706 0.18593821 -0.46871716
-0.24665745 0.42556396 0.31254458 -0.028478144 0.24479143 -0.09600937 -0.1029297 -0.07793582
0.11769922 0.21075131 0.37878308 0.042364255 0.08819185 0.13428892 -0.010841048 0.32273248
0.27754378 0.16167969 0.27455464 0.21727777 0.017825073 0.12997036 0.3203976 0.48265487
0.36650622 0.54193974 0.16792364 -0.43026578 -0.364465 -0.1515423 0.28925437 0.22430429
-0.06620462 -0.083038084 0.08188439 0.28753778 -0.21196781 -0.0378142 0.19587798 0.3333521
0.02730192 -0.18637037 -0.009440632 0.04219014 0.29664904 0.4907585 0.31331834 0.42146236
00000000: 649f 863e 5294 df3e b6c0 b83e 8fd7 833e
00000010: c4c7 92be d2a7 37bd 8dfd 943e 81fe 03bd
00000020: 3e25 d33d 1fcc 04bc 87bb 9abd ed06 19be
00000030: 2e8b 21be e6dc 973e 9edb 6dbd 4353 763e
00000040: e43f 9fbd fae6 e23d 1f7e c63c ae8d 613e
00000050: 7f5f 9d3c 2e4f f93e 8a8a 103e d2c1 e93e
00000060: eec1 fb3e f64a 2dbf c079 ebbe 27a5 6e3e
00000070: 6a63 2d3b 7d87 033e 2cf4 113e feac 1e3e
00000080: 2aeb fa3d 4d0d b13e be8d 243d 46ee 563c
00000090: 4e2e 6d3e 946c 3f3e 6be7 113e 1252 693d
000000a0: 2b91 a4bd bb49 853e e61c 0a3f ba2e d13e
000000b0: f410 983e d094 853e 40ad 1cbe 7508 103d
000000c0: 2fc6 60bd 00f6 1d3e e78c 943e 3f2f 2bbd
000000d0: 3036 b8bc 8399 7e3e d9a0 853d fe2a 8c3d
000000e0: 218b 0dbe 14b9 d83d 4143 973e 0ebc 643e
000000f0: 870e f73d 8784 afbc 63e1 8d3e 1c33 dd3e
00000100: e2ed a53e 2125 b83e 6a6f f93d ac84 b9be
00000110: 5652 74be 5b17 9b3e adeb 6d3e 7ff9 8f3e
00000120: 169b 4e3d 65cd 8ebb cc83 b33d ae39 69bd
00000130: caef 2ebd b64a 913e ac4a 693c 7403 993e
00000140: 2361 173e 1819 f2bd 79db 883e cdfc a13e
00000150: 8c00 f1bc 72f4 f83d f997 ae3c 2b8f 043e
00000160: ea5e c5bd 18cb 9dbd 07e2 a23e 0b76 2f3e
00000170: aebf 023f 8567 cb3e c232 f43e 9059 d8be
00000180: 73e9 bfbe af60 393d b6d9 d43d 8cdd 973d
00000190: 60b6 adbc cc99 313d 7337 953d 91c7 df3d
000001a0: 5f2f 12be b18a eebc 5096 093e ab7c 303e
000001b0: d977 0c3e 6a51 a8bc fa4d 9f3e db77 ae3d
000001c0: c951 f53d 943d 933d 7cde af3e 6644 783e
000001d0: 6032 9cbd 7896 9cbe c215 a53c 50c7 abbd
000001e0: 8468 2e3e 7e39 d13d 0671 cf3d d153 563e
000001f0: dd0d ed3d 6555 003e 8ed5 973d 9719 e43d
00000200: 0329 823e 7618 a33e ea64 323e 991b 713d
00000210: 8c5a b73e 7c6c 9cbd 53c0 133e cfa6 8e3e
00000220: 9525 193e 10f2 133e c5b3 823a 060b 943c
00000230: faf5 3a3e 9d8c e63e 633d fa3e e4e6 963e
00000240: eeaa edbe 98ad 1dbe c73c efbc 0ffd a93e
00000250: 2f59 7f3d 2019 113e a9b0 4c3e 8d17 613d
00000260: 7ac0 cebd 7e4c b03e fef1 b93d cf07 573e
00000270: 9244 903e d8d1 743e a174 d03d 2158 c4bd
00000280: 1f02 593d 46a6 083f 2c1d 003f ce22 073f
00000290: 621d 103f d3a5 edbe 9140 99be 89a7 f73d
000002a0: 4f0f e3bc c8e9 d13c 63a2 b83e 50de b53e
000002b0: c3da debd e96d 843e 6bcc 913e 09e6 4a3c
000002c0: 9a35 6e3e 5bf4 013e 0358 13bd c176 b0bd
000002d0: 4f27 50be 2715 303e 8c43 033f 22cb ba3e
000002e0: 13e4 ae3e 8ee9 943e e824 c2be e1b3 9cbe
000002f0: d511 0f3d 5ee4 403e 4ddb 853e 5cf4 813e
00000300: e045 6ebc ba4d 3b3e 1e4c d7bc df5a 803d
00000310: d38d f93c f70d 373e 9bf2 143d de57 203e
00000320: ff4c a8bd 7d89 043e 556f db3d 2f54 033f
00000330: 3c5e f43e 6dd8 f53d 9666 3e3e b2fb efbe
00000340: c593 7cbe 85e3 d93e d805 a03e ff4a e9bc
00000350: 9baa 7a3e 90a0 c4bd cecc d2bd d19c 9fbd
00000360: 4a0c f13d 31cf 573e dbef c13e 2486 2d3d
00000370: ee9d b43d 0983 093e a79e 31bc 313d a53e
00000380: 381a 8e3e 5c8f 253e 6d92 8c3e 107e 5e3e
00000390: e305 923c f316 053e 270b a43e 8a1e f73e
000003a0: b4a6 bb3e 90bc 0a3f 2df4 2b3e cc4b dcbe
000003b0: 289b babe e82d 1bbe 2619 943e 06b0 653e
000003c0: 4a96 87bd df0f aabd 01b3 a73d 2738 933e
000003d0: 170e 59be 10e3 1abd 3d94 483e 20ad aa3e
000003e0: 47a8 df3c e0d7 3ebe e1ac 1abc 91cf 2c3d
000003f0: 62e2 973e b344 fb3e 436b a03e eac9 d73e

lstm.weight_hh_l0 f4 [80, 20]
-0.02986827 -0.19306494 -0.07229095 -0.14166638 0.1327362 -0.17457344 -0.1666005 -0.102627784
0.05340391 0.008447517 -0.19547938 0.23698726 -0.05153636 0.15589103 0.027913634 0.1814992
-0.009362559 0.15076213 -0.18002337 0.07258384 -0.24906573 0.08513371 -0.12349436 -0.20249136
0.21367453 -0.20585017 -0.2783472 0.23793767 0.06539063 0.19287135 0.14446865 0.04174055
-0.0824894 -0.090970896 0.07569616 -0.10476889 0.07716418 -0.075693645 0.020172734 -0.06216407
-0.08051011 0.13079372 0.22085549 -0.29767776 0.11038683 0.060308363 0.01352172 0.2255121
-0.2365512 0.08285552 0.08039526 -0.034311708 -0.12988372 0.043447476 -0.11244917 -0.039308384
0.10953777 -0.20675007 -0.24311665 0.22072735 -0.02227363 -0.34561592 -0.07409326 -0.0021589077
-0.34362286 0.21223284 0.25989544 0.045792837 0.23827875 0.071737 -0.061641637 0.0058149
-0.23731302 -0.099345125 -0.19289255 0.06671553 0.11642184 -0.060761087 -0.077894926 -0.15886109
-0.024360875 -0.10941861 0.20096408 -0.18278202 0.026667167 -0.14742005 -0.049580865 0.13199379
-0.027551511 0.20242153 -0.054340266 0.04062595 0.15997393 0.12209873 0.16957651 -0.052433036
-0.15890461 0.067515016 0.04445125 0.24360399 -0.2111937 0.26408663 0.16208886 -0.16050573
0.17466728 -0.17796692 0.021166278 0.17901991 0.10147571 0.14171083 0.042930223 0.09508116
-0.094960384 -0.031317085 -0.03605001 -0.108257644 0.12767018 -0.19089802 -0.22771278 -0.0051202
-0.022489646 -0.035227966 0.1262659 -0.13063534 -0.060383495 -0.05588757 0.117334805 -0.044202838
-0.21608767 -0.15140684 -0.17332464 0.0014024806 0.11498834 0.07839736 -0.20306997 -0.049671613
-0.031783123 -0.05866204 0.055386957 0.19829418 -0.08762906 0.18604656 0.16127867 -0.21904239
-0.06764279 -0.2763337 0.14699203 0.23409942 -0.2598056 -0.00054651115 0.056086604 -0.026724435
0.20973864 -0.08111986 -0.06532512 0.0075218645 0.021773342 -0.089920916 -0.21520808 -0.117325895
0.07295362 0.25658906 0.08808348 -0.0030434323 0.005011053 -0.04617519 -0.18642353 0.18748476
-0.101154864 0.06987014 0.2867467 -0.20860331 0.24458525 -0.029726267 0.09703038 -0.26127174
-0.21655448 -0.13992488 0.006460643 0.09453944 -0.056141425 0.022204064 -0.15086028 0.08327723
-0.060376007 0.051624596 0.16713709 -0.17618537 -0.034970045 -0.113203615 0.13681276 -0.002125727
-0.18931648 -0.1645811 0.0915008 -0.0327238 -0.16427213 0.20941697 -0.005784451 -0.11676304
-0.027515363 -0.095880486 0.30888084 -0.17884038 0.038741793 0.065647095 0.12034552 0.1252593
-0.18118553 -0.07373535 -0.055906236 0.12036238 0.10211078 0.12360634 -0.15778409 -0.2945915
-0.1877102 -0.008641328 -0.22306973 -0.061966605 0.09058169 -0.10909152 0.08022003 -0.024023222
0.0947707 0.0758476 -0.22742182 -0.113152616 -0.19636 0.06481283 0.2046715 -0.1789178
-0.0012592248 -0.016965883 -0.18282619 0.08406341 0.10586859 -0.15665102 -0.27343115 -0.061399814
0.019865109 -0.10877458 0.20779885 -0.050935403 0.23362277 0.14792143 0.06659047 0.026750086
-0.18620604 -0.011561565 0.2272559 -0.11249883 -0.10587759 -0.23651788 0.25661054 -0.01746111
00000000: 4dae f4bc d1b2 45be 470d 94bd fe10 11be
00000010: 00ec 073e 61c3 32be 5299 2abe 842e d2bd
00000020: 0fbe 5a3d 7467 0a3c bf2b 48be caac 723e
00000030: ca17 53bd e6a1 1f3e 22ab e43c edda 393e
00000040: 6b65 19bc 6361 1a3e 0c58 38be d6a6 943d
00000050: 160b 7fbe 955a ae3d 9cea fcbd e559 4fbe
00000060: 7fcd 5a3e 63ca 52be 8683 8ebe efa5 733e
00000070: 86eb 853d 1180 453e 97ef 133e 24f8 2a3d
00000080: 34f0 a8bd f34e babd 9706 9b3d 1291 d6bd
00000090: 4108 9e3d 4505 9bbd 4a41 a53c c09f 7ebd
000000a0: 7ce2 a4bd caee 053e f127 623e 3869 98be
000000b0: 7e12 e23d e705 773d 348a 5d3c a5ec 663e
000000c0: 7a3a 72be 28b0 a93d 45a6 a43d 6f8a 0cbd
000000d0: 3d00 05be fbf5 313d c04b e6bd d401 21bd
000000e0: 5755 e03d 4ab6 53be 92f3 78be 5a06 623e
000000f0: 3077 b6bc 92f4 b0be 35be 97bd 767c 0dbb
00000100: 56ef afbe 9153 593e 0411 853e 4591 3b3d
00000110: 58ff 733e d9ea 923d f17b 7cbd eb8a be3b
00000120: 2f02 73be 7575 cbbd a085 45be 27a2 883d
00000130: 936e ee3d 9ee0 78bd 6087 9fbd 7bac 22be
00000140: 7590 c7bc dd16 e0bd 87c9 4d3e 362b 3bbe
00000150: 1a75 da3c 48f5 16be 4e15 4bbd 6129 073e
00000160: b5b3 e1bc 9747 4f3e e693 5ebd 6567 263d
00000170: 35d0 233e e60e fa3d 77a5 2d3e 06c4 56bd
00000180: e4b7 22be 5045 8a3d 8412 363d 5373 793e
00000190: 2943 58be 5d36 873e 9ffa 253e 9d5b 24be
000001a0: fbdb 323e f63c 36be e764 ad3c ff50 373e
000001b0: 7fd2 cf3d a51c 113e 9ad7 2f3d e9b9 c23d
000001c0: 977a c2bd 5846 00bd 2da9 13bd 2fb6 ddbd
000001d0: f9bb 023e c57a 43be 8a2d 69be 5ac7 a7bb
000001e0: 353c b8bc 334b 10bd d94b 013e 45c5 05be
000001f0: af54 77bd 5dea 64bd 3b4d f03d 090e 35bd
00000200: 1646 5dbe 650a 1bbe 047c 31be 71d3 b73a
00000210: 027f eb3d cc8e a03d 93f1 4fbe 7674 4bbd
00000220: 052f 02bd 9b47 70bd 6fdd 623d a10d 4b3e
00000230: dd76 b3bd fd82 3e3e 3c26 253e a64c 60be
00000240: 4e88 8abd 9c7b 8dbe 1485 163e c2b7 6f3e
00000250: 3d05 85be be43 0fba 11bb 653d 34ed dabc
00000260: bac5 563e 2b22 a6bd 2dc9 85bd f979 f63b
00000270: 025e b23c 7528 b8bd 825f 5cbe 8f48 f0bd
00000280: b568 953d a45f 833e 1d65 b43d 5274 47bb
00000290: c233 a43b 3222 3dbd cfe5 3ebe 01fc 3f3e
000002a0: 482a cfbd 1318 8f3d 77d0 923e 1b9c 55be
000002b0: 8e74 7a3e 8084 f3bc ddb7 c63d 69c5 85be
000002c0: 75c0 5dbe 7848 0fbe cdb3 d33b e59d c13d
000002d0: 8df4 65bd 4ce5 b53c 1e7b 1abe 418d aa3d
000002e0: d54c 77bd 5074 533d fc25 2b3e f069 34be
000002f0: c03c 0fbd 4cd7 e7bd a518 0c3e c84f 0bbb
00000300: 2edc 41be f387 28be c564 bb3d 6409 06bd
00000310: f436 28be 6771 563e 7e8b bdbb 7621 efbd
00000320: e667 e1bc fd5c c4bd a125 9e3e ef21 37be
00000330: b7af 1e3d fc71 863d b677 f63d f943 003e
00000340: b388 39be 8f02 97bd f0fd 64bd 8d80 f63d
00000350: 751f d13d 5225 fd3d 2792 21be b2d4 96be
00000360: 1a37 40be 5b94 0dbc 646c 64be b2d0 7dbd
00000370: e582 b93d 606b dfbd 664a a43d 59cc c4bc
00000380: 2417 c23d fd55 9b3d 44e1 68be 8fbc e7bd
00000390: 9912 49be 97bc 843d 6895 513e 3a36 37be
000003a0: 930c a5ba 09fc 8abc ca36 3bbe 7029 ac3d
000003b0: a2d1 d83d 2069 20be 2bff 8bbe 5f7e 7bbd
000003c0: 27bc a23c 35c5 debd 39c9 543e a4a1 50bd
000003d0: cf3a 6f3e b778 173e 9660 883d ff22 db3c
000003e0: ccac 3ebe b86c 3dbc c5b5 683e c965 e6bd
000003f0: 5ad6 d8bd be31 72be 7562 833e 9a0a 8fbc

lstm.bias_ih_l0 f4 [80]
-0.025056843 0.19026616 -0.12318701 0.030813025 0.06457727 0.069796324 0.06925321 0.13894972
0.07108036 0.1487265 -0.1030799 -0.007115864 -0.15417302 0.010848996 -0.10607593 0.05111884
0.057670623 -0.06149664 0.22081234 0.20905308 -0.07878698 0.27655998 0.12668319 -0.055642147
-0.10506471 0.26401398 -0.13095665 0.031706475 -0.09355025 -0.039108153 0.028180936 -0.045266263
0.21170317 -0.1987596 0.14830571 0.04695746 -0.20095441 -0.10835551 0.11172615 0.14210089
-0.057447992 0.13171656 0.2702115 -0.22495632 0.22122444 -0.18970232 -0.040837377 0.26757145
-0.27461904 0.19535384 -0.009228149 -0.21215199 0.15468171 0.15663904 -0.084882684 -0.16522866
-0.03291573 -0.1250965 -0.27134517 0.20445918 0.104526564 0.2128041 0.061520994 -0.012820225
0.06656016 0.05204661 0.11535067 0.23641008 0.086131826 0.17413926 0.113749094 0.2077375
0.07802191 -0.051551487 0.056865603 0.16207714 0.13613032 -0.045135368 -0.02500877 0.16952457
00000000: 0244 cdbc 22d5 423e 7949 fcbd 996b fc3c
00000010: 1641 843d 60f1 8e3d a1d4 8d3d d648 0e3e
00000020: 9492 913d c24b 183e 8e1b d3bd 322c e9bb
00000030: 88df 1dbe fdbf 313c 563e d9bd fd61 513d
00000040: 0838 6c3d e7e3 7bbd a11c 623e 0312 563e
00000050: 115b a1bd 4599 8d3e 3db9 013e 05e9 63bd
00000060: 2b2c d7bd d72c 873e 8019 06be a6de 013d
00000070: 4697 bfbd df2f 20bd b5db e63c 1e69 39bd
00000080: b7c8 583e a387 4bbe 74dd 173e 7756 403d
00000090: fec6 4dbe 7ee9 ddbd aed0 e43d e582 113e
000000a0: 964e 6bbd b5e0 063e 2959 8a3e f35a 66be
000000b0: a988 623e 5341 42be 1845 27bd 20ff 883e
000000c0: de9a 8cbe d60a 483e aa31 17bc 5f3e 59be
000000d0: e264 1e3e fc65 203e f9d6 adbd b431 29be
000000e0: a5d2 06bd 4c19 00be c1ed 8abe bf5d 513e
000000f0: 0612 d63d 51e9 593e 70fd 7b3d ec0b 52bc
00000100: b150 883d d32e 553d f93c ec3d 7c15 723e
00000110: e265 b03d 9051 323e 49f5 e83d 24b9 543e
00000120: f3c9 9f3d a727 53bd e8eb 683d 8df7 253e
00000130: bf65 0b3e dddf 38bd 31df ccbc d997 2d3e

lstm.bias_hh_l0 f4 [80]
-0.11860606 0.18170464 -0.09068485 -0.110841766 0.10197823 0.25318125 -0.14597067 0.21228178
0.09838921 -0.14202487 0.0042984514 -0.12174034 0.27787912 -0.14163083 0.19840379 0.040904984
-0.22779149 0.12055506 0.14801086 0.23090903 -0.109808005 0.11974008 0.20348728 -0.13934451
0.022006257 0.26293525 0.19384548 0.22079076 0.26322645 0.16759147 -0.07415829 0.018425172
0.21914552 0.0030274324 0.011832706 -0.006886861 -0.0075087813 0.1626987 0.2781955 0.14115795
0.19216317 0.09390417 0.022620317 0.070874445 0.18197086 -0.2381502 -0.04879853 0.054176204
0.017682716 -0.038039826 -0.02835014 -0.0855913 5.8663405e-05 -0.049168874 -0.039295174 -0.11976278
0.1086766 -0.17545705 -0.23985931 -0.017494557 -0.07300927 -0.14728242 -0.031346276 0.14465374
0.0072588474 -0.15803513 -0.07534281 0.17391185 0.099956274 -0.008049415 0.034802828 -0.12950736
-0.19706528 0.03693641 -0.043774553 -0.03393877 0.08845639 0.22157909 0.09018484 0.0542874
00000000: bce7 f2bd c810 3a3e fbb8 b9bd 0201 e3bd
00000010: f6d9 d03d f9a0 813e 5679 15be 6560 593e
00000020: 4880 c93d f86e 11be 06da 8c3b 0053 f9bd
00000030: 2c46 8e3e ac07 11be 5d2a 4b3e fc8b 273d
00000040: 2c42 69be 92e5 f63d 2990 173e 6b73 6c3e
00000050: 05e3 e0bd 493a f53d f85e 503e 54b0 0ebe
00000060: 7746 b43c 739f 863e 6e7f 463e f916 623e
00000070: 9ec5 863e 199d 2b3e 4de0 97bd 63f0 963c
00000080: af67 603e e367 463b f7dd 413c 2dab e1bb
00000090: 390c f6bb 7d9a 263e a46f 8e3e b68b 103e
000000a0: 6cc6 443e d450 c03d 3e4e b93c 9f26 913d
000000b0: 9256 3a3e a5dd 73be f8e0 47bd dee7 5d3d
000000c0: 58db 903c a6cf 1bbd 8e3e e8bc 7e4a afbd
000000d0: 5a0d 7638 4d65 49bd faf3 20bd 3046 f5bd
000000e0: d691 de3d 03ab 33be ae9d 75be bf50 8fbc
000000f0: e285 95bd 34d1 16be f464 00bd 1c20 143e
00000100: a0db ed3b f6d3 21be 554d 9abd f315 323e
00000110: e0b5 cc3d b2e1 03bc 698d 0e3d 949d 04be
00000120: 7bcb 49be a24a 173d f24c 33bd 6103 0bbd
00000130: a028 b53d a1e5 623e d4b2 b83d 775c 5e3d

fc1.weight f4 [32, 20]
-0.18650267 0.22918838 0.11798114 -0.009049955 0.04579901 -0.2735733 -0.2673242 0.3318889
-0.047954574 0.08105679 0.1978576 -0.020215854 0.05898191 0.0021046542 0.09988038 -0.053110838
-0.024908414 -0.18763097 -0.22399491 0.28731075 0.0324022 -0.03232538 -0.0323536 0.03209147
-0.032342967 0.032445222 0.03201208 -0.03232577 0.03240541 -0.032185074 -0.032334194 0.03234053
-0.032392662 0.0319677 -0.032411266 0.032316 -0.03225809 0.03232776 0.032346632 -0.03234586
-0.39937654 0.09965569 0.25441164 0.022632705 0.03917638 0.0069078957 -0.2966972 0.1277036
-0.19699724 0.16565506 0.3099365 0.02512326 0.057599306 -0.10964108 0.25288156 -0.17727996
0.25386134 -0.15817405 -0.11181302 0.34567183 -0.09740285 -0.0067878556 0.016140677 -0.23685978
-0.022927083 0.013163548 -0.14818992 0.21609306 -0.30971584 0.062049888 0.2704516 -0.053306267
0.16961507 -0.14473814 0.26206243 -0.14618511 0.14864886 -0.2604158 -0.28400475 0.13431965
-0.22062282 0.35156667 0.26308736 -0.3654593 0.2782919 -0.26137257 -0.060728777 0.32346204
-0.19058095 0.3069639 -0.030352946 -0.1618707 0.2892256 -0.11121408 -0.02346335 -0.22299492
0.33469364 -0.1589151 -0.32320592 -0.04373313 0.0097271 -0.011265762 -0.011204381 0.00919444
-0.011291891 0.0102940835 0.011060001 -0.011224249 0.010678508 -0.011066079 -0.011400623 0.011451112
-0.011048491 0.010906028 -0.010962329 0.011306163 -0.010455418 0.01137215 0.011260467 -0.011372271
-0.25218648 0.240868 0.16229133 0.0060598426 0.3556408 0.0028181106 -0.20144558 0.23465183
-0.2917096 -0.039685696 0.13651538 -0.22760706 0.390958 -0.25425112 0.2950375 -0.23066679
0.12680145 -0.04538037 0.026206503 0.20861316 -0.11355787 0.24202363 0.12608442 0.01487157
0.22005834 -0.2716241 -0.20789553 0.07899393 0.084788635 0.18902664 0.11608215 0.124704204
0.100702636 -0.14707574 0.21964362 0.013445973 0.12972157 -0.21656367 -0.19579832 -0.006242847
-0.07109596 0.1761509 0.031174326 -0.100610964 0.10211134 -0.2964029 -0.019828193 0.0140480315
0.02510509 0.3259328 0.08120362 -0.3475881 0.2495425 -0.1931085 0.17861407 -0.12484872
0.14456595 -0.2524729 -0.10660435 0.24516308 -0.1839847 0.32836136 0.17746906 -0.1542363
0.30164626 -0.3607774 -0.030259272 0.3578303 -0.24113844 0.31833154 0.2649744 -0.29251435
0.37269506 -0.012829278 0.26601538 -0.32327488 0.22206472 -0.086412504 -0.16893409 0.36383283
0.13886604 0.029458491 -0.21763477 -0.17365208 -0.19599703 -0.03145889 0.12318766 -0.089510694
0.09925652 -0.096848816 -0.106669515 0.21709484 -0.15884493 0.17159443 -0.11784708 0.04123808
-0.103509516 0.03718625 0.06834404 0.094645545 -0.056425884 0.24920505 -0.011983453 -0.18742903
0.13321014 -0.15538813 -0.033167213 0.10712478 -0.010632251 0.10369345 0.11837072 -0.15520711
0.14924492 -0.304574 0.080587626 0.040132243 0.11460133 -0.29553878 -0.21999344 0.11574829
-0.15310548 0.13196701 0.071977064 -0.14952844 0.15594448 -0.15227339 0.0138922725 0.12987918
-0.121136904 0.10382281 0.29620546 0.021277726 0.09480174 -0.25874478 0.15714128 -0.20392853
00000000: 8efa 3ebe 5cb0 6a3e 19a0 f13d 4346 14bc
00000010: be97 3b3d cd11 8cbe b8de 88be 58ed a93e
00000020: 046c 44bd 1a01 a63d 2f9b 4a3e b89b a5bc
00000030: 0497 713d 3dee 093b 168e cc3d c08a 59bd
00000040: bb0c ccbc 5522 40be ec5e 65be 651a 933e
00000050: 2bb8 043d 9e67 04bd 3585 04bd 5872 033d
00000060: 0f7a 04bd 48e5 043d 191f 033d 0768 04bd
00000070: 89bb 043d 7fd4 03bd dc70 04bd 8177 043d
00000080: 2bae 04bd 90f0 023d adc1 04bd c85d 043d
00000090: 0f21 04bd 1d6a 043d e77d 043d 187d 04bd
000000a0: 157b ccbe 4818 cc3d 3e42 823e 3968 b93c
000000b0: 6977 203d a15b e23b b2e8 97be bcc4 023e
000000c0: a5b9 49be 7ba1 293e ffaf 9e3e 4ccf cd3c
000000d0: 40ed 6b3d 818b e0bd b179 813e e188 35be
000000e0: 1dfa 813e 61f8 21be 3afe e4bd e6fb b03e
000000f0: 257b c7bd a96c debb 7439 843c 5f8b 72be
00000100: 94d1 bbbc ecab 573c 19bf 17be 8047 5d3e
00000110: 1393 9ebe 0628 7e3d a278 8a3e ac57 5abd
00000120: 93af 2d3e 3c36 14be 0c2d 863e 8db1 15be
00000130: 6837 183e 3855 85be 1269 91be 178b 093e
00000140: f3ea 61be 8c00 b43e 63b3 863e 7b1d bbbe
00000150: 477c 8e3e a0d2 85be bdbe 78bd d19c a53e
00000160: a727 43be 5f2a 9d3e bea6 f8bc 6fc1 25be
00000170: 6115 943e 35c4 e3bd 3636 c0bc c858 64be
00000180: f75c ab3e a4ba 22be 3f7b a5be 8321 33bd
00000190: 6a5e 1f3c 0894 38bc 9492 37bc 47a4 163c
000001a0: a001 39bc 84a8 283c 0235 353c eae5 37bc
000001b0: e9f4 2e3c 804e 35bc aec9 3abc 729d 3b3c
000001c0: bb04 35bc 32af 323c 579b 33bc 7c3d 393c
000001d0: 344d 2bbc 4152 3a3c d27d 383c c352 3abc
000001e0: 961e 81be 1aa6 763e b32f 263e a591 c63b
000001f0: 8d16 b63e 0db0 383b c047 4ebe 9248 703e
00000200: f65a 95be 788d 22bd b0ca 0b3e d311 69be
00000210: a62b c83e 342d 82be 280f 973e ea33 6cbe
00000220: 3dd8 013e c4e0 39bd 05af d63c b09e 553e
00000230: 0791 e8bd 0bd5 773e 461c 013e e3a7 733c
00000240: f956 613e 5012 8bbe 91e2 54be 92c7 a13d
00000250: aaa5 ad3d 3390 413e 7abc ed3d eb64 ff3d
00000260: 2f3d ce3d 069b 16be 42ea 603e 804c 5c3c
00000270: bbd5 043e dec2 5dbe 5b7f 48be cc90 ccbb
00000280: c29a 91bd e760 343e 4d61 ff3c 1f0d cebd
00000290: c01f d13d 1fc2 97be bc6e a2bc b729 663c
000002a0: 31a9 cd3c aae0 a63e 154e a63d 11f7 b1be
000002b0: 1288 7f3e 3cbe 45be 9be6 363e b0b0 ffbd
000002c0: 1909 143e 2144 81be 6253 dabd 080c 7b3e
000002d0: 7c66 3cbe fb1e a83e 73ba 353e 1ff0 1dbe
000002e0: 6171 9a3e d1b7 b8be 4be2 f7bc 8835 b73e
000002f0: ffec 76be 5afc a23e b9aa 873e 71c4 95be
00000300: e3d1 be3e e431 52bc 2b33 883e 4984 a5be
00000310: ef64 633e 0af9 b0bd 0ffd 2cbe 4c48 ba3e
00000320: e632 0e3e ef52 f13c a6db 5ebe dad1 31be
00000330: 72b3 48be 09db 00bd d049 fc3d 6251 b7bd
00000340: 0147 cb3d ac58 c6bd 8c75 dabd 1c4e 5e3e
00000350: 3fa8 22be 73b6 2f3e cf59 f1bd 43e9 283d
00000360: ccfc d3bd 9c50 183d f6f7 8b3d 86d5 c13d
00000370: d41e 67bd 9c2f 7f3e 3f56 44bc 65ed 3fbe
00000380: 3d68 083e 111e 1fbe 58da 07bd 3d64 db3d
00000390: e532 2ebc 3b5d d43d 596c f23d 9dee 1ebe
000003a0: a9d3 183e 20f1 9bbe 200b a53d b561 243d
000003b0: 1ab4 ea3d dc50 97be f645 61be 710d ed3d
000003c0: afc7 1cbe 5c22 073e b668 933d fc1d 19be
000003d0: e9af 1f3e 8eed 1bbe 6a9c 633c 0cff 043e
000003e0: a016 f8bd 0ea1 d43d 3ea8 973e a04e ae3c
000003f0: 6a27 c23d 327a 84be a5e9 203e a4d2 50be

fc1.bias f4 [32]
0.07315748 -0.032369122 0.27932024 0.078583285 0.20491907 -0.011581518 0.29376155 -0.013333383
0.25593096 0.24968836 0.19693851 0.2322589 0.105645396 -0.008384574 0.32223746 0.1132421
0.035021566 -0.031679075 0.048728548 0.31334555 0.33569303 0.26313066 0.2167367 0.25584045
0.14708509 0.05972007 -0.04047787 0.034646895 0.026535438 -0.03296597 -0.048940137 0.17925596
00000000: 97d3 953d 7c95 04bd 1003 8f3e 46f0 a03d
00000010: 4ed6 513e 68c0 3dbc ea67 963e 4374 5abc
00000020: 6209 833e 4eae 7f3e 40aa 493e 47d5 6d3e
00000030: 9d5c d83d 745f 09bc 4ffc a43e 79eb e73d
00000040: c672 0f3d ebc1 01bd 9697 473d d46e a03e
00000050: f5df ab3e 10b9 863e 3af0 5d3e 85fd 823e
00000060: 799d 163e 089d 743d 1fcc 25bd e7e9 0d3d
00000070: d960 d93c 5307 07bd 7475 48bd e08e 373e

fc2.weight f4 [64, 32]
0.11537979 0.029773712 0.29309738 0.057271168 0.10264514 -4.2568564e-37 0.008943311 0.21949677
0.18989892 0.038944487 0.17489998 0.11286359 0.12712972 0.00928723 0.11508159 0.12172311
-0.03074061 -0.03257786 0.17562144 0.053474966 0.15066618 0.35296404 0.03589885 0.2874013
0.15115851 0.12230529 0.03721066 -0.071142375 -0.08174156 0.007379627 0.058230404 0.12013393
0.04566361 -5.00461e-40 -0.026499676 -5.04107e-40 -0.15849413 -4.9328e-40 -0.13532111 0.013352494
-0.0631011 -0.10212521 -0.17744108 -0.1742067 4.94897e-40 5.01956e-40 -0.08781261 -0.12919787
-5.00758e-40 -4.98518e-40 5.03314e-40 0.056898486 -0.16293061 0.04453229 -0.13965254 -0.13623738
-0.066700265 0.037668876 -4.99667e-40 0.104734346 0.035205644 -4.96631e-40 -5.01783e-40 0.05834752
0.19135147 0.02877505 0.025923857 0.12019617 0.12967594 1.7079087e-36 0.17419697 0.0034439277
0.11373333 0.32935604 0.06845723 0.13906014 0.031196387 0.008992043 0.27551728 3.274662e-05
-0.031189002 -0.032409336 0.10262319 0.07914588 0.18353593 0.12724742 0.15784399 0.049797595
0.16384389 -0.06616601 0.037208598 0.0415077 0.030828832 0.0085364105 0.064953744 0.27224225
0.03585698 0.028858274 0.040504314 0.24285525 0.3225579 1.1107008e-36 0.14444174 0.115780056
0.16930123 0.08301713 0.2007765 0.03861766 0.105180055 0.00889629 0.12388995 -0.043441597
-0.030843697 -0.032573428 0.1834159 0.03079386 0.19013673 0.08262391 0.296526 0.2756068
0.09821106 0.1728226 0.037199624 -0.082170606 0.10396677 -0.07215492 0.080350704 0.12568572
0.15041643 0.030117776 0.29260343 0.07561075 0.043072045 -8.009366e-37 0.24829742 0.035761
0.007700163 0.12769856 0.00847519 0.24813569 0.21181886 0.008491202 0.21497525 0.20897794
-0.030569272 -0.03278718 0.11699575 -0.002020925 0.17686084 0.32194313 0.12522271 0.10551337
0.29917553 0.1047585 0.03716933 -0.13707899 -0.0764499 0.0043020966 0.05405113 0.05086023
0.2442487 0.029764095 0.3045526 0.22750354 0.08963895 1.9742535e-36 0.1439794 0.16781498
0.30368677 0.2945443 0.10750154 0.23837179 0.22090645 0.007951113 0.32727292 0.14138658
-0.030569425 -0.032484416 0.09350515 0.25803083 0.05581593 0.26382574 0.3402012 0.17074648
0.26668066 -0.026527073 0.037238397 -0.08064341 -0.13346058 0.07012039 0.061593868 0.2923073
-0.15939626 -4.98445e-40 -0.18540311 4.95557e-40 -0.10267386 4.98166e-40 -0.11646486 4.98914e-40
0.03871894 -0.12504397 0.08838847 0.11665593 4.98519e-40 -4.93696e-40 0.029936515 0.06442041
-5.03936e-40 -5.203e-40 -4.97102e-40 -0.02034116 -0.14001603 -0.18180454 0.0031598264 0.1266681
0.040888462 -0.08732118 5.0818e-40 0.041297298 -0.15117553 -5.05368e-40 5.00325e-40 -0.09107058
-0.023765707 5.03181e-40 -0.02340816 -0.023546448 -0.0231412 -4.95425e-40 -0.023444058 -0.023789035
-0.023599112 -0.023276709 4.92987e-40 -0.023688167 -0.023458272 5.03487e-40 -0.023374239 -0.023550404
5.51932e-40 4.98705e-40 -0.02353697 -0.023457946 -0.02363018 -0.023213856 -0.023307558 -0.023599239
-0.023504091 -0.023863463 -0.030791167 4.92118e-40 -5.44061e-40 5.2006e-40 -0.024247447 -0.023555102
00000000: 3d4c ec3d 00e8 f33c dc10 963e 2c95 6a3d
00000010: 9d37 d23d 73da 1083 f786 123c c3c3 603e
00000020: dd74 423e 4184 1f3d fb18 333e 0725 e73d
00000030: 4b2e 023e 7729 183c e6af eb3d f749 f93d
00000040: bbd3 fbbc 5d70 05bd 1bd6 333e 9108 5b3d
00000050: 3c48 1a3e b4b7 b43e ac0a 133d 4326 933e
00000060: 4cc9 1a3e 327b fa3d 346a 183d 18b3 91bd
00000070: 1e68 a7bd ccd0 f13b 0183 6e3d c708 f63d
00000080: c409 3b3d 1573 0580 d915 d9bc 3f7d 0580
00000090: 494c 22be 105f 0580 9e91 0abe 6bc4 5a3c
000000a0: 263b 81bd 0627 d1bd 1db3 35be 3e63 32be
000000b0: 9263 0500 4077 0500 19d7 b3bd 724c 04be
000000c0: e973 0580 aa6d 0580 097b 0500 630e 693d
000000d0: 48d7 26be 7e67 363d 1301 0fbe d081 0bbe
000000e0: 269a 88bd ae4a 1a3d de70 0580 f67e d63d
000000f0: cb33 103d 6868 0580 c476 0580 cffd 6e3d
00000100: a4f1 433e a7b9 eb3c 455e d43c 6929 f63d
00000110: c5c9 043e f54a 1104 b160 323e 85b3 613b
00000120: 05ed e83d 5ba1 a83e 4e33 8c3d c865 0e3e
00000130: 918f ff3c 5d53 133c 9a10 8d3e 6a59 0938
00000140: 1480 ffbc a7bf 04bd 1b2c d23d 3c17 a23d
00000150: d8f0 3b3e 264d 023e dba1 213e 90f8 4b3d
00000160: b1c6 273e 0c82 87bd 0b68 183d fa03 2a3d
00000170: bf8c fc3c 4ddc 0b3c 7806 853d 5663 8b3e
00000180: c5de 123d 3068 ec3c dae7 253d 0caf 783e
00000190: 4f26 a53e d8f9 bc03 89e8 133e 181e ed3d
000001a0: 4d5d 2d3e e304 aa3d 5b98 4d3e 8d2d 1e3d
000001b0: a468 d73d bfc1 113c 04ba fd3d d1ef 31bd
000001c0: ecab fcbc b76b 05bd 61d1 3b3e 6843 fc3c
000001d0: 34b3 423e b936 a93d 42d2 973e 561c 8d3e
000001e0: e122 c93d 68f8 303e a25e 183d 1049 a8bd
000001f0: 88ec d43d f5c5 93bd e98e a43d c2b3 003e
00000200: c406 1a3e 8eb9 f63c 1ed0 953e cfd9 9a3d
00000210: 506c 303d b645 8883 ae41 7e3e 207a 123d
00000220: a651 fc3b 69c3 023e 86db 0a3c 4817 7e3e
00000230: 0be7 583e af1e 0b3c 7922 5c3e 50fe 553e
00000240: 696c fabc da4b 06bd 789b ef3d 7f71 04bb
00000250: 021b 353e bbd5 a43e 623a 003e 6517 d83d
00000260: 892d 993e a08b d63d de3e 183d 6f5e 0cbe
00000270: c491 9cbd 9af8 8c3b b864 5d3d d152 503d
00000280: 551c 7a3e d5d3 f33c 52ee 9b3e b0f6 683e
00000290: a094 b73d 6ff3 2704 566f 133e b1d7 2b3e
000002a0: d57c 9b3e 83ce 963e c429 dc3d bc17 743e
000002b0: 4d35 623e 6345 023c 5190 a73e a5c7 103e
000002c0: bb6c fabc 610e 05bd a17f bf3d 9e1c 843e
000002d0: 3f9f 643d 2b14 873e da2e ae3e 2ad8 2e3e
000002e0: 5e8a 883e 4e4f d9bc 4a87 183d 5f28 a5bd
000002f0: e4a9 08be 479b 8f3d da49 7c3d 4da9 953e
00000300: c638 23be 766d 0580 50da 3dbe 6965 0500
00000310: ac46 d2bd af6c 0500 2185 eebd c56e 0500
00000320: c097 1e3d 870b 00be 0405 b53d 4ee9 ee3d
00000330: ab6d 0500 3960 0580 6c3d f53c d9ee 833d
00000340: c57c 0580 62aa 0580 b869 0580 81a2 a6bc
00000350: 5d60 0fbe f82a 3abe 1715 4f3b 48b5 013e
00000360: a97a 273d 72d5 b2bd 9988 0500 5b27 293d
00000370: c2cd 1abe c380 0580 b472 0500 3683 babd
00000380: 4db0 c2bc aa7a 0500 78c2 bfbc 7be4 c0bc
00000390: 9d92 bdbc 0b65 0580 c10d c0bc 39e1 c2bc
000003a0: ed52 c1bc ccae bebc 3f5e 0500 b00d c2bc
000003b0: 902b c0bc 847b 0500 557b bfbc c7ec c0bc
000003c0: 9002 0600 306e 0500 9bd0 c0bc e12a c0bc
000003d0: 1494 c1bc fc2a bebc 7eef bebc 3153 c1bc
000003e0: a78b c0bc 4f7d c3bc c23d fcbc d35b 0500
000003f0: 9fec 0580 b7a9 0500 95a2 c6bc a1f6 c0bc

fc2.bias f4 [64]
0.30273935 0.11815558 0.27692583 0.27207896 0.17773984 0.17278154 0.06356082 -0.023357656
-0.007049265 0.034286432 -0.02952299 0.06492185 -0.054266386 0.18696427 0.08283602 0.26121816
-0.0074514975 -0.0036568737 0.24000181 0.052471332 0.30085248 -0.01719977 -0.003619981 -0.06683081
0.15328121 -0.05982153 -0.0027906643 -0.028322639 0.010945716 0.018437168 0.05291309 -0.018527305
-0.029413009 -0.10636697 0.06388294 -0.030422667 0.033074263 0.07093625 0.0020136498 -0.0578176
-0.00026068502 0.095597185 0.2358219 0.23414624 -0.028713511 -0.014015026 -0.03264838 0.3009479
0.14377712 0.13030796 -0.07521881 0.31038377 0.116149366 0.22645369 0.074724816 0.24385409
0.07347324 0.21498756 0.10043098 0.07821319 0.11435519 0.003100358 0.22299753 0.08915703
00000000: a700 9b3e 8dfb f13d 39c9 8d3e ef4d 8b3e
00000010: 6f01 363e a5ed 303e 2d2c 823d 8e58 bfbc
00000020: 85fd e6bb ee6f 0c3d 33da f1bc bff5 843d
00000030: 6e46 5ebd 9073 3f3e eea5 a93d 63be 853e
00000040: b12b f4bb 29a8 6fbb 09c3 753e 2eec 563d
00000050: 5609 9a3e 88e6 8cbc 343d 6dbb 97de 88bd
00000060: c0f5 1c3e 6c07 75bd 94e3 36bb e104 e8bc
00000070: a955 333c 8b09 973c 65bb 583d 93c6 97bc
00000080: 8df3 f0bc edd6 d9bd 0fd5 823d f538 f9bc
00000090: e178 073d 0647 913d 70f7 033b 26d2 6cbd
000000a0: 8dac 88b9 75c8 c33d 4c7b 713e 08c4 6f3e
000000b0: 9938 ebbc 489f 65bc 4fba 05bd d815 9a3e
000000c0: 4f3a 133e 736f 053e 520c 9abd 9fea 9e3e
000000d0: b8df ed3d 7ae3 673e 5309 993d e3b4 793e
000000e0: 2379 963d b325 5c3e c2ae cd3d 3d2e a03d
000000f0: 0e33 ea3d 602f 4b3b 7759 643e f697 b63d

fc3.weight f4 [1, 64]
0.1863198 -0.00038957773 0.28708404 0.18640143 0.1614869 0.23143551 -0.098078616 -0.023560043
0.008005834 0.21326604 0.010907441 -0.0058481987 -0.030400809 0.15897493 0.09895137 0.23221408
-0.037990853 0.18403132 0.22310077 0.13645978 0.24857241 -0.00018604776 0.19867933 -0.03226871
-0.021231167 -0.015207689 -4.9667e-40 0.028746838 -0.07238165 -0.03877405 -0.063339464 -0.0033593136
0.027000755 -0.026109802 0.004791726 -0.041011 0.022501048 0.062189292 -0.08744345 -0.08116917
-0.014578383 -0.039024472 0.2623279 0.23903382 -0.021360723 -0.092651226 0.03538001 0.18608418
0.13731113 0.20851687 0.0029282153 0.19982727 0.27055985 0.26497376 0.20962724 0.14627002
-0.031617474 0.2516638 0.13098577 0.14484838 -0.053597286 7.953334e-05 0.2921584 -0.030354584
00000000: 9eca 3e3e 3d40 ccb9 aefc 923e 04e0 3e3e
00000010: d25c 253e 6efd 6c3e 71dd c8bd fe00 c1bc
00000020: e72a 033c 6a62 5a3e 20b5 323c 3fa2 bfbb
00000030: 1e0b f9bc 53ca 223e 04a7 ca3d 87c9 6d3e
00000040: 4c9c 1bbd b572 3c3e 8774 643e 1dbc 0b3e
00000050: c489 7e3e d115 43b9 9872 4b3e 322c 04bd
00000060: fcec adbc ac29 79bc 8468 0580 7d7e eb3c
00000070: d53c 94bd 8ad1 1ebd 1fb8 81bd ee27 5cbb
00000080: b030 dd3c 39e4 d5bc e903 9d3b 26fb 27bd
00000090: 1e54 b83c 33ba 7e3d 8d15 b3bd 063c a6bd
000000a0: 2cda 6ebc 20d8 1fbd d84f 863e 48c5 743e
000000b0: affc aebc edbf bdbd a1ea 103d da8c 3e3e
000000c0: 4a9b 0c3e 7285 553e 4de7 3f3b 859f 4c3e
000000d0: d286 8a3e a4aa 873e 86a8 563e cfc7 153e
000000e0: 5381 01bd 14da 803e 2221 063e 2253 143e
000000f0: d488 5bbd 23cb a638 c995 953e 2daa f8bc
