Cheyi Wu/FinalProject/Garch/LSTM-Garch/MSFT/lstm_garch_model.pth (torch, 229302 bytes, 13 tensors)

lstm.weight_ih_l0 f4 [256, 7]
000000 ac 53 03 3e a1 27 12 3e c8 7b e6 3c 4a 24 a0 3d
       0.12824887 0.1427293 0.028135195 0.078194216
000010 3e 39 99 bc 9c 3c 31 bc 9c e0 08 3c 73 42 d9 3d
       -0.018704053 -0.010817673 0.008354332 0.10608377
000020 3d 3f 14 3e a0 c0 ed bc 1e 5c f1 3c 2e b3 c6 3c
       0.14477248 -0.029022515 0.02946287 0.024255361
000030 db 4c f9 3c a1 4f 99 3d fe 56 af 3d ea 77 8f 3c
       0.030432155 0.07485891 0.08561514 0.017513234
000040 74 1f 01 3e 26 0e af 3c 06 69 8d bd 60 53 29 3d
       0.12609655 0.021369051 -0.06904797 0.04133928
000050 3b d4 36 bc 12 b5 ce 3a 47 36 b3 bc d4 f5 b4 3d
       -0.011158998 0.0015770516 -0.021876467 0.088359505
000060 db 9b 0c be 81 44 82 bd 51 bb 23 bd e2 93 f8 bc
       -0.13731329 -0.06360722 -0.03997356 -0.030343954
000070 2d fe 8c 3b 3b 05 e3 bd a1 42 ca 3d b8 f9 9d bd
       0.004302761 -0.11084982 0.0987599 -0.07713646
000080 62 3e 77 3d d9 b6 82 bd 03 1c 00 bd 82 a6 08 3e
       0.060362227 -0.06382532 -0.031276714 0.13344768
000090 83 f5 b3 3d 39 f9 22 3e 4e 72 26 3e 6d f9 5f 3c
       0.08787062 0.15915383 0.16254541 0.013670308
0000a0 f0 43 a8 3c 8a 0b 42 3d fd 73 01 3e 40 b9 3c 3e
       0.020540208 0.047374286 0.12641902 0.18430042
0000b0 d9 32 1a 3e 3e 8a f7 3c 9c 1a c8 3d cf 73 89 bc
       0.1505846 0.030217286 0.097707 -0.016778855
0000c0 23 ba 18 3e 16 c3 02 3d 6f a3 c3 bb 11 12 87 3d
       0.14914756 0.03192433 -0.0059704105 0.06595243
0000d0 ec 04 f7 bd 14 01 11 3e 7a 19 b2 bb a3 a7 27 3e
       -0.12061486 0.14160568 -0.005435166 0.16372542
0000e0 09 4e 7c 3d 1e ee d9 3c 9e 37 f2 3d ea 8d 7e bd
       0.061597858 0.026602801 0.118270144 -0.06214706
0000f0 8b 75 fc bb 96 c3 b3 bd f2 9c 8c 3d 2b fc 92 bd
       -0.007704442 -0.087775394 0.068658724 -0.071770035
000100 d6 86 65 bb 84 5a 75 bd 51 01 74 3d 1b aa 8e bd
       -0.0035022995 -0.059900776 0.059571568 -0.06966039
000110 f0 f2 d2 bd 94 8f d7 bd c4 6a 18 3e 27 ae db 3d
       -0.10300243 -0.10525432 0.14884478 0.10726576
000120 2e d6 29 3e 81 51 93 bc 10 67 a3 bd 25 c3 d9 bd
       0.1658561 -0.0179832 -0.07978642 -0.10632924
000130 15 ac f7 3c 89 13 de 3d ec 2f e1 3d 70 ac 27 3e
       0.030233422 0.1084357 0.109954685 0.16374373
000140 48 5d 32 3d 46 da 61 bd 89 bf 91 3c c1 94 0a 3d
       0.04354599 -0.055139802 0.017791526 0.03383327
000150 f0 d2 d5 3c 44 1d 7f bd 3e 67 d1 3c 6e 03 51 bd
       0.02610156 -0.06228377 0.025561925 -0.05102866
000160 40 7f 2e bd 22 77 7a 3d 9e b5 39 bc 8a 1a ac bd
       -0.042601824 0.06114877 -0.011334805 -0.084034994
000170 88 56 91 3b d4 ea 39 3c a2 f0 6b bd 28 98 a6 bd
       0.004435364 0.011347491 -0.057602532 -0.0813449
000180 45 0e 34 3d 9e 90 c7 bd 6d 40 ac bd 38 89 15 be
       0.04395892 -0.097443804 -0.08410726 -0.14603126
000190 9a 64 db bd d6 6a 0b bc 75 6c 65 bd b2 f5 dc bd
       -0.107125476 -0.008509358 -0.056011636 -0.1078905
0001a0 e4 42 40 bd 09 80 45 bc 98 b6 e0 bc 22 c6 14 3c
       -0.046938792 -0.012054452 -0.027430817 0.009080442
0001b0 d4 dd bf bd d7 c8 49 bd 44 c5 8c 3d e3 70 ce 3d
       -0.09368482 -0.0492638 0.06873563 0.10080125
0001c0 66 ae 70 3e 1b 8b 1a 3e 61 cd 2d 3e f6 fb 8a 3c
       0.23504028 0.15092127 0.16972877 0.016965847
0001d0 ad 4d 2d 3e 6e 8d f2 bd 9f 60 48 3e ba 87 a8 bd
       0.16924162 -0.11843382 0.19568108 -0.08229013
0001e0 24 b4 5f bc 1e bc 59 bd d1 5b 65 bd bc 3b 8a bd
       -0.013653789 -0.05315792 -0.055995766 -0.06749675
0001f0 e9 f2 eb bd 26 30 a0 bd d4 6c ea bd ac d1 29 be
       -0.11520941 -0.078216836 -0.114465386 -0.1658389
000200 7a 99 4a 3c 7e a1 dc 3c 02 8c 92 3d 4e 84 d5 3c
       0.012365693 0.026932474 0.071556106 0.026064064
000210 92 c6 35 be ae 40 0b 3e 40 07 de 3c 63 57 82 3c
       -0.1775153 0.13598892 0.027103066 0.01591081
000220 08 8c 73 3c ee 11 c3 bd c2 e1 82 ba 48 c5 0f 3d
       0.014864929 -0.09524904 -0.0009985494 0.03510025
000230 27 05 db 3d 10 9a 6e bc 98 f6 1a 3e ea 1e 87 3c
       0.10694342 -0.014563099 0.1513313 0.016494233
000240 aa 23 d4 3c 1d 58 f1 3d fc 8f 0d 3e 5b ba 2e 3e
       0.025895912 0.117843844 0.13824457 0.17063276
000250 14 00 42 3e 47 37 1c 3c 01 1f c8 3d 01 d7 c0 3b
       0.18945342 0.0095346635 0.097715385 0.0058850055
000260 83 81 45 bd bc 09 be 3c 0f 26 02 3e 65 02 0e bd
       -0.048219215 0.023198001 0.1270983 -0.034670252
000270 5e f3 c6 3d f5 e9 92 3d 5e 18 0f 3d fa 9c aa bc
       0.09714387 0.0717353 0.034935348 -0.020826805
000280 cb e2 15 3e 56 79 98 3d 5e 25 8c 3d bb 63 42 bd
       0.14637296 0.07445018 0.06843065 -0.04745839
000290 b9 69 ef 3c f6 24 1f bc 67 cd 69 bd 5f 8c 26 3e
       0.029225217 -0.009713402 -0.057080653 0.16264485
0002a0 33 98 95 3d 05 a7 3c bc 94 1b 24 bb 9e f9 84 bd
       0.0730442 -0.01151443 -0.0025040852 -0.06492923
0002b0 92 2d 9f 3d 0c 74 e3 bd c9 b5 c8 bb 96 1d 04 bb
       0.07772364 -0.111061186 -0.006125186 -0.0020159236
0002c0 e8 2c 39 bd cb a1 a9 3d 25 0e cd 3d 0e 12 c6 bd
       -0.04520884 0.08282813 0.100124635 -0.096714124
0002d0 cf 33 8a 3c d1 e7 d9 3d 39 6f 9d 3d c0 ed b2 3c
       0.016870407 0.106399186 0.0768723 0.021841884
0002e0 76 5f fe 3d e6 29 a3 3c 55 16 87 3d 06 fd e9 bd
       0.124205515 0.01991744 0.06596056 -0.114252135
0002f0 fe 9c 2c 3d 72 07 cc 3d bc 44 93 3d 5e d0 70 3d
       0.042141907 0.099623576 0.071908444 0.058792464
000300 a4 83 2e 3e c4 a9 12 3e 51 d0 25 be 5d 59 94 3d
       0.17042404 0.14322573 -0.16192748 0.07243607
000310 16 a0 d1 3d ea 29 cb 3d d0 2c 09 3e b7 db 8c 3d
       0.10235612 0.09920104 0.13396001 0.06877845
000320 43 8f 57 bd 68 64 b7 bd 23 59 52 3e 58 10 64 3d
       -0.05262686 -0.08954698 0.20541815 0.05567965
000330 5f c4 19 3c 60 e6 5c bd bd dc 5b bc fc 0c fc bd
       0.009385197 -0.05393064 -0.013419327 -0.12307164
000340 16 6c ca bc b1 61 71 3d 43 65 09 3e a9 bc f4 3d
       -0.024709743 0.058931056 0.13417535 0.119500466
000350 8a b5 01 bd 3f 8d 8f bd 98 34 5c bc bb 6f 1a 3e
       -0.03166727 -0.070093624 -0.013440274 0.15081684
000360 40 b4 bf 3d 21 63 ff 3c ac cd e8 3d ba 45 9f 3c
       0.09360552 0.031175198 0.11367354 0.019442428
000370 f2 be 08 bd f9 f6 d9 3d 6e 96 c1 bd 8a ed 31 3d
       -0.033385225 0.106428094 -0.0945252 0.043439426
000380 5a 57 13 bd 8a 3c 1f 3e 27 5d 2d 3e 35 ea 02 3d
       -0.035971977 0.15550438 0.16930066 0.03196164
000390 31 ab 6d bd e1 46 44 be 54 aa 9d ba 9f c4 ed 3d
       -0.05802459 -0.19167663 -0.0012028911 0.11609768
0003a0 b9 1f b3 3d 47 5d 06 3e 5c b5 ae 3d c8 df 99 3c
       0.08746285 0.1312152 0.08530685 0.018783465
0003b0 a9 b2 2c 3d 2b 59 5e bd bb 5c 17 be c6 e8 1d be
       0.04216257 -0.054284256 -0.14781468 -0.15420827
0003c0 65 4d e8 bc 63 38 8d 3d 40 89 40 bd 03 26 c5 bd
       -0.028357217 0.068955205 -0.04700589 -0.09626391
0003d0 d1 bc af bd 1c 34 e9 bc 9c eb 94 bc 49 91 ca 3d
       -0.08580936 -0.02846723 -0.018178754 0.09890992
0003e0 d3 7e 11 3c a3 fa ce 3d 47 5a 96 bd 62 db ab bc
       0.008880335 0.10106399 -0.07341438 -0.020978633
0003f0 d9 f9 48 bd ca 4d a8 bd dd c0 84 bd f5 b5 23 be
       -0.0490664 -0.08217962 -0.06482098 -0.1598738

lstm.weight_hh_l0 f4 [256, 64]
000000 ff 7a 44 bd dd fc 6d 3d 95 95 56 bb 64 6e a7 bc
       -0.04796886 0.058102477 -0.0032742966 -0.02043838
000010 37 b7 02 bd e4 cc f7 bc 71 57 f6 3c b1 76 8c bc
       -0.03191301 -0.030249067 0.030070992 -0.01714644
000020 b2 e1 f4 bc 1b 1e 2c bc 45 e5 99 3c 70 4d 9e 3b
       -0.029892776 -0.010505225 0.018786082 0.0048310086
000030 69 7f 2c 3c a5 35 de 3b cc 60 8c bb 4b b3 7f 3b
       0.010528424 0.0067812973 -0.004284 0.003901678
000040 e0 a4 db 3c 67 96 59 bd de 30 bd 3c 24 4d 88 bd
       0.026812017 -0.05312195 0.02309459 -0.066553384
000050 da 7d 34 bd e1 e3 3c 3d b6 34 08 3c f3 50 92 3d
       -0.044065334 0.04611576 0.0083133485 0.07144346
000060 34 00 4a bc 96 da 04 bd a6 f7 5d bd ca 5b 65 3d
       -0.01232915 -0.032435022 -0.054191254 0.05599574
000070 3c 30 58 bd 81 c8 0f 3d 0f d7 8a 3c 56 da 35 3d
       -0.052780375 0.035103325 0.016948251 0.044397675
000080 0e bd bb 3c 47 4d ab 3a de ae a1 bc b4 62 8d bd
       0.022917297 0.0013069295 -0.019736703 -0.06903592
000090 a4 62 99 bc 80 f1 1a 3d ae a8 3d 3c 28 23 dd bc
       -0.018723793 0.03782797 0.011575861 -0.026994303
0000a0 1d cd 71 bc 5f 5f 26 bd 8a 39 3b 3d 13 fb a3 3b
       -0.0147583755 -0.040618297 0.04570917 0.0050042956
0000b0 df 99 95 bb 27 31 d1 3c 35 92 4b 3d ab 6d e5 bc
       -0.004565462 0.025536133 0.04969998 -0.028006395
0000c0 33 e0 93 bc e5 6f 18 3d 41 d4 a0 3c df 91 d6 bc
       -0.018051242 0.037216086 0.01963246 -0.026192604
0000d0 ca e9 5e bd 5f 69 39 3c cb 51 31 bc 7f 91 98 3c
       -0.054422177 0.011316626 -0.010822724 0.018624065
0000e0 f6 cf 56 3d 14 32 6f bd ab c5 3d 3d 47 ff 1c bd
       0.05244442 -0.058397368 0.04633109 -0.03832939
0000f0 04 e6 3a 3d 8a 84 68 3d f8 38 3c bc e9 dc c6 3a
       0.045629516 0.056767024 -0.011488192 0.0015172038
000100 c8 60 50 bd 53 13 5e bd 36 f1 92 bd 51 25 30 3d
       -0.050873548 -0.054217648 -0.071749136 0.043004338
000110 e2 24 e8 3b 84 28 08 bd e6 b4 b7 3c 57 29 7b 3d
       0.007084475 -0.033241764 0.022425126 0.06131872
000120 95 f3 66 bd 2b ca b7 3d ef 68 73 3c 5a b2 98 3c
       -0.05638464 0.08974107 0.014856561 0.018639732
000130 21 98 4c 3d 12 b0 6a 3d 19 6a 3c 3d 52 b8 6a 3d
       0.04994977 0.05729682 0.04599962 0.057304688
000140 84 13 09 3d 4e 24 a7 bc 46 52 11 bc c1 67 ae 3c
       0.033465877 -0.020403054 -0.008869713 0.021289708
000150 54 a6 8f bd ab 7f 76 3c d3 13 b0 3c d2 57 5a bb
       -0.070141464 0.015045087 0.021493828 -0.0033316505
000160 1f c7 5f bd f6 55 20 bd 66 e9 57 3d 14 5c d7 3c
       -0.054633256 -0.03914448 0.05271282 0.026289023
000170 dc 05 06 3d fe 01 99 bc fd 41 69 b9 19 af 52 3c
       0.03272043 -0.018677708 -0.00022245194 0.012859129
000180 ae f2 23 3d 2a 68 14 bc 45 8a 7d 3c 9d 05 2a 3d
       0.04002636 -0.009058038 0.015474861 0.04150926
000190 9d 46 70 bd 73 34 00 3c 80 57 be bc 4c 0e 44 bd
       -0.058661092 0.007825005 -0.023235083 -0.047865197
0001a0 a1 68 00 3d ba 2f 81 bc db c7 9f 3d b3 0d 3c bd
       0.031349782 -0.015769828 0.07801791 -0.045911502
0001b0 a9 1d 71 3c bb cb 4d bd 50 b0 3d bd 7d 53 43 3c
       0.014716544 -0.05024312 -0.046310723 0.011921761
0001c0 8c 2c 39 3d 60 95 ba 3c ab 4f 6a bd b0 c8 90 3c
       0.0452085 0.022776306 -0.057204884 0.01767382
0001d0 4b 24 c8 bc 3d d2 89 bb b5 dc ab bd 0c 31 6f bc
       -0.024431368 -0.0042059706 -0.08391706 -0.014599096
0001e0 50 7e 2f 3d 92 dc 90 bd 53 03 6d bd a2 63 d1 3c
       0.04284507 -0.070733204 -0.0578645 0.025560204
0001f0 a4 80 0a 3d 87 2e f4 3c b3 8f e5 3b e2 d0 1f bd
       0.033814088 0.029807342 0.0070056557 -0.039017566
000200 6c 09 1b bd f5 1e 7e bd 79 0a e3 bc 39 fe b8 bc
       -0.037850782 -0.06204124 -0.027714955 -0.02258216
000210 48 9d f3 3c 41 52 ae bc 3b be 30 3c 2f 5d 23 bd
       0.029738083 -0.021279456 0.010787542 -0.03988379
000220 b1 b2 20 3d cf 48 af 3d 3f 52 f7 bc 95 56 92 bc
       0.039232913 0.08558809 -0.030190585 -0.017863551
000230 71 d5 16 bc 7a 8d ca 3c ae 8b 07 3b f3 89 1b bd
       -0.009206162 0.024725664 0.002068262 -0.037973356
000240 34 7d 5a 3d 66 b8 ca bd b1 e7 77 3d 6a f2 f5 3c
       0.05334206 -0.098984525 0.060523693 0.030022819
000250 20 56 93 3d 46 8c e5 bc c7 9b 1f 3d bc 37 8c 3c
       0.071941614 -0.02802099 0.03896692 0.01711642
000260 9a 5b 4f 3b cd b9 ef 3c e4 f1 b2 bd 69 b0 6d bd
       0.0031640292 0.029263401 -0.08737543 -0.058029566
000270 04 dc 9f 3d 99 a9 86 bd c8 2c 8d bd db c2 a0 3c
       0.078056365 -0.06575317 -0.06893307 0.019624164
000280 bd 95 2a bd 5a 81 45 bc 0a b4 7f bd 0a ad fb 3c
       -0.041646708 -0.012054766 -0.062427558 0.03072216
000290 8f f6 15 bd b8 77 90 bb 3e 54 61 3d 60 a6 ac bc
       -0.03661209 -0.004408803 0.05501198 -0.021075428
0002a0 1e 87 27 b9 45 e9 a8 3c 1b 66 03 bd ff 9f 80 bc
       -0.00015976696 0.020619044 -0.032079797 -0.015701292
0002b0 f2 c9 44 bd 2a 86 87 bd e2 00 44 bd 7e 75 af 3d
       -0.048044153 -0.06617387 -0.047852404 0.08567332
0002c0 22 fd db bc 2e 86 19 3d e4 bd 4f 3d 9a d5 14 bc
       -0.026854102 0.03748148 0.050718203 -0.00908413
0002d0 f0 f8 2a bd bd 6f 75 bd dd 53 86 bd 6b fd 23 3d
       -0.04174131 -0.059921015 -0.065589644 0.0400366
0002e0 6d f8 7b bd de 2e a9 bc 44 07 fc 3c 48 b3 9a 3d
       -0.061516214 -0.02065223 0.030765183 0.075537264
0002f0 08 12 2d 3d 4b ac b3 3d 9f 6c 49 bc 3f a2 a3 bc
       0.042253524 0.08773097 -0.012293964 -0.019974826
000300 8a 2f b2 3b 50 ef 04 bc d0 8d 27 bd 07 9a 0f 3b
       0.005437796 -0.008113697 -0.040906727 0.0021911876
000310 98 0f bb bc 4f 4e 2e bc bb bc 2c bc 53 ac 89 3b
       -0.022834584 -0.010638787 -0.010543044 0.004201451
000320 78 f0 91 3c 0d ea 29 3c 24 1a 85 3b 16 56 1f bc
       0.01781486 0.010370743 0.004061954 -0.009725114
000330 fb 16 6c bc 66 17 09 3d 32 55 b8 bc 41 3f 58 bb
       -0.014409776 0.03346958 -0.022501562 -0.0032996687
000340 e6 17 cf 3c c5 3b 1d bd 5e 7e 36 3d 6b 9f 06 bd
       0.02527995 -0.03838708 0.044554107 -0.032866877
000350 cd 8d 7f ba c5 b5 dd bc 86 f4 a3 3b 4a cc 45 3c
       -0.0009748608 -0.027064214 0.0050035147 0.012072632
000360 ef e8 5f bc a4 da 4d bc 29 a8 7f 3c 57 13 e1 bb
       -0.013666376 -0.012564335 0.015604057 -0.0068687606
000370 71 64 4f bc 25 a6 0f bd 67 20 ea ba 33 a3 d9 bc
       -0.012658224 -0.035070557 -0.001786244 -0.026567077
000380 0d d1 fe 3c 29 a2 04 bc 6d ea 2c bd 98 33 4f 3a
       0.031105543 -0.008095303 -0.042215753 0.00079041114
000390 68 12 b0 bb bb e1 ba 3b dc e5 cf 3c 5c 3e 06 bd
       -0.005373288 0.0057031787 0.02537816 -0.032774314
0003a0 2b a1 93 3c 8b b3 25 bb 5b 2d 18 bd 49 24 fc bb
       0.018021187 -0.0025284018 -0.03715263 -0.007694755
0003b0 12 2f 8f 3b ea 7f 53 3c a5 3f 46 3d db d0 29 3d
       0.004369625 0.012908915 0.04840054 0.041458946
0003c0 94 40 91 bc 14 25 9b bc 98 5a 6c bc 06 3b e3 bc
       -0.017730989 -0.018938579 -0.014425896 -0.027738106
0003d0 f2 64 65 bb 39 34 16 bd e4 dd 3f bc 2c e1 f8 3c
       -0.0035002795 -0.036670897 -0.011710618 0.030380808
0003e0 7c e0 84 bb 2d eb 0e bd 71 2c 1b bd 86 5d 26 bc
       -0.004055081 -0.03489225 -0.03788418 -0.010154134
0003f0 ee 4b e9 3c a3 32 98 bb 9a 2e c2 bc 81 9d 9d 3c
       0.028478589 -0.0046447082 -0.023703862 0.019240143

lstm.bias_ih_l0 f4 [256]
000000 d4 1d 5f 3d ec aa 46 3c 89 63 18 3d 16 7b be 3d
       0.054471806 0.012125712 0.0372043 0.093008205
000010 01 ee b1 3d e6 2c 07 3e ea be 60 bd b5 85 68 bd
       0.08687974 0.13200721 -0.05486957 -0.056768138
000020 93 a7 00 3e 88 18 ba 3d 4f d4 4c 3d 27 13 99 3d
       0.12563924 0.0908671 0.05000716 0.07474356
000030 e2 1a a3 bb 4c 35 14 3d 7b ac aa bd 2f a5 4a 3c
       -0.00497757 0.03618364 -0.08333679 0.012368484
000040 ba a3 57 3e 25 1f 7d bd e1 92 c9 bd df 4d 90 3d
       0.2105855 -0.06179728 -0.09842468 0.07046103
000050 94 b3 52 3d 59 8e 33 bd 3a 27 98 3d 3d e0 2b 3a
       0.05144079 -0.043836925 0.07429357 0.00065565464
000060 8d a4 8e 3c 33 cb ac 3d 0b 3d 83 3d d3 a2 6d 3d
       0.017412448 0.08437195 0.064081274 0.05801661
000070 fc 47 9f bd 9f 1d d1 3d 03 2b 6e bd 29 61 85 bd
       -0.07777402 0.10210728 -0.058146488 -0.065126725
000080 70 53 0e 3d 94 20 83 3d ff 2d 39 3c 9a 5e 2a bd
       0.03474754 0.06402698 0.01130247 -0.041594125
000090 43 45 c3 bd e9 25 75 3d a0 44 ef 3c 49 cd bd 3d
       -0.09534695 0.059850607 0.029207528 0.09267671
0000a0 b7 4e ef 3d 79 4e 2d bd 95 ab 15 3d b8 c1 cc 3d
       0.116849355 -0.042311165 0.036540587 0.099978864
0000b0 24 4b 1b 3b 20 92 89 bc 59 dc 0f bd f0 c1 1b 3d
       0.002369591 -0.01679331 -0.03512225 0.03802675
0000c0 55 77 22 bd 3b aa 98 bd 85 3e c2 bd f0 53 40 3d
       -0.039664585 -0.07454344 -0.09484581 0.04695505
0000d0 b6 50 f1 bc 6a 0a 6f 3d d9 84 b0 3d 78 87 c7 bd
       -0.029457431 0.05835954 0.08619089 -0.097426355
0000e0 71 44 13 bd 1f 6b fb 3d 42 b3 78 bc ed e5 9b 3d
       -0.035953943 0.12276291 -0.015179457 0.07612214
0000f0 21 93 d0 bd c1 44 19 3e b7 4c d3 3c 86 cf 7d bd
       -0.101843126 0.14967634 0.025793416 -0.061965488
000100 78 9a da bb 44 5c 2b 3d 50 7c be 3c b7 15 f0 3a
       -0.006671246 0.04183604 0.023252636 0.0018317018
000110 99 05 95 bd b8 94 88 bd d6 8f 09 be d6 a6 85 3d
       -0.07276458 -0.06668991 -0.13433775 0.06525962
000120 39 de 0b 3b 86 52 9c 3c 68 41 0b be e8 14 f9 bd
       0.0021342172 0.019082319 -0.13599169 -0.12162191
000130 25 b8 c0 bc e5 1d 4a 3d 03 0f 81 3d d9 16 12 bd
       -0.023525307 0.049344916 0.063016914 -0.03566632
000140 41 5b c5 bd e5 60 7f bc 58 4b d0 bc b6 c0 3d 3e
       -0.09636546 -0.015587066 -0.025426552 0.18530545
000150 96 76 d2 bb 96 96 5b 3d 80 1a 05 be 70 08 55 bc
       -0.006422828 0.053610407 -0.1299839 -0.0130025
000160 16 fa 39 bd b2 15 90 3d 78 47 fc 3c d6 1b a7 3a
       -0.045404516 0.07035388 0.030795798 0.0012749385
000170 ca 9a 03 3c be 0d b3 bd bd 82 92 bd 2b e2 0f 3d
       0.00803251 -0.087428555 -0.071538426 0.0351278
000180 57 ad d3 bd 7b 75 b6 3b d5 7d d4 3c 6b 4b 02 be
       -0.10335796 0.005568204 0.025938908 -0.12724082
000190 1d 2f 79 bd 8a 70 f6 bd d5 5b 1e be 9e f1 d2 bc
       -0.060835946 -0.12033184 -0.15464719 -0.025749978
0001a0 5d 13 fe 3b 40 dc 78 3c 39 1f 8f bc 8e 71 11 3c
       0.007753773 0.01518923 -0.017470943 0.008877171
0001b0 37 50 b0 bd 7a 7f 18 be 99 f5 14 3e ba 94 42 bc
       -0.0860905 -0.14892378 0.14546813 -0.0118762795
0001c0 a0 20 25 3d 51 2a 15 be 89 29 b9 bd b3 c0 49 bd
       0.040314317 -0.14566924 -0.09041125 -0.049256038
0001d0 37 69 9b 3d d4 60 05 be 2a 6c 08 bd f0 78 ee bd
       0.075884275 -0.13025218 -0.03330628 -0.11644161
0001e0 05 1b 6d 3c 12 d4 0c bd 76 c3 66 bd ba 8c 13 3d
       0.014471774 -0.034381934 -0.05633875 0.03602288
0001f0 2f 0f c2 bd 4c 0c 14 3d e0 53 52 bd 1f 5e 02 bd
       -0.09475552 0.03614454 -0.05134952 -0.031828042
000200 07 ca 6a 3d e1 6f f8 3c 56 61 97 3d 02 46 96 bd
       0.057321575 0.030326786 0.07391612 -0.07337572
000210 cf 45 6d bd 41 ff fb 3c 9a 55 8b 3b 2b 04 0f 3e
       -0.057927903 0.030761363 0.004252148 0.13966434
000220 39 66 b3 3c 25 cf 78 3d ff 6c a4 3c d5 7c 9d bd
       0.02189933 0.060744423 0.020071505 -0.076898254
000230 7a 56 71 3d 28 5b 9b bc 71 9c 7d 3d 34 3b 51 3d
       0.05892036 -0.018964365 0.061916772 0.05108185
000240 8d 11 c1 bc 38 83 97 3d f9 f4 a6 bd e2 13 df 3d
       -0.02356794 0.07398075 -0.081521936 0.10892464
000250 94 66 07 3e 6f 47 41 3d 5c 08 84 bd 0e 35 b6 bd
       0.13222724 0.047187265 -0.06446907 -0.08896838
000260 23 a8 03 3d 54 d8 e8 bd fa ca 38 bd 9c 11 cd 3c
       0.03214277 -0.11369386 -0.04511545 0.02503281
000270 42 4d ab bc 30 c5 a5 3d 35 61 00 be 74 67 bc bd
       -0.020910863 0.08094251 -0.12537082 -0.091994196
000280 d5 e5 3d 3c 3f aa 02 3d 2c a9 ba bc d2 0b f3 bc
       0.011590441 0.03190064 -0.022785746 -0.029668722
000290 fe 8b 3c bc d3 27 c7 bd 3e f6 13 3e 1e bf ab 3d
       -0.011507986 -0.09724393 0.14449403 0.08386062
0002a0 61 e2 f7 bd dc d8 8b bc d1 be 38 bd 72 a0 7d bd
       -0.12103725 -0.01707118 -0.04510385 -0.06192059
0002b0 cc 44 f6 bd c6 57 60 3d a8 12 b1 bd 6d 58 c4 3b
       -0.12024841 0.054771207 -0.086461365 0.0059919865
0002c0 41 e0 41 bd fa e8 8f bd 7b 05 66 bc 08 f9 f6 bd
       -0.047333006 -0.07026859 -0.014039393 -0.12059218
0002d0 42 4d dd bd 9c 06 ce bc b2 7c 39 3d 9f 0d de bc
       -0.108057514 -0.025149636 0.045284934 -0.027106104
0002e0 25 65 51 3d 52 2f b5 bd 4d 40 4e bd 77 13 d0 3c
       0.05112185 -0.08846916 -0.05035429 0.025399907
0002f0 7e 0b fb bd 9e 42 9c bd 26 84 a7 bd 16 eb dd bd
       -0.12258051 -0.07629894 -0.08179502 -0.10835855
000300 9b e7 4d 3d 76 41 c1 3c 43 4b 11 3c 40 4b 9a 3d
       0.050269704 0.023590785 0.008868041 0.07533884
000310 d7 fc 5e 3c ec 04 16 bd 37 f0 99 bd 9d f9 0b 3d
       0.013610086 -0.036625788 -0.075165205 0.034173597
000320 47 c7 65 bc 5f 57 ec 3d 37 87 c2 3b 2e 7c 07 3e
       -0.014024562 0.11540102 0.005936529 0.13230965
000330 45 5a 97 3b 97 d7 38 bd 56 68 11 be 6b 23 03 3e
       0.0046189153 -0.045127477 -0.14199957 0.1280648
000340 81 a9 98 3d 5e 6d be 3d 01 07 bf bc 66 b0 a3 bc
       0.07454205 0.09298204 -0.02331877 -0.019981574
000350 31 59 07 bd 5d 1e d6 3d 97 0e b8 3d 79 8d ca bd
       -0.033044044 0.1045501 0.08987158 -0.09890265
000360 a9 c5 b7 bd f3 e1 7c 3d 6d dd 85 3d bf d7 9f 3a
       -0.089732476 0.06173892 0.06536374 0.0012195035
000370 f4 22 52 3d f3 6c 6b bb ba a2 f8 bd 23 62 5a 3d
       0.051302865 -0.0035923093 -0.12140413 0.053316247
000380 4a 0a c8 bd d5 a3 3f bc dc c3 bb bc a3 65 d2 bc
       -0.097675875 -0.011696775 -0.022920541 -0.02568323
000390 9b 98 57 bc b6 90 b6 bd 62 eb bf 3d 17 c4 4e bd
       -0.013158943 -0.0891432 0.093710676 -0.050479975
0003a0 51 dc a2 3d ab d8 7c 3c 33 c1 82 bb 73 0c 88 bc
       0.07952178 0.015432517 -0.0039903163 -0.016607499
0003b0 2a d0 d4 bc af 9e 40 3c 54 51 09 3e 3c cc c8 bc
       -0.025978167 0.011756583 0.1340993 -0.024511449
0003c0 ea b8 90 3d 63 13 df bd 8e 32 d6 bc d2 cd 83 3d
       0.070665196 -0.108923696 -0.026147153 0.064357415
0003d0 bf ed fa 3c 49 a6 9e bd 82 a1 58 bd 44 61 b9 3d
       0.030630944 -0.0774656 -0.0528884 0.09051755
0003e0 03 e2 f3 3b db d4 de 3d ea 34 03 be f0 f4 d9 3c
       0.007442714 0.10880443 -0.12813154 0.026606053
0003f0 b6 e7 d0 bd 09 1c b7 3d a1 36 15 bd 20 82 0a 3c
       -0.10200445 0.08940894 -0.03642905 0.008453876

lstm.bias_hh_l0 f4 [256]
000000 fc 86 f1 bc 5b 06 c4 3b a2 be b6 bd f1 11 89 bd
       -0.02948331 0.005982203 -0.08923079 -0.06692875
000010 1f 97 72 3d 09 64 69 bc 7b 71 31 3d 99 ea 35 3c
       0.05922615 -0.014245042 0.043321114 0.011103296
000020 36 b1 db 3d de 57 23 bd 57 f9 84 3d 18 7c ef 3c
       0.1072716 -0.03987872 0.0649287 0.029233977
000030 e3 78 23 bd cd b1 92 3c 52 6b c8 bd 66 d0 35 3d
       -0.03991021 0.017907048 -0.09786095 0.044388197
000040 64 49 f7 3d ba d5 a0 3c 1e 7d ce bc f1 96 4d 3d
       0.12074545 0.019633163 -0.025206145 0.050192777
000050 5c 8d bb bd b9 89 95 3c 10 57 c2 3d b7 7b 75 3d
       -0.091578215 0.018254148 0.09489262 0.059932437
000060 b9 d5 30 bd 49 df e0 3c ca a8 12 3d 09 7b 07 3e
       -0.04317257 0.02745022 0.0358055 0.13230528
000070 40 a8 b8 3d 4b 6f 66 bd ad 85 47 bd 9c c4 c3 3d
       0.09016466 -0.05625848 -0.048711468 0.09558985
000080 8e c1 21 3c 51 e8 9f bd 58 7f 72 bd 93 cb 07 bd
       0.009872807 -0.07807983 -0.059203476 -0.033153128
000090 4a dd ca bd be d2 89 bd 52 7b c2 3d 59 d5 5e 3c
       -0.09905489 -0.06729649 0.09496178 0.013600671
0000a0 8d cf a9 3d b9 0c aa bd 3a 48 4d 3d c1 91 1a 3d
       0.0829154 -0.08303208 0.05011771 0.037736658
0000b0 65 e8 bf bd e0 78 74 bb 06 01 a1 3d d7 ff 4e bd
       -0.093704976 -0.0037303492 0.07861523 -0.050536957
0000c0 9b 20 66 3d 46 04 85 3d 24 ea b8 bd eb 5e ef bc
       0.05618344 0.06494956 -0.09029034 -0.029220065
0000d0 10 d3 87 3d 91 56 9c 3b 15 e3 24 bd 03 8d 38 3d
       0.06632054 0.0047710617 -0.040255625 0.045056354
0000e0 3f ac b4 bd 9d 08 7d 3d b0 2f 7a bd 13 de 2b 3d
       -0.08821916 0.061775792 -0.061080635 0.041959833
0000f0 68 9b 85 bd e2 07 3d 3c fc cb 96 bd 5a 5b 92 3d
       -0.06523782 0.011537524 -0.07363126 0.0714633
000100 c6 92 09 be 52 6b 1c 3d 28 00 ac 3c b1 51 bb bd
       -0.13434896 0.038188286 0.020996168 -0.09146441
000110 c3 b1 4d 3d 87 b4 58 3d 61 20 fc bd ab e6 12 bd
       0.050218355 0.05290654 -0.12310863 -0.035864513
000120 56 4f 15 3c f8 27 b3 bc 71 e0 eb bc 5c 89 7d bd
       0.009113153 -0.021869645 -0.028793545 -0.061898574
000130 30 a9 44 bd 45 4e b4 3c ab 0c 1f 3d b9 27 89 3d
       -0.048012912 0.022009978 0.03883044 0.066970296
000140 0b 6a 45 be 5d 73 bc bc ce 2b 2d bd e0 6e e4 3c
       -0.19278733 -0.023004228 -0.042278104 0.0278849
000150 95 0d 81 bd 23 10 e5 bd 51 52 b5 bd 30 89 af bd
       -0.06301419 -0.111847185 -0.08853591 -0.08571088
000160 d2 17 ab bd b3 2d dc 3c 49 09 14 3d fc 72 8e bd
       -0.08354153 0.02687726 0.036141668 -0.06955525
000170 7c 43 31 3d 2f 01 aa 3c dd 94 02 be a9 f6 ff 3c
       0.04327725 0.020752518 -0.127521 0.031245546
000180 5c c8 e0 bc 60 8b 9f 3d b8 32 ab bc 67 13 9e bd
       -0.027439289 0.077902555 -0.020898208 -0.077185445
000190 6e 31 b7 3d 76 f2 0f be 62 5d d5 bb 9e fb a5 bd
       0.08944975 -0.14057335 -0.0065113762 -0.08104633
0001a0 aa 6b 51 bd f0 de 19 bd 0e fa 2a be 2b 95 86 bd
       -0.051128067 -0.037566125 -0.16696951 -0.0657142
0001b0 0d 05 77 bd ae db 84 bd 45 2f 8f 3d c4 70 e2 bd
       -0.06030755 -0.06487213 0.06991438 -0.110566646
0001c0 ad 9c 3b 3d a0 b7 a6 bc 78 66 71 bc 69 aa be bc
       0.045803715 -0.020351231 -0.014733903 -0.023274617
0001d0 0f 68 c2 bd 74 85 2e bd 48 cd 93 bd 78 76 a9 3d
       -0.09492504 -0.04260774 -0.07216889 0.08274549
0001e0 f5 2e b1 bd 72 d4 1a be 14 a5 eb ba d0 4c 00 be
       -0.086515345 -0.15120104 -0.0017978274 -0.12529302
0001f0 95 e5 dc bd e2 de 04 bd 9e 2c 78 bc cf 06 08 3d
       -0.10785977 -0.03243912 -0.015147356 0.03320962
000200 26 37 89 bd 56 92 70 3c 4c a2 9d bd 8b f9 99 bc
       -0.06699972 0.014683327 -0.07696971 -0.01879575
000210 2d ee 39 3d 17 50 02 3e b0 ef 91 3d 43 f8 b8 bc
       0.045393158 0.12725864 0.07125795 -0.022579318
000220 90 b0 41 bb a8 f4 b3 bd aa bc 9d bd ad f1 23 ba
       -0.0029554702 -0.08786899 -0.077020004 -0.0006253969
000230 68 07 3d bd 3e ee e2 3d 50 8b c2 3d ac 70 8c 3d
       -0.04614964 0.11080597 0.09499228 0.06857428
000240 d4 b6 a9 bd e3 44 ad bb ef 1d 82 3c a6 7e bf 3c
       -0.08286825 -0.005287753 0.015883414 0.02337582
000250 23 44 94 bd 67 4f e8 bc f3 6a dd bc 22 07 54 3d
       -0.072395585 -0.028358174 -0.027028536 0.051764615
000260 1e 6d 34 3d b3 e5 8d 3d 7b 18 de 3d ec 6d 72 3c
       0.044049375 0.06928577 0.10844513 0.014796715
000270 23 d1 2e 3d 87 86 ef bd 3e e3 c2 3d 63 55 a7 bd
       0.042679917 -0.11695581 0.09515999 -0.08170583
000280 98 02 0a bd 2c 0d ea bc e7 8c 4b bc 21 4b b0 3d
       -0.03369388 -0.028570734 -0.01242373 0.0860808
000290 03 a7 ec 3c 23 86 9a 3b 3e d1 38 bd 66 50 ab 3d
       0.028888231 0.0047156974 -0.045121424 0.08364944
0002a0 99 ab 59 3d ca f9 42 3d 3f 63 85 3c 0b 83 62 bd
       0.053142164 0.0476015 0.016282676 -0.055300754
0002b0 98 a3 cf 3c 2f 45 01 be de 97 46 bd 8a 78 b5 bd
       0.025346562 -0.12624048 -0.048484676 -0.088608816
0002c0 0a b7 4d bc a8 d5 0a 3e a4 b8 76 3d d3 6e 65 3d
       -0.012555847 0.13558066 0.06023468 0.056013893
0002d0 97 60 ab 3b ee 5c 3d 3c 9d 2a 2b 3c 9d bb d4 3c
       0.0052300203 0.011557801 0.0104471715 0.025968367
0002e0 a6 07 06 be ee b1 a0 3d f8 54 a4 3d ae a0 76 3c
       -0.13088855 0.078464374 0.08024019 0.015052957
0002f0 af a9 0e 3d 81 f2 91 3d 5d 34 10 3d e3 58 53 3b
       0.03482979 0.07126332 0.035206188 0.0032249026
000300 a1 8c 25 bd 0c 26 ce bd 04 36 a3 bd d8 39 41 bc
       -0.040417317 -0.100658506 -0.07969287 -0.011793576
000310 de 14 84 bd 22 05 a7 bc 52 11 57 3d a2 bf 37 bd
       -0.064492926 -0.02038819 0.052506752 -0.04486049
000320 0f 99 2b bd 24 cb 8d bd a5 56 3b 3d 94 1b 58 3d
       -0.041894015 -0.069235116 0.045736928 0.052760676
000330 55 7a a9 bd 39 7d ae bd e0 21 51 3c 9f 35 01 3e
       -0.08275286 -0.08519978 0.012764424 0.12618111
000340 93 4b 1d 3e c5 7a 91 3d f7 de 7c 3c f3 ac ed 3d
       0.1536086 0.071034946 0.015434018 0.11605253
000350 2b 78 6d 3d f8 78 da ba 39 a1 80 3d 91 8c 0a bd
       0.05797593 -0.0016668132 0.06280751 -0.03382546
000360 20 52 12 3d 85 eb ac bd 17 3b 48 bd 35 82 f4 3b
       0.03572285 -0.08443359 -0.048884477 0.007461811
000370 34 57 f7 bc f3 ee e9 3d 18 1c a2 bd c3 93 99 3c
       -0.030192949 0.11422529 -0.07915515 0.018747216
000380 c9 4d 84 bc 2f 6a 59 3c 3f 75 48 bd 34 6b 21 bd
       -0.016150372 0.013269945 -0.04893994 -0.039408877
000390 4a 15 ab bd 29 4c bb 3c 52 06 c2 bd 1c 42 91 bd
       -0.0835367 0.022863464 -0.09473862 -0.070926875
0003a0 e9 19 de 3d e1 56 65 3d 54 d4 7d bc 24 b8 78 bd
       0.10844786 0.055991057 -0.0154925175 -0.060722485
0003b0 4d 52 ed 3d 2c d7 d8 3c e7 ec 27 bd 2b ed da 3d
       0.11587963 0.02646979 -0.040997412 0.106897675
0003c0 d4 a0 fa 3d 14 be 1d 3b c3 3b e0 3d 11 ac 9d bd
       0.12237707 0.0024069594 0.10948899 -0.07698835
0003d0 ef 00 00 bc ea 67 f0 3d b5 85 af bd 3d 76 bf bd
       -0.007812723 0.1173857 -0.085704245 -0.09348724
0003e0 65 54 cd 3c 78 8e 1b 3d b4 5f 21 3c 14 0c 11 bd
       0.025064657 0.037977666 0.009849478 -0.03541191
0003f0 4b 35 c6 3d 26 0f 00 3e 34 0c e3 bd 6f 3d ab bd
       0.096781336 0.12505779 -0.11086312 -0.08361327

lstm.weight_ih_l1 f4 [256, 64]
000000 42 1e 63 3d 15 50 29 bd f0 7b 21 3c f5 97 e1 3c
       0.055448778 -0.041336138 0.009856209 0.02753828
000010 b6 c6 cf 3c 88 c2 88 bc eb bd 6a bd 99 56 89 bd
       0.025363307 -0.016694322 -0.057310026 -0.0670597
000020 62 9b 69 3d ea 9d 18 3c fe 4a 06 bd 0d 6e 5a bd
       0.05703295 0.009314993 -0.032786362 -0.05332761
000030 c3 8a 23 3d a2 e8 a0 bb e0 1a 61 3b 4e f7 81 3b
       0.039927255 -0.0049105445 0.0034348294 0.0039662486
000040 79 ac ea 3c 0a 9a 2f bc bb 25 45 3c 4e 05 1e 3d
       0.028646694 -0.010717878 0.012032921 0.038579278
000050 b9 d8 91 bd 2f e1 3e bc 3d a3 a6 3c 59 63 e0 bc
       -0.07121415 -0.011650368 0.02034151 -0.027391123
000060 d3 58 52 3d f8 0f 8e 3d 70 06 ab 3c 15 57 ce 3d
       0.05135424 0.069366395 0.020877093 0.10075203
000070 f0 e6 43 3d a6 3c 64 bd 7a 59 66 3d 40 30 49 bd
       0.04782766 -0.0557219 0.056237675 -0.04911828
000080 c5 de ad bd 01 ff b2 bd 4e 17 ba bb e8 21 9a 3d
       -0.084897555 -0.087400444 -0.0056790477 0.07525998
000090 ee 11 8d bb e3 21 a5 3b 3d 03 0c 3d f2 53 55 3c
       -0.004305116 0.00503944 0.034182776 0.013020502
0000a0 44 d6 8e 3d 6b d1 38 3d 5d 72 ca bc ec e6 c4 3b
       0.06974462 0.04512159 -0.024712736 0.0060089733
0000b0 ea ca 71 bd d8 45 8b bd d3 83 42 bd 32 c8 75 3d
       -0.059031405 -0.06800431 -0.047489 0.060005374
0000c0 92 8c a4 3c 48 43 a5 3b e7 33 21 3d 85 b7 1b bc
       0.02008656 0.005043421 0.03935614 -0.009504204
0000d0 27 fc 72 3d d8 f2 82 3d a8 21 b2 bc 99 44 3c 3d
       0.059322502 0.06393975 -0.021744564 0.045963857
0000e0 f4 e1 0e 3d 99 0f 2b bd 9c 5e 4b 3c a8 2a 39 bd
       0.034883454 -0.041762922 0.012412693 -0.045206696
0000f0 b8 a8 9d 3c 6b 2f dd 3b 7b 26 be bb 3c b6 a9 3b
       0.01924549 0.0067500374 -0.005802927 0.0051791947
000100 27 3f 38 bd 0f 9b 3f 3c c7 82 93 3c 19 3f 11 bd
       -0.0449821 0.011694684 0.018006695 -0.035460565
000110 2d 7c c5 bc 62 dd 5a bc cf 5d dd bc 0c 56 cb b9
       -0.024107063 -0.013358446 -0.02702227 -0.00038783287
000120 fc de fe bc fb b3 4a 3d fc 39 3f 3c 3b 8c 0c bc
       -0.031112187 0.04948805 0.011671539 -0.008578355
000130 35 93 5e 3d d2 fe bf bc 86 66 bd bb 3f 03 64 bc
       0.054339606 -0.023436937 -0.005780044 -0.01391679
000140 9b 92 45 3d bd 61 90 bd 4f 78 d8 3c e4 cb 33 bd
       0.048235517 -0.07049892 0.026424555 -0.043895617
000150 fb de 9a bb d5 8c c3 bc 0b 5c 27 bd d2 01 45 bd
       -0.0047262884 -0.023870865 -0.040859263 -0.04809744
000160 ae 89 79 bd 0d 9c b5 3c 89 d3 da 3c 57 bb dc bc
       -0.060922317 0.022169137 0.026712196 -0.0269448
000170 89 44 33 3d 52 b3 1c bc ec 64 02 3d 4b 35 e0 bc
       0.043766532 -0.009564238 0.031834528 -0.027369162
000180 0b 0f e4 bc 38 2e 0a bd 65 7d 40 bd 10 50 19 bc
       -0.027839204 -0.033735484 -0.046994586 -0.009357467
000190 52 f3 3a bc d9 73 81 bc af 07 2c bd ca 25 01 bd
       -0.011410551 -0.01580231 -0.041999515 -0.03153018
0001a0 6a ba cf bc f8 da d4 bc 89 d9 86 3d a3 d1 29 bd
       -0.025357444 -0.025983319 0.0658446 -0.04145969
0001b0 16 82 88 bd 75 b2 84 3c 7a dc 2c 3d 8b 22 50 bc
       -0.06665437 0.016198376 0.04220245 -0.012703548
0001c0 9a f4 fa 3c 64 4a 04 bd e5 74 87 bc 3a 11 ad bb
       0.030634213 -0.032297507 -0.016535232 -0.0052815946
0001d0 b5 13 ef bc cb 57 fd 3c b6 23 91 bd ee 45 10 3d
       -0.029184202 0.030925652 -0.070868894 0.03522294
0001e0 0a 3b e5 3c 14 37 25 bd a1 a9 df bc c2 1a c8 ba
       0.027982254 -0.04033573 -0.027302565 -0.0015266764
0001f0 e4 54 03 3d 42 99 03 bd b4 f8 b5 3b e0 ce b9 3c
       0.03206338 -0.03212858 0.0055533294 0.022681653
000200 e6 e1 29 3d d7 5c e5 3c 36 c6 5f bd 1c f0 92 bd
       0.0414752 0.027998371 -0.054632388 -0.071747035
000210 80 06 e4 bc 13 7e 40 bd a8 f8 fd 3b 39 6d 1d bd
       -0.02783513 -0.046995234 0.0077505894 -0.03843424
000220 99 ae 61 bd 8b df be ba b1 20 9d 3c f1 06 0e bd
       -0.05509815 -0.0014562471 0.019180628 -0.03467459
000230 83 75 ea 3c 2e 79 75 3c 1a 21 26 bd 06 1a 8f bd
       0.028620487 0.014982505 -0.04055891 -0.069873855
000240 f5 38 fa 3c 23 7b 9b bd 23 20 5d 3d 38 57 84 bd
       0.030544737 -0.07591846 0.053985726 -0.06461948
000250 13 d6 dc bd 91 e1 bd bc e0 f4 ef 3c 10 11 ec bd
       -0.10783019 -0.023178848 0.02929157 -0.11526692
000260 e6 00 17 3d ef ee cd 3c 87 29 08 bc 86 d1 81 3d
       0.03686609 0.025138346 -0.008310682 0.063387915
000270 67 8f 8f b8 41 fc 85 bd e3 c5 c7 3d 0a 33 e7 3d
       -6.845482e-05 -0.06542254 0.09754541 0.11289032
000280 2b 4b 0c 3d 8d 29 8f 3d 89 b3 01 3d 27 86 c4 3b
       0.034251373 0.06990347 0.03166536 0.0059974375
000290 4f 8a 8e bd e5 6f 34 3d 0d fc c1 bd 52 86 7f bd
       -0.06959974 0.044052023 -0.09471903 -0.062383957
0002a0 16 80 3e 3d d7 1f 92 bd e6 46 0c bd bf ef 8d 3d
       0.04650887 -0.07134979 -0.0342473 0.069304936
0002b0 af 17 13 3d 85 fd 68 3d 37 43 50 bd bc 41 82 3d
       0.03591126 0.0568824 -0.05084535 0.06360194
0002c0 21 32 84 3c 7c 0f 3e bd 9c 19 45 bd 48 86 ca 3d
       0.016137185 -0.046401486 -0.048120126 0.09888893
0002d0 03 6d 20 bd d0 48 67 bd c2 21 29 3c 40 46 9c bc
       -0.03916646 -0.056465924 0.01032299 -0.019076467
0002e0 74 be 66 3d a2 73 a7 bd 33 c6 bb 3d 58 b3 4a bd
       0.056333974 -0.08176352 0.09168663 -0.04948744
0002f0 d4 9b bf 3c ac 81 7d bd 2d 09 9d bd 99 86 26 3d
       0.023389734 -0.061891243 -0.07667766 0.040655706
000300 73 32 24 3d b2 e3 e0 3c 93 4a 59 3d 24 8e 06 3d
       0.040087175 0.027452324 0.053049635 0.0328504
000310 27 91 96 3d 2b a6 01 bd 53 84 be bd 21 92 c3 3c
       0.07351904 -0.03165261 -0.093025826 0.02387339
000320 b5 22 a8 3d 42 54 63 3d e1 3e cb 3c be f8 d4 3d
       0.08209745 0.055500276 0.024810256 0.10399006
000330 f5 fc e8 3b 4e 20 42 bd 83 a2 a3 bc 5e cc a0 bc
       0.007110233 -0.04739409 -0.019974953 -0.0196287
000340 cd 47 11 3e 5b 35 5e 3b 5b e3 2f 3d 06 af cb 3d
       0.14187546 0.0033906314 0.042941432 0.099454924
000350 5e 4e 82 3d a9 2b ae bd 0b ab 5c bc e1 92 ff bc
       0.063626036 -0.08504421 -0.013468514 -0.031197967
000360 d6 b8 e8 bb 33 bd 80 bd 94 9e 4a bd d4 b2 04 3e
       -0.0071021123 -0.06286087 -0.049467638 0.12958843
000370 ba 3b a8 bc 03 3f 8e 3c 74 f9 53 3d da d8 96 bc
       -0.020536292 0.01736403 0.05175157 -0.01841395
000380 8e ce ad bd 82 6a 4d bd 94 b6 b8 bd 75 c2 ce bd
       -0.08486663 -0.050150402 -0.09019199 -0.100956835
000390 55 ee a1 3c 19 d4 70 3c f1 97 98 bc 4f 47 be bc
       0.019766966 0.0146990055 -0.018627139 -0.023227362
0003a0 bd 47 a5 bd ce dd ac bc 64 05 92 bd eb 54 ed 3c
       -0.080703236 -0.021101858 -0.071299344 0.028971156
0003b0 aa 34 8b bc 94 05 92 bc 69 4b 15 3d 97 b9 95 bc
       -0.016992886 -0.017824925 0.03644887 -0.018276973
0003c0 b3 1c 32 bd 76 89 87 bd b3 ae 47 bd b5 62 24 bd
       -0.0434844 -0.066180155 -0.04875059 -0.040133197
0003d0 cb 27 b8 bd a2 28 69 3b ea 2a b7 3b f4 44 84 bd
       -0.08991965 0.0035577198 0.0055898326 -0.06458464
0003e0 91 b0 30 bd 11 32 07 3b ca 41 88 bd 0e 3d 44 bd
       -0.043137137 0.0020629207 -0.06653173 -0.04790979
0003f0 ad f7 ea 3b 9f 1d 53 3d d0 64 49 ba e0 2f 8b 3d
       0.0071706385 0.05154192 -0.0007682564 0.06796241

lstm.weight_hh_l1 f4 [256, 64]
000000 da 73 08 bb 1b 61 36 3c ae 28 1b 3d b2 a3 53 3d
       -0.0020821006 0.01113155 0.037880592 0.051669784
000010 3b 70 5a 3d 48 56 9f ba bc 58 56 3b 5c 07 7d bd
       0.053329688 -0.0012156451 0.0032706698 -0.061774597
000020 d1 da 4d 3d a2 bb 9c bd ef 8d 01 3c c4 47 56 bb
       0.050257508 -0.076529756 0.007907375 -0.0032696584
000030 db 86 63 3d 16 2c ec ba bb 81 1a bc 6a 94 0d 3d
       0.05554853 -0.001801851 -0.009430344 0.034565367
000040 80 04 37 3d c7 90 d1 3c b3 43 04 3d 87 74 8d 3d
       0.044682026 0.02558173 0.032291126 0.069069915
000050 80 e0 af 3d 1e 27 80 3c d0 13 1c 3c 4e bc 84 3d
       0.08587742 0.015643653 0.009526208 0.06481229
000060 e2 02 f4 bc 3a 34 55 3d 4a ba 49 3c 2c 7f 26 3b
       -0.02978653 0.05205176 0.012312481 0.002540539
000070 18 64 ea bc ba 9a ca ba 36 74 5b bb 0e 50 cd ba
       -0.028612182 -0.0015457489 -0.0033486015 -0.0015664117
000080 b5 91 ba 3c 26 fd a3 3c 21 ee 20 3d 1e e1 29 bd
       0.022774557 0.020018172 0.039289597 -0.041474454
000090 0e 28 a9 3d 3b 1c d5 3b 87 e4 46 3b dc 34 83 bd
       0.08259593 0.0065036095 0.0030348615 -0.064065665
0000a0 b4 77 82 3d da 1a 66 bc e3 5c 13 ba 76 f4 54 bc
       0.06370488 -0.014044488 -0.0005621446 -0.012997737
0000b0 30 8b 2d 3d 86 1f 8f bc 0c 32 4d 3d 02 cb b8 bd
       0.042369068 -0.017471086 0.050096557 -0.09023096
0000c0 fe a4 53 bc b6 f6 d1 bc 29 bd 30 3d ac 72 aa bd
       -0.012917755 -0.025630336 0.043149147 -0.08322653
0000d0 3f a0 34 3d 3d a9 3a bd 61 1f 26 3b 09 04 63 bd
       0.044098135 -0.045571554 0.0025348293 -0.05542377
0000e0 60 5f e2 3c 9f 58 ab bb f5 9e b6 bd 60 f5 79 3d
       0.027633369 -0.0052290703 -0.089170374 0.061025023
0000f0 40 e4 1a bd eb 40 66 bc 11 37 4d bd b9 7a ce 3c
       -0.037815332 -0.014053564 -0.050101344 0.025205003
000100 b8 67 8c 3b 2c 05 96 bd 05 ff a0 3d d1 20 2b 3d
       0.004284825 -0.07325205 0.07861141 0.041779343
000110 5a 5c d5 b9 91 ab a3 3c b2 02 c6 3b ec da 2f 3d
       -0.00040695333 0.01997927 0.006042802 0.04293339
000120 47 c0 40 3d f8 33 93 bd 85 63 98 3d 6a 1b 9f 3d
       0.04705837 -0.071876466 0.07440857 0.07768901
000130 45 cc c1 bc f8 8d d7 bc 4e fb 94 bb f9 00 fe 3b
       -0.023656974 -0.026312813 -0.0045465594 0.007751581
000140 06 e3 d5 bc 47 21 90 3d 0e 91 c8 bb f5 d6 83 ba
       -0.02610923 0.07037597 -0.0061208075 -0.0010058569
000150 b4 4c 07 bd 60 97 33 bd 86 2f 67 bc c4 5f 8c 3c
       -0.033032134 -0.043845534 -0.014110452 0.017135508
000160 28 cb 49 bd 29 09 c4 bc 78 1c ba 3b 95 42 eb 3c
       -0.04926601 -0.02393015 0.0056796633 0.028718272
000170 ed 0d 96 bd 71 68 11 bd d4 e5 35 3c d7 6a af 3c
       -0.07326875 -0.035499994 0.011102159 0.02141325
000180 df a8 7c bd 6b cd 8a bc 68 8e b4 3c a2 48 6f bd
       -0.061684486 -0.016943654 0.02204056 -0.058418877
000190 bd 76 bf 3d 0f 32 0d 3d 58 0e 00 bd 60 0d 00 bd
       0.093488194 0.034471568 -0.03126368 -0.031262755
0001a0 04 22 a2 3c bb d7 a6 bc 0c de c9 bc e5 b1 18 bd
       0.01979161 -0.02036654 -0.024642013 -0.03727903
0001b0 f9 d3 68 bc 51 fb 47 bd 3b 11 ca bc b1 49 63 3c
       -0.0142106945 -0.04882366 -0.02466642 0.01387255
0001c0 87 d3 3b 3d 78 fe 14 bd 09 27 e7 bb 5e 57 39 bd
       0.045856025 -0.036375493 -0.007054214 -0.045249335
0001d0 fe 8a 68 ba d2 74 65 bd 8f 64 77 bd ad 52 2c ba
       -0.0008870809 -0.05601961 -0.060398635 -0.0006573599
0001e0 93 99 57 3c dd df a1 3d fb d1 06 3d cc 14 84 3d
       0.013159174 0.07904027 0.032915097 0.06449279
0001f0 81 d8 38 3c e0 10 03 bd 66 a6 4d 3d 09 94 8b 3b
       0.011282087 -0.031998515 0.050207518 0.0042595905
000200 81 71 13 3d f3 c7 a7 bc 2a 33 68 ba 99 f0 83 3d
       0.035996918 -0.020481085 -0.00088577217 0.06442375
000210 ab 8e 89 3d f4 ce 80 3c 69 16 86 3d 0f 29 a7 3d
       0.06716665 0.015723683 0.06547243 0.08162128
000220 1f 72 44 3d f7 5a 68 3d f9 79 86 bd ed ee 9d 3d
       0.047960397 0.056727376 -0.06566233 0.07711587
000230 d9 d4 a4 bd aa f3 b5 3b c8 36 9c b8 3a 5e 4e 3c
       -0.0804841 0.0055527287 -7.4488635e-05 0.012595708
000240 e5 2c 93 3d f6 70 a7 bc 3f 3f 9c 3d 53 d8 8e 3d
       0.07186297 -0.020439606 0.07629251 0.06974854
000250 99 ed 17 3c 83 61 11 bd 6b 82 49 bc 1c 17 c1 bd
       0.009272956 -0.035493385 -0.0122991605 -0.09428236
000260 dd a8 57 3d 69 5c b9 3c a7 79 16 ba 95 84 8c 3c
       0.052651275 0.022627072 -0.00057401735 0.017153064
000270 92 5a 8d bd 04 cf f3 3c 12 bf cf 3c 5a fd f9 3c
       -0.069020405 0.029761799 0.025359664 0.030516315
000280 84 21 5e bc ae 29 4c 3c 72 03 77 ba be da 2a 3d
       -0.013557795 0.012461109 -0.00094228156 0.041712515
000290 30 09 38 bd 47 98 73 3d 26 ae 97 3d 33 bb a4 3b
       -0.044930637 0.059471395 0.07406263 0.0050271987
0002a0 8d 22 8e bc 5c cb c2 3d 15 73 4e 3c 10 6f b0 3b
       -0.01735046 0.09511444 0.01260068 0.0053843334
0002b0 51 e9 e3 3d 55 bd e1 bb b6 b0 84 bb 96 62 9d bc
       0.11128486 -0.006889025 -0.004049386 -0.019212049
0002c0 5e 68 be 3d 85 d8 68 3b d0 61 1a 3d 83 76 5f bc
       0.0929725 0.0035529446 0.037690938 -0.013639095
0002d0 9b 74 b9 bd a3 ea 13 3d b4 44 76 bd eb 14 0c 3d
       -0.09055444 0.03611244 -0.060124114 0.034199636
0002e0 30 12 8d bc ea 89 a7 3d 2d 97 a8 3d f8 a1 d1 bc
       -0.017220587 0.08180602 0.082319595 -0.025589928
0002f0 38 3c 90 bd 1b 87 c1 bd 64 bf 89 bd 7a 19 3a bc
       -0.07042736 -0.094495974 -0.06725958 -0.011358613
000300 bc e3 73 bd 90 84 20 3d 1f 8b 4f 3d 2e df 1d 3d
       -0.059543356 0.03918892 0.050669786 0.03854292
000310 7b 28 fe 3c 4b aa d0 bc c5 77 a9 bc 2e db 3d 3d
       0.031025162 -0.025471827 -0.020686993 0.046351604
000320 bd aa 86 bd 6f c8 12 bd f4 bf e0 3b 48 d9 d7 3c
       -0.065755345 -0.03583568 0.00685882 0.026348725
000330 15 d6 bc bd 91 24 20 3b 84 b1 03 3c f8 ad 51 3c
       -0.092205204 0.0024435858 0.0080379285 0.012797825
000340 d2 fa 38 bd c9 25 81 bd 1c d3 a8 3d 0b ca ae bd
       -0.045161076 -0.06306035 0.08243391 -0.085346304
000350 a4 b0 34 bd b7 ec 1a bd 8d 4e 26 3d 7c 34 30 37
       -0.04411377 -0.037823405 0.040602256 1.0502637e-05
000360 c9 69 75 bc 38 56 fe 3c 07 70 81 3d 7d 36 14 3d
       -0.014978834 0.031046972 0.06320196 0.036184777
000370 ac 1e 96 bd f6 ce 58 bc 31 49 c3 bc 97 73 40 bd
       -0.07330069 -0.013232937 -0.023838611 -0.046985235
000380 d3 d4 f5 3d 04 80 a6 3c 46 05 28 3d f8 b1 87 bd
       0.120034836 0.020324714 0.041020654 -0.06625742
000390 16 49 e7 bc 1c ec 80 bd b0 1e 38 bd 24 68 b0 bd
       -0.028233092 -0.06295034 -0.04495114 -0.08613613
0003a0 8a 81 c6 bc e9 ea b4 bb 00 90 61 3d 13 49 90 3c
       -0.02423169 -0.0055211675 0.05506897 0.01761297
0003b0 8c d4 0c bd 5e 12 0d 3d 05 ce 29 3d 51 85 ab bd
       -0.034382388 0.034441344 0.04145624 -0.083750375
0003c0 0c 63 56 3d 9e bb 85 3d b7 32 f0 bc 26 f8 71 3c
       0.052340552 0.06529926 -0.029321058 0.014768636
0003d0 c8 f7 3a 3d 93 ce bf bd 86 33 b8 bd fc b5 af bd
       0.04564646 -0.09365573 -0.08994202 -0.08579633
0003e0 c3 11 3a 3d ee 25 9c bc 1a ca 82 3d 83 e8 2d 3d
       0.045427095 -0.019061055 0.06386204 0.04245807
0003f0 29 3f 67 bd 23 52 f6 bc 88 7b 13 ba c8 a3 91 3b
       -0.05645672 -0.030068463 -0.00056260126 0.004444573

lstm.bias_ih_l1 f4 [256]
000000 fc 7e 83 3d 69 d1 61 3c 61 9d 9d bd 9f 84 b9 3d
       0.06420705 0.013782837 -0.07696033 0.090584986
000010 47 09 df 3d 25 3f b2 bd 10 6c 79 3c 8f 63 d3 bb
       0.108904414 -0.0870345 0.015223518 -0.0064510773
000020 43 dc 43 3d 6d 8e 1c 3d 37 64 96 3d ff 0a c5 3d
       0.04781748 0.038221765 0.07343333 0.09621238
000030 87 c5 ea 3d d8 60 50 bd bc 6f 08 3d 7f 97 9b bc
       0.114634566 -0.050873607 0.033309683 -0.018993137
000040 2f ff ae 3d 08 9a 77 bd cf 26 81 3c 30 4e 52 bd
       0.08544766 -0.06044963 0.015765576 -0.051344097
000050 c0 4c a4 bd f4 45 c2 bd e5 f9 58 bd 2a 32 51 3b
       -0.080224514 -0.09485999 -0.052972693 0.003192077
000060 c2 b0 a7 3d ed 86 dd bd c5 02 9f 3d bb eb 4f 3d
       0.08188011 -0.10816751 0.077642 0.05076192
000070 6a 89 cc bc 52 f0 9a 3c b6 b1 f7 bc 31 9d d4 bc
       -0.024967868 0.018913422 -0.030236106 -0.025953861
000080 8a af 16 bd 00 6b 9e 3d f5 15 61 bd 78 9f ac 3d
       -0.0367885 0.077352524 -0.05495258 0.08428854
000090 06 6b 5a 3d 3e 7f a9 3d 86 74 48 3b b4 47 fb 3d
       0.05332472 0.08276223 0.0030587032 0.12269536
0000a0 29 c3 85 bd 63 19 1a bc c5 89 c1 3a d7 b3 ee bc
       -0.065313645 -0.009405467 0.001476579 -0.029138489
0000b0 f3 00 72 bd 7d 23 f3 3d 3e 5d 8c 3d fe ed c0 3d
       -0.059082936 0.11872003 0.06853722 0.094203934
0000c0 06 70 0f 3d 72 a1 a2 3d e3 ac 76 bd d4 fc 47 bc
       0.035018943 0.079409495 -0.06022347 -0.012206275
0000d0 8b ce a2 3d bc 84 80 3c 3e ab 0e bd f1 c8 53 3b
       0.07949551 0.015688293 -0.034831278 0.0032315815
0000e0 95 73 03 be 3b 93 21 3d 0f 91 25 3d 38 79 85 bd
       -0.1283706 0.03944705 0.04042154 -0.06517261
0000f0 f7 24 87 3d 38 5b a2 bd e8 b5 96 3d 32 1a 8b bc
       0.06598847 -0.07927555 0.073589146 -0.016980264
000100 52 7c 00 be fa 21 02 3d a4 f0 98 3b 98 34 dd 3d
       -0.12547424 0.031770684 0.0046673585 0.10801047
000110 0c 03 31 bd 99 79 07 3e 92 3b 18 3d 05 d9 15 3d
       -0.043215796 0.1322998 0.037166186 0.03658392
000120 df e1 ae 3b 48 f1 54 3c f9 22 7d 3d 8b 49 eb 3c
       0.0053369845 0.012996979 0.06180093 0.028721591
000130 a7 ae 09 3e e4 0d 85 bd ca 12 c7 39 81 7c f5 bc
       0.13445531 -0.0649679 0.00037970237 -0.029966595
000140 cd 16 b6 bd de 97 96 bd ec 6f 6c bd 50 b8 ec 3c
       -0.08891068 -0.07353185 -0.057723925 0.02889648
000150 21 bd c6 bb a6 5d ae bd f9 f3 e8 3c 2d 31 e5 3d
       -0.0060650264 -0.08513956 0.028436648 0.1119102
000160 bc 56 3c 3d a9 06 ba bd e5 81 07 3e 45 ed 69 bc
       0.045981154 -0.090833016 0.13233145 -0.014277761
000170 5a 9b 6d 3b 79 24 13 3d 8b 85 00 3e a9 c9 25 bd
       0.0036255927 0.035923455 0.12550943 -0.04047552
000180 c6 5a 9a bd 2c 98 6d 3d 48 60 95 bd 7a 43 1b bd
       -0.07536845 0.05800645 -0.07293755 -0.037906148
000190 ea a6 9d bb 6f 89 c1 3d b0 f0 82 bc a9 3d 15 3d
       -0.0048111575 0.094500415 -0.01598391 0.036435757
0001a0 fe 60 c1 bd 6b 3a 7d 3d ef ae 72 bd e2 5b e1 bb
       -0.09442328 0.06182329 -0.05924886 -0.0068774084
0001b0 54 2a 29 3d 12 ba 9b bb 12 f5 b4 3d e9 a5 53 3d
       0.041300133 -0.004752406 0.08835806 0.051671896
0001c0 39 c2 41 bd e9 72 ae bd 96 3e 4b 3d 65 5d e1 bd
       -0.047304366 -0.08518011 0.049620233 -0.11004142
0001d0 bd cd 13 bd 78 9c 98 3d b9 35 b8 ba 9f 6b d6 bc
       -0.03608488 0.07451719 -0.0014054097 -0.026174365
0001e0 fe da 05 bd 4a 5f 0e 3a 5b b6 a2 3d 44 10 dc bc
       -0.03267955 0.00054310693 0.07944938 -0.026863225
0001f0 73 89 bd 3c 8e 89 b3 bd df 9a 56 bc a8 c3 ab 3c
       0.02313683 -0.08766471 -0.013098448 0.02096732
000200 90 3d 34 3d fe 41 3f bc af ec 5f 3c 9b 47 48 3d
       0.044004023 -0.011673449 0.01366727 0.048896413
000210 8d 38 21 bd 62 d1 ce 3d 0e a1 b7 3d 5f b6 1d bd
       -0.03936057 0.1009853 0.089662656 -0.038504
000220 d0 a4 62 3d 75 dd 6a 3d 48 2f b0 bd 16 30 a9 bd
       0.05533296 0.057340104 -0.08602768 -0.08261125
000230 81 a9 7d bc cc e8 00 3e 19 13 77 3d ce 6a cf 3d
       -0.015482307 0.12588805 0.060320947 0.10127793
000240 28 1a 8e bd 02 1e 07 be df c4 cb 3a 52 ca e3 bd
       -0.06938583 -0.13195041 0.0015546343 -0.11122574
000250 82 07 a0 3d d6 b6 4b bc 19 37 28 bd 6a f6 c3 bb
       0.07813932 -0.012433728 -0.04106817 -0.0059803026
000260 2f 75 d0 bb bb c3 2f bc 09 d6 ba 3d 00 0a 79 bd
       -0.0063616256 -0.010727818 0.09122855 -0.060800552
000270 7d 27 0e 3d 16 73 13 bc f9 67 b0 3d 77 1f 60 3c
       0.034705628 -0.008999607 0.08613581 0.013679377
000280 9d 65 98 3d 25 94 d3 bd 78 05 27 3d b4 58 9b 3d
       0.07441256 -0.10330991 0.0407767 0.07585278
000290 e0 94 ae 3d 4b 26 0f bc f7 33 de 3b 98 f6 04 3e
       0.085244894 -0.008737157 0.006781097 0.12984693
0002a0 5a cc 92 bd 58 17 c5 b9 2b 6f cc 3b 44 0a 2a bc
       -0.07167883 -0.0003759216 0.006238838 -0.010378424
0002b0 0a a4 f9 3d 15 7e ed 3d a2 ba c5 3d cf 97 85 3d
       0.12189491 0.11596314 0.09654738 0.06523096
0002c0 88 cf 29 3d 26 84 3f 3d 19 04 85 3d a2 f2 0d 3d
       0.041457683 0.046756886 0.06494922 0.03465522
0002d0 db 11 09 bd e9 aa be 3b b5 ce 02 bc b2 58 b3 bd
       -0.033464294 0.005818714 -0.007983853 -0.08757152
0002e0 f6 2b 3c 3d 91 a6 ea 3d 78 a5 2f 3d 96 6c ba 3c
       0.045940362 0.11457551 0.042882413 0.022756856
0002f0 86 67 0f bc 29 99 c6 bd c9 9f 07 be b9 cd b2 bd
       -0.008752709 -0.09697182 -0.13244547 -0.08730645
000300 bd b8 96 bd 3c 83 b1 bd 6f ff 61 3d 16 bc 16 3e
       -0.07359455 -0.08667609 0.05517524 0.14720187
000310 a8 91 34 bc 8f 83 de 3d 91 74 8f 3d ff 26 f7 3d
       -0.011021055 0.108649366 0.07004655 0.12067985
000320 46 ee 09 3d aa 5b ac 3d ce fa d3 3d 60 d6 28 bd
       0.0336745 0.08415921 0.103505716 -0.04122007
000330 43 e5 78 3d 69 c7 a0 3d 52 b2 62 ba 55 00 7c bd
       0.060765516 0.078505345 -0.00086477876 -0.061523754
000340 0d aa 03 3d e2 9e fb bc 5c 1c 6f bd 10 77 ca 3b
       0.032144595 -0.03071541 -0.058376655 0.006178744
000350 f9 d1 f9 3c c4 4e 28 bd cf 5e 86 bd 01 af 84 bd
       0.03049563 -0.04109074 -0.06561052 -0.06478692
000360 ea df 7a bd db c9 d7 3d 0a 38 5a 3d e6 c9 72 bd
       -0.061248697 0.10536548 0.0532761 -0.059274577
000370 d4 ee f9 3d 59 e9 99 3d b7 07 a9 3c 4b 85 29 bc
       0.12203756 0.07515211 0.020633562 -0.010346721
000380 3b db 8f bd 42 c8 bf bc 25 1a 7b 3d 62 3a 8b bd
       -0.07024237 -0.02341092 0.06130423 -0.06798245
000390 2b 0e f1 3c e0 a4 ad 3d 7f a9 7c bd 7d d2 26 3d
       0.029425701 0.08478713 -0.06168508 0.04072808
0003a0 cf c1 69 3d 3c cb e7 3d ab 07 22 bd 57 3f 1d bd
       0.057069596 0.11318061 -0.039558094 -0.038390484
0003b0 7c d6 7e 3d 90 3e 8d 3d af a9 28 3e 87 5b b3 3d
       0.062216267 0.068966985 0.16470979 0.08757692
0003c0 c2 66 05 3e eb 2d 0a 3e 62 bb bb bc b6 71 47 3d
       0.1302748 0.13494079 -0.0229165 0.048692428
0003d0 24 86 c3 3d 06 d0 de bc 0d e0 c0 bc 87 3d 18 3d
       0.0954707 -0.027198803 -0.023544336 0.037168052
0003e0 81 9f f6 3c 75 99 09 3d 8e 08 70 bd bf ee 82 bd
       0.030105354 0.033593614 -0.05860191 -0.063931935
0003f0 c9 fd 37 3d 19 d8 12 bd 8c c4 30 3d 2a 61 01 3d
       0.044919763 -0.035850618 0.04315619 0.031586803
