Cheyi Wu/FinalProject/Garch/GRU-Garch/META/gru_garch_model.pth (torch, 159448 bytes, 9 tensors)

gru.weight_ih_l0 f4 [192, 7]
00000000: 792a 033e 9539 0d3e 7390 1e3c 117a c53c
00000010: 8e13 c7bd 7273 523b 2aa7 edbc b731 993d
00000020: a8e4 0f3e e21f 92bd aaf2 b03d 1ea8 b63c
00000030: 061c 003e 6326 883d 0c37 943d dab6 dbbc
00000040: c580 cc3d 86b3 cbbc 12c8 08be e4bb 513d
00000050: c2ff 8bbd 9368 eabb f139 7cbd 6614 9c3d
00000060: 7ff1 9fbd 2e96 1abd cdcd 383b 0b04 babd
00000070: 4acc 64bb f6be 7abe 5f18 0c3d e21f 23be
00000080: b1f7 4d3e 00d2 303d 390c 72be 05ba 7b3c
00000090: 902b 19bc 8af7 553d 519d 903e ce3c 1cbe
000000a0: 287e c5bd d162 2cbd f41e c23d 05ac e93d
000000b0: 2b53 a93d dfec 21bd 586d 9b3d e4d2 6b3d
000000c0: 3b30 483d 0a75 dbbd 71ca 24be 286e b0bd
000000d0: 0ef2 c2bd 7581 903d a1ad 4fbe c084 a33c
000000e0: 0554 863d be13 333c 34bb e43d 74c7 b9bd
000000f0: 7e7f 223d 577e 1dbd e69d 5c3d dc3a f2bc
00000100: 2747 d23c b3b5 cabc 0ce0 293d dbca cabd
00000110: 11ad bdbd 3ed6 bcbd c5f5 c53d a851 ac3a
00000120: e222 af3d 1b92 cfbd e464 39be 985f 22be
00000130: 45a9 06be 95fb 9d3c aa0e 81bc bad8 7d3d
00000140: d33c 0b3c 4781 c7bd c336 75bd 541e d8bd
00000150: 0405 be3c 9a73 b2bd c3c0 243c b808 0dbe
00000160: 4c01 a5bd ee5a 12bd 67ae e5bc 703c 21bd
00000170: c057 723d b802 863d c4bd 68bd b3f7 1ebe
00000180: e868 013e c015 c5bd 7f16 a1bc 3ae0 0ebe
00000190: 731a a7bd d665 833d 653e cbbd 4f1f 39be
000001a0: 8e26 18bd 7e47 c7bd 9842 19be b68e d5bd
000001b0: fb88 b7bd 6038 debc 88ac ff3d 1070 efbc
000001c0: 5577 093d fbb5 61bd b11d 00be 80cd 603c
000001d0: f0f4 6dbe 5945 19be e45c b1bc 99d6 efbd
000001e0: c9e3 66bd ff4d d5bd e422 1f3c 7471 d3bd
000001f0: 006d d8bd d994 0bbe 27d4 67bd 37df e7bd
00000200: cc1b be3d 980b 903d 3bad 443e c179 103e
00000210: 22b7 f3bd 0bd4 ae3d 2435 f6bd d30a c3bd
00000220: 4e6c 243d ad7b 30be 3b0c 16be 0056 25be
00000230: 8422 5a3d b5c9 c7bd 9e8f c83d ce06 f4bd
00000240: 6d26 98bc 7a35 993d 8ba3 863d 1429 c43d
00000250: e5ef 853d 85ce 0ebe babd 48bd 82c9 efbd
00000260: 877a f6bd 4878 2bbe 31bf 093e 226b 60bd
00000270: d375 b63d a7d0 99bc a018 b73d 453a d43c
00000280: 85df 1c3e 497a b53d ca78 ab3d 9056 0abd
00000290: 9148 0fbd c813 f7bc edb3 a2bd f6b1 493e
000002a0: 3c84 513d 53c2 143d c781 85bc 0f32 a5bd
000002b0: 9f8e 8e3c a122 483e 224d 833d d1d9 77bd
000002c0: 6830 fabd 3a10 953c f9cd 8f3d edae d9bd
000002d0: 9ca3 173d 575f 173d ae5f b53d 3ee9 053c
000002e0: 717c e83d f07f d2bc 7d4a a6bc 7d6f 223d
000002f0: 5586 353c d583 793d 3ba9 25bc 8f9d 96bc
00000300: aa19 33bd f831 f23d 744a d0bc 3dab e1bc
00000310: 1503 a43c fa3d 2abd a708 a6bc d086 b63d
00000320: 27d5 8abe 5c7b 80be 9f05 33bb 0657 133d
00000330: d659 65bd c87a edbd 3b5c d9bd 4925 c3bd
00000340: 29fd f4bb c169 d3bc 4aa9 e33d 41ef c13d
00000350: f9aa 92bd 228f 0d3e f0c4 9e3d d20e 453e
00000360: c710 7a3d 5827 92bd f8d0 04bb dd78 d0bd
00000370: 5ceb 09be ae17 c63d aeec 66bd 1623 b5bd
00000380: 1e6f 0dbe b5c8 393d 5460 5f3d e17a 433e
00000390: 8d4a 33be affd 59be 2db8 1fbe 11da 9d3d
000003a0: 6bf4 d23c 042f 983d 1936 7b3e a027 87bd
000003b0: 5014 0ebe 7ddb 07be fb90 923c 3959 81bc
000003c0: 2b51 3c3e 721a 7cbe c22a 17be 0152 b53c
000003d0: 678b a43d 7c34 a1bd 4d65 f1bd 800d 343c
000003e0: 7191 41bd eb9c 023e 181c 723c f7fd 20be
000003f0: 322d 1dbc 87fc b4bd 1c5d 66bd 2451 c43d
0.12809171 0.13791497 0.009677994 0.024106057 -0.09720527 0.0032112268 -0.029010374 0.074801855
0.14052069 -0.071349874 0.086400345 0.022296961 0.1251069 0.06647947 0.07237062 -0.026820589
0.09985498 -0.024865877 -0.13357571 0.051204577 -0.06835891 -0.0071535795 -0.061578695 0.07621078
-0.078097336 -0.03774088 0.0028198839 -0.090828024 -0.0034911805 -0.24486908 0.03420293 -0.15930131
0.20114018 0.04316902 -0.23637475 0.015364175 -0.009348765 0.052238025 0.28245023 -0.1525757
-0.09643203 -0.042086426 0.0947856 0.11409763 0.08267816 -0.03953254 0.07589215 0.057574168
0.04887412 -0.10715683 -0.1609285 -0.08614761 -0.095188245 0.07055942 -0.20281078 0.019960761
0.06558994 0.01093 0.11168519 -0.09071246 0.039672367 -0.038450565 0.05386152 -0.029569082
0.025668694 -0.024744844 0.041473433 -0.09901973 -0.092615254 -0.09220551 0.096660174 0.0013146894
0.08551575 -0.10135289 -0.18104893 -0.15856779 -0.13150509 0.019285003 -0.015754063 0.061974265
0.008498388 -0.097414546 -0.059866678 -0.1055266 0.023195751 -0.087134555 0.010055724 -0.13772857
-0.08056888 -0.03573125 -0.028037263 -0.03936428 0.059165716 0.06543487 -0.0568216 -0.15524177
0.12637675 -0.09623289 -0.019664047 -0.13952723 -0.08159342 0.06415908 -0.0992401 -0.1807835
-0.037146144 -0.09730433 -0.1496681 -0.104276106 -0.08961674 -0.027126491 0.124840796 -0.02922824
0.03356107 -0.05510519 -0.12511326 0.01372087 -0.23237967 -0.1496786 -0.021650739 -0.11710853
-0.056369577 -0.10415267 0.009712908 -0.10324374 -0.10567665 -0.13631 -0.05659881 -0.11321872
0.092826456 0.07033461 0.19206707 0.14108945 -0.11900164 0.08536538 -0.120218545 -0.09523549
0.04014235 -0.17234679 -0.14653103 -0.16146088 0.053255573 -0.097552694 0.09793018 -0.119153604
-0.01857301 0.07480903 0.06574162 0.095781475 0.06539897 -0.13945968 -0.049009062 -0.117083564
-0.12035089 -0.16745102 0.1345184 -0.05478967 0.08909192 -0.018776251 0.08940244 0.025906691
0.15319641 0.08861215 0.08372648 -0.03377396 -0.034981314 -0.0301608 -0.07944474 0.19696793
0.0511515 0.036318135 -0.016297234 -0.080661885 0.017401991 0.1954446 0.06411196 -0.06051046
-0.12216264 0.018196214 0.07021708 -0.106290676 0.037021264 0.036956158 0.0885614 0.008173285
0.1135186 -0.025695771 -0.02029919 0.039657105 0.0110793905 0.06091674 -0.0101111485 -0.018385677
-0.043725647 0.11825937 -0.025426127 -0.027547473 0.020021 -0.04156301 -0.020267798 0.08912432
-0.27115747 -0.25094116 -0.0027316583 0.035971664 -0.055993877 -0.11595684 -0.10613295 -0.09528596
-0.007476468 -0.025807263 0.11116274 0.09469462 -0.07161517 0.13824132 0.077524066 0.19243935
0.061051156 -0.071364105 -0.0020266157 -0.10179303 -0.13468689 0.09672485 -0.05637806 -0.08844583
-0.13811919 0.045357425 0.054535225 0.19089843 -0.17508908 -0.21288179 -0.15597601 0.077076085
0.025751313 0.074308425 0.24532355 -0.06599355 -0.13874936 -0.13267322 0.017891398 -0.015789615
0.18390338 -0.24619463 -0.14762405 0.02213383 0.080344014 -0.07871339 -0.117869 0.010989547
-0.047257844 0.12755172 0.014777206 -0.1572188 -0.009593295 -0.08837228 -0.05624114 0.09585789

gru.weight_hh_l0 f4 [192, 64]
00000000: 0ec1 a7bc db8b 8abd 5755 e1bd c57c 6e3d
00000010: a684 e1bd 567f 0cbc 963c d1bb 9dbd 49bd
00000020: b1c2 b43d e8b9 cc3d 9020 ec3d 72b1 99bb
00000030: 38dd f9bd 3f72 b23d 4cc0 f83b 2470 54bd
00000040: 8112 afbd 1890 79bd 571c 31be 74e7 e93c
00000050: c72d fc3c 22fc 28be 0d8f 59bd 865d 99bd
00000060: 714d 363e f37e f63d 78d8 37bb abc4 1c3e
00000070: 60c9 1dbd a0cd bebd 7611 693d b787 8a3d
00000080: 9884 a63d 5b06 063d 4ef5 d13d 62f8 5d3d
00000090: 88eb dcbb c0ac 97bd 5be6 fb3c 3bfc e0bd
000000a0: 9c15 d03d fdaf 60bb 76fa 91bd 8919 493d
000000b0: f588 66bc 47b8 d9bd 2cf5 c0bd d81c 873d
000000c0: 18be 293e 820c 7fbd bc04 463d 9211 803c
000000d0: 99b3 8c3d 4d2b 9c3c 7fb8 a6bc b245 03be
000000e0: e2fe 70bd e036 1abe e050 fbbd 4a89 a33d
000000f0: 6415 12be 071d 0bbe c486 143d ccea cabb
00000100: 5d6b 8fbd 9cdd 0b3c 63c9 11bd ba5c 453d
00000110: bf45 993c 72f1 93bd 198d 37bd 3483 2dbd
00000120: 1cd7 97bd 653d d03c e648 5bbb 969e 593d
00000130: 20e2 4c3d 9694 a03d 97f9 d2bc a79b d6bd
00000140: 5f9f 953d d09d 12be 3393 cfbc 3ac7 3abd
00000150: 855e 31bd 2e04 70bd 7c87 d63d af13 a33d
00000160: b93f e23d fa71 e23d f7f9 f5bd c783 ad3c
00000170: 22ad e83d 4650 a63d 8ee7 0ebe 5d10 5b3d
00000180: 4de0 a7bd fca1 4ebb 7eb7 2ebd 43c3 ecbd
00000190: 392f 22be 0044 91bd 3d72 9b3d baa1 7b3d
000001a0: dbf6 fcbd 6545 dabc 2605 e03c c625 c2bd
000001b0: 9365 993d 9650 013e 3ec9 b93c 2b8e 7fbd
000001c0: 19cc 583d 6012 5f3d 7472 b83d 8945 4dbd
000001d0: 3d93 b8bd d66a 563d 7253 633d 41bb 1cbd
000001e0: b31a 7fbd 8b17 e1bd c7e9 b63d 77ee 193d
000001f0: 37a1 993d 99d6 8d3d 8601 743d 8cd1 1d3c
00000200: 8f61 14bd fce7 b93d 58dc 79be 9e5d 8c3d
00000210: ff69 8bbd 3962 df3d 8b2a 293d b87a 73bb
00000220: 59fa 0ebc e6ea 183e 527f d0bd 386e d2bd
00000230: 2efd 273c 4c22 69bd d81a 473d 4cf8 d43d
00000240: 7791 ae3b ef4a c63c c7bd 61bd 8895 91bd
00000250: 07ed 82bd fe30 e9bd aa1d 9abd 6773 d2bd
00000260: 5d2a 3bbc e687 da3b 4aa9 e13d c90f f33d
00000270: ea3d e33d 42dc 0bbd d964 a33d c72f dbbd
00000280: c53d 133d d3bb 02be 1e6d 7f3d 83ef 393d
00000290: 4385 8bbc 8309 363d 08fe afbd 06ed f13d
000002a0: e246 2c3c 832f f73d e768 933d c518 ec3d
000002b0: 582f 8b3d 5e43 023d fc48 b63d 28da 60bc
000002c0: 7896 8a3d f5a1 12bc 4f51 bf3d 5614 e93d
000002d0: e1b7 853d 42c0 5ebd 3df5 083d 98e5 e23c
000002e0: 374d 60bd a897 b1bd 49ac 9e3d 2745 ce3d
000002f0: 02a3 98bc 3cad 39bd 09c9 043d 8d7b 82bd
00000300: d531 5e3d 1ec9 23bd 2c7a 9dbd ff2e 20bd
00000310: 0385 8e3a 947a 163e b1a8 9c3c 40e3 023e
00000320: 0e11 0f3d 1262 ce3c 747e 6d3d 6b97 323d
00000330: 3d59 16be cc71 f8bd 9e09 a7bd 4242 b7bb
00000340: c5e1 7d3c 1d93 083d 98c3 9f3d efd0 cb3c
00000350: b10a 28bd a5f9 a5bd 31cf a4bd 3037 43bd
00000360: a94d da3d 0b6f 8d3d 22e8 f73d fd41 0dbd
00000370: 5ef6 043d 8e75 09bd 95a6 dcbc cb2d 793d
00000380: 26d6 4e3c 8064 c73b 3314 1bbc 5974 d63c
00000390: 2d35 bcbc 2d76 0fbd 6731 6bbd e290 6e3d
000003a0: fdb3 59bd cc14 843d c861 cfbd 4c9a 153d
000003b0: 8958 0fbd 510b 6b3c a1f8 28be 3650 323d
000003c0: 9c8d 2ebc 11e4 c93d 5683 adbc 19fe c13c
000003d0: 3ba7 a43d 0d1e b53d 2137 9dbd 3021 ce3d
000003e0: 0097 313d b90f a0bd 80d2 4e3d 3021 67be
000003f0: 6981 74bd ca80 27bd fe33 90bd 74bc ca3d
-0.020477798 -0.067649566 -0.110026054 0.05822446 -0.11011629 -0.008575281 -0.0063853962 -0.049253095
0.08826197 0.09996396 0.11529648 -0.0046903426 -0.12200397 0.08713197 0.007591283 -0.051864758
-0.08548451 -0.060928434 -0.17295967 0.028552748 0.030783547 -0.16502431 -0.05311494 -0.07488541
0.17802979 0.120359324 -0.002805261 0.15309398 -0.038522124 -0.093165636 0.056901418 0.06764167
0.08130759 0.032720905 0.10251866 0.054191954 -0.0067419447 -0.07405996 0.03074949 -0.10985609
0.10160372 -0.0034284585 -0.0712785 0.049096618 -0.014070739 -0.10630851 -0.09421763 0.065972984
0.16576421 -0.062267788 0.04834436 0.015633378 0.06870193 0.019063616 -0.020351646 -0.12819555
-0.058836825 -0.15059996 -0.12271285 0.0798517 -0.14265972 -0.13585292 0.036261335 -0.0061925407
-0.070029 0.0085367225 -0.035592448 0.048184134 0.018710015 -0.072237864 -0.044812296 -0.042361453
-0.07414076 0.0254199 -0.00334602 0.053129755 0.050020337 0.078408405 -0.02575378 -0.10478907
0.07305788 -0.14318013 -0.025338745 -0.045600154 -0.04330303 -0.058597736 0.1047506 0.07962739
0.110473104 0.110568956 -0.12010568 0.021181 0.113611475 0.0812078 -0.13955519 0.053482402
-0.08197079 -0.0031529656 -0.04265546 -0.11560681 -0.15838327 -0.07093048 0.075901486 0.06143353
-0.123517714 -0.026644418 0.027346205 -0.09479861 0.07490077 0.12628397 0.022678968 -0.06239144
0.052929018 0.054460883 0.09006205 -0.050115142 -0.090124585 0.05234798 0.0554995 -0.038264517
-0.06228132 -0.109908186 0.08931308 0.037580933 0.075014524 0.06925697 0.059571765 0.009632479
-0.03622585 0.09077451 -0.2440046 0.068537936 -0.068073265 0.10907406 0.041300338 -0.0037152003
-0.00872668 0.14933357 -0.101805344 -0.10274929 0.010253234 -0.056917474 0.048609585 0.10398921
0.0053273994 0.024205653 -0.055112626 -0.07108599 -0.06392866 -0.11386298 -0.07525189 -0.102759175
-0.011423674 0.0066690324 0.110186175 0.11868245 0.110957935 -0.0341456 0.079782195 -0.10702472
0.03594758 -0.12766962 0.06235992 0.04539443 -0.017031318 0.044442665 -0.085933745 0.11812787
0.010514947 0.12069609 0.07197743 0.11528162 0.067961395 0.031802528 0.089006394 -0.0137238875
0.06766981 -0.008949746 0.0934168 0.11380832 0.06529213 -0.05438257 0.033437002 0.02769737
-0.054761138 -0.08671504 0.077477045 0.100717835 -0.018632416 -0.045331225 0.032418285 -0.06371222
0.054246742 -0.039986722 -0.07689318 -0.03910732 0.0010873381 0.14695197 0.019123407 0.12782001
0.034928374 0.025193248 0.057981923 0.043601435 -0.14682479 -0.1213108 -0.08156131 -0.0055926153
0.015495722 0.033343423 0.078009784 0.0248799 -0.04102582 -0.081042565 -0.08047331 -0.047660053
0.10659344 0.069059454 0.12104823 -0.03448676 0.032461517 -0.033559375 -0.026934901 0.060834687
0.012624299 0.0060849786 -0.009465265 0.026178526 -0.022974575 -0.03502481 -0.05742016 0.05824364
-0.053150166 0.06449279 -0.10126072 0.036524102 -0.034996543 0.01434596 -0.16501094 0.043533526
-0.0106538795 0.09857953 -0.02118079 0.023680734 0.08039709 0.08843622 -0.07676531 0.10064924
0.043356895 -0.07815499 0.050493717 -0.22571254 -0.059693728 -0.040894307 -0.07041167 0.09899226

gru.bias_ih_l0 f4 [192]
00000000: ec6c b5bd 5fb2 0fbe 60e4 b13a 37e3 a43c
00000010: fd03 88bd e5f4 303e 119f 4d3d de73 ff3b
00000020: 5256 57bc d189 7f3d dc3f debd f07d 843c
00000030: a66b 4c3d b728 19be 20d7 b0bd fcfc acbd
00000040: 2294 b9bd 9d0b f43d 4d46 1dbd c324 eb3b
00000050: f3e1 b5bd 6269 22bd 93fb 103d 3301 043d
00000060: 2b60 00be 06df 00be 3a22 293d c543 97bd
00000070: e37a 4a3d 5f8b e3bd 6fbf 0b3d e9f0 0abe
00000080: b052 073e 7f37 a53c eccd 10be f0ee ebbc
00000090: 74f4 b5bc ac3b cfbd 9a68 b5bd a7d6 da3d
000000a0: f69e 473d 06a7 0cbe 5db6 583d d032 3b3d
000000b0: 1935 783d a2f7 003e f818 073e 5a67 f13d
000000c0: 52c0 3fbd f3f2 3dbc beb3 5c3d 805c 1dbe
000000d0: d4ed e0bd 5c2c 8e3d df33 be3c 8a5f 053d
000000e0: 353c 333d 745e db3d 8d17 413b d18e b03c
000000f0: 1d9a 3bbd 408a 6fbc 040d af3d ca15 e73c
00000100: f082 7b3d b5f4 d5ba e995 3fbe 5a24 0d3e
00000110: b110 05be bc38 cdbd 27cc 0fbf dc95 583d
00000120: 0b18 cfbd cec5 1cbd c625 96be d055 f1be
00000130: 7ab4 b63d 10e2 25bf 0095 41be 7d32 59be
00000140: fecc 373d 223c 6639 8ad2 023d b9ac aabd
00000150: 8142 2c3e fd41 e2be 05d9 07be 7d15 cb3d
00000160: a4db 8fbe bf93 ee3d bcce 223e 391b 58be
00000170: f0bb 7dbe ff00 12bd 05cc 5c3e 37d8 403d
00000180: 58d2 35bd e267 5fbd 77ad 86bd 9e3f 1dbf
00000190: 2e3f dcbd 61ab dbbd 0e60 403d 1aa3 f4bb
000001a0: dc07 273d 325e 8f3d 63c5 8cbb 414d e2bd
000001b0: 86b0 e3be 67f4 38be da45 9a3c 1658 11bf
000001c0: 2b8f 4f3d edb9 32bd e701 91be 20f8 28bf
000001d0: 4257 15be a45e 81bd 3c0f a0bd 9cfb b5be
000001e0: df6f eabe 0b82 e7bd 6610 023e cd85 3ebd
000001f0: b5dc 5b3b 50df 8cbd 7adc 96bd 967c 34be
00000200: 8633 84bc b40e 153d f42d 123a f83b debc
00000210: 6445 35bd 3ca3 46bd 0548 85bd 5a87 083e
00000220: 98af e4bc 1cb4 2abd b89b 40bc 0fa0 853c
00000230: 7855 713d 18fe 2fbb 9ea0 d43b ec01 aa3c
00000240: b640 07bd fca5 e23c dc33 aa3c e4b4 3f3d
00000250: 2e17 773d 01eb 803d 1caf f03c d469 d9bc
00000260: f0dd 74bd c43e 0c3d 89a9 fdbc 80d8 bfbc
00000270: 71b4 0c3d d35e 513d e74c a2bb 7e7b 22bb
00000280: 392a 9f3c 0fa2 92bc 7b93 b23d a909 27bd
00000290: f28f df3d 19b8 26bc eb5b c03d e938 debc
000002a0: 513b 1f3d 29c9 34bd 4c74 e0bd 75d9 ad3c
000002b0: 28b1 4d3c 1258 d43d f4cd fc3c ac3f 87bd
000002c0: 46f3 b1bd 5d61 453d e9e4 e5bc ecb1 46bd
000002d0: 11be b1bd 6a3a d3bc 5018 e2bc e8ef 9cbd
000002e0: 992a bc3d bed3 8c3d 3a15 043d b35b e1bd
000002f0: f417 943c aa8c c43d 2b39 50bd 0af7 773d
-0.08858666 -0.14032887 0.0013572089 0.020127876 -0.06641386 0.1728092 0.050200526 0.007795795
-0.013143139 0.06238729 -0.10852024 0.016173333 0.04990735 -0.14956938 -0.08634782 -0.084466904
-0.09061457 0.119162776 -0.038397122 0.007176013 -0.08880987 -0.039651282 0.03539617 0.032227706
-0.12536685 -0.12585077 0.041292407 -0.07385973 0.0494336 -0.11110567 0.034118112 -0.13568462
0.13215137 0.020168064 -0.14141053 -0.028800458 -0.02221129 -0.101188034 -0.08857842 0.10685473
0.04873558 -0.1373559 0.05290829 0.045702755 0.060597513 0.12594464 0.13193119 0.11787291
-0.04681427 -0.011593568 0.053882353 -0.15367317 -0.10982862 0.06942055 0.023218093 0.032561816
0.04375859 0.10711375 0.00294635 0.021552475 -0.04580127 -0.014620364 0.085474044 0.028208632
0.06140417 -0.0016323539 -0.1870953 0.13783398 -0.12994649 -0.10020587 -0.56170887 0.052877292
-0.10112008 -0.03827458 -0.29325694 -0.47135782 0.08921142 -0.6479807 -0.18904495 -0.21210666
0.04487323 0.0002195691 0.031939067 -0.083337255 0.16822244 -0.4419097 -0.1326638 0.09916208
-0.2809726 0.11649274 0.15899175 -0.21104135 -0.24778724 -0.03564548 0.21562202 0.0470812
-0.044390053 -0.05454243 -0.065760545 -0.614252 -0.10754238 -0.10726047 0.046966605 -0.0074657323
0.04077898 0.07000388 -0.0042959913 -0.11049891 -0.44470614 -0.18061982 0.018832136 -0.56775033
0.050673645 -0.043634344 -0.28321764 -0.6600361 -0.14584067 -0.063168794 -0.07815406 -0.35543525
-0.45788476 -0.113041006 0.12701568 -0.04651432 0.00335483 -0.06878531 -0.07366271 -0.17625651
-0.01613785 0.036390975 0.00055763056 -0.027128205 -0.04425563 -0.048495516 -0.06507877 0.13332883
-0.02791576 -0.041675672 -0.011755876 0.016311673 0.0589194 -0.0026854333 0.0064888736 0.02075287
-0.033020698 0.027667038 0.020776682 0.04680337 0.06032484 0.062948234 0.029380374 -0.02653972
-0.05978197 0.034239545 -0.03096463 -0.023418665 0.03435177 0.051115822 -0.004953015 -0.0024792845
0.019429313 -0.017899541 0.08719536 -0.040780697 0.10916127 -0.010175728 0.09392532 -0.027126746
0.038874928 -0.044137154 -0.10959682 0.021221856 0.012554444 0.103683606 0.030859925 -0.06603941
-0.08688979 0.048188556 -0.028063254 -0.048509523 -0.086788304 -0.02578469 -0.027599484 -0.07662946
0.09187812 0.06876324 0.032246806 -0.11003818 0.018077828 0.09597142 -0.05083577 0.06053833

gru.bias_hh_l0 f4 [192]
00000000: df1c a1bd 2d4d a8bd 5c67 15be 0706 efbd
00000010: 2dd3 d63d b05f f6bc 037d 8ebd f1db e73c
00000020: 66ef c4bd 9e9e f2bd 3a3e edbd 4eae da3d
00000030: 3453 873c 2137 eebd 7996 febc 98d3 2c3d
00000040: 703b 86bd 4144 7e3d 436e c7bd 94a3 72bd
00000050: 63db 98bb 220a 893c 70db af3d 72bf 2e3a
00000060: 5f1b 4438 e2f1 2fbd 0cdb c6bd a56a ee3d
00000070: 0235 ccbc 37b1 5f3c d8e6 eebd 98cf 22be
00000080: cf75 913d d3b9 2e3d e5c9 afbd 5a73 fe3c
00000090: e19c f4bd 5bac e93b a6ee 033e d339 f63d
000000a0: 90a4 a5bd aa10 c6bb f47c 2d3e 0982 6f3d
000000b0: 6a34 ed3b 231c afbd 8230 b73d fbe1 423d
000000c0: bc35 14bd 346f a23d 8422 b3bd fcd3 7e3d
000000d0: 659b a13b ac2c ac3d a354 cebd c9a9 a5bd
000000e0: a481 623d 3605 ff3d 7ebd de3d 7907 b13d
000000f0: 5b92 ecbd aef8 35bd 7e89 0abe e33c 8ebd
00000100: 4aa0 603e 1c2e c9bd a789 35be 36e2 003e
00000110: 18e3 bf3d 261a acbd 5acb 0abf a2d7 b73d
00000120: 429b 1ebc 45ed 10be 8c21 84be 0bcf dcbe
00000130: 21c8 b43c 1a99 36bf ad8b 97be 6cd8 cbbd
00000140: 502c 51bd a3c8 0d3e ead5 fd3d f798 ebbd
00000150: 30ab 153e f52a cfbe 6df1 30be f6fa 6fbd
00000160: 064a 8cbe c6a7 ed3d 0197 a33d e53f a8bd
00000170: f0cb 9cbd 2055 25be e0f1 323e cf4a d0bd
00000180: 42a4 e0bd a918 c33c a999 18be e57a 1ebf
00000190: 5f4e 59be 726d 41bd 5a62 d8bd 280f d93d
000001a0: 2363 febd 5876 903d df69 eb3c c05c 3ebc
000001b0: ee8b efbe 5622 85be b753 113e 10bb 0abf
000001c0: a3f2 dfbd 1489 4ebd 8a71 33be b7fa febe
000001d0: d03b 673d b03f 54be 95f6 0ebe a825 91be
000001e0: 4af1 d4be 5ec9 3abd 6f27 cd3d 46bf 553c
000001f0: 1ba7 123d fdf4 ad3d ba34 28be 02fb eabd
00000200: 24f7 703d e37e b3bd 78da 753d 048d 413d
00000210: 4c49 fbbc d648 0d3e 1c5b e03d 4a95 24bd
00000220: 6b6f 1b3d fd63 45bd b138 13bd 76c8 99bc
00000230: 617f dabd 5134 9f3c 608c 113c 2d71 49bc
00000240: cc82 973d 725e ea3d fb63 383d aec6 09bc
00000250: 9dd5 873d 05c3 37bd b3df 0f3c a120 29bd
00000260: def1 5cbd 1b50 f4bc 34cd 213e 6c1f 313d
00000270: cd70 aabd 684b 38bd 4586 253d beb1 9fbd
00000280: 66e4 39bc c4ca 8d3c 0806 97bd 4cbc 093e
00000290: 4fd7 073d 6944 3bbd e0be 1bbe 2fbe 2d3d
000002a0: aa65 bc3c 9044 6a3d bef6 1dbd 999a f6bc
000002b0: a01d 82bc 853f f1bd 439a f1bd d2e9 cfbc
000002c0: ac8e d63d e56f a1bd af70 ba3d eb63 9dbb
000002d0: a199 b13d 33a0 e63c b3fd 35bd a937 823d
000002e0: 25f7 363d 85d6 5cbd 334b 9bbc b6f1 b4bb
000002f0: 9984 043d d1e0 f23d 60b5 e1bd c283 b13d
-0.07866835 -0.08217845 -0.1459021 -0.116710715 0.10489497 -0.030074924 -0.06957438 0.028303118
-0.09615974 -0.1184666 -0.115841344 0.10677777 0.016519167 -0.11631609 -0.03107761 0.04219398
-0.065543056 0.06207681 -0.09737828 -0.05923803 -0.004664825 0.016728465 0.08586776 0.0006666101
4.6755533e-05 -0.042955287 -0.097097486 0.116414346 -0.02492762 0.013653091 -0.11665124 -0.15899503
0.07102548 0.042657685 -0.0858343 0.031060863 -0.11943985 0.007131142 0.12884006 0.12022748
-0.080880284 -0.006044467 0.16942197 0.05847362 0.0072389143 -0.085502885 0.08944799 0.047578793
-0.036184058 0.079313666 -0.08746818 0.062213883 0.0049318545 0.08406958 -0.10074737 -0.080890246
0.055299416 0.12452166 0.108759865 0.086440034 -0.115513526 -0.044426613 -0.13529012 -0.06945207
0.21936145 -0.09823248 -0.17728291 0.12586293 0.093694866 -0.08403425 -0.5421654 0.089766756
-0.009680571 -0.14153011 -0.25806844 -0.4312671 0.022068085 -0.71327364 -0.29598752 -0.099533886
-0.05106765 0.13846068 0.123943165 -0.11503785 0.14616084 -0.4046246 -0.17279597 -0.058588944
-0.27400225 0.11604266 0.07987786 -0.08215312 -0.076560855 -0.16145754 0.1747508 -0.101705186
-0.1096883 0.02381547 -0.14902367 -0.6190627 -0.21221302 -0.047223516 -0.10565634 0.10598594
-0.124212526 0.07053822 0.028737007 -0.011618793 -0.46786445 -0.2600276 0.14192091 -0.54191685
-0.10934951 -0.050423697 -0.1752378 -0.49800655 0.056453526 -0.2072742 -0.13961251 -0.28349042
-0.4159034 -0.045602195 0.10017287 0.013046091 0.035803895 0.084939934 -0.16426364 -0.11473657
0.05882944 -0.08764436 0.0600228 0.047253624 -0.0306746 0.13797316 0.10954878 -0.040181436
0.037948053 -0.04819106 -0.035942737 -0.018772345 -0.10668827 0.019434126 0.008883566 -0.01229505
0.073979944 0.11443795 0.045017224 -0.008409185 0.066325404 -0.04486372 0.008781361 -0.041290883
-0.0539416 -0.029823354 0.15800935 0.043242857 -0.08322296 -0.044993788 0.040411253 -0.077975735
-0.011345958 0.0173086 -0.07374197 0.13450736 0.03316432 -0.045719538 -0.15209532 0.0424177
0.022997696 0.057194293 -0.03856539 -0.030103015 -0.015883267 -0.117796935 -0.11797001 -0.025380049
0.10476431 -0.0788267 0.09103524 -0.004803171 0.086718805 0.02815256 -0.0444314 0.063582726
0.04466929 -0.05391552 -0.018956756 -0.0055219783 0.032353017 0.118592866 -0.11020923 0.08667709

gru.weight_ih_l1 f4 [192, 64]
00000000: 5116 9d3c ba8b dbbd 232d ca3d 32b4 a83d
00000010: b061 cbbd 213b c33d c375 4bbd 7362 30bb
00000020: 8869 f238 df0d 8dbd 7067 22be 5043 77bc
00000030: 57b0 3abe 2d3e f8bd e48c 1d3d c542 87bd
00000040: 2228 db3d 2df8 58bc cce6 cdbd 6acd 19bd
00000050: 5560 54be b3f1 dd3d 4e41 27bd 979e 00bc
00000060: 89f2 483e 2999 d1bc 319b 18be 1ca4 9bbd
00000070: 659c ee3c caa9 c93d d528 c13d c4e2 15bd
00000080: c0d7 fb3c 2a5f 5d3d 4177 78bd d364 7b3c
00000090: 89d4 1cbd c14a b33d 6025 223e 4594 a2bc
000000a0: f26c 0cbe 141d c53d 3384 183e 2ce4 10be
000000b0: 755f 2f3d d9f6 febd a97f 163e 074d bcbc
000000c0: 4e3a 163e 95b7 663d 36cd b2bd 591f 56bc
000000d0: a282 a9bd 7dff 9cbd 55ee 78bc 8a57 8d3d
000000e0: da88 983d e4c5 1f3c 7af0 fb3d 5469 04bd
000000f0: 929d 79bd 0b30 e13d bccd de3d 9bc6 1bbe
00000100: 5993 ef3c daac bbbd 77e7 32be a83a a8bc
00000110: 9717 6cbc 3ba5 313d 6f73 d0bc d74f 733d
00000120: 0d48 083e 71a2 8d3d 3f31 e2bc 8297 29bd
00000130: 3ea1 763d 2409 033e cb56 66bd 3c32 61bc
00000140: 4384 a4bc 27d8 b9bd dff6 24bc 059b 393d
00000150: 8cf8 9f3d 9c3d 14be ed50 623e f783 6ebc
00000160: 51c8 71bd dba7 cc3d 8b50 c63d 888d 153e
00000170: c34b e2bc 1048 d63d 7625 b13d 3507 adbc
00000180: a8e4 51bd 2cd9 d53d 45bd 3dbd 9a8a b2bd
00000190: 4471 6abe a392 843d 6351 74be 8a96 cb3d
000001a0: d79d 813c 33d6 db3d 7e11 9ebd b937 0d3e
000001b0: 5203 3cbc 2572 d23d a008 dcbd 7d34 2fbc
000001c0: c114 883d 806d b0bd 0b22 373d 4b5a 59bd
000001d0: 184d 223e 61f0 81bd 241a a8ba 3733 2abe
000001e0: 4f0b 353d c03a dcbc 9536 b33c 2683 473d
000001f0: 2952 70bd b083 ccbd d386 023e f43c 3d3e
00000200: 503b 1fbc 802a f1bd 9b9f f3bd 3124 8b3d
00000210: 441e f93d 0b34 83bd 6d7e 983b a1c6 9c3d
00000220: 98f7 1b3e f918 9b3d 22d9 b6bd 16e8 ac3d
00000230: ff0d 343d 2ca9 b7bd e615 02be fad7 9abd
00000240: 1742 ce3d 4012 343e b3a1 803d 4e0a 16be
00000250: 6f50 913d 6dc9 f63c 890f 993d e326 05be
00000260: 6b46 da3d 6ec9 87bb 5637 5e3d 05d2 8dbd
00000270: 8ad6 5abd 0819 94bd 3ba8 4fbc 480c 3f3b
00000280: 026d 26bd 9604 94ba 4a9d 1d3e 9128 5abb
00000290: 9ce6 1fbd 2bfd deba 6bee 85bc 4be2 673c
000002a0: 93ea c7bc 70ed db3d 2960 b7bd 2c12 0dbe
000002b0: 55a5 20bd 8100 85bd ef03 513d e9e6 193e
000002c0: 4cda cc3d f221 753d d983 e3bd 515e 07bd
000002d0: 52e7 5bbd 5ccc 7fbb 70fe 9f3d 78f3 903b
000002e0: 00e0 c03c 1ed2 cd3c 5051 9a3c f581 45bd
000002f0: 1536 aebb 141e 0dbe 657e 7fbd 4811 e83d
00000300: 4743 053e 44e1 5abd f05b a7bd 32e7 f63c
00000310: 5950 26be 148f 00be 1625 913d ff73 243a
00000320: c0dc 333d 3a6e c5bd f213 78bd 354a b4bd
00000330: 18b4 20bd 5347 7bbd 1542 a3bd 1ed1 373e
00000340: 1cef 553d 6cbe 453d 1e5f 1e3e 038c d63a
00000350: 717c 1abd 6a5a a53d 158e 31bd 93f1 093d
00000360: 27cb d2bd d061 e13c 6df0 0a3e 0680 2f3d
00000370: f2b0 81bd a44b 0bbd 487e 0ebc 4cbd a73d
00000380: b328 4e3c 1018 3d3d 6373 8cbd 4ad8 213e
00000390: bfe7 e43d 1889 663d 20bd 25bd 751b 1abc
000003a0: 2ac6 b43d d397 a6bd 06d4 4abd 6f3e 1ebe
000003b0: fd4c 35be 2533 8a3d d358 69bd 94b5 64bd
000003c0: 952f 23be 7f59 e6bd d0a8 0e3e 437f 923d
000003d0: f703 0abe b4ca 6abc 4101 ac3c 1fac 0d3e
000003e0: 8ae3 963d 41db 0e3e 00ff 4c3d 4be4 a0bd
000003f0: e33d 613d 8e83 1c3c 4520 5ebe 44da ba3d
0.01917568 -0.1072001 0.098718904 0.082374945 -0.09930742 0.09532762 -0.049672853 -0.002691415
0.00011559116 -0.06887411 -0.15859771 -0.015091732 -0.18231331 -0.12121234 0.038464442 -0.06604532
0.10701014 -0.0132427635 -0.10053787 -0.037549414 -0.20739873 0.10837116 -0.040833764 -0.007850311
0.1962377 -0.025585728 -0.14902951 -0.07599661 0.02912731 0.09846838 0.09431616 -0.036593214
0.030742526 0.054045834 -0.060660604 0.015343863 -0.038288627 0.087544926 0.1583457 -0.019846091
-0.13713434 0.09624687 0.1489418 -0.1414954 0.042815644 -0.12449426 0.14697136 -0.022985948
0.14670679 0.05632742 -0.08730547 -0.013068997 -0.08276869 -0.07665918 -0.0151935415 0.069014624
0.07447977 0.009751771 0.12301727 -0.03232701 -0.060941286 0.109954916 0.108790845 -0.1521248
0.029245066 -0.09163828 -0.1747111 -0.020535782 -0.014409921 0.043370467 -0.025445668 0.059402313
0.13308735 0.06915749 -0.027611373 -0.041404255 0.060212366 0.12796456 -0.056235116 -0.013744887
-0.020082599 -0.09074431 -0.010068624 0.045313854 0.078110784 -0.14476627 0.22101183 -0.01455783
-0.059028927 0.099929534 0.09683331 0.14604771 -0.027624017 0.104629636 0.08649723 -0.0211216
-0.051243454 0.10441813 -0.04632308 -0.087178424 -0.2289477 0.06473281 -0.23859172 0.099408224
0.015822334 0.10734215 -0.0771818 0.13790788 -0.011475401 0.102756776 -0.107438326 -0.0106936665
0.066445835 -0.086146355 0.0447102 -0.053064626 0.15849721 -0.06344677 -0.0012825173 -0.166211
0.044200238 -0.026883483 0.021876613 0.048709057 -0.058672104 -0.09986055 0.12746744 0.18480283
-0.009718731 -0.11775684 -0.11895677 0.06794012 0.12163976 -0.06406411 0.004653743 0.07655073
0.15231168 0.075731225 -0.089281335 0.084427044 0.04395866 -0.08967814 -0.12703666 -0.075607255
0.100711994 0.17585087 0.06280842 -0.14652368 0.070954196 0.030125344 0.07473666 -0.13003115
0.106579624 -0.0041438853 0.05425199 -0.06924824 -0.053427257 -0.07231337 -0.012674387 0.0029151607
-0.0406313 -0.0011292871 0.15392032 -0.003328834 -0.039038286 -0.0017012706 -0.016349038 0.014153074
-0.024403846 0.10738647 -0.08953888 -0.13776463 -0.039220173 -0.06494237 0.051029142 0.15029491
0.10002574 0.059846826 -0.11109132 -0.03304893 -0.0536874 -0.003903172 0.07812202 0.004423555
0.023544312 0.025124606 0.018837601 -0.04821964 -0.0053165057 -0.13781005 -0.0623764 0.11331421
0.13013946 -0.053437486 -0.081718326 0.03013954 -0.16241588 -0.1255458 0.07087152 0.0006273388
0.043911695 -0.09640165 -0.060565896 -0.08803216 -0.03923425 -0.061347317 -0.079715885 0.17950866
0.052229986 0.048277304 0.15465972 0.0016368631 -0.037716333 0.08073886 -0.04334839 0.03367765
-0.102926545 0.027512461 0.13568278 0.042846702 -0.06332578 -0.034007683 -0.0086971 0.081904024
0.012582946 0.046165526 -0.06857946 0.15805164 0.111770146 0.056283087 -0.040463567 -0.00940596
0.08826859 -0.08134427 -0.049518608 -0.15453504 -0.1770515 0.06748036 -0.056969475 -0.05583723
-0.1593612 -0.11247539 0.13931584 0.071531795 -0.13478075 -0.014330555 0.020996692 0.1383519
0.073676184 0.13950826 0.050047874 -0.078560434 0.05499066 0.009552849 -0.21691997 0.09123662

gru.weight_hh_l1 f4 [192, 64]
00000000: 1235 f2bc d5ac fcbc 1b07 d73d 716c d5bd
00000010: ac66 7cbc a32f 99bd 5b44 023e b728 1cbd
00000020: 31d2 ec3d 84f2 c43d 2f2f 043e ed55 94bc
00000030: 8c7f 3abd 498b d7b9 5a71 013e a160 16be
00000040: 76d0 ab3d 6da4 273c c049 083e ebbf 41bd
00000050: a9d5 03be 6f82 763b 9712 75bc 6cf8 0d3d
00000060: b480 6bbd 98c8 f93d c1d1 30be a358 f23c
00000070: 1c72 75bc ec2d 09bd a28b a6bd fdf1 a33d
00000080: e8a2 113e 1f81 993c a8d8 19bc 7229 d73d
00000090: ea0e 973b 3f71 b5bb eb7a c3bd 5878 223d
000000a0: 9faf f5bd f36b e53d ee31 e5ba c4f4 353c
000000b0: ad42 27be bf31 f43d 5da2 c63d 58d5 c0bd
000000c0: 9809 003e dd12 05bd 46c1 a4bd 62f2 8e3d
000000d0: 3bce ecbd d5a1 10be 2941 0bbd f425 063e
000000e0: 32b0 4f3d eb53 a43d 40ad 2e3d ca39 953c
000000f0: 4e7b 383d f26a 07bd dcf6 1e3d 7508 083e
00000100: c38b 93bd 128f 95bd 135e e2bc a16d 6fbd
00000110: d225 9fbd e595 fb3d bd05 19bd 91d4 f73d
00000120: dc9b 9bbd 5299 963d 7921 8ebc 715e ae3b
00000130: c24c 1bbd ce8e 88bd 6dea 00be 7aca bc3c
00000140: 3787 93bb 4074 273d 42db e63a a2d4 0dbd
00000150: 4d22 1cbe 08be a23d 4a33 b6bc 76c1 d4bd
00000160: 32a2 0b3e 7a16 51bd 4ab8 06be fa61 a3bd
00000170: 1642 92bc 3b5d 60bd 11fe 1e3d fe36 b1bd
00000180: 6a79 81bd f0b6 643d cfe5 7abd 2313 773d
00000190: 0a42 61bd 01de e5bc 2aca 3abd 1f0b c6bc
000001a0: 5c29 d9bd c35c 76bd 533f 1c3b 74bb 803d
000001b0: d864 a23d 8b7a 3b3c 7139 96bd 3092 c0bd
000001c0: 86e4 9a3d 46ed 983c d16a 0a3e b22b b43d
000001d0: 7a46 3e3d 6028 90bb d842 193d 73d8 f2bd
000001e0: fedd 0c3d 3266 c6bc c9c4 63bd 81bb 0abe
000001f0: abda a9bd f760 33bc 1776 62bd b71c 9f3d
00000200: d748 9abd 1151 a13d 4b28 20bd 50e6 9b3c
00000210: c064 1a3e 955f ea3d 9763 0dbc cddc 733d
00000220: 98ef fabd 698a babd b687 ddbd 0de4 4ebd
00000230: 2c87 833d 3728 0a3e 6239 3e3d 7183 aabc
00000240: eb61 2bbd 202c 88bd 60a6 0d3e 92db 55be
00000250: 6afb d6bb 8c99 14be 9a77 7fbd 8ad5 eebd
00000260: a6d7 07bc f798 5b3d a03b 9abd ba25 5c3d
00000270: 2251 713d e5f0 0ebd a2fb 993b 5cf6 29bd
00000280: 41e8 d63d 2c15 e83d 3d36 ea3b 128c c3bd
00000290: 8aa5 b03d b0ee 243d e4a5 cb3c 23f7 f6bc
000002a0: aafd 8a3d 97a0 8b3d ce17 843c 7198 8ebd
000002b0: cc2c c83b a419 e73d 0c3e 63bd 4e33 c3bd
000002c0: ab88 00be 7127 083d 4283 203d 943c 7d3d
000002d0: 94e5 fd3d 8bb0 a83c c395 203d b060 09be
000002e0: c502 de3d 4785 933d 9f01 993d 913b 943d
000002f0: 8222 cbbd 914b db3d 05e7 b33c 0b55 ecbd
00000300: b3d0 103c a72e 8c3d d255 b23d ff2f b63d
00000310: 54d2 f23d 696d 803d 975d f63d 18b1 0a3e
00000320: e2da 503d a75f 69bd 829d e2bd 5710 a33b
00000330: 0872 aebd 09fb af3c 374b b8bd 75ef 10be
00000340: 7ff8 e2bc cf23 00be 3cb7 c43d d94f 263d
00000350: e602 b3bc 916b ae3d 55ee 9b3d c81d b83d
00000360: 41cb 47be bbe8 c8bd 3555 14bd a3b2 db3d
00000370: c17c 08be 154e 01be 643e 33bc e2ec 263d
00000380: 44eb c23d 7cd3 163d e16b 9f3c 1201 76bd
00000390: 7a2d a5bb 7db0 883d aa1e fbbd 26a2 f7bd
000003a0: b050 77bc 1964 ac3d 6318 ab3d 9469 25bc
000003b0: bed7 b93d de26 e7bd 568d b13c 8ca7 41bd
000003c0: feab 74bd c761 93bd 0213 943d 23df f4bd
000003d0: a4d9 52bd 355a ac3c 3dde e1bd ef5f 503d
000003e0: 5c1b 00be 2400 d83d 727d 233d 33a5 c33d
000003f0: fd4d 0d3e aeed bb3d b074 6e3d 59e4 bb3c
-0.029566322 -0.030844131 0.10499402 -0.10421074 -0.015405338 -0.07479789 0.12721388 -0.038124766
0.11563528 0.09616569 0.12908624 -0.018107379 -0.045531794 -0.0004111177 0.12640896 -0.14685299
0.0838937 0.010232073 0.13309383 -0.047302168 -0.12874474 0.0037614366 -0.014958045 0.03466074
-0.057495788 0.12196463 -0.17267515 0.02958328 -0.014980819 -0.03349106 -0.081321016 0.0800514
0.142223 0.018738328 -0.009390034 0.10505952 0.004609932 -0.0055371816 -0.09544929 0.03966555
-0.11996388 0.1120223 -0.0017486194 0.01110572 -0.16334029 0.11923551 0.09698937 -0.09415692
0.1250366 -0.032488693 -0.080446765 0.069798246 -0.11562773 -0.14124234 -0.03399769 0.13100415
0.050705142 0.080238186 0.042645693 0.018216033 0.045039468 -0.033060975 0.038809642 0.13284476
-0.07204392 -0.07302679 -0.027632749 -0.05845416 -0.077708855 0.122844495 -0.037358988 0.12101091
-0.07598087 0.07353462 -0.017349945 0.005321317 -0.037915 -0.06667863 -0.12589426 0.023045767
-0.004502203 0.04088235 0.0017612951 -0.03462661 -0.1524746 0.07946402 -0.022241253 -0.10388462
0.13636091 -0.051046826 -0.13156238 -0.07977672 -0.017853778 -0.05477641 0.038816515 -0.08653067
-0.06321986 0.055838525 -0.06125432 0.060320985 -0.05499462 -0.028059961 -0.045602955 -0.024175225
-0.10603592 -0.06014706 0.0023841455 0.06285754 0.07929391 0.011442791 -0.07335175 -0.09402883
0.07563119 0.018667828 0.1351731 0.08797397 0.04645393 -0.0043993443 0.037417263 -0.11857691
0.034391396 -0.024218652 -0.05560759 -0.1354809 -0.08293661 -0.010948411 -0.0552884 0.07769149
-0.07533424 0.0787679 -0.039100926 0.01903072 0.15077496 0.11444012 -0.008629701 0.059536744
-0.1225273 -0.09108431 -0.108169004 -0.050510455 0.06422266 0.13491903 0.046441443 -0.02081463
-0.04184143 -0.06649041 0.13832998 -0.2088454 -0.0065607326 -0.14511698 -0.06236992 -0.11661823
-0.008291161 0.053612676 -0.07530904 0.053746916 0.058915265 -0.034897704 0.0046991864 -0.041494712
0.10493518 0.11332163 0.007147579 -0.09548201 0.08625324 0.040266693 0.024859376 -0.03014714
0.06786664 0.068177395 0.016124632 -0.0696267 0.006108856 0.112841874 -0.055479094 -0.0953127
-0.12552135 0.03324074 0.039187677 0.06182535 0.12397304 0.020591995 0.039205324 -0.1341579
0.10840372 0.07203155 0.07471012 0.07237924 -0.09918691 0.107077725 0.021960745 -0.11539658
0.00883882 0.06844836 0.08707775 0.08895873 0.11856523 0.06270868 0.120295696 0.13544118
0.050989993 -0.056975987 -0.110651985 0.004976313 -0.085178435 0.021482008 -0.08998721 -0.14153846
-0.027706383 -0.1251366 0.09605262 0.040603492 -0.021851968 0.085166104 0.076138176 0.08990055
-0.19511129 -0.09810015 -0.036214072 0.107274316 -0.1332884 -0.12627442 -0.010940168 0.040753253
0.095175296 0.03682278 0.01946062 -0.060059614 -0.0050408216 0.066742875 -0.12261708 -0.12091474
-0.015094921 0.084175296 0.08354261 -0.010095973 0.09074353 -0.1128671 0.02167384 -0.047278926
-0.059734337 -0.07196384 0.07230188 -0.119566225 -0.05147709 0.021039108 -0.11028717 0.05087274
-0.12510437 0.10546902 0.039914556 0.095529936 0.13799281 0.09176193 0.05821675 0.022936033

gru.bias_ih_l1 f4 [192]
00000000: 31c1 00be 66c0 dfbc a1c3 663c 2098 d83c
00000010: 07b9 8f3d 2877 a9bd 189f 303e 23f9 9f3c
00000020: 01a8 b7bd 55b7 83bd b56c 243d 4059 6abe
00000030: fbc3 96bd 83e8 963d 5c3b c8bd a9a2 22bc
00000040: 7f04 3abe 9795 bdbd c8a7 2cbe 5a7b ae3d
00000050: dec8 1bbe 8e74 0dbe 2507 f0bd 143b 43bd
00000060: c2e8 143e ac9d 063a 5489 97bd 7f86 9c3d
00000070: acf1 42bd 1cbd febd 3b97 cbbc 2f6d 6abd
00000080: 8d11 e6bc e39a 00be 0fa3 b23a 7bf8 50bc
00000090: c57d d43c 3003 b63d 0806 d8bd bf9f a13c
000000a0: 6cec bdbd 68dc f43c 8ae5 12be ba1b fcbc
000000b0: df5a cf3d bd3e 49bd 8326 1bbe 6c15 4f3b
000000c0: c809 0fbe cc64 d33d 11ff 363d 322a de3d
000000d0: 6bd3 85bd 3ea2 ce3d c7aa b1ba ab07 d63d
000000e0: 1f07 153e 9260 adbd 08c0 1f3e afc6 ffbd
000000f0: 782d 833d 358e 1f3d 75fb 003d ade1 773b
00000100: 49b6 b2be 7345 66be 44d8 dfbe 1168 aabe
00000110: 994a cf3b ab52 88bd 1e41 9abe 2827 87bd
00000120: 1729 06be 9a36 b3be 5175 1bbe 83be abbe
00000130: 3c65 98bd bb68 fd3b d788 29be 6523 cabe
00000140: 4300 4cbe faf0 b0be 3434 70be be7c a7be
00000150: 8197 51be 6b33 a6be 50db 15be 9a9f 69bd
00000160: 73d6 04bf e3aa 4cbd c700 afbd 105e f8be
00000170: 221f f8be 7e56 8cbe 8ea4 80be 72cf 043e
00000180: bc30 533e 0aa2 c03d 5d70 3abe 2165 5abe
00000190: 0d13 4bbe 0e65 793d 4886 d1be 95e6 3abe
000001a0: 87cc b0be b673 8abe 78e2 92be e430 43be
000001b0: 8573 a33d 8997 39bd 0096 a7be 1f63 9dbc
000001c0: 68ef 8c3e 37ae c7be 6167 72be 0c45 3d3e
000001d0: 1d8b b7be 1385 19bd 448d bebe c577 133d
000001e0: 35b1 a6be 8938 3fbe a9fe 343d e96c bcbe
000001f0: 5ef2 80be 185d c8bd 3101 f43d d7dd ecbd
00000200: 501f b23d d64e d8bd e052 16bd 218a b63d
00000210: a602 003e cb75 74bb 05a6 983c c8be a2bc
00000220: 7e45 df3d fb6d 81bd be60 92bd 9a3e 9b3c
00000230: 974a 16bd ab7a b13d f59d 14bd c615 ae3d
00000240: d600 dabd f919 61bd c406 6ebd 0270 303d
00000250: 8c58 ec3d a293 613d 7822 cebd 9bb4 bdbd
00000260: ba7c 31bc 64da 803d bbf4 a13d 3742 93bd
00000270: 00bf 83bd 787b ca3d e4ee a83d ab70 8c3c
00000280: 392c 83bd 49a8 e63d 40f1 723d b687 3fbd
00000290: 1779 e9bc 6854 b8ba 7e63 c83d 8c80 563c
000002a0: 927c 573d d78a 2c3d e94f 6fbd d162 c6bd
000002b0: a254 ce3c 3343 48bd 63a1 383d 9e6d 923d
000002c0: 566f d0bc 822b afbc 8c2f ee3d e305 b5bc
000002d0: c7c5 c83d 87d8 8c3d e961 df3d 6823 2c3d
000002e0: f6ce 02bd d195 ac3d e6a5 86bd a714 ae3b
000002f0: 49ce c2bd 9ba2 9fbd f1de 8e3c ea5d 82bd
-0.12573697 -0.027313422 0.0140847275 0.026439726 0.07017713 -0.082746804 0.1724819 0.019527977
-0.08967591 -0.06431452 0.040142734 -0.22885609 -0.07361599 0.07368567 -0.09776947 -0.0099264765
-0.18165778 -0.092570476 -0.16860878 0.08519621 -0.15213344 -0.13813993 -0.11720113 -0.047663763
0.14541915 0.0005135189 -0.0739924 0.076428406 -0.047593758 -0.124384135 -0.024852386 -0.05723303
-0.02808454 -0.12559085 0.0013628918 -0.012754555 0.025938878 0.08887327 -0.10548025 0.019729493
-0.092736095 0.029890254 -0.14345375 -0.03077494 0.10124754 -0.049132098 -0.1515141 0.0031598462
-0.13968575 0.1032196 0.044676844 0.10847892 -0.065344654 0.10089539 -0.0013554924 0.10450681
0.14553498 -0.08465685 0.15600598 -0.12489068 0.06405157 0.03895398 0.031489808 0.0037823722
-0.34904698 -0.2248743 -0.43719685 -0.3328252 0.0063260314 -0.06656393 -0.30127805 -0.06599265
-0.13101612 -0.35002595 -0.15181471 -0.33543786 -0.07441184 0.007733432 -0.16556107 -0.3948013
-0.19921975 -0.3455885 -0.23457414 -0.32712358 -0.2046795 -0.32461104 -0.14634442 -0.057036974
-0.51889724 -0.049967658 -0.0854507 -0.48509264 -0.48461252 -0.27409738 -0.25125545 0.12969759
0.2062406 0.094059065 -0.18206926 -0.2132764 -0.19831486 0.06088739 -0.4092276 -0.18252023
-0.34531042 -0.27041405 -0.28688407 -0.19061619 0.07981018 -0.04531053 -0.32731628 -0.019212304
0.27526402 -0.39000103 -0.23672248 0.1848337 -0.35848323 -0.037480425 -0.37217152 0.036002893
-0.32557073 -0.1867391 0.044188175 -0.36801842 -0.2518491 -0.09783381 0.1191429 -0.1156575
0.08697379 -0.10561912 -0.03670013 0.08913065 0.1250101 -0.0037301655 0.018633852 -0.019866362
0.109019265 -0.06319805 -0.07147358 0.01895075 -0.03669223 0.08665975 -0.036283452 0.08500247
-0.10644691 -0.05495641 -0.05811192 0.04307557 0.115403265 0.055072434 -0.10065168 -0.092629634
-0.01083296 0.06291655 0.07908007 -0.07190364 -0.06432915 0.09886831 0.0824869 0.017143568
-0.06404919 0.112625666 0.059312105 -0.046760283 -0.028500123 -0.0014063241 0.09784602 0.013092171
0.052609034 0.042124595 -0.058425818 -0.096868165 0.02518684 -0.04889221 0.045075785 0.07149814
-0.025443714 -0.02138305 0.116301626 -0.022097534 0.09803348 0.06877237 0.10907347 0.042025954
-0.031935655 0.08427013 -0.06574611 0.0053125205 -0.09512002 -0.077946864 0.017440291 -0.06365569

gru.bias_hh_l1 f4 [192]
00000000: 47d4 07be 47fc e5bd 77f9 a8bd 884a e13c
00000010: 122f 703e 6c25 903d a8fd 863d a580 09bd
00000020: 0cc1 b5bd 36fe d6bd 590d fd3d b6fc 25be
00000030: c5b9 ee3c 9749 d63c d66a 19be 653b 27be
00000040: 12df 23be 1b56 21be caaf 253d a8ea f4bc
00000050: e1eb 2abe 3a59 64be 78ed 99bc 463a ca3d
00000060: 9ed8 963d ac78 53bd 63b6 65bd 9fcf 1f3d
00000070: c6b3 523d b25c dfbd 8ded 07bb 0215 5abd
00000080: d7da 003e 1bb6 293d eb7a 393d 66c5 cbbd
00000090: baf7 8dbc 23a9 16bd 44a6 463d 94f5 61bc
000000a0: 3548 a2bd b40c 42bd 183f 33be 9a7c 8f3d
000000b0: 0621 903d c9a5 7abd 747c e7bd 8a01 a0bc
000000c0: 8337 493d 3265 60bd 708f d6bc 74a6 fa3d
000000d0: 3c92 70bd ed2f 313d c64a 9dbd 93b5 db3d
000000e0: 0eba 5b3e 7592 8a3b 0817 073e ace0 9dbd
000000f0: 4d80 be3c d939 f5bd f07a a03d 33e0 7a3d
00000100: ff8d abbe 7ac4 babe 16af 88be 49d6 34be
00000110: 2067 e5bd 238a 2abd 1f43 45be 5e3b 923d
00000120: 5dac bbbd 2507 c9be 1afd 89be 80f8 72be
00000130: 1a77 9bbd 1d2b 1ebd 61fd 90bd 44aa 60be
00000140: 4eb3 fbbd fea4 b6be 8283 44be e7cc 9dbe
00000150: 9c89 53be 1d0e d4be 8b35 9abe 7eba 5dbe
00000160: 0b71 08bf bb3c 0dbe 921d c6bd 31f1 bebe
00000170: a2d4 a4be ce20 acbe ea3b 4cbe c52a 8b3d
00000180: 453a f43d 8c39 9d3c 3e0e d0bd 1c1e 19be
00000190: 4605 44bd 437f 963c d4a4 bdbe 93e6 40be
000001a0: 92eb ccbe eed9 e6be fcba 95be 3267 5ebe
000001b0: b069 d83c ae85 27bd d192 8bbe 4fc0 26bd
000001c0: f128 0f3e 85f0 ffbe aa8a e7be 1d4b 883e
000001d0: 46f2 b9be c811 43bd caa3 81be 388a 163c
000001e0: 7c08 a9be d5ff 50be 6c3c 2b3c 2947 69be
000001f0: 1365 8bbe a191 9a3c ed98 513e ab13 0abc
00000200: 2882 8abd b5dc 64bc 8ed4 f9bc 1117 063d
00000210: 3242 e1bc 0cfe 32bd 09ee 7fbd 8585 7f3d
00000220: 4daf 18be 482e babd ecb5 ce3d 4b63 003d
00000230: d246 02bc ad79 03be 53b1 f3bc 0c5a 993d
00000240: a553 8abd 6905 bfbb d44a b9bd 9bf1 daba
00000250: 2b29 a4bc f785 693d 8644 92bd b851 8ebd
00000260: 01c0 55bd a06a bdbd a9d4 5f3d ca95 78bd
00000270: 0e9e 7cbd 4607 f6bc 5039 553d 0be9 a9bd
00000280: 08fd 923c 5799 8abd c639 99bd 3e74 b3bd
00000290: 8bc3 473d 2107 38bd 41de ddbd a8d2 c1bd
000002a0: 6a07 0d3e 2614 08bb 4451 82bc ab52 0f3e
000002b0: 9362 263d e0dd 263b 9674 b63d e4f5 82bc
000002c0: ac40 b53d 5f0e 0ebd ec8d 213d 6ee6 4abd
000002d0: 43af 80bd 7d8f b1bc b85d babd 9b50 54bd
000002e0: b805 bebc 15b8 c73d 643c 793d e239 8e3d
000002f0: 7c92 923d 9e74 bd3d e8cf f63c 1f04 253d
-0.13264571 -0.11229759 -0.08250707 0.02750136 0.23455456 0.07038388 0.0659135 -0.03356995
-0.088747114 -0.10497706 0.123560615 -0.16209683 0.029141316 0.026158137 -0.14982161 -0.16331251
-0.16003063 -0.15755503 0.04045085 -0.02989705 -0.16691543 -0.22299662 -0.018789992 0.09874396
0.07365535 -0.051628754 -0.05608214 0.039016362 0.051440977 -0.10906352 -0.0020740957 -0.05324269
0.12583481 0.041433435 0.04528324 -0.0994976 -0.01733004 -0.036782395 0.048498407 -0.013791461
-0.07923929 -0.047375396 -0.17504537 0.07006188 0.07037549 -0.06119326 -0.113030344 -0.019531984
0.049125206 -0.054784007 -0.026191443 0.1223878 -0.05873321 0.043258596 -0.076802775 0.10727992
0.21457693 0.004228885 0.1319238 -0.077088684 0.023254538 -0.11973924 0.078359485 0.06124897
-0.33506772 -0.36478025 -0.2669608 -0.17659868 -0.1120131 -0.041635644 -0.19263886 0.0714023
-0.09163735 -0.39263263 -0.26950914 -0.23727608 -0.07591076 -0.038615335 -0.07079578 -0.21939951
-0.12290059 -0.35672754 -0.19190791 -0.3082039 -0.20657963 -0.41417018 -0.30118975 -0.21653172
-0.5329749 -0.13792698 -0.09673609 -0.3729339 -0.32193476 -0.33618778 -0.1994473 0.06795267
0.119251765 0.01919248 -0.101589665 -0.14952892 -0.04785659 0.01837123 -0.37039816 -0.18837957
-0.40023476 -0.45088142 -0.2924422 -0.21719053 0.026417583 -0.04089897 -0.2726045 -0.040710744
0.13980462 -0.4998819 -0.4522298 0.26619807 -0.36317652 -0.04762438 -0.25320274 0.009188227
-0.33014286 -0.20410092 0.010451417 -0.22781052 -0.2722555 0.01886827 0.20468493 -0.008427541
-0.067631066 -0.013968636 -0.030496862 0.03273684 -0.027497385 -0.04369931 -0.062482867 0.062383194
-0.14910622 -0.09090859 0.100932926 0.031344693 -0.007951455 -0.12839384 -0.02974764 0.07487878
-0.06754235 -0.0058295024 -0.090474755 -0.0016704084 -0.020039162 0.057012524 -0.07141976 -0.0694918
-0.052185062 -0.09248853 0.054646168 -0.060689725 -0.06167417 -0.030032765 0.05205661 -0.082964025
0.01794292 -0.067675285 -0.074817225 -0.08762406 0.04877047 -0.044928674 -0.10833407 -0.094640076
0.1377236 -0.0020763963 -0.015907891 0.13996379 0.04062135 0.0025461838 0.08908956 -0.01598639
0.08850226 -0.034681674 0.039441988 -0.04953616 -0.062834285 -0.021674866 -0.09099907 -0.051834684
-0.023196086 0.09751908 0.06084861 0.06944634 0.07156846 0.092507586 0.030128434 0.040287133

fc.weight f4 [1, 65]
00000000: 5846 063e 3789 de3d ac75 65bd dc72 b43d
00000010: f1d9 243d 70b8 e13d 6d33 73bd 78d9 e0bc
00000020: 5e16 b93d e653 823d 1560 2f3d 9405 c73d
00000030: 28f4 59bd 0d6e 1bbd b497 19be 7018 f63d
00000040: 8262 1abe d55b 763d 94aa e5bd 2ca0 143d
00000050: 3b8f e2bd 20c1 db3d 7084 13be 0f4e 973d
00000060: 2b95 8fbd 8b52 12be c238 66bd 4f40 9cbd
00000070: f463 a03d daed 033e 2ff9 5c3d 378a 8ebc
00000080: ec4f dabb 98ce e2bd 4ded 9abd 076b 123e
00000090: 931f 063e eed4 1e3d 0053 763d 5546 cd3d
000000a0: 47e0 8dbd 4659 27bd d455 d8bd c46b 0b3d
000000b0: 63ac 03bc 9939 edbc d725 093e 5bcf e1bd
000000c0: 51cc 473d 26a8 83bd f8c7 1f3e 1c73 073b
000000d0: 09b6 4fbd 02d7 fb3c f057 8d3d 7952 883c
000000e0: 1383 fbbd a032 92bd 659d 88bc a7a0 ebbd
000000f0: a896 34bd 8d57 1b3d c120 d6bc 4c14 df3d
00000100: 77a5 3cbd
0.13112772 0.108660154 -0.056020424 0.0881097 0.040246908 0.11021507 -0.059375215 -0.027447447
0.09037469 0.063636586 0.04281624 0.09717861 -0.05321136 -0.03794675 -0.14999276 0.1201638
-0.1507664 0.06014617 -0.11214176 0.036285564 -0.11062475 0.10730195 -0.1440599 0.07387935
-0.070108734 -0.142893 -0.056206472 -0.076294534 0.078315645 0.12883702 0.053948577 -0.01739989
-0.0066623595 -0.11074561 -0.07564793 0.1429864 0.13097982 0.038777284 0.06013775 0.100231804
-0.06927543 -0.040856622 -0.105632454 0.03403832 -0.008036706 -0.028958129 0.13393341 -0.11025878
0.048778836 -0.06428556 0.15603626 0.0020667976 -0.05071071 0.030742172 0.06901538 0.016640889
-0.1228086 -0.07138562 -0.016676614 -0.115052514 -0.04408899 0.03792529 -0.026138665 0.10892543
-0.046056237
