Cheyi Wu/FinalProject/Garch/GRU-Garch/AAPL/gru_garch_model.pth (torch, 159448 bytes, 9 tensors)

gru.weight_ih_l0 f4 [192, 7]
00000000: b946 143e 97ee 213e f8df 893c 6e5b 2c3e
00000010: 2973 363e f812 74bc ebc5 fbbb c423 c23d
00000020: 7ca8 143e 4c38 85bd 1179 023e 9557 b33d
00000030: 3501 e13d 0bd1 883d 0def 6b3c 97ec 92bd
00000040: 4b92 243d 1128 553b e09e 12bd d933 9dbc
00000050: 3899 f6bd 2c93 e3bc 0a96 a7bd 701a 7d3d
00000060: baba 25be 5dc0 67bd 855b 9c3a 177c f5bd
00000070: e616 783c d03a 1ebe 3530 b73d ad8a e539
00000080: ab2d a83d 1299 953d ad1b e7bd 39ef 033c
00000090: 3204 8bbd ab84 893c 140e 9cbd 8348 d1be
000000a0: d6c7 753d 4160 10be 0197 dd3d 7935 213e
000000b0: 463a ea3d faca fb3d f07c 523e 6f78 db3d
000000c0: f57c c03d ae26 dabd 5de5 29be 0623 babd
000000d0: 3c98 72be c323 0bbe 6983 c33d 3262 53bb
000000e0: fd1c 063e 2a18 b23d 6072 3f3e 7fbb c2bc
000000f0: 6fd9 0f3e 96a1 4f3d 9680 003e 0779 9ebd
00000100: b775 4dbc 77fe 99bd 1fdc 563d 8688 32bd
00000110: bcbd e9bd 11c6 13be c305 8a3d 9fcf bcbc
00000120: 354a 863d 3e7f f4bd 9a52 87be 6b81 cfbd
00000130: 9bf2 28be 9714 3f3d 37d9 433c f33b bc3d
00000140: 8298 8dbe 6a67 92be 15b4 8f3c db46 c6bd
00000150: 07d6 263d c943 a3bd a3b7 593d 5813 443d
00000160: 9f11 3ebe 9cb4 e33c 39e3 a8bc 426e 62bd
00000170: f78d 0e3d 5802 913d 7908 51be be3c e43b
00000180: 67e5 1e3e 65d6 b6bd 8524 b3bc aefd c5bd
00000190: a02b a4bd f869 51be 8a02 02bc f03c 58bd
000001a0: 8d42 813c 7934 e9bd 27ef 1abe f8f7 e0bd
000001b0: edd7 36be df46 89be a69a 263e de07 1abd
000001c0: 2a92 c83d cc20 10bd c803 cebc 9b9c f73d
000001d0: b3b1 8f3e f6ef aaba a6ab 163c ef18 91bd
000001e0: 096d 58bc 04d3 32bd 8013 46be 1d97 29be
000001f0: 3894 bbbd 4a3b c4bd e977 53bd 2304 f8bd
00000200: 9d68 b03d 6040 44bd 8fe2 c53d 669b c53c
00000210: 303b 0ebe 480c 773d 8587 aabd 1ee9 a1bd
00000220: ff12 85be 9248 b0be f38e 823d e6e1 b2bd
00000230: 9fdf efbb c069 24be e029 043d 359a 823d
00000240: 957a ed3d 266e bebd e0c0 fb38 c9ca 323d
00000250: 6793 183d 7af5 2abe 559b c6bd 3356 60be
00000260: 92fa 88bc 9e21 3dbe 59c8 cc3d 3d03 f9bd
00000270: f1fe 443d 2a62 493d f0b7 71bb d40b 0abe
00000280: 3808 8b3d 33a7 4fbc 15e1 00bd d69e 22be
00000290: 7c27 67bd 4938 16bd d788 60bd 2587 533d
000002a0: b60d 713d d3cb 64bd 3e9f 2fbd c99f 2fbc
000002b0: 17f0 c3bc bc5a d1bb ddcb a2bd 2af2 8bbd
000002c0: 984d 05be 5be1 0d3c 22b3 953d 4f0c 31be
000002d0: 7d9d 5a3d b33b 763c e11d 7f3e ce5f 2a3e
000002e0: a9df 883e 41f6 fb3d 284a 033e a7d2 923d
000002f0: b12e 033e 8972 8a3c 5315 01bd 5b01 19bd
00000300: 4c02 da3b 1201 e23d f439 a93c fdf2 3bbd
00000310: d478 99bc 5791 71bd 74f6 cc3b 981c a7bd
00000320: 29d4 01be 95be 8fbd eccd 1d3d 126d 923d
00000330: 2234 9bbb 3cc5 8fbd 3514 27bd 3b58 2dbd
00000340: e924 503d ad6e b63c ffc1 033e 8d26 e93d
00000350: 966f 77bd de9f b9bc 9341 3e3c 8799 183e
00000360: f12b a93d 891d e9bc a77a ea3c 0c1e 71bd
00000370: dba9 20be a0e9 893d 062e 87bd bee8 93bd
00000380: db06 27be 97b7 093d 647f 443d 532c 21bc
00000390: 6275 28be e1e5 0abe 2db2 26be c6d1 493d
000003a0: 8f91 7a3c bc57 833d e2f0 8a3d 25c6 43bb
000003b0: f406 3abd 07ef 0abe 4596 84bd b27e d1bd
000003c0: 2829 a53d 29ba 09be 5c65 a23c 2985 f5bc
000003d0: 094f ecbc 5944 05be b1f7 12be b677 50bc
000003e0: 3bd3 aabd be09 62bc 42fe 5e3d 56a7 2dbe
000003f0: 4dd2 81bd 4215 f9bd c61a bbbd 8c63 41be
0.14480104 0.15813671 0.01683043 0.16831753 0.17817368 -0.014897101 -0.007683506 0.09479478
0.14517397 -0.065048784 0.12741496 0.08756939 0.10986558 0.06680497 0.014400256 -0.07174032
0.04017858 0.0032525102 -0.035796046 -0.019189762 -0.12040943 -0.027780138 -0.081829146 0.06179279
-0.16184512 -0.056579936 0.001192913 -0.11986559 0.015142178 -0.15452123 0.08944742 0.00043781605
0.082118355 0.073045865 -0.112845756 0.008052641 -0.067879096 0.016786894 -0.07619873 -0.40875635
0.06000503 -0.14099218 0.10819817 0.15743054 0.11436896 0.12294574 0.20555472 0.1071633
0.09398834 -0.10651909 -0.16591401 -0.090887114 -0.23690885 -0.13587861 0.09546549 -0.0032254574
0.13096996 0.08696015 0.18695974 -0.023771046 0.14047788 0.05069121 0.12549052 -0.07737928
-0.012540272 -0.075192384 0.052456018 -0.04358723 -0.11413142 -0.14431025 0.0673938 -0.02304822
0.065571226 -0.11938332 -0.26430207 -0.101321064 -0.16498797 0.046650495 0.0119536435 0.09191122
-0.27655417 -0.28594524 0.017541924 -0.09681483 0.040731456 -0.07971913 0.053153645 0.04787001
-0.1856141 0.027796082 -0.02061616 -0.05528093 0.034803357 0.07080525 -0.20413388 0.006965249
0.15517198 -0.08927611 -0.021868 -0.09667526 -0.08016133 -0.2045058 -0.007935176 -0.05279249
0.015778804 -0.113869615 -0.15130292 -0.10984796 -0.17855807 -0.26811883 0.16269931 -0.03760516
0.097935036 -0.035187528 -0.025148287 0.12090417 0.2806526 -0.0013041485 0.009196198 -0.07084834
-0.01320959 -0.04365827 -0.19343376 -0.16561551 -0.0915913 -0.09581621 -0.051628027 -0.12110164
0.086137034 -0.047912955 0.09662353 0.024121951 -0.13889766 0.060314447 -0.083266295 -0.07905792
-0.25991055 -0.34430367 0.06374922 -0.08734493 -0.007320359 -0.16055965 0.032266498 0.06377069
0.11595646 -0.09298353 0.000120045384 0.043650422 0.03724995 -0.16695204 -0.09697596 -0.21907882
-0.016721044 -0.18469855 0.09999151 -0.12158821 0.048094694 0.049165882 -0.0036883317 -0.13481075
0.06788677 -0.012674141 -0.031464655 -0.15880904 -0.05643414 -0.03667477 -0.054818 0.051642556
0.058850966 -0.055858444 -0.042876475 -0.010719248 -0.023918195 -0.00638899 -0.0794904 -0.068332985
-0.13017881 0.008659686 0.073095575 -0.17289852 0.05337285 0.015028882 0.24913742 0.16638109
0.2673314 0.123028286 0.12821257 0.07169085 0.1281078 0.016900318 -0.031514477 -0.03735481
0.006653106 0.110353604 0.020657517 -0.04588603 -0.018734373 -0.058976498 0.0062549654 -0.08159751
-0.12678589 -0.070187725 0.03852646 0.0714971 -0.0047364393 -0.07020041 -0.040790755 -0.04232047
0.05081645 0.022269571 0.12866972 0.11384306 -0.06040915 -0.022659238 0.011612314 0.14902316
0.08260334 -0.028456466 0.028622938 -0.058866546 -0.15689795 0.067340136 -0.06600575 -0.072221264
-0.16311209 0.03362235 0.04797305 -0.009837228 -0.16451028 -0.13564254 -0.16278906 0.04927232
0.015293493 0.064132184 0.06784226 -0.0029872742 -0.045416787 -0.13567744 -0.06473974 -0.10229243
0.080644906 -0.1344992 0.019823723 -0.029970722 -0.02884628 -0.13014354 -0.143523 -0.012723854
-0.0834107 -0.013796268 0.054441698 -0.16958365 -0.0633894 -0.12162258 -0.09135966 -0.1888563

gru.weight_hh_l0 f4 [192, 64]
00000000: b971 00bd 990a b4bd bf34 e13d 60a3 743d
00000010: ba5d 61bd 6730 43bd 58a1 83bd 17c0 16be
00000020: 986b 583d 90dc 893d 6e41 ed3d f169 38bb
00000030: b28b 97bd 05f6 0e3e 915e 003d afa4 04be
00000040: edb8 5cbd 22e1 3b3c f2f9 0ebe 9b08 22bb
00000050: 5ab9 9ebd 55f7 2fbe 2e5a 48bd e717 b2bd
00000060: 4246 1f3e 0376 103e 85e2 7dbc f5af c03d
00000070: f8a3 c5bd c4b5 82bd f508 273d b395 9c3d
00000080: 0cbd fb3d 6764 933c e4f9 bd3d af04 203d
00000090: cfa6 a33c 5475 0fbd aa66 473d bbe7 f0bd
000000a0: 98e8 e23d 3101 86bc 34be bbbd ba59 49bb
000000b0: 3fa0 6bbc 838d cabd 1c24 8dbd 56d1 543d
000000c0: 0f8e 263e f3b8 d8bd 5075 4b3d 5892 963d
000000d0: 168d 443d c013 423d 1e36 16bc 5960 febd
000000e0: 9a85 b3bc 73e4 24be ebad 3abd e770 c23d
000000f0: b57c 33be 4054 bbbd de6b f53c 8b5a 7abd
00000100: 06ba b8bd 01ad f9bb 19a6 723d 1da0 383d
00000110: 6d9e aa3c 8807 c3bd 3541 98bd f7f3 a5bd
00000120: a6a7 abbd d234 b63c c0a2 793c a08d 763d
00000130: 7aa0 983d 339d 253e c8a5 0d3d 5fa0 2bbe
00000140: 64db d83d 97d4 c3bd 3b73 c3bc 3fb4 3abd
00000150: 6d75 a0bd d95b 94bd eef8 e13d 04f5 383d
00000160: fb24 6a3d 72fe 013e 5212 f0bd 1795 753c
00000170: 8f52 553d 859b b53d 4726 f6bd 587c 4b3d
00000180: 64f0 b3bd 0e26 14bc 8112 1cbd c96c f3bd
00000190: 7858 21be eef3 7cbd 7760 8a3d e52c 8b3c
000001a0: 357a c8bd 9c32 e3bc e2d2 093d fc2b 02be
000001b0: af03 7f3d 1c81 e13d 22b2 3c3b 03ea 79bd
000001c0: 2e1d 983d 1310 413d d9ef ad3d 8391 d9bc
000001d0: 6021 dbbd 36d5 8e3d 4ecd 6d3d 7cb6 63bd
000001e0: 8bdf 5fbd d13f 0fbe faf4 f33d bf40 b03d
000001f0: 846e 0a3d c906 b43d 84c4 903d c0ab 793c
00000200: f92b a0bb 72d0 e73d 3006 cbbd f33b 813d
00000210: c8dc 1dbd 913e c23d 19d7 273c 3abf abbc
00000220: 166d 9abd 4900 d23c 7540 20be d8b8 bebd
00000230: 7811 f1bd 9f94 41bd 9cbe 393d 1f68 fe3d
00000240: 3621 443d 1bb0 043e d830 45bc 640d 30bc
00000250: 1785 83bd 906e 94bc 9ff6 02be 6077 8cbd
00000260: 4edf d5bd 8e37 a4bc ccb5 8c3d bb9f 483d
00000270: 2b46 e33d 54b2 47bd 6a23 85bc c82b f8bd
00000280: 5c3a cf3d 733d 41be 6b24 0eba 8b69 9e3d
00000290: b747 dc3d 841f ca3c 0ad6 33bd 017e bc3d
000002a0: 0da5 a5bc ddb6 073e 98a5 b93c 9c15 e33d
000002b0: 7622 083d 6ef3 973c 14dd 273e e59c 7dbd
000002c0: cdc4 b33c 81bf 023d 2ae1 dd3d 3797 433e
000002d0: 7716 b73b 572c 0fbd d086 c0bc 84cd d23d
000002e0: d87d 823c 0b18 9dbb d8ce 293e 41ba 173d
000002f0: 3015 c0bc ae79 583d 5125 53bd 2fe2 1fbe
00000300: 8606 153d 3a07 09bd 4aee f6bd 75e1 31bd
00000310: 881a fcbc 266e e53d 0c73 343d 97ee 1b3e
00000320: 1e3c ff3c 3648 973c 5b7e 353d 617f 4a3d
00000330: 6b4b 87be 6fa1 2fbe 1ce1 c8bd 1b39 b73c
00000340: 7988 a83c 5016 433c 884b c23d 39f4 a33d
00000350: 26b9 07bd c8fb 8bbd e02b a0bd 1c29 1bbc
00000360: 8776 913d 5d8e 6f3d 0a35 803d aadd 35bd
00000370: a5f5 4d3d 7f8e 1bbd 77ca 43bd 1f6e 5c3d
00000380: 7292 b7ba a5b4 01bc a115 1ebc d4c3 553d
00000390: f924 d0bb ae93 67bd 32a8 833c f672 a1bb
000003a0: 5897 a0bd ea29 5a3d 5019 22bd 4f0f e83d
000003b0: 672a 3ebd ef65 1f3c f5e3 c9bd e9da 7d3c
000003c0: 9218 d6bc 8fa1 623d d5b7 63bc 4984 e03c
000003d0: 4401 5e3d 56fd 923d e210 7ebd 6388 f53d
000003e0: b529 c63c 3124 45bd 1a86 273d af02 05be
000003f0: 0ab8 8dbc 11bf 2ebd 7d8e cdbd 3897 b43d
-0.031358454 -0.08791084 0.10996389 0.05972612 -0.055021025 -0.047653582 -0.06427258 -0.14721714
0.052836984 0.06731522 0.11584745 -0.0028139318 -0.07399692 0.13961037 0.031340186 -0.12953447
-0.053887296 0.01146725 -0.13962534 -0.0024724368 -0.07750197 -0.17184193 -0.048914127 -0.08695965
0.15554145 0.14107518 -0.015495901 0.09408561 -0.09650415 -0.06382325 0.040780026 0.0764574
0.12291917 0.017992212 0.092761785 0.039066967 0.019977001 -0.035024002 0.048681892 -0.11762949
0.1107952 -0.01635799 -0.09167138 -0.0030723647 -0.014381467 -0.098902725 -0.06891653 0.05195745
0.16265129 -0.10582151 0.049672425 0.073521316 0.047986113 0.047382116 -0.009168176 -0.124207206
-0.021914292 -0.16102771 -0.045576017 0.09494191 -0.1752804 -0.09146929 0.029958662 -0.061121505
-0.09019856 -0.0076195006 0.059240434 0.04507457 0.020827496 -0.09522921 -0.07434312 -0.08103173
-0.08381586 0.022241984 0.0152365565 0.060193658 0.074524835 0.16173248 0.03458193 -0.16760395
0.105887204 -0.09562033 -0.023858657 -0.045582052 -0.07834897 -0.07244081 0.11033808 0.04515554
0.057164174 0.1269472 -0.11722244 0.014989159 0.052080687 0.088675536 -0.120190196 0.04967913
-0.08786085 -0.009042276 -0.038103584 -0.118859835 -0.15756404 -0.061756067 0.067566805 0.01698918
-0.09788934 -0.027734093 0.03364838 -0.12712091 0.062259372 0.11010954 0.00287927 -0.061014187
0.074274406 0.04713447 0.08493013 -0.026558643 -0.10699725 0.069742605 0.058057122 -0.055593953
-0.054656547 -0.13989188 0.1191196 0.08606099 0.033796802 0.08790357 0.070687324 0.015238702
-0.0048880544 0.11319055 -0.099132895 0.063102625 -0.03854063 0.0948459 0.010244154 -0.020965207
-0.07540338 0.025634902 -0.15649588 -0.093126 -0.1177091 -0.047260877 0.045347795 0.12422203
0.047883235 0.12957804 -0.012035571 -0.01074538 -0.06421869 -0.018119127 -0.12789391 -0.068587065
-0.104429826 -0.020046022 0.068706125 0.048980456 0.11097368 -0.04875405 -0.016252238 -0.121177256
0.10118553 -0.18871097 -0.0005422297 0.077349745 0.10755866 0.024673231 -0.043905295 0.09203721
-0.020220304 0.1325335 0.022661969 0.11088106 0.03323599 0.018548694 0.16392928 -0.061917204
0.021944428 0.031920914 0.10833962 0.19100653 0.005587395 -0.034954395 -0.023501784 0.10293105
0.015929148 -0.004794126 0.16582811 0.03704286 -0.023447603 0.052850418 -0.05154926 -0.15613626
0.036383174 -0.033454157 -0.12057169 -0.043427903 -0.03077437 0.1120265 0.04405503 0.15227734
0.031156596 0.01846705 0.044309955 0.049437884 -0.26424727 -0.17151426 -0.09808561 0.022366097
0.020572888 0.011907175 0.09487063 0.08005566 -0.033135556 -0.06835133 -0.078208685 -0.00947025
0.071026854 0.058485378 0.062601164 -0.04440085 0.050283093 -0.03797769 -0.047800507 0.053815957
-0.0014005436 -0.007916604 -0.009648711 0.05218871 -0.0063520637 -0.056537323 0.016071413 -0.0049270345
-0.078413665 0.05326263 -0.03957492 0.11331045 -0.046427157 0.009728893 -0.098579325 0.015494087
-0.026134763 0.055329856 -0.013898809 0.027406828 0.054200426 0.07177226 -0.06202782 0.11988904
0.02418981 -0.048130218 0.040899374 -0.12989305 -0.01729967 -0.042662684 -0.10036943 0.08817905

gru.bias_ih_l0 f4 [192]
00000000: f846 36be 8d17 eabd 281f 9f3c 2e6a 583b
00000010: 771e 55be 1889 573e 0af2 373e 5d66 f1bb
00000020: 3c11 1d3d fd37 16bc 538c ccbb b566 913d
00000030: 53d4 273d 5b8c a1bd e6e7 99bd 1010 0a3d
00000040: 241b 92bd 440e f03d 8420 33bd 46ed 0eba
00000050: 4e63 41be cbfa 373c 7afa 0dbd 0119 7e3d
00000060: 6baa 3ebe 431c 3ebd c5d2 643d 167d a8bd
00000070: 24f6 61ba 2721 aebc c797 0f3d 91a8 c2bd
00000080: ac3e fd3d 5a8d e8bb 28bf 1ebe f7f7 a33c
00000090: e1e8 423c 7bef 64bc c946 44be 1559 a03d
000000a0: 65b9 e73d 1575 a9bd 1120 27bd 8b08 bd3d
000000b0: fce9 f33c d51e 233e fe68 063e 660f 273e
000000c0: d4f8 97bc ae25 a23d cb8c 393e 1a9d 52be
000000d0: c879 6fbe 90d3 483c 2aad 4b3c fdeb 923d
000000e0: 7ff2 0c3e 53fb 243e 3943 dbbd 6f76 5a3d
000000f0: be43 8a3d 86d2 0dbc 1ccd f53d 2132 503d
00000100: 85a0 ec3e d679 b13d 55e5 843e 5191 873d
00000110: c6ab 78bd 5f05 643e d708 c4be eef5 173e
00000120: a6ea 4cbe f74a 24be 721f 9ebe c94c a0be
00000130: a143 b0bd cdfd 0ebf a3e1 febc 714e 13be
00000140: c64b 2bbe 4eb4 41be c780 373a e890 32bf
00000150: 187b 253e 49ea 87be a7fe 86bd 7899 9a3e
00000160: 0adb 97be 697e 453e f748 d43d 206a 25be
00000170: 0d57 47bf ff09 8cbd 281e 6e3e 1c10 59bd
00000180: 4c6f 8bbd 376a 72bd d690 c3bc dfe6 b8be
00000190: c8bf 42be 5d72 ecbd 36d1 0bbe d43e ba3c
000001a0: faf3 af3e 3fc5 393e b394 8bbd a22d dfbe
000001b0: 6c3b b5be 993e 5dbe eeaf 5fbe 61cc 7ebe
000001c0: 27e8 033e 8b85 d2be 43cd a4be d560 0bbf
000001d0: 9319 05be 9fa9 763d 5c15 1d3d ed84 39be
000001e0: 96fb 81be 8222 ccbe b4a3 16bb f2e0 903d
000001f0: 21cb 763e 051b 27be cd1d 23be 41fd d3bd
00000200: ef32 26bc 8f90 6c3d d1cf 0dbd 11ca 8e3b
00000210: 93b6 4abd ac50 b9bb e167 87bd 0db6 0c3e
00000220: 6cce 44bd 4d61 97bd 14d9 50bd e557 3abc
00000230: 2a62 b23d dac2 373b 6344 4f3b 09da 8f3d
00000240: bf6d 0dbc 4de3 6f3c 97fb 053d 6c87 d03c
00000250: 15a2 bc3d 07fc d03d 5b64 9abb efe7 4a3c
00000260: 50d2 b1bd 9fe2 cabb 74d9 95bd 0445 34bd
00000270: 766d 073d 565d bc3c 5dc2 b9bc 97d5 93bc
00000280: 43b5 263d 1c0b 03bd 57d8 593d bd17 25bc
00000290: 787e 033e 269f 69bc 96e8 de3d 54a9 6abd
000002a0: 7558 8fbc 5e15 40bb 3e47 6bbc 7c6d cc3c
000002b0: d334 6e3a 4f0b 8c3d 1c0c cb3d 9542 91bd
000002c0: 9ef9 f4bd 2a7a 853d 95f4 1abd 5330 a7bc
000002d0: 86d8 c0bd c483 9abb f688 16bd fb59 3ebd
000002e0: 8165 4d3d 45ae 9b3d 0900 493d 3793 05be
000002f0: 31a5 803d f308 d73d 80ec 6fbd da87 683c
-0.1780051 -0.11430273 0.019424036 0.0033022272 -0.20812403 0.21048391 0.17963424 -0.007366939
0.038346514 -0.009168622 -0.006242314 0.07099668 0.040973973 -0.07888099 -0.07514934 0.033706725
-0.07134083 0.11721471 -0.04373218 -0.00054522266 -0.18885538 0.011229227 -0.0346627 0.062035564
-0.18619697 -0.04641367 0.055865068 -0.08226983 -0.00086197467 -0.021256043 0.035056856 -0.09504808
0.12365469 -0.0070969285 -0.15502608 0.0200157 0.011896343 -0.013973112 -0.19167627 0.07829491
0.11314658 -0.08274285 -0.040802065 0.09230145 0.029774658 0.1592973 0.13125989 0.16314468
-0.018551268 0.07917343 0.18120115 -0.20567742 -0.233863 0.012257472 0.012431422 0.071739174
0.1376438 0.16111498 -0.10706181 0.053335603 0.06751202 -0.00865615 0.12002012 0.050829057
0.46216217 0.086658165 0.25956216 0.06619514 -0.06071069 0.22267674 -0.38287994 0.14839908
-0.20011386 -0.16044222 -0.30883366 -0.31308582 -0.08606649 -0.5585602 -0.031113451 -0.14385392
-0.16728124 -0.18916437 0.00070000853 -0.6975236 0.16160238 -0.26545933 -0.0659154 0.30195212
-0.296593 0.19286503 0.103654794 -0.16153765 -0.77867204 -0.06837844 0.23253691 -0.05299388
-0.068083376 -0.059183326 -0.023872774 -0.3611364 -0.19018471 -0.115452506 -0.13654026 0.022735037
0.34365827 0.1814165 -0.068154715 -0.43589503 -0.35396898 -0.2160591 -0.21844456 -0.24882652
0.12881528 -0.4111751 -0.32187852 -0.5444463 -0.12998037 0.060220357 0.038350448 -0.18117113
-0.25387257 -0.39870077 -0.0022985758 0.07074155 0.24100925 -0.16318901 -0.15929337 -0.10351039
-0.010143979 0.05775505 -0.034622017 0.0043575843 -0.049490523 -0.005655369 -0.0661161 0.13741322
-0.04804842 -0.073916055 -0.05098827 -0.011373495 0.087101296 0.0028039725 0.0031626455 0.07024009
-0.008632123 0.014641595 0.032710638 0.0254552 0.09210602 0.102043204 -0.0047116703 0.012384399
-0.08682692 -0.006191566 -0.073168665 -0.04401113 0.033063374 0.022993725 -0.022675687 -0.018046184
0.04070021 -0.031993017 0.053184833 -0.01007646 0.12841213 -0.014259135 0.10884206 -0.05729039
-0.017498234 -0.002930961 -0.014360247 0.02495455 0.0009086851 0.068380944 0.09914419 -0.07092778
-0.11961673 0.065174416 -0.037830908 -0.020408785 -0.094162986 -0.0047154147 -0.03675171 -0.04647253
0.05014563 0.07601599 0.0490723 -0.1304444 0.06281508 0.10499754 -0.058575153 0.014192546

gru.bias_hh_l0 f4 [192]
00000000: ed1e 2cbe 1f00 66bd 24e7 02be a6bd 08be
00000010: c9cb 16bd 2cff f83b eb2e 753d 384b 573c
00000020: 1ef8 36bd 3095 42be 3139 5ebc b67a 253e
00000030: d791 f83b 32e4 3abd 40d9 a2bc 2937 243e
00000040: ad84 3dbd 9d49 763d 4d5b d2bd c321 89bd
00000050: 8372 d6bd a576 8a3d 7982 813c 3aa5 f93c
00000060: c4f7 78bd 006e 153d 0703 a9bd 5331 dd3d
00000070: b80e 9abd 5cf9 d33d 91fa ecbd 2066 f2bd
00000080: d60e 803d ce31 7c3c 58ac cbbd 9c96 a33d
00000090: 76c2 aebd 5d38 c13d bfe0 d23c 4fbc bb3d
000000a0: 35eb 86bc 08f0 463d f80e 9b3d 2b30 d73d
000000b0: 5433 c1bc 419b 55bd 51d0 b53d 2b28 be3d
000000c0: 32c7 01bc 9729 2e3e f139 233d a048 273c
000000d0: e7eb f3bd 756a dc3c d66b e4bd 2cdb 2abd
000000e0: eac3 183e a1ce 363e d390 a3ba 021f f23d
000000f0: 2836 10bb a88a 1dbd c752 cebd 63d2 3fbd
00000100: 0dc0 1e3f 6de3 22bc 7aeb 893e f319 5e3d
00000110: 7fd7 263e c594 743e 4e07 babe 44bc 3d3e
00000120: 9390 debd 8503 87be 381b 8cbe d9c5 8bbe
00000130: 1ce3 1cbe e5b4 1fbf 905e 0dbe 1520 00bd
00000140: 04c5 86be 3994 50bd c4db bd3d 75ae 3abf
00000150: c3e3 0e3e 89a6 69be 842f d9bd 6fa9 133e
00000160: 7249 94be 6c08 453e cc0a c93c 2fbb 05bd
00000170: 8981 1bbf e4d9 46be f543 443e 6a9f 4ebe
00000180: 2295 08be b414 9d3c f669 dbbd 685d bbbe
00000190: 0cf7 96be ecfa 62bd 0d0d 94be 6274 0b3e
000001a0: 8ef4 363e 5351 3a3e 0ddc 0fbd 328d acbe
000001b0: d316 c1be b047 97be 104a c3bd 6458 64be
000001c0: 8fa7 ffbc 73ff d5be 5008 5bbe 08cc c3be
000001d0: 6519 943d c5cb abbd 8b4c bdbc 32b2 dfbd
000001e0: 11fa 58be 1f9b a9be d8b9 eebc bc6d 053e
000001f0: b702 8c3e 030a 1bbc 42e4 7fbe 03ff 2bbd
00000200: cece 933d 6d1e 7ebd fd50 0e3d 1d1e 893d
00000210: 2a27 0abd b334 3e3e 2562 063e bef7 45bd
00000220: ef34 4e3c f430 86bd e8af 4dbd b1b9 1abd
00000230: 18eb b5bd d4f1 a53c f399 8a3c 4972 bb3c
00000240: e8e5 023e 803a de3d d5da 543d 414e d1bc
00000250: 99bf b73d 66f6 11bd 234d 5ebc b712 56bc
00000260: 0c76 48bd c286 64bd 21c0 393e 1f52 de3c
00000270: 6f3e 78bd 759c 95bd b4d1 623c 6a68 b5bd
00000280: 1f9b 003c 8b7b 643c 0a81 c6bd a872 2e3e
00000290: 641f 123d 0e1f 85bd d84e cfbc 6ee2 803b
000002a0: cac2 ccbc 1095 bd3d 9708 4e3d 32aa afbb
000002b0: cd37 07bd e22c 0dbe 86b0 8cbd 0d8d 8abc
000002c0: 2a4a b23d a3d9 c5bd 86f3 d63d 67ec ba3b
000002d0: 6568 a03d 2139 343d 74e6 80bd 25c6 c63d
000002e0: 545a d73a 48ed 2bbd 4cd6 c2bb da3d 9fbc
000002f0: 2f21 923d 1673 f93d 9348 e1bd ae1a 483d
-0.16808672 -0.05615246 -0.12783486 -0.13353595 -0.03681544 0.0075987782 0.059859198 0.013140492
-0.044670217 -0.19002223 -0.01356344 0.16160092 0.007585745 -0.04562778 -0.019878983 0.16036667
-0.046269108 0.060128797 -0.102713205 -0.06695893 -0.1047106 0.06760911 0.015809285 0.030474294
-0.060783163 0.036481857 -0.082525305 0.108004235 -0.07522339 0.10350296 -0.11571229 -0.11835885
0.0625283 0.015392734 -0.09944981 0.07987711 -0.08533184 0.094345786 0.025741933 0.091667764
-0.016469577 0.048568755 0.075712144 0.10507234 -0.023584045 -0.052150015 0.08877624 0.09285005
-0.007921027 0.17008053 0.03985018 0.010210186 -0.11910229 0.026906231 -0.111533806 -0.041712925
0.14918485 0.1785226 -0.0012479074 0.118223205 -0.0022004936 -0.03846231 -0.10074382 -0.0468315
0.62011796 -0.009941918 0.26937467 0.054223966 0.16293143 0.23884876 -0.36333698 0.18528849
-0.10867419 -0.26369873 -0.27364516 -0.27299383 -0.1532101 -0.623854 -0.13805604 -0.031280596
-0.26322186 -0.050922606 0.092704326 -0.7292245 0.13954072 -0.22817434 -0.10604766 0.14420103
-0.28962284 0.19241494 0.024541281 -0.032649215 -0.6074453 -0.19419056 0.19166549 -0.20177999
-0.1333814 0.019174911 -0.1071357 -0.365947 -0.29485357 -0.05541508 -0.28916207 0.13618615
0.17866728 0.18195085 -0.035121966 -0.33701473 -0.37712726 -0.2954688 -0.09535611 -0.22299343
-0.031207828 -0.41796455 -0.2138989 -0.382416 0.07231406 -0.08388475 -0.023107788 -0.1092266
-0.21189143 -0.3312616 -0.029141352 0.13030142 0.2734582 -0.009462836 -0.24989417 -0.041991245
0.07217179 -0.062040735 0.034745205 0.06695197 -0.033728756 0.1857479 0.13123377 -0.04833197
0.012585863 -0.06552306 -0.050216585 -0.037774745 -0.08882731 0.020256914 0.016919112 0.022881644
0.12783015 0.10851002 0.051966507 -0.02555001 0.08972091 -0.035635374 -0.0135681955 -0.013065985
-0.048940703 -0.055792578 0.18139698 0.027138768 -0.060606416 -0.073052324 0.013843942 -0.08857806
0.007849484 0.013945471 -0.09692581 0.17035925 0.035674468 -0.06500064 -0.02530615 0.0039332425
-0.024995226 0.09256947 0.05030116 -0.005360865 -0.0330122 -0.13786653 -0.06869607 -0.016912961
0.08705552 -0.096606515 0.10495667 0.005704451 0.07832412 0.043999795 -0.062939554 0.09705762
0.0016430118 -0.041974336 -0.0059459563 -0.019438673 0.071352355 0.12180154 -0.110001706 0.04885357

gru.weight_ih_l1 f4 [192, 64]
00000000: 6c7a 843d 6ce8 f3bd d010 b63d 1e9b 6a3d
00000010: 701d 80bd de67 e13d 95f1 31be 6214 24bc
00000020: 0e8c 823b ad51 85bd 8b42 21be 5425 6e3d
00000030: 027e abbd 48f2 633d 4ab4 063d 954f abbd
00000040: 1b67 d03d 1287 20be b817 d1bd ba33 4cb9
00000050: 419e 24be f531 143e e19e 8abc 2219 2d3d
00000060: 7e78 3e3e 8343 10bd 6a54 68be 30af e3bd
00000070: 4c93 263b f65e ea3d c59c d4bc e0b2 08bd
00000080: 1a41 f43c d69d 143d 5f2a fdbd c96d 7a3c
00000090: 8dc0 d8bc 0b76 0c3e 60df c03d 58be d43d
000000a0: d9ad 2bbe 27d0 aa3d be5d ca3d 07e2 cebd
000000b0: d1eb 403d 7207 a1bd fdf5 b83d 0fd1 113b
000000c0: 7980 c53d 9acd a13d af72 13be 243e 883d
000000d0: 9f55 a2bd 8f35 d4bd 01dc 90bd 74c2 0e3e
000000e0: c26b 003e 1f8e 73bd f860 133e 5ef3 953c
000000f0: b5ba b23c 5f9b dd3d 38c8 e93d 88ce 4fbe
00000100: aaa6 dc3c 7db0 85bd 4128 afbc 337f 8a3b
00000110: 2bfc 0d3a 10ad bb3b b0bd afbb 802d 3a3c
00000120: 4a1f 6f3d 7416 abbd 9c9d cfbd 78d0 9dbd
00000130: acfb c13d 1e62 1f3e ad6c 70bd 5172 0abd
00000140: 4f1b 403d b4f2 553c 6db3 423d 23fc 16bc
00000150: eb93 b83b fc94 8abd bf1f dd3d b284 e43b
00000160: 657e a5bd 65a7 833d 4b2d 793d 9c5a 323d
00000170: 25a1 94bc 6958 613d 7328 063c 6149 71bd
00000180: 6c01 eb3b 2854 e7bc a810 c5bd a0b9 4abd
00000190: 35bd b7bd cd17 c13c fde0 c6bd d441 923d
000001a0: 08f7 a4bc fdbc d63d c26e 89bd 5398 8dbc
000001b0: 02ab 81bd a1bf 493d 7db3 54bd 060d 48bd
000001c0: 063c 0d3d 329a 7bbd 4bd4 a33d f31a 863d
000001d0: 2779 823d 30a7 16bd 4eb2 073c 3638 e8bd
000001e0: 601e ad3c d9ba 613c e402 f53d cbdf ab3d
000001f0: a8cb 85bd 9bec 0abd 7a6b a03d e7b6 8e3d
00000200: 04a4 a23c a59c c1bd d543 d1bd bf03 c53d
00000210: 9667 f83d a447 61bc 040a 77bd 4dd8 b33d
00000220: 9b0e 1b3e 1fca d83d f8c9 f2bd 3cf2 ec3d
00000230: 626a da3c 2d2b 46bd 3e96 94bd 01de 84bd
00000240: a777 423e 49c2 963d 68c7 b63d a54d afbd
00000250: 1ff6 f03c 6f74 953d e613 bb3d 639d 64bc
00000260: 4f26 043e a2c4 38bd da58 ac3c de50 e5bd
00000270: 5f31 68bc 5db4 66bd fbd1 debd e934 9fbc
00000280: 5ba1 afbc c49d 6a3c 51dc 913d bdb3 d13c
00000290: ed2b a5bd 29c8 623d aead b4bd 7a2c aa3b
000002a0: 4dc0 d3bd 5fcf 003e 4d31 3c3d 4fe1 15be
000002b0: d506 6bbd 53df 62bd 2665 773d 3343 1a3e
000002c0: 802e a13d 3972 c43c 8d83 13be fb20 973d
000002d0: 6a31 6f3c 43bc 923c 7336 953d 03e3 8b3d
000002e0: 4992 f9b9 87a2 a5bc 4adb 453d 8939 af3c
000002f0: 11e8 f53c 5abb 12be 8600 b3bd e0b9 2e3d
00000300: 093b 2a3e 1139 72bd 7fc9 d4bd 6bfd ec3c
00000310: 1769 f9bd 6a93 69bd 4fde 4f3d 8fe3 e83b
00000320: 53a1 62bc e7b4 2abe 896f c7bd 677c 67bd
00000330: 21db ce3c 6973 923c e5c2 04bd 835e 513e
00000340: 200a 36bb 3f81 6c3c 39d2 263e e774 54bd
00000350: 221d 5f3c 8a7a 153e df75 5cbd 7aae 713d
00000360: b89d 583d f9d5 0fbc 21e4 c53d 27a1 263c
00000370: 6e09 cebd 7e60 5bbd 1667 87bd 9e4d 993d
00000380: 96c8 993c 7657 c33c 08d0 d2bd 42c4 403e
00000390: 6800 2a3e 37b3 f23c 7d73 5dbd b685 1dbd
000003a0: 356d f03c fc1e 5abd 6205 833b bf38 53be
000003b0: e3e0 24be d8a7 773d f921 533c 4dba 32bd
000003c0: 04b4 50be 9f73 8ebd 1c63 0b3e ad7e 713d
000003d0: 9381 9ebd c580 97bc bae8 643d c1c6 3e3e
000003e0: de00 993d 9e0c 6b3e d0e2 833d 8c96 98bd
000003f0: 8516 cb3d 167e 0f3d b794 54be 851c 383d
0.064686626 -0.11909565 0.088899255 0.057276838 -0.06255615 0.11006139 -0.17377312 -0.010014625
0.003983981 -0.06509719 -0.1574804 0.058141068 -0.083736435 0.05565098 0.03288678 -0.083647884
0.10175916 -0.15676525 -0.10209602 -0.00019474226 -0.16075994 0.14472182 -0.016921462 0.042260297
0.18600652 -0.035220634 -0.22688451 -0.11117399 0.0025417386 0.114438936 -0.02595366 -0.033373713
0.0298162 0.036283337 -0.12361597 0.015284964 -0.026459003 0.13716905 0.094176054 0.10387868
-0.16765536 0.08340483 0.09881161 -0.10101705 0.047099892 -0.07862748 0.090312935 0.0022249853
0.09643645 0.079005435 -0.14399217 0.066524774 -0.07926487 -0.10361778 -0.070732124 0.13941365
0.12541106 -0.05946171 0.1439246 0.018304523 0.021817544 0.1082065 0.11415142 -0.20293629
0.02693494 -0.06527803 -0.0213815 0.004226589 0.0005416299 0.0057274178 -0.0053631887 0.011363387
0.05837945 -0.08353892 -0.101374835 -0.07705778 0.09471831 0.15564772 -0.05869739 -0.033800427
0.046901044 0.013058353 0.047534395 -0.0092153875 0.0056328676 -0.06766698 0.10797071 0.0069738263
-0.080807485 0.06428412 0.06083421 0.043543443 -0.018143246 0.055015955 0.008188355 -0.05890787
0.0071718004 -0.028238371 -0.096223176 -0.049493432 -0.08971635 0.02357092 -0.09710882 0.07141462
-0.020137325 0.104852654 -0.067105785 -0.017284548 -0.06331445 0.049255017 -0.051928986 -0.048840545
0.03448107 -0.06142635 0.07999476 0.06548109 0.06370764 -0.036780536 0.008282257 -0.113388464
0.021132648 0.013777458 0.11963442 0.083922945 -0.06532985 -0.03391705 0.078329995 0.069684796
0.0198536 -0.09453706 -0.10218016 0.09619855 0.121291324 -0.013749991 -0.060312286 0.087814905
0.1514229 0.105854265 -0.11854929 0.1156964 0.026662055 -0.04838102 -0.07255219 -0.064876564
0.18990956 0.07361276 0.089247525 -0.085597314 0.029414235 0.072975986 0.09134655 -0.01395354
0.12905239 -0.0451094 0.021038461 -0.11197065 -0.014171927 -0.05632435 -0.10879894 -0.01943441
-0.021439245 0.014319841 0.071221 0.025598401 -0.08065019 0.05536667 -0.08822189 0.0051932903
-0.10339413 0.12579106 0.045945454 -0.1463673 -0.057379562 -0.05538876 0.060399197 0.15064697
0.07870197 0.023980247 -0.14405651 0.073793374 0.014599184 0.017912036 0.07285776 0.068304084
-0.00047601972 -0.0202191 0.048304833 0.02138974 0.030017884 -0.14329281 -0.08740334 0.042657733
0.16624083 -0.059136454 -0.10389995 0.028929433 -0.121782474 -0.05702535 0.05074912 0.007107205
-0.013832408 -0.16670571 -0.097380705 -0.056515124 0.025250973 0.017877297 -0.03241243 0.2044621
-0.002777703 0.014435112 0.16291131 -0.0518693 0.013617786 0.14597526 -0.053823348 0.059004284
0.052884787 -0.008779042 0.09662653 0.010170258 -0.10060392 -0.05355882 -0.06611459 0.074855074
0.018772405 0.023845416 -0.10293585 0.18824866 0.16601717 0.029626472 -0.054065216 -0.038457595
0.029348949 -0.053252205 0.0039984444 -0.20627116 -0.16101412 0.060462803 0.012886518 -0.0436347
-0.2038117 -0.06955647 0.13612026 0.058958698 -0.07739558 -0.01849402 0.055886008 0.18630506
0.074708685 0.22954032 0.064397454 -0.074505895 0.09916405 0.035032354 -0.20759855 0.044949073

gru.weight_hh_l1 f4 [192, 64]
00000000: 91d3 63bd d527 debd 6b82 113e cdb8 03be
00000010: 7eb7 853d 02b4 07be 5f38 1e3e ae7b 9cbd
00000020: c84e eb3d 251e e03d f46a 623d 2af3 43bd
00000030: 9852 1dbd 78d7 6e3c 824d 273e c662 47be
00000040: 9f29 093e 0848 6b3d a7ce 1d3e a622 dbbd
00000050: ffd1 d5bd 88fb 25bd 50f4 9f3c 3f65 93bb
00000060: 1ddb 10bd 77f6 2f3e 197b ddbd 1860 09bd
00000070: 2dd6 0ebd da33 8dbd d3ea bdbd 160e 0e3e
00000080: 4fdd 363e 63d1 273d 944f a93b 1535 d93d
00000090: 4805 9abd 87d1 2ebd dfd3 0ebe 8db1 92bc
000000a0: 2ae9 09be 3744 993d 3265 3b3d a67e 5abd
000000b0: 163c fcbd 508c 383e f238 4a3d 2732 a6bd
000000c0: 5415 bc3c ef1f 8cbd b67f 02be 5e27 993d
000000d0: 6611 99bd e8ee 1cbe 0abb c5bc 2898 693d
000000e0: b382 4e3d 6d1f 063e bfd2 673d 5f0f 3b3d
000000f0: 91df 903b 21f5 00be 69bb 903d 02a3 973d
00000100: cf79 2bbe d4c2 21be 1ea5 233d bf9d 10be
00000110: 297f febd 919f a83d 03c6 183d 64cf 733d
00000120: c08f f1bc 0716 ed3c 4a6a cbbc 9c7d cabd
00000130: 64b1 913c 2217 f1bc ce1c 2cbd af75 93bd
00000140: c0d4 d13d c7fb cf3b 77b8 e73d 19fb a7bd
00000150: e87e e5bd b87b 01bc 1c04 ac3d 878c c5bd
00000160: 62ba ef3d 3746 863c ee71 b4bd f8eb c0bd
00000170: 4e8c 2ebd 9717 1bbe 0742 43bd 4e29 3dbd
00000180: a1c1 ffbc d903 1a3e 9f01 fdbc c727 753c
00000190: d934 d1bd 61ea bf3d 6d08 13be cc60 abbd
000001a0: 20d6 6ebd 49d4 ffbc f585 a73d f7ac 123d
000001b0: 36d0 893d 7ccc 843b 1d21 16be 8ef7 16bc
000001c0: ae85 323d dd3b af3b d369 6e3d b828 da3d
000001d0: 6f13 d43d 1d3b 2dbd 38ea e8bc b1d8 d0bd
000001e0: d345 00bb 04be 753d 20f0 e9bd 6ece 71bd
000001f0: 3682 19bd bb78 07bd 01b2 5ebc c299 863c
00000200: 1372 27be 1703 523d d9cf 6b3d f1ff 06bd
00000210: 304b 253d 83c7 563d ed75 063d 7fd7 74bd
00000220: 57b4 ccbd 81db cfbd 7211 01be 6fa6 14be
00000230: 6066 083e 358f 293e 5ed2 0b3e a3a6 08be
00000240: 62e5 aa3d 80b6 88bd 6da8 733e 8e25 3cbe
00000250: ac9b f63c 908c 6dbe 8232 0c3d 6c20 e3bd
00000260: 2286 c9bd b804 243e e949 eebc 060b 323d
00000270: 3f58 9e3d 26bc 02be 877e 71bd 776b 993b
00000280: 7de2 2e3e 9a35 483e 5f7f bd3c c0d1 d4bd
00000290: 292b 363d b258 f93d 4477 66bd fe38 31bd
000002a0: 83e4 9b3d a821 a13d 7f0e f13d dd39 ebbd
000002b0: b996 c63c 8227 213e 3125 20be 87db 53bd
000002c0: 12dc 65be cbde 7a3c a785 71bd d41a 1f3d
000002d0: c85f 333e 5245 01bd 8f30 11bd 4b93 20be
000002e0: 7ddf bd3d 179a 0b3e 9fac 6d3d fb43 fa3d
000002f0: 1476 2cbd a8c1 123d bebb aa3c 6d71 46be
00000300: 3ad7 fb3c b76e 9d3d fb73 a83d 797d da3d
00000310: 03bf fe3d df07 103d 74b7 a73d cabf e13d
00000320: a9c9 883d eb6f a3bc 7446 f4bd 9067 a33c
00000330: 666f 02be 8093 d6bb 9f73 abbd f9ca fcbd
00000340: 5f09 a6bc 85c7 5abd 3ae4 bc3d 99d9 293d
00000350: 817d e0bc 3a22 b93d 537a a33d 880d 9d3d
00000360: 9796 f5bd ad46 99bd b5c5 11bd c9d9 a43d
00000370: 4f83 ccbd f240 e6bd 853a 3a3c df4d 423d
00000380: ed0d e63d a414 1f3d 9ca4 783b b8ac 6cbd
00000390: 0bca 4cbc 5f7a cf3b 1a15 e9bd a509 e5bd
000003a0: 9c13 91bd de32 483c d4b5 b03d e30d 893c
000003b0: ac1f 803d c196 c3bd 4c49 353c 98b6 8abd
000003c0: c235 64bd 1dc2 debd 31e5 ac3d b4dc 99bd
000003d0: 148e d2bc 41c3 133d 107c acbd b59e 803d
000003e0: 8d2c acbd 98c3 013e 1ea4 ff3d 0782 8e3d
000003f0: 572d a13d 4b3d 533d 5fbb 683c 3c4f 703c
-0.055621687 -0.10847441 0.14209907 -0.12863465 0.06529139 -0.13252261 0.15451191 -0.076407775
0.11489636 0.109432496 0.05527778 -0.04783932 -0.038408846 0.014577739 0.1633816 -0.19471273
0.13394783 0.05744174 0.15410863 -0.10699968 -0.10440444 -0.040523082 0.019525677 -0.0044981535
-0.035365213 0.17183863 -0.10814495 -0.033538908 -0.034872223 -0.068946555 -0.09273305 0.13872561
0.1785786 0.04097117 0.005166957 0.10605828 -0.075205386 -0.04268029 -0.1394801 -0.017906928
-0.13467851 0.07483714 0.045750804 -0.053343438 -0.12316148 0.18022275 0.049370714 -0.081150346
0.022959389 -0.06842028 -0.1274403 0.07478212 -0.074740216 -0.1532551 -0.024137039 0.057029873
0.050417613 0.13097925 0.056597468 0.045668956 0.0044211824 -0.1259351 0.07066996 0.07404138
-0.16745685 -0.15796977 0.03995239 -0.14122675 -0.124265976 0.0823356 0.037298214 0.059523955
-0.02948749 0.028941168 -0.024830956 -0.09887239 0.017784782 -0.029429976 -0.042019658 -0.07200181
0.10245657 0.006347153 0.11314481 -0.0820219 -0.11205846 -0.007903032 0.08399221 -0.09645944
0.117054716 0.016390903 -0.08810793 -0.094200075 -0.042614274 -0.15145718 -0.04767039 -0.04618197
-0.03122026 0.1504053 -0.030884562 0.014963097 -0.10215158 0.09370876 -0.14358683 -0.08368072
-0.058309674 -0.031229155 0.08179847 0.035809483 0.06729166 0.0040526967 -0.14661069 -0.009214295
0.043584518 0.0053477124 0.05820639 0.10652298 0.10355269 -0.042292703 -0.028431997 -0.101975806
-0.0019572868 0.059995666 -0.11422753 -0.059034757 -0.037477694 -0.033074122 -0.013592244 0.01643074
-0.1635211 0.051272478 0.057571266 -0.03295893 0.040354908 0.052436363 0.032827307 -0.059775826
-0.099953346 -0.10149289 -0.12604311 -0.14516614 0.13320303 0.16558535 0.13654467 -0.13344817
0.083445325 -0.06675434 0.23794718 -0.18373701 0.030103527 -0.23198152 0.034227856 -0.11090168
-0.09840037 0.16017425 -0.029087977 0.043467544 0.07731675 -0.12767085 -0.058958557 0.0046820003
0.17078586 0.19551697 0.023132024 -0.10391569 0.044474754 0.121751204 -0.056266084 -0.043267243
0.076119445 0.078677475 0.11770343 -0.11485646 0.024241792 0.15737727 -0.15639187 -0.05172303
-0.22447231 0.015311907 -0.05896535 0.038843945 0.17517006 -0.03156025 -0.0354467 -0.15681188
0.09271143 0.13633 0.058025952 0.122199975 -0.042104796 0.035829216 0.020841476 -0.19379206
0.030742276 0.07687133 0.082252465 0.10668463 0.12438776 0.035163756 0.08189288 0.11022909
0.066790886 -0.019950828 -0.119275 0.019946843 -0.12737808 -0.006548345 -0.08371662 -0.123434015
-0.02026814 -0.053412933 0.09223218 0.041467283 -0.027403595 0.09039731 0.07982316 0.076685965
-0.11991613 -0.074841835 -0.03558894 0.08049352 -0.099859826 -0.11242856 0.011366491 0.047437545
0.11233125 0.038838044 0.0037939912 -0.057781905 -0.012499343 0.0063317264 -0.11380978 -0.1118348
-0.07083818 0.012219159 0.08628431 0.016730255 0.06256041 -0.095502384 0.011064839 -0.06773108
-0.05571533 -0.10876868 0.08442152 -0.07512799 -0.025702514 0.03607488 -0.084221005 0.06280271
-0.08406935 0.1267227 0.12482475 0.069583945 0.07869976 0.051572125 0.014204829 0.014667328

gru.bias_ih_l1 f4 [192]
00000000: df91 2cbe 3649 41be a428 c0bd a1f9 2a3d
00000010: 1f41 17be 2302 d9bd f0d2 3cbd 2055 ce3c
00000020: f803 3dbd f6a0 a6bd 91c0 a4bb 1197 9dbe
00000030: 4d14 ccbd 932b 983d 8a21 0fbe 839d ecbd
00000040: 51de acbe 8a56 b5bd d37e 56be 65a1 39bb
00000050: 3c96 32be 7cb7 c5be 103e 13be 5b09 12bd
00000060: 5cd7 32be 3020 0dbd c8d0 30be 2585 023e
00000070: 1f01 f3bd e914 a4be ecbf 92bd 3740 16bd
00000080: 95cd 673d dc26 6bbe ead0 dfba 6beb 4e3c
00000090: ae18 5bbd 2fdd a53d 3c46 7dbe cb57 9ebc
000000a0: 4454 2abe 393f 82bd 30ef 8abe af17 a6bd
000000b0: 5dc4 123c a5b2 c0bd 8997 82be 4120 01be
000000c0: 0cd5 32be 862c c23d e851 9d3d 0356 243d
000000d0: e9c0 2dbe ea71 b83d 9e48 a1bd 3e92 de3c
000000e0: 7ea5 9c3d 4207 fbbd e429 353e 4389 98be
000000f0: df0d 08bd 4823 9cba 99c3 e2bc c676 c0bd
00000100: e4db 64be 1306 6bbe f990 d9be 3f21 02be
00000110: 87d2 21bc 31b2 37be eae2 33be a5df 0cbe
00000120: f59a babe b254 7bbe c7cc 43bd 240c bcbe
00000130: b149 c6bd bbe1 743d 3abc 12be aad2 36be
00000140: d055 1bbe d8f3 1ebe 97cc 22be 9062 88be
00000150: abd3 23be f6ab 71be af49 d2bd 7d20 e9bc
00000160: 61b8 b8bc eacc e1bc 4dce 19bd a512 a0be
00000170: 7ed7 c2be a5c3 1abe 1940 3cbe 7490 cfbd
00000180: 0f52 523d cd72 903b c2a5 03be 87a8 08be
00000190: f550 81be 03c4 94bd 767b 98be 2f1e 02be
000001a0: 59f7 4dbd 1cef cbbe c41c 28be 8e2c b0bd
000001b0: 0562 1a3e ed19 86bd 7304 51be 851f 04bd
000001c0: a07b 0a3d 616f 69be 3b3b 77bc 2ebc 03be
000001d0: 5b53 46be 705a 023d 10ea b0be c4e7 2a3e
000001e0: 0033 9bbe cdd8 0bbe 34fb 453c 3e15 7abe
000001f0: 8b3f d9bd 3790 0abe 9f07 8c3c 0a08 c9bd
00000200: 5a0e c63d 469e abbd 0722 8abd 00a6 e73d
00000210: 294f 7a3d 0118 3c3c 99a4 503c 67da 92bc
00000220: bc27 bf3d bab5 23bd e4e5 8fbd f5ed 253d
00000230: e048 9e3c 5513 8e3d 75d6 36bd e219 bc3d
00000240: c52f e3bd ee85 bdbc b992 a5bd 580d 5f3d
00000250: 17d7 d63d 364e a43d 640e eebd 53c2 9fbd
00000260: 7c0a 2d3d 7121 4d3d 24c3 873d e4b4 1fbd
00000270: c896 3cbd de84 f23d 6200 ea3d 2a6d 993c
00000280: e856 b0bd d855 b53d 109a 4a3d e2a5 1dbd
00000290: 8926 66bc 6651 e13b f31d f53d 224f cc3c
000002a0: 3ca6 333d ee8b 803d 56ac 99bd 58ee b9bd
000002b0: cafb 0a3d 80f0 50bd c140 803d 5f02 613d
000002c0: 0786 3fbc 8013 c9bc a867 003e fd6b b43a
000002d0: bc55 a73d 1faa 673d d9d9 f43d 6df9 8a3d
000002e0: ba94 6a3c ffc0 9a3d 62eb a3bd 0839 b0bc
000002f0: bfc3 74bd 243b 90bd 7e90 7d3c 210d 48bd
-0.1685252 -0.18875584 -0.093827516 0.04174197 -0.14770935 -0.10596111 -0.046099603 0.025187075
-0.046146363 -0.081361696 -0.0050278385 -0.30779317 -0.099648096 0.07430186 -0.13977638 -0.115534805
-0.33763364 -0.08854397 -0.20946817 -0.0028324958 -0.17440122 -0.3861655 -0.14379144 -0.035653453
-0.17464966 -0.034454525 -0.17267144 0.12746103 -0.11865448 -0.32047203 -0.071655124 -0.036682334
0.056592543 -0.22964042 -0.0017075811 0.01262937 -0.053490333 0.08098828 -0.24733824 -0.019328972
-0.16633707 -0.06359715 -0.2713561 -0.08109986 0.0089579495 -0.09409074 -0.25506237 -0.1260996
-0.17464083 0.094811484 0.07681638 0.04012109 -0.1696812 0.090061024 -0.07875179 0.027169343
0.07648753 -0.12257244 0.17691761 -0.29792222 -0.033216354 -0.001191237 -0.027681159 -0.09397654
-0.22349507 -0.22951536 -0.42493418 -0.12707995 -0.009876854 -0.17939068 -0.1756703 -0.13757189
-0.36446348 -0.24544027 -0.047802713 -0.36728013 -0.09682024 0.059785586 -0.14329615 -0.178538
-0.15169454 -0.15522707 -0.15898357 -0.26637697 -0.15998714 -0.23600754 -0.1026796 -0.028457874
-0.022548856 -0.027563531 -0.03755026 -0.31264225 -0.38055032 -0.15113695 -0.18383826 -0.10134974
0.05134779 0.0044082166 -0.128562 -0.13345538 -0.25257078 -0.07263949 -0.29781693 -0.12706827
-0.050284717 -0.39830863 -0.16417223 -0.08602248 0.15076454 -0.06547914 -0.20411853 -0.032256622
0.033809304 -0.22796394 -0.015089805 -0.12864754 -0.19367735 0.03182453 -0.34553576 0.16689974
-0.30312347 -0.13656922 0.012083817 -0.24422166 -0.10607823 -0.13531576 0.017093478 -0.098159865
0.09670706 -0.08379798 -0.067447715 0.11310959 0.06111065 0.011480332 0.012734556 -0.017926408
0.093337506 -0.03996823 -0.0702627 0.040510137 0.019321859 0.06937281 -0.044638116 0.09184624
-0.11093096 -0.023135152 -0.08084626 0.054456085 0.10490244 0.0802273 -0.116238385 -0.07800736
0.042246327 0.05008072 0.06629017 -0.03899087 -0.046042234 0.11841749 0.11425854 0.018728811
-0.08610326 0.08854264 0.04946333 -0.038488276 -0.014047273 0.0068761585 0.11968603 0.024940077
0.043859705 0.062766895 -0.075035736 -0.090786636 0.03393153 -0.05101061 0.06262351 0.054933902
-0.011689669 -0.024545431 0.12539542 0.0013765093 0.081706494 0.056558724 0.11955614 0.067858554
0.014317686 0.07556342 -0.0800388 -0.02151157 -0.05975699 -0.0704253 0.015476344 -0.048840646

gru.bias_hh_l1 f4 [192]
00000000: faa4 33be 9027 8cbe 30fd 42be d652 2f3d
00000010: 108e 883c ec34 413d 1255 1cbe a6a5 e4bc
00000020: 1336 39bd dde7 f9bd d38a a03d 8cd1 76be
00000030: a9bd 4b3b a256 db3c a56e 44be 0cb0 89be
00000040: accb a1be 7436 1dbe 1baf d5b9 ee82 f1bd
00000050: 3ab9 41be d229 f1be 40e1 39bd e2d2 e23d
00000060: cf53 7cbe ae59 b1bd b879 1ebe c16b b83d
00000070: b0b9 a0bc cf3c 9cbe 3f33 48bd 14e8 05bd
00000080: 6f90 573e ec3c 80bd 67e7 2c3d edc8 97bd
00000090: d029 c6bd 25f5 36bd 6c33 bfbd 2d79 58bd
000000a0: 2782 1cbe 653e 10be 021c 9bbe 91af a13c
000000b0: 8485 b3bc 1f66 d9bd acc6 5dbe be5c 18be
000000c0: 9e28 683c e16a 81bd c6e5 c23b 674e 5d3d
000000d0: cffb 26be fece 043d 51e6 1dbe f449 f53c
000000e0: b705 153e 5bfb 09bd ed80 1c3e d10f 80be
000000f0: 5594 97bd f8b8 23be 4d31 9d3c 1f8c 15bd
00000100: 3e8b 56be c224 bdbe c467 82be f5c3 ee3c
00000110: 0a4b 03be 722b 1ebe fd47 89bd 5cd2 39b9
00000120: 6d71 a6be f37a 93be 4978 29be f7c9 89be
00000130: 905b c9bd aa28 5c3c 8bc8 46bd c47e 4dbb
00000140: a65e 9abd e75b 2abe 0038 eebd 8a65 7dbe
00000150: b9c5 25be a4b0 a6be 62da 83be aa76 40be
00000160: ce05 16bd 2497 ecbd ef07 48bd 0a4c 4dbe
00000170: 221a 5fbe 3158 5abe ca32 07be 5c02 27be
00000180: 4afc 11bd 7d4c 90bd cef1 44bd 1ec2 8ebd
00000190: e81f d1bd 8ed6 ebbd ff99 84be 2d1e 08be
000001a0: e477 d7bd 8a2a 14bf cdcd 2dbe 3699 e6bd
000001b0: e46a c73d f821 7abd 23fe 18be 392e 5cbd
000001c0: 0d2e d0bd c8f9 acbe cf21 6cbe 6bac 41bd
000001d0: b121 4bbe 489b b13c 2801 68be 6772 0f3e
000001e0: 468a 9dbe 20a0 1dbe be62 b1bc fe04 d5bd
000001f0: 4b85 01be 9c7c 98bc 6f32 d23d e49b 143c
00000200: ffe8 26bd cf92 b03b 0ac2 a0bd e3b3 b93d
00000210: fa71 d6bd f95e 1cbc 02cf 66bd 6f0d 293d
00000220: 655d e5bd 1188 88bd 47e6 0f3e 29be 813d
00000230: 14b5 433d 315b 1cbe 9453 7ebd 96fa cf3d
00000240: a7e3 b5bd a750 85bc 9d4c f8bd 5949 eb3c
00000250: 9776 91bd 6bc1 973d 04bd b2bd 66eb 0abd
00000260: f729 dd3c 5847 0bbe 9f59 d23c 603d 67bd
00000270: 8480 13bc ced7 d8bb 81d1 a93d ce7a dfbd
00000280: 1847 c1bb c5a0 a4bd 7362 d7bd c4fe 8abd
00000290: df06 b43d 477c 8ebc 1477 6ebd 41c7 8bbd
000002a0: 30e6 ec3d 6b8b f3bc 4b16 edbc d06d 243e
000002b0: afdf 453c b6af 943c 71e3 fc3d d377 1cbd
000002c0: 0c33 013e d081 48bd c613 8a3d 9d38 0fbd
000002d0: 89ce ccbd 5966 0abc 5b9b 77bd a617 41bc
000002e0: a47f 8bbc 3f1e 9c3d 5454 143d 46b0 0e3d
000002f0: c746 693d 8f4e f63d a72e 083d 58f2 893d
-0.17543402 -0.27373934 -0.19041896 0.042803608 0.016669303 0.04716961 -0.15266827 -0.027911019
-0.045217585 -0.122024275 0.078389786 -0.24103373 0.0031088388 0.026774708 -0.19182833 -0.26892126
-0.31600702 -0.15352803 -0.0004075699 -0.11792551 -0.18918315 -0.4710222 -0.04538083 0.11075379
-0.24641345 -0.08659683 -0.1547612 0.090049274 -0.019619793 -0.30515143 -0.048876997 -0.03269203
0.21051191 -0.0626162 0.04221287 -0.074113704 -0.09675944 -0.04466738 -0.0933598 -0.052849937
-0.15284024 -0.14086302 -0.30294806 0.019737037 -0.021914251 -0.10615181 -0.21657819 -0.14879128
0.01416984 -0.06319214 0.0059478013 0.05402985 -0.16306995 0.032423966 -0.1541989 0.02994249
0.14552961 -0.033686977 0.15283556 -0.25012067 -0.07401339 -0.15988529 0.019188548 -0.036510583
-0.20951554 -0.36942106 -0.25469792 0.029146174 -0.12821594 -0.1544626 -0.06703184 -0.0001772134
-0.32508412 -0.2880474 -0.16549791 -0.269119 -0.09831917 0.013437429 -0.048531096 -0.0031356076
-0.07537584 -0.1663662 -0.11631775 -0.24745765 -0.16188706 -0.3255664 -0.2575255 -0.18795267
-0.03662663 -0.11552265 -0.04883569 -0.20048538 -0.21787313 -0.21322705 -0.13202968 -0.16309494
-0.035640992 -0.07045839 -0.048082165 -0.06970619 -0.10211164 -0.115155324 -0.2589874 -0.13292761
-0.10520914 -0.5787741 -0.16973038 -0.112596914 0.09737185 -0.06106755 -0.14940695 -0.05375502
-0.101650335 -0.33784318 -0.23059772 -0.04728357 -0.19837071 0.02168049 -0.22656691 0.14008485
-0.30769557 -0.15393114 -0.02165353 -0.10401343 -0.12648503 -0.018614106 0.10263526 0.00907037
-0.040749546 0.0053885947 -0.0784951 0.09067514 -0.10470958 -0.009544128 -0.05634976 0.041272577
-0.11199454 -0.066665776 0.14052688 0.06335098 0.04778011 -0.15269162 -0.062091425 0.10155217
-0.08881312 -0.01627381 -0.12123988 0.028721498 -0.07102697 0.074099384 -0.08727458 -0.0339159
0.02699755 -0.13601434 0.0256775 -0.056455016 -0.0090028085 -0.006617523 0.08291913 -0.10912095
-0.0058983676 -0.08038477 -0.105168246 -0.06786874 0.08790373 -0.017393244 -0.05821903 -0.06825114
0.11567342 -0.029729566 -0.028941294 0.16057515 0.012077256 0.018150192 0.123480685 -0.03820021
0.12617129 -0.048951924 0.06742053 -0.0349661 -0.10000331 -0.008447253 -0.060450893 -0.011785423
-0.017028637 0.076229565 0.036213234 0.034836076 0.056952264 0.120267026 0.033247616 0.067356765

fc.weight f4 [1, 65]
00000000: 265f f63d 39f3 033e 0bf5 5fbd 9f0b c53d
00000010: 4706 423d ad4c d93d fdca 70bd d430 f8bc
00000020: a7b3 4f3d 0022 7a3d 8489 543d cdee d03d
00000030: 1d21 69bd 6b9c 1abd a350 14be 00a6 de3d
00000040: bc11 13be 1ed2 343d 14a3 01be 6582 273d
00000050: d355 d2bd 850a e13d a4bb 0cbe 02a8 9b3d
00000060: 9cdf 59bd a9f4 12be c0c8 67bd 43ad 8cbd
00000070: 68c6 963d 67be 043e daf8 783d 3619 47bc
00000080: b8a0 043b 00a1 efbd bf19 9fbd 5c88 0d3e
00000090: 2236 f53d 88c8 dc3c 24db 8b3d 5c10 f63d
000000a0: 8880 9fbd c127 ecbc 57fb dfbd 4d7f 2b3d
000000b0: 5e83 98ba 694d f83a e46b 0c3e 0a8f d7bd
000000c0: b903 853d a320 4dbd f14b 1a3e 53f8 12bb
000000d0: 193d 6cbd 183f de3c 7490 873d 6281 be3b
000000e0: 9729 88bd 3eba a8bd 774d 1dbd 0f76 ecbd
000000f0: df11 4abd b7e3 463d 841f 1ebd 33af e23d
00000100: 6ff6 aabc
0.12029867 0.12885751 -0.05467705 0.09621357 0.047369268 0.10610328 -0.058787335 -0.03029672
0.05070844 0.06106758 0.051888958 0.10201798 -0.056916345 -0.037746828 -0.14483885 0.10871506
-0.14362234 0.044145696 -0.12659866 0.04089584 -0.10270276 0.109883346 -0.13743454 0.07600404
-0.053191766 -0.14351143 -0.056587934 -0.068689846 0.07362062 0.12963258 0.0607842 -0.012152007
0.0020237397 -0.1170063 -0.077685826 0.13821548 0.11973216 0.02695109 0.06828907 0.12014839
-0.07788187 -0.02882755 -0.10936611 0.04186945 -0.001163583 0.0018943968 0.13713032 -0.105253294
0.06494851 -0.050079953 0.15068032 -0.0022425845 -0.057675455 0.027129695 0.06619349 0.0058137635
-0.06648558 -0.08238648 -0.038403954 -0.115459554 -0.04933345 0.04855701 -0.038604274 0.11068573
-0.020869462
