Cheyi Wu/FinalProject/Garch/GRU-Garch/MSFT/gru_garch_model.pth (torch, 159448 bytes, 9 tensors)

gru.weight_ih_l0 f4 [192, 7]
00000000: 70a4 f03d 3f64 f93d c0c8 03bc 0fa9 d33d
00000010: b94b 81bd 1588 f13c 9c63 0dbd fb8d c23d
00000020: 4ae0 123e 8214 73bd cc16 c23c 586f 1d3c
00000030: 74ce 4a3d 0483 853d e779 413c e503 8fbd
00000040: e854 433d e8b0 09be 107b c0bd 62a0 ab3d
00000050: b089 e7bd 0fb7 6dbd 342c c2bd ce47 1b3d
00000060: 6a9e 11be e401 92bd 16cb e33d 4507 f7bd
00000070: 2c8a d93d 54c9 4dbd 14a0 553e 6184 a5be
00000080: 94fd 513d c1a0 9ebd 5600 563c e1a5 523c
00000090: 94e3 6ebd e05a bc3c 51d2 6d3d 3f66 73bd
000000a0: b5ca 4e3e 9961 06be 766c 8b3d d5ea d73d
000000b0: 48d3 8a3d 7aa2 17bd a80a ab3d 3717 ce3d
000000c0: e3b2 f43c 7719 09be ebdf 3ebe e6db ddbd
000000d0: d853 b3bc 08e6 8b3d 46b8 763d 2198 9ebc
000000e0: 6330 903d 0bbd 8c3c 935e fd3d 99ce 35be
000000f0: 23aa dc3a aa6e 64bd 5c23 2e3d 46d9 82bd
00000100: d6f7 cfbb daea 82bd f114 323e 3696 9abd
00000110: d7e0 62be 5e68 1abe 1c29 5b3d 09b3 09bd
00000120: 9ce0 5f3d 6b02 85bd 2b73 13be 3a37 c2bd
00000130: 506a 3cbe 468a 8c3c b36d d23b 60d3 9c3d
00000140: c6f0 4dbd a017 00be 039b 96bd 4e3f dabd
00000150: c866 003c e65f d8bd b152 8d3b ecdd adbd
00000160: 0c47 19be e6c3 0b3e f640 88bd ace4 56bd
00000170: c845 623d 4681 9f3d f4c1 cfbd fe42 a7bd
00000180: 2682 133e e411 99bd 1e4b 41bd 846c 0ebe
00000190: dcf9 adbd dd16 f03c d717 9fbd b23c 303b
000001a0: b18d fdbc 0ec9 adbd 8e40 02be 5467 adbd
000001b0: e968 b1bc 0eb6 bfbd 263e 043e d944 ddbc
000001c0: 5705 ab3d 2e5c 7bbd 9778 f7bc d2ae 82bd
000001d0: c37c 843d 6aae debd e692 9e3c 2e52 a4bd
000001e0: 12fa a63b 2673 2abd 459b 13be 5ad8 5dbd
000001f0: b041 09be 6a35 69bd 1c2e bebc 1f10 9ebd
00000200: 164c 053e d05a 58be a07f f13d 3136 45bd
00000210: 3626 9bbd d393 533d 540b 8bbd ac39 a8bd
00000220: a8eb d1bd 6e7e 2ebe 46ba f33d 6dda 6fbd
00000230: f72d cd3c 572f 08be 9ab8 7a3d 01d3 17be
00000240: db2e 1ebd c2cf 7e3d 6ec1 f13c 686f 003d
00000250: 0dae a83c fb80 3fbe 5ea9 103d 5076 b0bd
00000260: fd59 d63c 316a 5fbe 931a b53d ba87 cfbd
00000270: f4c0 5d3d 4607 2d3d 8f87 1a3d 6d22 46be
00000280: f6ba f23d 2a7c af3d 7326 a93d e4d3 17bd
00000290: e264 57bb b9d8 e23c 6231 6fbd eb5f 343e
000002a0: a1ee 2f3d ed59 59bd fd7d 10bd 8ebf eabd
000002b0: fc66 d13d 703b 17be 87bd 59bd 87b6 61bd
000002c0: 32d2 e5bd 3b30 f03c f1e7 9dbc 9df4 11be
000002d0: 3514 92bc d423 1b3d 928d 9d3d b0a4 bb3b
000002e0: e972 ec3d c5ad 283d e512 d03d ac91 033c
000002f0: 9f93 5a3c 303d 1f3c faf3 eabc 5c2b 14bd
00000300: 9521 1f3e 36e3 123e 105c 75bd 231b 2cbd
00000310: d73c 0c3e f22e d03d 9d25 153e ca70 54bd
00000320: 3829 8abd 1e13 133c 197a 483e 8640 8a3d
00000330: a828 2ebc edfa 96bd 8e01 51be b8f4 15be
00000340: 4fde e03c 115d 503c 3e2c d03d 9e9e b03d
00000350: d98b a8bd 451f 61be 15ac 85bd 29ae 273e
00000360: 5980 6a3d fec3 63bd bf72 9e3c 3c9d 95bd
00000370: cb0e b4bd 71a3 b03d 6523 dbbd e125 87bd
00000380: 9b5a 2dbe 2ae6 123d c5af 453d 5d1d 4f3d
00000390: e3b0 bdbd 93ea 05be 8c7d 1ebe 7802 293e
000003a0: cfc3 0c3e 86c7 3e3e c6bc 253e 3441 8a3d
000003b0: 9cac b43d 224f 4ebc 5f69 07be b98a 11be
000003c0: 112d 023d 6456 06be 4aa0 053c e7f2 dbbd
000003d0: 92a4 45bd a198 c4bd 5854 e7bd abe8 843c
000003e0: 00b5 a8bd 6bd2 d43d 9042 81bc 4c94 19be
000003f0: dc85 13bd 7af6 c9bd 1b56 8cbd caa8 02be
0.11750114 0.121773235 -0.008043468 0.1033498 -0.06313271 0.029483834 -0.034518823 0.09499737
0.14343372 -0.05934573 0.023692511 0.009609066 0.049513295 0.0651913 0.011808849 -0.06983165
0.047688395 -0.1344639 -0.09398472 0.083802 -0.11305559 -0.058035906 -0.09481087 0.037910275
-0.14220586 -0.07129267 0.1112272 -0.120619334 0.10622057 -0.05024083 0.20861846 -0.3232756
0.05126722 -0.07745505 0.0130616035 0.012856931 -0.058322504 0.022992551 0.0580619 -0.05942368
0.20194514 -0.13123168 0.06807797 0.105428375 0.0677858 -0.037020184 0.08351642 0.10063022
0.029870456 -0.1338862 -0.18640105 -0.10832958 -0.021890566 0.06830984 0.06023433 -0.01935965
0.07040479 0.017179986 0.12371554 -0.17754592 0.0016835373 -0.0557696 0.04251419 -0.06389098
-0.006346683 -0.06392451 0.17390801 -0.07548182 -0.22156082 -0.15078875 0.053506 -0.033618007
0.054657564 -0.06494602 -0.14399402 -0.0948319 -0.1839993 0.017155778 0.0064217686 0.07657504
-0.050278448 -0.12509012 -0.07353785 -0.10656606 0.007837005 -0.10565166 0.004312836 -0.08489594
-0.14968508 0.13648948 -0.06653015 -0.052464172 0.05524233 0.07788329 -0.101444155 -0.081670746
0.14405116 -0.074741155 -0.047190778 -0.13908583 -0.084949225 0.029307777 -0.07768219 0.0026891646
-0.030951353 -0.08485614 -0.12719938 -0.08466974 -0.02165647 -0.09360896 0.12914333 -0.027010368
0.08350628 -0.061367206 -0.030208869 -0.063810006 0.06469109 -0.108731106 0.019357156 -0.08023487
0.0050957287 -0.04161372 -0.144147 -0.054161407 -0.13403964 -0.056935705 -0.023215346 -0.077179186
0.13017306 -0.21128392 0.11791921 -0.048147384 -0.075756475 0.051654648 -0.0678927 -0.08214125
-0.10250026 -0.17040417 0.11900763 -0.058557916 0.025046332 -0.13299309 0.061211206 -0.14826585
-0.038618904 0.062209852 0.02951118 0.031356245 0.020590806 -0.18701546 0.03531777 -0.08616316
0.026165957 -0.21817853 0.08842959 -0.1013331 0.054139093 0.042243265 0.037726935 -0.1934907
0.11852066 0.08568604 0.08259287 -0.03706731 -0.0032866527 0.027691232 -0.058396704 0.17614715
0.042952184 -0.053064276 -0.0352764 -0.114623174 0.10224721 -0.14768767 -0.053159263 -0.055105712
-0.11221732 0.029319873 -0.019275637 -0.14253469 -0.017831901 0.037875965 0.07693018 0.0057264194
0.11545355 0.041181345 0.10159854 0.008030336 0.01334086 0.009719178 -0.02868079 -0.036174163
0.15540154 0.14344487 -0.05990225 -0.042018067 0.13695084 0.10165204 0.1456513 -0.051865377
-0.06746143 0.008976726 0.19577827 0.06750588 -0.01062981 -0.07372079 -0.2041075 -0.14644134
0.027449755 0.012717501 0.101646885 0.08624004 -0.08229799 -0.21984585 -0.06526963 0.1637503
0.057251308 -0.055606835 0.019341825 -0.07305381 -0.08791884 0.08624924 -0.1070011 -0.06599022
-0.16929094 0.035864033 0.04826333 0.050565112 -0.09262254 -0.13077764 -0.1547758 0.16504848
0.1374657 0.186308 0.16185293 0.06750718 0.08821985 -0.012592109 -0.1322379 -0.14213075
0.03178126 -0.13118893 0.008155892 -0.10739689 -0.04825265 -0.09599424 -0.11295384 0.016224226
-0.08237648 0.103916965 -0.01577881 -0.14997977 -0.03601633 -0.09861465 -0.06852361 -0.127597

gru.weight_hh_l0 f4 [192, 64]
00000000: 377e 79bd d2c0 ebbd 7ec3 39bd 0619 a83c
00000010: a4d7 e4bc 19f6 7dbd 92e6 38bc f687 29be
00000020: 4e8b e93b 247b 52bb 0bdb 753d 19a7 e73b
00000030: 6017 633c 9082 823d 1c15 073c 16b6 8dbd
00000040: 2c30 cebd d489 e63b d02c 1abe 0717 7c3d
00000050: 7489 803d ff1e 14be 7d5a e7bd c731 b5bd
00000060: 32a5 2d3e c192 a23d 7e54 efbc dc0f 023e
00000070: 9fd3 9dbc e273 2cbe cdb2 173d 21b5 1d3d
00000080: 997b 82bc 60e1 5fbd 2f30 193e 5a25 8b3d
00000090: 109d e43d 726c 13be ca34 133e fd00 d4bd
000000a0: 2a00 d33d d563 003d 3069 1abe 610f 893c
000000b0: 0bf1 07bd e581 02be 0a91 5a3d ca04 b33d
000000c0: 09e1 d03d 5d37 b9bd c7bb 503d 29d6 163c
000000d0: 1e2c b9bc e269 b0bc c82c 77bc 6474 15be
000000e0: 0ff4 13bd 7343 19be 58cc 55bd ec4a 8f3d
000000f0: fe2f 9abd bdc4 84bd 03e4 be3d 2ca1 60bc
00000100: 410a 06be d44e dd3b e454 9bbc 473a 883d
00000110: cbc1 f03c 0125 86bd 5327 11bd 76a5 2dbd
00000120: 6cbd 84bd 46f2 9c3d c9b5 83bc e112 283d
00000130: 87e1 483d 0d59 d53d 07cd afba 4fec c2bd
00000140: 6259 8b3d 71cc dbbd a5a7 17bd f61f cabc
00000150: a4d6 6fbd e5b1 c7bd 798b c93d 3092 8c3d
00000160: 61b0 9e3c b6c2 e83d 1123 03be facb f33c
00000170: 580f 8e3d bc05 a03d f757 afbd 1895 393d
00000180: 3678 d2bd 0ad0 aabc 4634 c1bc 5612 dabd
00000190: e6da 34be 5efb aabd fa30 733d 8a4b 3e3d
000001a0: e484 f6bd 1759 1dbd 8b20 c23c 21ba 02be
000001b0: bad2 753d dfa7 d23d 17eb cf3d a8c2 86bd
000001c0: 13c8 a73d c133 1c3d 8da3 c73d c4c9 98bd
000001d0: 1d55 f3bd 43e3 333d e768 393d 0c3c 4ebd
000001e0: bc7a 80bd 71fe fbbd b81e b83d bb22 9f3c
000001f0: e794 a83d 2860 973c 7c05 173d 49e8 573c
00000200: cfa5 803c 47eb 043e 90eb 07be cba6 b43d
00000210: 95cb bcbd 38d8 ac3d fe55 1c3d 5bcd be3c
00000220: 7e0b 68bd 73e4 463d 81ba 05be c08e d9bd
00000230: 045d bdbc af86 11bd bfb9 753b 6d6b 113e
00000240: 0307 cd3c f9bd cc3d 6f75 e53b 5756 e8bc
00000250: 2cca 9ebc 2a9b eabc 6f6e 04be a856 b5bd
00000260: ef03 23be 0cba 04bc 6e9b dd3d 18b9 953d
00000270: 3c21 cc3d 0445 3fbd b26d c3bc 1921 f8bd
00000280: bc2d ba3d 8594 22be a00b bb3b 41ad 863d
00000290: 37a8 933d 6b61 153c f217 35bd 385d 133e
000002a0: 637a c03c 68d7 e93d 7c93 f83c e608 bf3d
000002b0: 409e 383d 6ef6 123d 290b 623d 14a2 d5bd
000002c0: a664 da3c 3d08 9c3c 70e8 ec3d 5c5d d93d
000002d0: 9a1b 83bc a0fb e5bc 5507 8bbd 980a b83d
000002e0: adec 1dbc 4fcc 6ebd 5cdb fe3d 144a 0f3d
000002f0: ab70 d4bc dac3 1b3d 4604 68bd d3ce c8bd
00000300: ed50 153d 9bc9 ab3c 7a99 cdbd 8622 2abd
00000310: a502 fcbd bae4 283e a8a1 963d dff7 4b3e
00000320: 14b2 f13b 14f8 20bd f156 fb3c a1fb 9a3b
00000330: 2fbd 85bd 1758 58bd 336c febd d2dd 2b3d
00000340: bd54 863d 0e63 d8ba 2060 eb3d 4f12 503d
00000350: 7c18 d73c a446 a4bc 4830 d7bd 9856 3abd
00000360: 6c96 053d ab9d d03c 59fa dc3d 48d8 6cbd
00000370: 7387 963d ad69 89bd 23c2 e5bd e73d 273d
00000380: 7cef 933d 96b3 e7ba 1f72 7bbd 22b2 4b3d
00000390: f420 993b 6140 a5bd b4df 313d e98a 6a3d
000003a0: 052c aebd 6e3d a13d 09d8 563c 9875 01bc
000003b0: a541 97bd e9de 813b 969f 52be c34b 29bd
000003c0: ebfc 55bd f36b 0c3e f473 983c 22d3 ae3b
000003d0: 3245 093d 25ed f43d 45a9 edbd 7a30 233e
000003e0: 9b1e e1bb 8938 01be 8eb5 9b3c 373d 81bd
000003f0: 0009 d9ba ee18 45bd 26d8 17be 1287 663d
-0.060911383 -0.11511387 -0.04535245 0.020519745 -0.027934857 -0.062002275 -0.011285441 -0.16555771
0.007127202 -0.0032116855 0.06002335 0.00706948 0.0138605535 0.06372559 0.008244779 -0.06919496
-0.10067782 0.0070354734 -0.15056157 0.061545398 0.06276217 -0.14464949 -0.11296556 -0.08847385
0.16957548 0.07938147 -0.029215094 0.12701362 -0.019265948 -0.16841081 0.037035752 0.038502816
-0.015928077 -0.054658294 0.14959787 0.067942336 0.1116277 -0.14396837 0.14375606 -0.10351751
0.10302766 0.031345207 -0.15079188 0.016730966 -0.03318886 -0.12744863 0.053360976 0.08741148
0.10199172 -0.09043763 0.05096033 0.009206333 -0.022604045 -0.021534864 -0.01508636 -0.14595181
-0.036121424 -0.14967136 -0.05219683 0.06996712 -0.07528685 -0.06482837 0.093208335 -0.013710301
-0.13089849 0.006753782 -0.018961377 0.066517405 0.029389283 -0.06550027 -0.035437893 -0.042394124
-0.06481442 0.076633975 -0.016077893 0.04103363 0.049043205 0.10417376 -0.0013412543 -0.095177285
0.06804158 -0.107323535 -0.037025113 -0.024673443 -0.058554307 -0.097507276 0.098410554 0.068638206
0.019371213 0.11365263 -0.12806346 0.02976035 0.0693652 0.07813594 -0.085617 0.045308203
-0.10276835 -0.020851154 -0.023584496 -0.106480286 -0.17661628 -0.08348726 0.05937288 0.04645876
-0.120370656 -0.03841504 0.023697158 -0.12766315 0.060015418 0.10285925 0.10152262 -0.065800965
0.08192458 0.038135294 0.09747992 -0.07460359 -0.118814684 0.043917906 0.04526606 -0.050350234
-0.0627341 -0.1230439 0.08990234 0.01942574 0.08231526 0.018478468 0.036870465 0.01317794
0.015704064 0.12980376 -0.13273454 0.08820876 -0.09218518 0.08439678 0.038167946 0.02329128
-0.056651585 0.04855771 -0.13059427 -0.106229305 -0.023115642 -0.035528835 0.0037494747 0.14201136
0.025027758 0.09997172 0.0070025246 -0.028361483 -0.019383512 -0.028638441 -0.12932752 -0.08854419
-0.1591947 -0.008100998 0.108206615 0.073106945 0.099672765 -0.046696678 -0.023856018 -0.12115688
0.090907544 -0.15876968 0.005708173 0.06576014 0.07209819 0.009117465 -0.04421229 0.14391029
0.023495859 0.114180386 0.030343764 0.09327869 0.045072794 0.035879545 0.055186424 -0.104313046
0.026659321 0.019046897 0.115677714 0.1061351 -0.016004372 -0.028074086 -0.06788508 0.089863956
-0.009638947 -0.058300313 0.12444183 0.034982756 -0.02593263 0.038028575 -0.0566447 -0.098050736
0.03645413 0.020970156 -0.10039039 -0.04153683 -0.12305192 0.16493502 0.07355052 0.19918774
0.007375965 -0.039299086 0.030681105 0.0047297035 -0.065302245 -0.052818384 -0.12422981 0.04195959
0.06559131 -0.0016509013 0.11492944 0.05079871 0.026256792 -0.020053215 -0.10507256 -0.04549274
0.032614157 0.025465807 0.107899375 -0.05782345 0.07350054 -0.06709609 -0.11218669 0.04083052
0.072234124 -0.0017677422 -0.06138813 0.049730428 0.004673118 -0.0806892 0.04342623 0.05726138
-0.0850449 0.07873045 0.01311303 -0.007901572 -0.073855676 0.0039633405 -0.2056869 -0.041332018
-0.052243154 0.13713054 0.018609978 0.0053352276 0.033513255 0.11959294 -0.11604551 0.15936461
-0.0068701035 -0.12619223 0.01900747 -0.06310504 -0.0016558468 -0.048119478 -0.14828548 0.056281157

gru.bias_ih_l0 f4 [192]
00000000: 4136 3ebd f21a 07be 61d2 623d 3c88 a2bc
00000010: 8518 83be da02 233e 0237 693d 0e51 a7bd
00000020: 0561 c6bc cd21 7b3d 1845 94bd a06e d23b
00000030: fa33 243d c714 00be 5fba f5bd 8650 48bd
00000040: 0fde ecbd 3e80 b53d eaeb d9bc 80b0 88bd
00000050: 0aff c5bd 7cde 45bc 136b dcbc 2a78 723d
00000060: efe6 21be 67b4 abbd 30e0 753c a87d ccbd
00000070: 2252 a53c cf02 7dbd 7dba 813c 076d d6bd
00000080: 68a0 bc3d 6dd2 35bc c516 17be d8de b9bc
00000090: e1c8 c3bd cc43 b3bd 9bb8 19be 4bb9 9e3d
000000a0: e772 cb3c 4310 b4bd 7d40 0dbc 2ac6 403d
000000b0: e2e2 cc3c 36c4 d73d 68f5 e63c 0190 bf3c
000000c0: 00ba a6bd 482b a83a f7af 423d cd70 0bbe
000000d0: d845 25be 9d4a 4d3d 70f1 043d 6ce4 263c
000000e0: 1190 a73d 5ba0 683d 6247 d7bb 5d42 16bc
000000f0: 7f2e 803c 65c0 5abd 0b36 a43d 2231 783c
00000100: 7fd4 dbbd da45 8a3d 4215 d2bd 4d96 ba3e
00000110: fed4 e1bd abfc 713d cdf7 f8be 8264 ba3d
00000120: 7caa 03be 522b 4bbd 5ddd f7be 2836 30bf
00000130: c902 83bd 0b93 8fbe 2d32 bebd 78f0 87be
00000140: 38e1 af3d 2f34 283e 7deb ca3d d66b f03d
00000150: cbdb 8cbe 2ea1 35bf 576e d1bd f3d2 4bbc
00000160: 4c2d ccbd 02de b1bc af8c 023e 88ba c1be
00000170: 969e 7c3d 31b8 6cbe eb27 7d3e a3bd e7bc
00000180: 96b5 6bbd 1745 9ebd 3edb 7d3b f2d8 1bbf
00000190: bc90 64be cf7a 9cbe 5a4d 3ebd 5f84 f73c
000001a0: ef93 943e 36d0 b63d 8fcc 383c 12bd 9ebe
000001b0: 9f14 77be d0ea 4ebd d51c 96bc ce02 eebe
000001c0: fb44 053e b613 45be 4128 13bf 3518 b8bd
000001d0: dbf8 e8bd e381 933c d878 1f3c 24c7 90be
000001e0: 7b8e 94be 2aaa 41be 804c 263e 75fb 5a3e
000001f0: 6f50 4ebe 24cd efbd 616a bbbc 236f 07bf
00000200: 936d 94bc 8354 0f3d 654f b1bc 469f 1cbd
00000210: 6ff4 dcbc 37a9 49bd b514 7fbd 8626 ce3d
00000220: 71c3 3dbd 12ca 7ebd 1069 8bbc ceab 473d
00000230: 9c67 e13d 4453 bbba ff13 9b3b d30e bf3c
00000240: 2335 23bd 1769 a9bb 96f9 883c 0c2d 263d
00000250: 4bd8 d43d b0c1 a53d c503 ab3c 2cbb a2bc
00000260: 1042 a0bd 6cce ff3c 1209 31bd 1f03 b3bc
00000270: ed82 cc3d 273d 2f3d a958 b4bc 4dd9 643b
00000280: c563 583c a229 c039 d694 953d e9cb 38bd
00000290: b3a8 e63d b4fe 6ebc 6244 d83d 0878 aabc
000002a0: 26d3 463d 524b 10bd 2d46 57bd b640 073d
000002b0: 9b94 883c 6c0b db3d e007 123d b414 85bd
000002c0: eae0 d1bd e14b bc3d 71ce b8bc e469 ebbc
000002d0: 8d6c bcbd 3db4 c2bc 1bf4 01bd 0e53 85bd
000002e0: f42d ba3d 9ad5 263d 86dd ab3c a5c8 92bd
000002f0: f1da b93c fed3 ad3d b372 f5bc 1f4f 823d
-0.04643846 -0.13193873 0.055376414 -0.019840352 -0.25604644 0.15919057 0.056937225 -0.08169757
-0.024216184 0.06131153 -0.07239741 0.006421879 0.04008863 -0.12507926 -0.11998438 -0.048904918
-0.11565792 0.08862351 -0.02660175 -0.0667429 -0.096677855 -0.01207697 -0.026906526 0.05919663
-0.1581075 -0.083840184 0.015007064 -0.099849045 0.020180766 -0.061770257 0.015835995 -0.10470014
0.092102826 -0.011097533 -0.1475478 -0.022689268 -0.09559799 -0.087531656 -0.15011828 0.077501856
0.024835063 -0.08792164 -0.008621332 0.047063984 0.02501053 0.10535471 0.02819319 0.023384096
-0.081409454 0.0012830282 0.047531094 -0.13617249 -0.16139925 0.050119985 0.032456815 0.010186296
0.08181775 0.056793552 -0.006569789 -0.009171096 0.015647171 -0.053406138 0.080181204 0.015148433
-0.1073389 0.067516044 -0.10257961 0.36442795 -0.11026953 0.059078854 -0.48626557 0.091012016
-0.12858003 -0.04960186 -0.48411074 -0.68832636 -0.063970156 -0.28041872 -0.09286914 -0.2655065
0.08587879 0.16426156 0.09908197 0.11739318 -0.2751144 -0.70949066 -0.10226124 -0.012440431
-0.09969577 -0.021712307 0.12748979 -0.37837625 0.061674677 -0.23117138 0.24722259 -0.028288668
-0.05754622 -0.077280216 0.0038735415 -0.6087791 -0.22320837 -0.30562446 -0.046460487 0.030214487
0.29019114 0.08926432 0.011279239 -0.31003624 -0.2412896 -0.050516903 -0.018324295 -0.46486515
0.13014595 -0.192458 -0.574833 -0.08988992 -0.113755904 0.01800627 0.009733401 -0.28276932
-0.29014954 -0.18912569 0.1624012 0.21384986 -0.2014787 -0.11709049 -0.022877874 -0.52903956
-0.018118655 0.034992706 -0.021644304 -0.038237832 -0.026972024 -0.04923364 -0.062275607 0.100659415
-0.046328966 -0.062204428 -0.017017871 0.04874783 0.1100609 -0.0014291783 0.0047326083 0.023322498
-0.039845597 -0.0051699984 0.016720574 0.040570304 0.10392817 0.080935836 0.02087582 -0.019864641
-0.078251004 0.03122636 -0.04322154 -0.021852074 0.099859096 0.04278293 -0.022014933 0.003491956
0.013207381 0.00036652113 0.07303779 -0.04511634 0.112626456 -0.014587093 0.10559918 -0.020809188
0.04854121 -0.03522808 -0.05255716 0.033020698 0.016672423 0.10695538 0.03565204 -0.064980894
-0.10247977 0.0919416 -0.022559376 -0.028737016 -0.09200392 -0.023767585 -0.031726938 -0.06509982
0.09090796 0.04073105 0.020979654 -0.07167176 0.022687407 0.084877 -0.02996192 0.063627474

gru.bias_hh_l0 f4 [192]
00000000: 2896 15bd 941e 97bd a32c bcbd 5470 20be
00000010: eb8a adbd ccf8 32bd ddb0 80bd a1a2 7abd
00000020: f19c dbbd 9bd2 f4bd 7643 a3bd ebb5 c63d
00000030: ea8f db3b 4f0f bcbd 9f88 84bd 403e 9f3d
00000040: 4185 b9bd 512d 013d 2146 afbd 675a 08be
00000050: 1156 4dbc b276 353d b60b c13c e663 e23c
00000060: 1fe9 05bd 11b5 77ba 34b0 fcbd c130 b93d
00000070: 6dec 5dbd 4800 813d e82b 0abe 4115 03be
00000080: 6ec3 fd3c dca5 3a3c a45b bcbd dc41 183d
00000090: 2b74 45be d449 aa3c 24d4 893d 731c ba3d
000000a0: 5697 d6bd e2b9 313d 2df7 dc3d 4c15 753d
000000b0: e539 e8bc 3e47 d9bd 2d21 6abc 1625 40bd
000000c0: b6f4 90bd 43ce bc3d 7c24 c0bd 8041 a33d
000000d0: 7008 3fbd 9ba5 843d dc68 bbbd 317d d3bd
000000e0: f332 bf3d caf6 973d a040 cb3d 1b37 643d
000000f0: bb73 5dbd 476b aabd d3f4 0fbe 27fc a8bd
00000100: d155 4f3d 2742 eebc c1fc bdbd 3075 b43e
00000110: 7d2f e83d fa1c 9a3d 45f6 eebe 93f8 023e
00000120: 4020 18bd 7d86 1cbe 2fd9 e5be a6f2 25bf
00000130: 8742 06be 3101 b1be 589b 4cbe 939a 1cbe
00000140: b0da 24bc aae1 9a3e 23ac 433e 777f af3d
00000150: 7c27 98be af15 2cbf a7cf 11be ae46 2ebe
00000160: dde6 bdbd ea8d b5bc 7626 463d 9079 7fbe
00000170: a87d 6e3e 96c6 b6be be4d 533e 5b53 35be
00000180: d595 fbbd cd43 8d3a f096 a2bd 3614 1dbf
00000190: 99df a7be 107b 7bbe 97dc 4bbe 351d 133e
000001a0: 5c34 003e 55e8 b73d a680 353d 7139 58be
000001b0: b565 87be 160b 05be fe8e d63d ccc8 e0be
000001c0: bac0 f4bc 8507 4cbe 5907 efbe 1fbe 933d
000001d0: 7d53 b53d 1420 01be 24de 53bd 5ce2 57be
000001e0: d41f 7ebe c936 f9bd decf 0a3e 5ffc 8b3e
000001f0: 1b16 2dbe 7f0e 163d 7867 e8bd b85e efbe
00000200: 27e3 1d3d 62ed b8bd df31 423d e983 313d
00000210: 054d febc 9da7 143e 404f ed3d f433 95bd
00000220: 2b9e 933c 3e30 94bd 31a0 27bd a758 e13b
00000230: 2b56 7abd 7f1c ccbb 6afc 583c b472 17bb
00000240: 6899 b33d 5e54 b53d 673e 303d e070 1ebc
00000250: 790d d23d de03 01bd eb5e 1f3c 29a6 3bbd
00000260: d343 21bd 2c6d 0fbd 7f21 293e ede3 3c3d
00000270: 720d bbbc d2f3 79bd 1a9a d13c e70c 98bd
00000280: 9976 7fbc 9b24 e53c 8ab7 86bd 0ec0 083e
00000290: 9d90 4e3d f58c 3abd ccb9 19bd fbdd 313d
000002a0: df34 e43c d594 873d 992d b43c 5de3 1dbd
000002b0: 1590 96bc dfff cebd 15e8 f0bd 2f8c 67bc
000002c0: 86d1 c93d 96f3 8abd 2913 af3d eb2e fc3b
000002d0: 728b 9d3d 01f2 d43c 496d 57bd 637f a03d
000002e0: 4f7a 083d d94d 8dbd ee44 c8bc 8f39 d73c
000002f0: c60d 253d 1e65 eb3d 7a1f b7bd 6517 a83d
-0.036520153 -0.07378879 -0.09188201 -0.1566785 -0.08473762 -0.043694302 -0.06283734 -0.06119025
-0.107232936 -0.11954232 -0.079718515 0.09702667 0.0067005055 -0.091826074 -0.06471371 0.07775545
-0.09058619 0.031537358 -0.08558298 -0.13315736 -0.012532727 0.04430265 0.023565155 0.027635526
-0.032693025 -0.0009449283 -0.123382956 0.09042502 -0.05418055 0.06298882 -0.13493311 -0.12801076
0.030976977 0.011392083 -0.091971666 0.037172183 -0.19282596 0.020787157 0.06729916 0.090874575
-0.10478084 0.043390162 0.107893325 0.059834763 -0.028347919 -0.106092915 -0.014290136 -0.046910368
-0.07077925 0.09219029 -0.09381959 0.079714775 -0.046638906 0.06476899 -0.0915086 -0.10326613
0.0933589 0.07420118 0.099244356 0.055716615 -0.054065447 -0.08321243 -0.14058237 -0.08251219
0.05061895 -0.029084278 -0.092767246 0.35245657 0.11337183 0.07525058 -0.46672264 0.12790136
-0.03714013 -0.15285678 -0.4489226 -0.6482338 -0.13111316 -0.3457122 -0.19981134 -0.1529334
-0.010061905 0.30250293 0.19108634 0.08569234 -0.29717624 -0.67220587 -0.1423937 -0.1701915
-0.09272549 -0.022162396 0.048376523 -0.24948716 0.23290122 -0.35698384 0.20635125 -0.17707579
-0.122844376 0.0010777652 -0.07938945 -0.61358964 -0.3278778 -0.24558663 -0.19908367 0.1436661
0.12519974 0.08979861 0.04431214 -0.21115662 -0.26444784 -0.1299251 0.10476492 -0.43903196
-0.029877055 -0.19924743 -0.46685293 0.07213997 0.08853815 -0.12609893 -0.05172552 -0.21082443
-0.24816829 -0.121686526 0.13555858 0.2734098 -0.16902964 0.03663492 -0.1134786 -0.46751952
0.038546707 -0.09029652 0.047410842 0.04333869 -0.031042585 0.14517064 0.11587381 -0.072853
0.018019756 -0.07235764 -0.040924255 0.0068770233 -0.061117332 -0.006228983 0.013243774 -0.002310914
0.08769494 0.088539824 0.04302826 -0.009670466 0.10256476 -0.03149783 0.00972722 -0.04581276
-0.039371323 -0.035016224 0.16516684 0.046115804 -0.02283356 -0.06102354 0.025586177 -0.07424336
-0.015592241 0.027971556 -0.06577976 0.13354513 0.050430883 -0.045544583 -0.037530705 0.043424588
0.027857242 0.06620184 0.021994399 -0.03854691 -0.01837925 -0.10107397 -0.11763016 -0.0141325435
0.098544165 -0.067847416 0.085485764 0.0076960227 0.07692613 0.025994303 -0.052594457 0.07836797
0.033319768 -0.06899614 -0.02444693 0.026272563 0.04029634 0.11493896 -0.089415506 0.08207587

gru.weight_ih_l1 f4 [192, 64]
00000000: 07e3 9e3c 9648 e3bd bdf2 92bd 16f6 543d
00000010: 9429 21bd 728d 0e3e 8a82 85bd f9cd a43a
00000020: 3109 663d f4fb 0dbb 227d f2bd e4ba 4d3c
00000030: 3781 bcbd bd4a 37bb 2a43 2ebc 847a 95bd
00000040: decf 8b3d be3d 31be 74ea 39be 7ba4 4c3d
00000050: abd1 b8bd 37c2 b23d 8f2c 90bc a6fc d2bb
00000060: b698 363e d634 a1bc 1281 3dbe add4 eabc
00000070: e15c b43d 5eac b63d 8cec 893d 39b1 c2bb
00000080: c987 0ebd a4cf bc3d 155e 8ebd 074c fabc
00000090: 40a1 f1bd a7ec 903d c28b c03d ecec f93d
000000a0: 5f95 d9bd 16c9 883d 2b1e 0a3e 66d2 44bd
000000b0: 2701 773d 205f a8bd 799b 6f3d 067b 213d
000000c0: 949b 223e fd12 b13d 41f0 11be 1b6c 3abc
000000d0: 6d0b 5fbd 5963 0bbe 8029 47bd db12 9b3d
000000e0: 8972 8a3d c01c d7bd fd08 823d a476 373c
000000f0: b117 c83b cc7c c73c 1900 0c3e a2e1 ffbd
00000100: 9774 a23c 9dc2 5abd 018a eabd 4145 843c
00000110: 4102 d43c c208 193d 9749 2b3c b133 e63c
00000120: e8d9 cf3d 9b76 82bb c596 cebd fb9b a6bd
00000130: 5e24 8a3c bf1c d93d e6fb 91bd 27c9 4e3c
00000140: 5c64 e33c 76ee 5e3c 1fec dc3c 8bb5 f03c
00000150: 6c8d 483d a038 11be 269b de3d c69a 2a3c
00000160: c25f d5bd dba6 743d feb9 8e3d 671a d03d
00000170: f037 a13b 8919 553d 9632 423d 0259 30bd
00000180: 0145 073a a4d5 67bc 13a6 adbd 0d04 83bd
00000190: 40fa 1ebe 377c b03b c526 04be 1a26 843d
000001a0: c83b d0bc 7c27 cc3d ac16 4cbd 5337 633d
000001b0: c721 14bd 4bf3 743d 9001 e039 0b5f f0bb
000001c0: ed31 d33d 4823 b6bd 89d0 893d 3267 aebb
000001d0: 25d4 983d 6849 3cbd 33bd eb3b a4d1 02be
000001e0: 6df6 9f3c 5add eabc 4631 8a3d 0bdc c03c
000001f0: 5770 0fbd 4e92 d6bd d393 9d3d 6fd9 da3d
00000200: 2ba0 133c 7754 bdbd 4b15 cabd db04 b43d
00000210: f894 ff3d 21b6 83bd 0bb8 173d aa61 cc3d
00000220: 6d16 0e3e 1245 243e 40c7 a6bd 44af c93d
00000230: 86a5 23bd 02f6 c1bd 1b6d f9bd 4da0 60bd
00000240: 865c e63d fba2 bd3d 4e25 bc3d bcc9 babd
00000250: d9b7 273d 72d0 c73c 3add d03d bad4 6ebd
00000260: 7a82 ef3d 2afd 95bc a208 fd3c c32b bcbd
00000270: 4519 1d3c b110 81bd e25d 98bd 327d 0ebb
00000280: fb92 5fbc b8a3 803d 25f3 ab3d 4b99 fc3b
00000290: 2ace 04be aa03 9d3b 1f9e a1bd 2caa b33a
000002a0: f036 0cbd 135c 933d 8143 2b3d 0b14 aebd
000002b0: 0c7f 22bd a09f 39bd f91d 523d fe50 1d3e
000002c0: 2700 e13d a6e5 b23c ca8b d2bd 885a 823c
000002d0: 9e2b bc3c 0a1f 0ebc a98d 9c3d ad47 413d
000002e0: 4624 f6bc 5e36 a0bd 2021 9e3c f7ce 04bc
000002f0: 82a6 35bc fdf3 43be 87be 9abd db6b e23d
00000300: ad5e af3d 3001 9abd 2196 e4bd b170 5abd
00000310: 0013 17be 28f4 c5bd f6e3 943d e130 023d
00000320: 5985 bbbc d3e7 6dbe 353a a6bd ef34 98bd
00000330: e2b1 923d 7f65 3cbd a37f 24be d67a 243e
00000340: ec7d 2f3c f80c 89bd 7c25 223e 24bb 813d
00000350: cf86 313d 0ebb 653e 4855 3bbd c48b a83b
00000360: 2d7e a43d f4a9 3dba 8bc9 ce3d c6e7 ee3b
00000370: e74b 1c3d 1f4d 75bd bc42 b0bd ad61 ad3d
00000380: e254 02bd 0c48 833d 3d49 a2bd d271 223e
00000390: 8ef0 393e 7621 d33c 85f2 b8bc 9446 0a3d
000003a0: 368e a73d c142 85bd 0558 9dbc 7dda 25be
000003b0: 90d5 24be 18c6 9d3d f07a 30be 8f95 c9bd
000003c0: cf46 98be d41a fc3c 68bb 123e a3e4 0d3d
000003d0: f22f a4bd 45ff 13bd 1867 383d bc12 243e
000003e0: 8b64 903d 7f66 3c3e b561 643d f82f 36bc
000003f0: d568 953d c951 6e3d 162d 45be 9b28 b03d
0.019395364 -0.11097829 -0.07175205 0.0519925 -0.039346293 0.13921145 -0.06519039 0.0012573592
0.05616111 -0.0021665068 -0.118402734 0.012556765 -0.09204333 -0.0027968131 -0.01063613 -0.072987586
0.06826757 -0.17308709 -0.18155843 0.04996155 -0.09024366 0.0872845 -0.017599372 -0.0064388094
0.17831692 -0.019678514 -0.18506268 -0.028665865 0.08806778 0.08919595 0.06734571 -0.0059415367
-0.034797464 0.09219292 -0.069515385 -0.03055383 -0.11798334 0.07076388 0.09401657 0.122033924
-0.106241934 0.06678979 0.1348807 -0.048052214 0.060303833 -0.08221269 0.05849788 0.039423965
0.15879661 0.086462 -0.14251806 -0.011378313 -0.054454256 -0.13612117 -0.04862356 0.07571956
0.06760127 -0.105035305 0.06349371 0.01119772 0.00610634 0.0243515 0.13671912 -0.12494208
0.019830985 -0.053408254 -0.114521034 0.016146304 0.025879981 0.037361868 0.010454557 0.02810082
0.10148984 -0.003981424 -0.10087351 -0.0813522 0.016863044 0.10601186 -0.07128124 0.012621201
0.027757816 0.013606658 0.02696806 0.029383441 0.048962995 -0.14181757 0.10869436 0.010412877
-0.10418655 0.05972944 0.06969069 0.10161286 0.0049199983 0.052026305 0.047411524 -0.043053634
0.00051601237 -0.014150057 -0.08478942 -0.06397257 -0.1552515 0.0053859013 -0.12905414 0.0645258
-0.02541913 0.099684685 -0.04982631 0.055472683 -0.036165025 0.059802335 0.00042725774 -0.0073355488
0.10312257 -0.08893448 0.06729228 -0.0053223604 0.07462338 -0.045968443 0.007194185 -0.12775284
0.019526685 -0.028670002 0.067476794 0.023542425 -0.035019245 -0.10477124 0.07694211 0.106860034
0.009010355 -0.09244626 -0.098673426 0.087899886 0.124795854 -0.06431223 0.03704075 0.099795654
0.13875742 0.16041973 -0.08143473 0.098478824 -0.039952777 -0.094707504 -0.12179013 -0.054840375
0.11248116 0.09259602 0.09186803 -0.09120509 0.040946815 0.024391387 0.101984456 -0.05830834
0.11694808 -0.018309195 0.030887906 -0.091880344 0.009588544 -0.06302012 -0.07439782 -0.0021742103
-0.013645883 0.06281227 0.083959855 0.0077087036 -0.1296927 0.0047916966 -0.07891487 0.0013707331
-0.03423208 0.07195296 0.041812424 -0.08499917 -0.039671943 -0.045318246 0.051298115 0.15362927
0.10986357 0.02183802 -0.10280569 0.01591231 0.022970017 -0.0086743925 0.07644207 0.047187496
-0.030046593 -0.0782287 0.019302905 -0.008105985 -0.011087062 -0.19136043 -0.075558715 0.11055728
0.0856298 -0.07519758 -0.11161447 -0.053330127 -0.14753342 -0.0966571 0.072700426 0.031784896
-0.022890734 -0.23232965 -0.08116571 -0.07431971 0.07162835 -0.04599523 -0.16064315 0.16062483
0.010711174 -0.06691927 0.15834612 0.06334522 0.043341454 0.22434637 -0.045735627 0.0051436145
0.080318786 -0.0007235103 0.10097035 0.007290813 0.038158324 -0.059888 -0.086064786 0.08465896
-0.03181923 0.06410226 -0.07924125 0.15863732 0.1815817 0.025772791 -0.02257658 0.033758715
0.081814215 -0.06506873 -0.01920701 -0.16196628 -0.16097093 0.07703799 -0.17234397 -0.09842979
-0.29741523 0.030774511 0.14329302 0.034641873 -0.08016957 -0.036132116 0.045020193 0.16022772
0.07050427 0.18398474 0.055757243 -0.011119835 0.07295386 0.058183465 -0.1925548 0.08601495

gru.weight_hh_l1 f4 [192, 64]
00000000: b62e 1d3b 7d69 f3bc 41ad c43d e63e e8bd
00000010: 033d 98ba 4106 4bbd 0926 ef3d db42 bcbc
00000020: 3c56 e33d 5a6d 073e 6060 c73d de66 983c
00000030: 756f 50bd f20e caba 03b0 a43d b364 0fbe
00000040: 50a1 5b3d 09ad e83b 3c61 dc3d 0bbd 86bd
00000050: 711b 05be 9696 243d d452 67bd 2686 e33b
00000060: a183 b2bc 3720 b43d 4343 2bbe 5cef 7a3c
00000070: afbb 49bd f9b8 543a 2962 92bd dd80 9e3d
00000080: 0741 f03d 3e97 39bd 7eba f5bc 9a6d 093e
00000090: 4417 17bc d4f8 bfbd 658e b9bd e65e 7f3c
000000a0: eced e7bd 72e6 0f3e 1922 03bd f142 05bb
000000b0: 0850 00be 4330 0c3e 99b8 f73d 5377 0dbe
000000c0: b341 833d 3f59 55bc 4402 84bd 671c 623d
000000d0: 9901 0bbe 575a ecbd 5877 f4bb ff89 703d
000000e0: c1f9 be3d 9789 3e3d cdc8 e83d 2ad2 c4bc
000000f0: 72dc 433d 03ce 7abd 6db7 8c3d 6898 293e
00000100: e24b 0bbe c976 0ebe cd9a c73b b5e0 eebd
00000110: 36fe 08be 96bf d93d f2b4 0abb fcba ea3d
00000120: ddb2 65bc 1b93 d43c 9b43 c5bc 7b40 92bd
00000130: 66a0 6639 7e90 5ebd 57c6 83bd 7574 bfbc
00000140: 0ba7 883d 0206 34bd 01f2 9d3d dc97 7cbd
00000150: 9020 f0bd 9f31 043d debf 373d a8c9 cebd
00000160: ec66 e63d 4dc4 7dbc 351e cebd bba0 5ebd
00000170: c0e3 babd a835 f7bd 3777 23bc feef 98bd
00000180: 78fc 28bd 78a0 043e 32c6 f8bc b185 a53c
00000190: f9ac 93bd fe7f 203c d7fc debd 8146 94bd
000001a0: 8018 60bd e806 baba d184 443d 8acf 853d
000001b0: f83e 5f3d 4686 25bd 6775 fabd 035b c4bc
000001c0: 36ff 683d 78e2 7f3c 3241 b03d eb41 cf3d
000001d0: c4a0 9e3d 7568 f1bc 3aae 65bc 919d d1bd
000001e0: 12c5 153d 0d58 3e3d eb2b 9dbd 95f6 a3bd
000001f0: 123e 73bc 8810 56ba caee d9bc b5d6 403d
00000200: 51bf b8bd 874d c43d 8a57 88bc cf3d 823c
00000210: 9bef 2e3d 1e92 a73d 83f6 84bc 536f 3fbd
00000220: 8ccf afbd 5275 d5bd d8e1 7bbd 9dd5 b5bd
00000230: 7560 9d3d 4962 e83d 7947 ac3d b4a1 42bd
00000240: b69d db3b 8d0c d6bd 8545 1e3e 6e41 0dbe
00000250: 3bc8 cc3a 2ba4 16be 7191 b4bc 55bb d7bd
00000260: 7e06 f3bd e0ba dd3d 04cb 84bd ae83 8f3d
00000270: dd78 9f3d 79f3 57bd 9b0b cb3b 4a26 47bd
00000280: 0b17 f33d da9c 0f3e a17d b33c 42f1 e5bd
00000290: e1e6 bc3d 7512 b03d 02dc 5b3c 0ed6 b1bb
000002a0: c378 ac3d e622 953d 02a5 343d de42 49bd
000002b0: 9112 da3b 4611 003e 4d49 afbd 9b2d b2bd
000002c0: b705 0cbe 22fd 953c b994 013c 5da1 d43c
000002d0: d40e 1a3e 4f36 833c facc 953c 687d f9bd
000002e0: 3fa1 dc3d 325b d13d 74f3 6a3d 1128 973d
000002f0: 1a49 68bd d451 c23d 8341 d03a b711 0bbe
00000300: f0c5 0e3d a65d b73d 8c3a 823d 166e a63d
00000310: 024b 9f3d 1530 363d 9512 c73d 842a a33d
00000320: 23d2 7d3d 9032 1dbd a86e d4bd abb5 543d
00000330: 0644 e1bd 1458 d9bb 9df2 e1bd f6c4 00be
00000340: 3241 29bd d3c7 9bbd 70fe 973d 1946 593c
00000350: 287a b7bb a777 ce3d b32e 8f3d d250 633d
00000360: c487 a1bd 95bc 9cbd 66c6 4dbd 0d33 c03d
00000370: 4544 b73b 7602 ddbd 3184 8f3b dbe4 213d
00000380: 7113 9c3d 228e 143c 98a4 d23c cd83 a5bd
00000390: e1d2 b0bc dd40 7c3d 3ab5 b1bd f9a9 10be
000003a0: 4f37 01bd 4f11 13bd 404a 9b3d 328a 183d
000003b0: 60c2 133e 06e7 abbd dbc5 bd3c d9e9 87bd
000003c0: 55a6 65bd 73be a9bd c0b7 cf3d 2266 b7bd
000003d0: 7e00 46bd cfc3 193d 5609 a9bd 6c4c 843d
000003e0: 1090 b5bd 490a d83d b196 173e 7586 9d3d
000003f0: d3cb 813d 0897 673d ce4d 5f3b 6aea 963c
0.002398414 -0.029713387 0.09603358 -0.11340122 -0.0011614863 -0.04956651 0.116771765 -0.022981098
0.11100432 0.13225308 0.09735179 0.018603738 -0.050887544 -0.0015415831 0.08041384 -0.14003257
0.053620636 0.0071007055 0.107607335 -0.06579026 -0.1299875 0.040182672 -0.056475475 0.006943482
-0.021791281 0.08795207 -0.16724877 0.015315857 -0.049251255 0.0008114721 -0.07147629 0.077394225
0.11731153 -0.04531025 -0.029996153 0.13420716 -0.009221856 -0.09373632 -0.09060363 0.01558659
-0.11324677 0.14052752 -0.03201494 -0.002033409 -0.1253053 0.13690285 0.12095756 -0.1381505
0.064090155 -0.013021766 -0.06445745 0.055202868 -0.13574828 -0.115406685 -0.007460516 0.058725353
0.093249805 0.046517935 0.11366425 -0.024025995 0.047817655 -0.061231624 0.06870923 0.16562045
-0.13603166 -0.139125 0.0060914517 -0.11663953 -0.13378224 0.10632245 -0.002116498 0.11461446
-0.014019695 0.025949052 -0.024080088 -0.07141205 0.00021994262 -0.054337017 -0.06434315 -0.02337096
0.06672486 -0.043951042 0.07712174 -0.061668262 -0.11724961 0.032273885 0.044860713 -0.100970566
0.112500995 -0.015488696 -0.10064355 -0.054352503 -0.09125471 -0.12070781 -0.0099771535 -0.0746765
-0.041256398 0.12951839 -0.030367944 0.02020535 -0.07210726 0.009796141 -0.10888069 -0.0724001
-0.054710865 -0.0014192732 0.047978226 0.065337256 0.05450341 -0.040411256 -0.12229424 -0.023969179
0.056884013 0.015617959 0.08606185 0.10119995 0.07745507 -0.029468754 -0.01401859 -0.102351315
0.036564894 0.04647069 -0.07674392 -0.08006016 -0.014846342 -0.00081659155 -0.026603121 0.04707976
-0.09020866 0.095851 -0.016643304 0.015898613 0.042708974 0.081821665 -0.016230827 -0.046737026
-0.08584508 -0.10422768 -0.06149468 -0.08878634 0.07684413 0.113468714 0.0841207 -0.047517493
0.00670215 -0.104516126 0.15456207 -0.1379449 0.0015623638 -0.14711063 -0.022042008 -0.105337776
-0.11866473 0.10826659 -0.06484035 0.07007538 0.07786725 -0.052722428 0.006196452 -0.0486205
0.118696295 0.14024678 0.02191049 -0.11227657 0.09223724 0.085972704 0.013419153 -0.0054271286
0.08421471 0.07282047 0.044102676 -0.049136035 0.0066550453 0.1250659 -0.08558903 -0.08700105
-0.13674055 0.01830918 0.007908993 0.02595585 0.15044719 0.016017107 0.018286217 -0.121821225
0.10772943 0.10222472 0.05736108 0.07380689 -0.05671034 0.09488264 0.0015888665 -0.13580976
0.034856737 0.08953409 0.06358823 0.08126466 0.077779785 0.04447945 0.09720341 0.079670936
0.06196798 -0.0383783 -0.103726685 0.051931065 -0.109993026 -0.006632814 -0.11032603 -0.12575135
-0.04132194 -0.07606473 0.07421577 0.0132613415 -0.005599279 0.100814156 0.06991329 0.055496998
-0.07887223 -0.07653157 -0.050238036 0.09384737 0.005592855 -0.10791485 0.004379772 0.039524894
0.07620896 0.00906709 0.02571325 -0.0808178 -0.02158493 0.061585296 -0.08677144 -0.1412734
-0.031546887 -0.03590518 0.075825214 0.03724117 0.14429617 -0.083936736 0.023165634 -0.066364
-0.05606683 -0.082882784 0.101424694 -0.08955027 -0.048340313 0.037540253 -0.08253734 0.06459889
-0.08865368 0.10548837 0.14803578 0.07691661 0.063377045 0.05654052 0.0034073475 0.018422324

gru.bias_ih_l1 f4 [192]
00000000: 7bb6 bfbd ea46 a9bd 9110 b6bc 8fc4 403d
00000010: e534 f83c b902 e1bd 1435 ab3d bc74 393b
00000020: 450e 74bd e9bd 8bbd d8fb 77ba b19b 40be
00000030: f3c7 42bd bc9f ad3d b30d aabd e1f1 cc3c
00000040: a429 45be 0b5a 7abd 6add 0cbe f6c2 1c3d
00000050: 0160 0ebe 385c d8bd 1031 f5bd fa99 61bd
00000060: 44d9 41bd cf05 c53c a84f 93bd 3ec2 b73d
00000070: 995e 9abd f2cd efbd 77d3 73bc 1ab6 b8bb
00000080: ef59 21bd 2398 e7bd 97ea 783a e4cf ae3c
00000090: 53b3 413d c242 913d b264 f7bd bf58 cb3c
000000a0: 7175 64bd 7839 a0bd 0995 05be f1dd 5dbd
000000b0: f6d4 0e3e 2b9f b1bd e01b 3abe 2735 7c3c
000000c0: f330 14be 9c00 d43d d898 463d 02ff c33d
000000d0: ebd8 80bd 205a bd3d e410 e3bb cbf6 d43d
000000e0: 624c 5cbc 685b b2bd 5a73 1c3e a088 e8bd
000000f0: a57c 49bc d6df 883d 7a71 623d d691 353b
00000100: 5549 d1be d5c0 8fbe 25ad f3be 59b6 9cbe
00000110: f622 3d3d 034e 31be 614c afbe eb43 b23c
00000120: bbe3 88be 6fd2 bbbe cbfe e2bd 3d62 94be
00000130: 79ed 7ebe 0782 10be 1ec2 b3be 677c babe
00000140: 7cbd 4cbe 8176 99bc f5ef e0be 6519 93be
00000150: a2b5 a4be 9b03 9abe eb7a 19be 0239 96bd
00000160: 3577 6cbd 6727 19be 1bf4 02be 2598 8fbe
00000170: 6a8d 14bf f951 90be 493c c0be 5fd3 c1bd
00000180: b388 d03d 3e3d 613d a706 93be 8802 6cbe
00000190: 0cd8 a7be 297e 1c3e 01bd eabe 571f 9ebe
000001a0: cf61 633c b3d2 7b3d 6731 22be c79f 23be
000001b0: 21d2 da3d 4b03 cc3d 1a87 b2be 1bb3 69bd
000001c0: 9baa 423e e360 c5be 3ee6 71be 524d f5bd
000001d0: 629d c5be ca2e 87bd fce6 e4be 8944 25be
000001e0: be70 aabe cf22 f1bd ffd0 953d 4217 e9be
000001f0: 54d0 9dbe bf92 4dbe 68dc eabc bde0 27be
00000200: 7762 b43d 4aa5 cdbd 9e23 6fbd 18a0 d93d
00000210: 2948 b43d f7b6 0f3a e64f 0b3d e53a 70bc
00000220: d95b a83d e99b 3fbd ae12 66bd bd82 fa3c
00000230: 5c5a 343b 0038 973d cd8b 29bd adf3 a53d
00000240: c029 d6bd f2e4 c4bd 4e50 83bd 4140 423d
00000250: 6a1c ee3d fecc 5e3d 30df cebd 158a b2bd
00000260: 75c7 953c ad16 773d 9298 a53d b14c 9bbd
00000270: 5a10 c8bc 9c93 d13d 40e3 c83d bea9 3f3c
00000280: 1f27 8abd 8dc2 d43d 6bca 4f3d edcf 46bd
00000290: 6002 efbc 4a5b 833b eb7a d73d f139 433c
000002a0: cf6b 5d3d c7df 3b3d 95a0 82bd 4c40 bfbd
000002b0: 6edf 513d fdf7 63bd 654f 553d de69 883d
000002c0: c3db 50bc 8a47 4bbd 83ad f33d 0f76 30bc
000002d0: dc18 983d 590e 9d3d 8c16 ec3d 1443 873d
000002e0: fc19 1abb 1875 a23d f740 a1bd 36b9 ccb9
000002f0: 1d40 bdbd 66d7 97bd 1186 783c 16b3 75bd
-0.09360977 -0.08265479 -0.022224696 0.047062453 0.03029866 -0.109868474 0.08359733 0.002829834
-0.05958392 -0.06823332 -0.000945983 -0.18809392 -0.047553968 0.084777325 -0.08303394 0.02501768
-0.19254166 -0.061121028 -0.13756338 0.038271867 -0.1390381 -0.10564464 -0.119722486 -0.055078484
-0.04732634 0.024050621 -0.071929276 0.08972596 -0.07537574 -0.11709203 -0.01488196 -0.0056369426
-0.039392408 -0.11308315 0.0009495406 0.021339364 0.047290158 0.07092811 -0.12079753 0.02482259
-0.055776063 -0.07823461 -0.13045134 -0.054166738 0.13948426 -0.08672937 -0.18174696 0.015393532
-0.14471798 0.10351679 0.048485607 0.09570123 -0.06291374 0.092457056 -0.0069295038 0.103986345
-0.013445945 -0.087088406 0.15278378 -0.11354184 -0.012297784 0.06683318 0.055284 0.0027705333
-0.4087626 -0.28076807 -0.47593036 -0.3060787 0.04617592 -0.17314915 -0.3423796 0.021760901
-0.26736245 -0.36683986 -0.11083754 -0.289812 -0.24895276 -0.14112101 -0.35109037 -0.36423036
-0.19994158 -0.018733265 -0.43933073 -0.28730312 -0.32169825 -0.30080876 -0.14988296 -0.07335092
-0.057730872 -0.14956437 -0.12788431 -0.28045765 -0.5802828 -0.2818754 -0.37545994 -0.09464144
0.10182323 0.054990046 -0.28716013 -0.2304784 -0.32782018 0.15282501 -0.45847324 -0.30883285
0.0138783 0.061480235 -0.15839158 -0.15978919 0.1068461 0.099615656 -0.348687 -0.057055574
0.19010393 -0.3855048 -0.23622987 -0.11977638 -0.38596636 -0.06600721 -0.44707477 -0.16139425
-0.3328914 -0.11774217 0.073152535 -0.45525557 -0.30823004 -0.2007551 -0.028669551 -0.16394325
0.08807843 -0.10041292 -0.058383577 0.106262386 0.08802826 0.0005482281 0.034011744 -0.014662479
0.082206436 -0.046779547 -0.056170158 0.030579919 0.0027519679 0.07383728 -0.04139309 0.08103118
-0.10457182 -0.0961398 -0.06411801 0.04742456 0.11626513 0.054394715 -0.101011634 -0.08717743
0.018283585 0.06032436 0.08085741 -0.07582987 -0.02442186 0.102332324 0.098089695 0.011698185
-0.06745743 0.1038867 0.05073015 -0.048538137 -0.029175937 0.0040086852 0.105214916 0.01191567
0.054057892 0.045867708 -0.06378285 -0.093384355 0.05123847 -0.055656422 0.05207767 0.066608176
-0.012747708 -0.04962877 0.11898329 -0.010770335 0.074266165 0.07668752 0.11527738 0.06604591
-0.0023514023 0.0793249 -0.07873719 -0.00039047905 -0.09240744 -0.07414131 0.015168683 -0.059985243

gru.bias_hh_l1 f4 [192]
00000000: b9dc cdbd 7ba9 2bbe c655 f3bd c51d 453d
00000010: 8b59 473e db33 313d 7a2e bcbc 1ae6 4dbd
00000020: 8340 70bd b804 dfbd efe6 a83d 087e f8bd
00000030: f91c 623d 4293 183d f553 0abe 1673 03be
00000040: 4604 2fbe bf21 01be cc6c 923d 7f54 9dbd
00000050: 0383 1dbe c812 43be f195 aebc cf0a bb3d
00000060: 71e5 f3bd 6820 e6bc ef42 5dbd 7547 563d
00000070: 77d0 c13c 8b6d d0bd 595f 013c e9d3 d7ba
00000080: 198d ea3d 69f1 5c3d 89c9 373d 5bf2 85bd
00000090: 3cc3 833b bb29 60bd f4e8 073d cf83 0ebc
000000a0: d82c 2dbd 683b 1fbe 9dee 25be 5129 3f3d
000000b0: fd6f de3d b152 cabd 6bb3 12be 1d26 efbb
000000c0: 8d9a 343d 722d 5fbd 815c b7bc 397b e03d
000000d0: 3f9d 66bd 659f 0e3d 14b5 a8bd b3a4 da3d
000000e0: 9bb8 633d 5686 eb3a 55ca 033e b1a2 86bd
000000f0: f779 59bd 4421 bcbd d935 d13d 0cbb 763d
00000100: 0821 cabe a062 d7be f383 9cbe ca72 19be
00000110: 69ca 93bd 41c7 17be 025a 6fbe a5f9 223e
00000120: 5474 69be 00a3 d1be 8404 6abe 1c40 44be
00000130: 313b 80be e1f7 3fbe 043d 83be 735c 41be
00000140: 362e fdbd 1bb8 f4bc a617 cbbe 8b69 89be
00000150: aeae a5be 45de c7be 7705 9cbe 296f 6ebe
00000160: 4910 93bd 7639 73be 8a82 0ebe fd56 2cbe
00000170: a0d0 d5be 421c b0be 93b5 a5be d323 20be
00000180: 260c 733c e8d4 a2bc 20a4 53be 37bb 2abe
00000190: 269e 35be c7e9 e13d 80db d6be 4b1f a1be
000001a0: 1320 28bd f8ae f3bd 76e2 27be 13d6 3ebe
000001b0: 22f2 5a3d 3d0c d53d ee83 96be 02e1 a0bd
000001c0: 3fd2 5f3d 46a3 fdbe 074a e7be 2c56 1dbd
000001d0: 8804 c8be 27f5 9bbd 93fd a7be d5b9 40be
000001e0: 04c8 acbe b358 0abe 3772 213d d94d a1be
000001f0: 0943 a8be 4a24 acbd 28f3 683d b14c 68bd
00000200: aa2d 93bd 54e4 87bc 3b7a 32bd fe86 5f3d
00000210: 75b4 7ebd 4dd2 20bd 77f5 93bd f51c 8e3d
00000220: a7b8 0cbe 57b7 aebd 62b1 d03d c15a 313d
00000230: 5f27 f63c ac45 0dbe 0936 fabc 2e6d 953d
00000240: f975 83bd 25fd 45bd 6a6b bbbd aa7c 243c
00000250: eec9 7ebc f665 493d 8959 98bd 6ed1 83bd
00000260: daee 1bba a629 bbbd 8582 583d 15cb 89bd
00000270: f788 f3bc 3d40 c8bc c074 813d c385 adbd
00000280: cf30 863c ec51 9abd 0dbc a8bd 1cc0 cabd
00000290: d802 593d adb2 13bd 0c3f bfbd eeb2 c0bd
000002a0: 90cb c33d 0074 70bc 4777 7bbc a97f 0f3e
000002b0: 5e77 7b3d aaf0 0cba 07b8 c53d f995 96bc
000002c0: 959d da3d 9c8a 52bd 11da 213d d078 26bd
000002d0: 80cc cdbd 5d89 b5bc 17f3 a4bd 0893 3ebd
000002e0: 7c8e feba bc30 ca3d bd50 673d ab7a 8e3d
000002f0: e49d 813d 2735 ee3d 2385 e23c dfce 293d
-0.10051865 -0.1676387 -0.11881594 0.048124094 0.19467752 0.043262344 -0.02297138 -0.05026827
-0.058655273 -0.10889572 0.08247172 -0.121334136 0.05520341 0.03724981 -0.1350859 -0.1283687
-0.17091474 -0.1261053 0.071496576 -0.07682132 -0.15382008 -0.19050133 -0.021311732 0.09132921
-0.11908997 -0.028091624 -0.05401891 0.05231424 0.023658974 -0.10177144 0.007896268 -0.0016466352
0.114526935 0.053941164 0.044869933 -0.06540366 0.0040210765 -0.054727297 0.033181146 -0.008698418
-0.042279094 -0.15550005 -0.16204305 0.04667026 0.10861204 -0.098790534 -0.14326255 -0.0072982446
0.044092704 -0.0544867 -0.022382976 0.10961003 -0.056302305 0.03481998 -0.08237663 0.10675945
0.055595975 0.0017969112 0.12870152 -0.06574 -0.05309483 -0.091860324 0.10215349 0.060236976
-0.39478326 -0.42067432 -0.3056942 -0.14985195 -0.07216341 -0.14822103 -0.23374179 0.15915544
-0.22798282 -0.40944672 -0.22853285 -0.19165081 -0.2504516 -0.18746902 -0.2563249 -0.18882923
-0.1236233 -0.029872945 -0.3966648 -0.26838335 -0.32359833 -0.39036766 -0.3047292 -0.23284592
-0.071808405 -0.23752388 -0.13916984 -0.16830058 -0.4176073 -0.3439656 -0.32365093 -0.15638666
0.014834439 -0.019876912 -0.20668077 -0.1667298 -0.1773611 0.110309176 -0.4196434 -0.31469187
-0.041046213 -0.11898607 -0.16394982 -0.1863635 0.053453572 0.10402725 -0.2939753 -0.07855417
0.054643866 -0.4953863 -0.45173666 -0.038412258 -0.39065957 -0.076151185 -0.3281065 -0.1882089
-0.3374635 -0.13510399 0.039415564 -0.31504706 -0.32863644 -0.08405359 0.056872517 -0.056713764
-0.07186444 -0.016588368 -0.0435736 0.054572098 -0.062183816 -0.03926306 -0.07224553 0.06939117
-0.13742314 -0.08531063 0.10190083 0.04329944 0.03004807 -0.13796109 -0.030543344 0.07296215
-0.06418986 -0.04833712 -0.09151347 0.010039488 -0.0155510735 0.049169503 -0.074389525 -0.0643643
-0.00059483724 -0.09138803 0.052858848 -0.06728188 -0.029728396 -0.024444694 0.063210964 -0.08472779
0.016380696 -0.075351566 -0.08238993 -0.09899923 0.052981228 -0.03605907 -0.09338197 -0.09409128
0.09560311 -0.014676094 -0.015348262 0.14013542 0.061393134 -0.0005376438 0.09654241 -0.01838206
0.10674588 -0.05140172 0.039514605 -0.04064256 -0.10048771 -0.022160226 -0.08054178 -0.04652694
-0.0019421126 0.098725766 0.056473482 0.06956991 0.06328943 0.11631232 0.027651375 0.041457053

fc.weight f4 [1, 65]
00000000: ae8e f43d 5ac5 f73d 9709 58bd 6927 cb3d
00000010: c8ee 2e3d 61d7 d33d db81 63bd 3b34 febc
00000020: a567 2b3d 3dff 863d 6448 243d d392 c43d
00000030: fa77 5ebd bac5 1abd 001a 11be 3251 dd3d
00000040: e0b9 0ebe 0ae2 9a3c 130a f2bd 6c06 263d
00000050: f29e cebd 4dd0 c93d e3bd 09be aa62 6d3d
00000060: f7e2 2bbd c103 0bbe 3320 6abd c7dc 91bd
00000070: f1ae 8c3d 695c 003e 0a1c 623d 4f4b 9cbc
00000080: 6b7b ffbb e0d8 c9bd 6453 96bd 2749 113e
00000090: 5aed 013e 690e 1f3d b830 6f3d ce4e ef3d
000000a0: 58c2 8ebd 2c3b 0fbd ecf2 d1bd e353 d63c
000000b0: 645e 46bc da1e b3bc 25cd 063e d6a3 dbbd
000000c0: e182 2f3d d8a2 4ebd 659f 1b3e c7b4 23bc
000000d0: 23a8 1ebd 9f5b ee3c fc9d 803d 75c0 e93b
000000e0: 1800 5bbd 1ab9 92bd ad99 e0bc f9fc e8bd
000000f0: de61 83bd 4245 ed3c 3326 08bd 4e2c d93d
00000100: ad6d 31bd
0.119412765 0.12098189 -0.05274352 0.09919626 0.04270819 0.10343815 -0.05554376 -0.031030765
0.04184689 0.065916516 0.0401081 0.09598317 -0.054313637 -0.037786223 -0.14170074 0.108065024
-0.13938093 0.018906612 -0.11818328 0.040533468 -0.1008891 0.09854183 -0.13451342 0.05795542
-0.041964497 -0.13575651 -0.057159614 -0.07122188 0.06869305 0.12535252 0.05520252 -0.019078879
-0.007796695 -0.09855819 -0.07340124 0.14188062 0.12688199 0.038832102 0.05839607 0.11684953
-0.06970662 -0.03496854 -0.10251412 0.026163047 -0.012107465 -0.021865297 0.13164194 -0.107246086
0.042849425 -0.05044827 0.15197523 -0.009991831 -0.038734566 0.029096423 0.06280133 0.0071335384
-0.053466886 -0.071642116 -0.027417028 -0.11376376 -0.06415151 0.028963689 -0.033239555 0.106041536
-0.043317486
